checkpoint_Actor.pth (torch_old, 80877 bytes, 6 tensors)

fc1.weight f4 [128, 24]
000000 28 6e 39 be bb 96 42 3e 71 24 85 bc f8 a3 6c 3e
       -0.18108428 0.19002812 -0.016252728 0.23109424
000010 f1 a3 22 be 09 ea 92 be 63 43 08 be 1a cc 0f 3e
       -0.15882851 -0.2869418 -0.13306956 0.14042702
000020 22 9e 41 bd f6 e8 e9 3e 60 7d 07 be 38 55 00 3e
       -0.047269948 0.45685548 -0.1323142 0.12532508
000030 e7 8a 1d 3d e4 ec fc be 29 19 10 be 10 ac f9 3d
       0.038462546 -0.49399483 -0.14072098 0.121910214
000040 7e a5 0a be ab 05 bc 3e 7c 32 c6 3d da 4c 05 be
       -0.13539693 0.36723074 0.09677598 -0.13017598
000050 57 06 85 3e 87 4e 63 bf d6 55 b9 3d f9 b1 fe 3b
       0.259814 -0.887917 0.09049575 0.007772681
000060 df 99 7f bd 09 92 a1 3d a2 62 04 bd 18 97 7c 3c
       -0.062402602 0.07889182 -0.032320626 0.015416883
000070 82 93 1c bf 5e 47 99 be 48 55 b5 3c 6c c5 ec bc
       -0.6116258 -0.2993726 0.022135392 -0.028902732
000080 cc 97 84 3d 34 e2 e3 3d 1c 1e 94 bd 75 8b f9 3d
       0.064742655 0.11127129 -0.072323054 0.121848024
000090 7b 23 bd bc 4d f5 6c be 75 d1 50 bc 46 71 ed bb
       -0.023088207 -0.2314045 -0.012745251 -0.0072461693
0000a0 5c 9c bb bd 21 27 e5 3c 16 56 b6 3b ef 42 c6 bd
       -0.091606826 0.02797276 0.0055644615 -0.09680735
0000b0 5f 3c d5 3e 22 3c d2 bc 3e 7b 18 bd 4b 35 ce bd
       0.41647622 -0.02566344 -0.037226908 -0.100687586
0000c0 47 2e 6a be 0c a4 01 bd 05 e9 ea 3d 53 28 9d bc
       -0.22869216 -0.031650588 0.11470226 -0.019184267
0000d0 91 f8 dd 3c 03 1a b3 3e 87 5f 68 bd 91 52 aa bd
       0.027096065 0.34980783 -0.056731727 -0.083165295
0000e0 8b 40 2b be 33 e2 88 3d 5f bc 7d ba ce 56 1b 3d
       -0.1672384 0.06683769 -0.00096792536 0.03792458
0000f0 91 a3 1a 3e 3a 1f 3c be ec 72 10 bc 9f 1b 9d 3d
       0.15101458 -0.18371287 -0.008816462 0.07671284
000100 d3 15 07 be d2 df 87 3d 85 03 c0 bd 4d e9 80 3c
       -0.13191919 0.06634487 -0.09375671 0.015736246
000110 75 c2 32 3e 50 73 4d bf f0 25 2b 3d e7 3c 07 3e
       0.17456992 -0.8025408 0.041784227 0.13206826
000120 96 7d 54 3e 5a 86 fc 3c a3 b9 01 bc de 13 15 be
       0.20751032 0.030825783 -0.007917794 -0.1455836
000130 dc 8e 09 be e9 3e f9 3d 5f ed 42 3d 0e 9e 23 be
       -0.13433403 0.12170202 0.047589656 -0.15978262
000140 3d db b5 3d b8 3f e2 bd e0 b4 48 3e dc bb f9 bd
       0.08879707 -0.1104731 0.19600248 -0.121940345
000150 00 2b 90 bd a2 5b a7 3e cf 52 09 3e e6 d5 3c bd
       -0.070394516 0.32687098 0.13410495 -0.046102427
000160 95 18 a0 3d f7 68 86 be 35 0d 1a 3d 67 3f 5c bd
       0.07817189 -0.26251957 0.03761025 -0.053771403
000170 b8 20 31 3e 98 de 15 3f ca 28 79 bd 09 be 41 bd
       0.17297637 0.58542776 -0.060829915 -0.047300372
000180 3f 16 53 be 17 6c fe bc 14 f5 ff 3d f7 fa 9f bc
       -0.20613955 -0.0310574 0.12497917 -0.019528849
000190 62 d6 a1 bc 71 94 7f 3e d6 c6 23 3e 01 3f 2a 3d
       -0.019755546 0.2495897 0.15993819 0.04156399
0001a0 b0 62 50 be 80 2d f7 bc e9 94 05 bd 2b ff ba 3d
       -0.20350146 -0.030173063 -0.032612715 0.09130701
0001b0 1d 3e 9f 3d 1e bb ee bd c9 e9 75 3d af cc 3c 3e
       0.07775519 -0.116567835 0.060037408 0.18437456
0001c0 5f 09 4a be 50 63 67 3e ae e0 83 bc ad 1a 9a 3e
       -0.19730137 0.22596478 -0.016098347 0.30098477
0001d0 7f 87 d3 3d 25 6f 54 bf dd 92 ef bd f1 15 9c 3e
       0.10328578 -0.82982093 -0.11697934 0.3048549
0001e0 c5 fc 3b 3d 09 1d 91 3e 40 35 87 3c 9e 74 1b be
       0.045895357 0.28342465 0.016504884 -0.15181205
0001f0 cf bc c9 3e ba e6 b2 be d0 4a 83 3d 08 05 3f be
       0.39401862 -0.34941655 0.06410754 -0.18654263
000200 a9 30 20 3d b8 37 71 3e 37 fe 84 bd 51 e2 f9 bd
       0.039108906 0.23556411 -0.064938 -0.122013696
000210 b8 bf 11 3f a2 56 c5 be 32 5a cd bd be ce 6d 3c
       0.56933165 -0.38542658 -0.10026969 0.014514623
000220 0a a7 f0 3d 33 20 56 3e f9 fb 8b 3d 07 1f 8a bd
       0.1175061 0.2091072 0.06835169 -0.06744199
000230 0e 83 d9 3e a8 57 8a bc 5a 62 0a 3d 2d 2a 7a 3b
       0.424828 -0.0168875 0.0337852 0.0038172111
000240 3b 9b 57 3e e9 d7 1e 3e f6 1b d0 bd 53 e2 ff 3d
       0.2105531 0.1551205 -0.10161583 0.1249434
000250 fa 94 7b 3d 1a 17 16 bf 26 d8 6d bd d4 4b d2 3d
       0.061421372 -0.58629 -0.058067463 0.10268369
000260 11 ee 26 3e d3 bc 4c bd 75 68 a0 bd 2a 86 98 3d
       0.16301753 -0.049984764 -0.078324236 0.07447465
000270 46 35 fd bd 1c fd d6 bb 00 71 7c bd 4f 88 07 3d
       -0.12363677 -0.0065609347 -0.061631203 0.03308898
000280 33 cd 24 3e 1b 0d 5a 3c 54 50 c5 bd f3 85 f4 3a
       0.16093902 0.013308789 -0.09634462 0.0018655643
000290 7e 29 8e be 83 ec d9 3e 09 d3 86 bd dd 28 8d bd
       -0.2776603 0.42563257 -0.065832205 -0.0689256
0002a0 bb ec 13 3e 25 21 9a 3c 85 12 aa 3d 78 7e 88 bc
       0.14445774 0.018814633 0.083043136 -0.016661867
0002b0 5e 15 0d 3f 96 68 02 3f 60 22 11 3e c7 8b ec bd
       0.5511073 0.50940835 0.1417327 -0.11550098
0002c0 8a d3 6c 3e 3f 48 59 3d 2f 05 6d 3d f7 1c e7 bd
       0.23127571 0.053047415 0.05786627 -0.112848215
0002d0 5c 7a 8c 3e 00 24 f1 3e c6 61 04 3e e0 f4 31 be
       0.27437103 0.47097778 0.12927923 -0.17378569
0002e0 ed 5c 8b 3d 15 41 53 3e 72 40 81 bd c2 14 a3 3d
       0.068048336 0.20630296 -0.0631112 0.079629436
0002f0 82 86 5d 3e 3f 06 b2 bc 20 95 2f be fa 46 e9 3d
       0.21633342 -0.021731494 -0.1714673 0.11390491
000300 8e 7a a4 bd 68 f9 dd be 0c 1c c1 bd 84 07 ad bd
       -0.08031188 -0.43354344 -0.09429178 -0.08448699
000310 85 0f 61 3d 36 9c f0 be 71 16 14 be 89 49 51 be
       0.05494644 -0.4699418 -0.14461686 -0.20438208
000320 e7 dc e0 bc 90 98 d3 be e8 61 25 bd 53 96 d3 3d
       -0.027449084 -0.41327333 -0.040376574 0.103314064
000330 78 fa 48 3e e2 37 95 be f9 f7 85 bd 81 b3 b8 3d
       0.19626796 -0.29144198 -0.06541438 0.09018613
000340 69 c0 6b bc 08 3f bf be ac c6 8a 3d 88 f5 75 bd
       -0.014389136 -0.37352777 0.06776175 -0.06004861
000350 58 8e 56 3d 96 8e 61 3e a5 e9 81 3d d9 c9 ca 3b
       0.052381843 0.22027048 0.06343392 0.006188613
000360 8e e8 46 3e 5c 67 92 bb bf 6a 9d bd b1 79 6d be
       0.1942465 -0.004467888 -0.07686376 -0.23190953
000370 2f 41 05 3d 2c 26 36 b9 97 b4 dc bd 69 cf 91 be
       0.032532867 -0.00017371093 -0.10776632 -0.28478554
000380 27 69 41 3e ed c6 09 3e 26 9b d0 bc 26 3e 19 3e
       0.18887769 0.1345479 -0.025464606 0.14965114
000390 30 b8 2e 3d f8 f3 18 bd 8b 70 72 bd 9e e6 30 3d
       0.042656124 -0.03734204 -0.05918936 0.043188684
0003a0 76 86 57 3e 4e 75 f7 3d e3 e5 a2 bd 1a 18 aa 3c
       0.21047387 0.12082921 -0.07954004 0.020763446
0003b0 be 42 2f 3e f0 a9 7a bd 5c b5 83 3d 19 db bb 3d
       0.17115304 -0.06119722 0.06431076 0.09172649
0003c0 91 6d c1 3c 93 9a 9c be 0e af 22 be cc b1 b6 bc
       0.023611816 -0.3058668 -0.1588709 -0.022301577
0003d0 c8 eb 40 3e 02 bb a2 3e 98 df e1 bd a1 0d dc bd
       0.18839943 0.317833 -0.11028975 -0.10744787
0003e0 bd 92 2a 3d c7 87 db be b5 2d 1a be 5d 14 21 bd
       0.041643847 -0.42877027 -0.15056498 -0.03932606
0003f0 49 b3 9a 3d 3e b0 20 be 76 f7 01 be 6a 34 0f bd
       0.07553727 -0.15692231 -0.12692055 -0.034962095

fc1.bias f4 [128]
000000 7c aa a0 3e 16 80 91 be 60 92 d7 3d 7f 01 73 bd
       0.3138007 -0.28418034 0.10525966 -0.0593276
000010 0c 2a 99 3e 63 a6 97 3b 97 2c f7 bd 25 b1 4a 3d
       0.29914892 0.004627989 -0.12069052 0.049485344
000020 d2 f4 9e 3c 0b 6f bc 3d f5 72 84 bd 66 12 34 be
       0.019403849 0.09200867 -0.06467239 -0.17585143
000030 b7 d0 00 bd c3 fe 89 be 91 13 5f 3e 33 b2 f9 bc
       -0.031449046 -0.2695218 0.21784808 -0.03048048
000040 63 6c 7b 3a 02 18 00 bc 5f 37 fa bd 90 32 ba 3d
       0.0009591041 -0.007818224 -0.122175924 0.09091675
000050 07 fc 69 be ac 3c ee 3c 00 81 38 be 42 65 87 3d
       -0.22850047 0.029081665 -0.1801796 0.0661111
000060 65 70 69 3e 76 73 53 be ef a2 ff bd 26 29 82 3e
       0.22796781 -0.20649514 -0.12482249 0.2542202
000070 83 cb 1b be 30 c8 8c be c2 ee 92 3c 2f 7a be 3e
       -0.15214352 -0.2749648 0.017936114 0.37202594
000080 f1 b6 67 3e 8c 87 dc 3d e4 76 2e be 75 c4 81 3b
       0.2262838 0.10768041 -0.1703754 0.003960187
000090 36 a3 40 3e bf 04 f2 3d 5f 6a dd 3d 7f f5 73 3d
       0.1881226 0.118173115 0.10811304 0.059560295
0000a0 c1 d0 f2 3b c0 e4 aa 3d a3 0d 64 3e 97 f8 ff 3d
       0.0074101393 0.08344412 0.22270827 0.124985866
0000b0 85 1b 79 be 17 c8 35 be 28 db 4e 3d 7a 3c 4b be
       -0.24326904 -0.1775211 0.050501972 -0.19847289
0000c0 c7 68 91 be 0b fa 35 3e 38 f8 97 be 34 4b 98 3d
       -0.2840025 0.17771165 -0.29681563 0.07436219
0000d0 c0 a7 8e 3e 9e cb b1 bd 59 60 65 bb 73 02 2b be
       0.27862358 -0.08681415 -0.0035000055 -0.16700153
0000e0 b4 34 3e 3c 89 e5 92 3d 23 94 de 3c a0 49 12 be
       0.011609245 0.071726866 0.027170246 -0.14285898
0000f0 7d 20 bf bd 61 0f db 3e 05 ea c9 3d 03 c6 c7 bd
       -0.093323685 0.4278517 0.09859089 -0.097545646
000100 a5 8a 4c be e9 07 7b be e8 9a 81 bd 96 93 f1 bd
       -0.19974764 -0.24514736 -0.06328374 -0.11795728
000110 ce a3 fe 3d 2e 67 c6 bd 07 8f a2 3c b0 9f 73 bd
       0.12433587 -0.09687649 0.019843591 -0.05947846
000120 f2 29 71 be bd 90 6f be 87 6f 0b bd cb 96 5c be
       -0.23551157 -0.23395057 -0.034041908 -0.21541898
000130 b1 c2 94 3b 8b 21 1f be 78 e3 8d 3e 1a 8b e8 bd
       0.0045398106 -0.1554014 0.27712607 -0.113546565
000140 20 03 64 bd 2c c5 e0 3d 56 d3 25 3e c7 cb 9c 3e
       -0.055667043 0.109751076 0.161939 0.3062422
000150 8b ad ff 3d 6e 60 ea 3d 96 1e 62 3e c2 74 79 bd
       0.124842726 0.11444174 0.2208198 -0.060902365
000160 0c a5 18 be e5 c0 0b bc d0 86 87 3a c1 c5 93 bc
       -0.1490671 -0.008529876 0.001033986 -0.018038632
000170 52 16 aa be 62 90 09 3e 6e c5 8f 3d fb d2 86 3d
       -0.33220154 0.13433984 0.070200786 0.0658321
000180 90 ff 34 bd 20 ed f1 bd 59 27 ca 3e fc b0 ed bd
       -0.044189036 -0.11812806 0.39483145 -0.11606023
000190 65 f6 3a be 36 43 1d 3e c2 88 83 be 43 5b 3f bd
       -0.18258055 0.1535767 -0.25690275 -0.046717893
0001a0 be 3c 0c be 7d 9a 7f 3e 15 ab a3 3e c3 b9 d9 3d
       -0.13695046 0.24961276 0.31966463 0.10631134
0001b0 37 56 0b bd 7b 37 19 bd ed 6a 8b be 02 46 b3 be
       -0.034017768 -0.037406426 -0.27230015 -0.3501435
0001c0 3b a2 7f 3e ed 05 cf bd 9d a9 84 3d 05 49 8f bc
       0.2496423 -0.10108552 0.06477664 -0.017490873
0001d0 db 54 85 be 96 9a 3a bd 04 d0 69 bd 65 3d 64 3d
       -0.26041302 -0.04555758 -0.057083145 0.055722613
0001e0 a0 3a 46 3e fe 4b b6 bd 22 91 ab 3c 22 6e 3d 3c
       0.19358301 -0.08901213 0.020943228 0.011561902
0001f0 3a 5e a3 be 62 a0 32 3c d3 64 5f 3c 34 e3 0f bc
       -0.31907827 0.010902496 0.013634878 -0.008782197

fc2.weight f4 [128, 128]
000000 1e 67 9c 3d 31 a6 1a bc 1a f5 2f be 2b 6a f5 bd
       0.076368555 -0.009439037 -0.17183343 -0.119831406
000010 57 81 13 3e df a0 e2 be 3f 2d 66 3b 20 00 2d bf
       0.14404808 -0.4426336 0.0035122184 -0.67578316
000020 c3 c8 02 3e 9e 3a 38 3d eb c7 00 bd 9e f1 42 be
       0.12771897 0.044977777 -0.031440657 -0.19037482
000030 4e 4a 6f 3d 26 5a 24 3c ca 27 af 3d a4 fb c6 bd
       0.05842047 0.010031259 0.08552511 -0.097159654
000040 de 43 1d bd 2a 33 be be 18 f6 86 be 78 44 4d 3d
       -0.0383948 -0.3714841 -0.2635963 0.050114125
000050 04 97 ee bd 21 e3 d0 bd 79 18 b0 3c 6d d2 70 3c
       -0.11649898 -0.101995714 0.021496044 0.014698607
000060 1a fd 80 bd 7f 53 89 3d ef 66 00 3e 28 df 43 bd
       -0.06298275 0.06705379 0.12539266 -0.04782024
000070 4f 2b 4e 3d 99 b6 e6 3d 94 f7 35 3d 26 9e a1 3d
       0.05033427 0.112652965 0.044425562 0.078914925
000080 a5 68 0e be 7b 80 fb 3c d9 ed 52 be b4 6d fa bd
       -0.13907106 0.030700913 -0.20598544 -0.122279555
000090 cd a3 25 bb 47 f4 2f be 0b 3a aa bd 7c 29 20 be
       -0.0025274635 -0.17183028 -0.08311852 -0.15640825
0000a0 35 da 47 bd cb 99 a6 3d a1 7e 26 be aa e2 80 bd
       -0.048792083 0.081348024 -0.16259243 -0.06293233
0000b0 bd 3b fb bc fd d8 db bd 17 18 34 be e7 d0 4b be
       -0.030668134 -0.107347466 -0.17587315 -0.19903909
0000c0 45 44 df be 04 c6 cd bd b9 d8 1c be 4c e2 40 3d
       -0.43606773 -0.10047534 -0.15317048 0.047090814
0000d0 c8 89 42 be 32 0c 25 3e 0d 66 8d bd 90 b9 89 3e
       -0.18997872 0.16117933 -0.0690423 0.26899385
0000e0 ab 5b 92 3b 1d 5f 86 bd c9 7f cd bd cb 3d 8f bd
       0.004466494 -0.0656111 -0.10034139 -0.06994208
0000f0 5b fb 43 be 76 12 37 3e db 19 fd bd 1c 3a bb be
       -0.19138853 0.17878136 -0.12358447 -0.3656777
000100 f7 9e 09 be be 08 4a be 96 e5 a1 bd 5b d0 33 be
       -0.13439547 -0.19729897 -0.07905118 -0.1755995
000110 21 55 cc bc 06 0f 1f be da 0f 00 3d 66 93 fb bc
       -0.024942936 -0.15533075 0.031265117 -0.030709933
000120 8d 79 31 3d cd 04 29 be 38 5f 05 be 8d e7 3b 3e
       0.04332881 -0.16505738 -0.13024604 0.18350048
000130 39 5d 30 be 3e 65 66 bd 46 4c 91 be 72 6d 38 be
       -0.17223062 -0.056248896 -0.28378505 -0.180105
000140 ff 3c d1 3d a5 fa 72 be 92 f5 5c be 4d 0e 5d bd
       0.10216712 -0.23728426 -0.21578053 -0.053968716
000150 e4 20 c7 bc ac ce 04 3e 91 a1 b7 be 77 d9 66 bb
       -0.024307676 0.12969464 -0.35865453 -0.0035224834
000160 fa 5f 60 be 09 a9 0c 3c 76 35 34 3d 68 6e c4 3d
       -0.21911612 0.008585223 0.043996297 0.09591371
000170 b0 50 b3 bd 91 b1 0c bd 2a 02 36 be b5 49 57 bd
       -0.08755624 -0.034349028 -0.17774263 -0.052560527
000180 a9 2f 97 bd c1 1c 4f 3d da 53 2a be 18 d2 17 3d
       -0.07382137 0.05056453 -0.1663355 0.037065595
000190 f4 fe d9 bc 75 d2 17 3d d7 bf 11 3c 01 5b ad be
       -0.026610829 0.03706594 0.008895836 -0.33858493
0001a0 06 69 2e bd 13 fe 9c bc 81 14 02 be 11 b5 4b be
       -0.042580627 -0.01916412 -0.12703134 -0.1989329
0001b0 aa 74 bf 3c 5d f7 d2 3d 6e ed 1c be ea 87 ba be
       0.02337106 0.10301087 -0.15324947 -0.3643182
0001c0 9a a1 53 be 80 f3 1f bc b1 5c 2e 3e 97 22 8d 3d
       -0.20667115 -0.009762645 0.17027546 0.06891363
0001d0 76 fa fa 3d f5 be 3f be fe 8a 8d 3d c4 3d e8 3d
       0.12254803 -0.18725188 0.06911276 0.11339906
0001e0 5c a1 9b bd a3 be e7 bd d0 92 24 bf c8 d2 ea 3d
       -0.07599136 -0.11315658 -0.6428652 0.114659846
0001f0 b4 d3 cc be d6 09 a2 be 6a 6b ae 3d 2e d0 d9 be
       -0.40005267 -0.3164813 0.08516581 -0.4254164
000200 fe b9 30 3c 47 15 6e 3e d8 15 7a be 7d a9 81 3d
       0.0107865315 0.23250304 -0.24422395 0.063311554
000210 d0 c8 45 be 6f 0b 28 3d e6 ff be bd 8a fb 1f be
       -0.19314885 0.04102653 -0.093261525 -0.15623298
000220 19 08 78 bd 80 40 5e be 8d b3 77 bd 08 5a 39 bd
       -0.060554598 -0.21704292 -0.060473967 -0.045251876
000230 9d 30 d6 be 54 a0 fe 3c a8 ad 58 bd 27 93 03 3d
       -0.41833964 0.03108231 -0.052899987 0.032122757
000240 c8 7d 0b 3e d3 e4 da 3e b7 b7 8a 3c 42 ab 92 bd
       0.136222 0.42752704 0.016933305 -0.07161571
000250 e2 ae 10 3e 5a bc 7f 3c d4 68 d2 3d 42 47 55 be
       0.14129212 0.015608871 0.10273901 -0.20827964
000260 2b 36 64 3d 3a d7 a2 3e b1 4f 83 3e c5 63 25 be
       0.05571572 0.3180483 0.25646737 -0.1615134
000270 85 74 93 3e 06 2a e7 3d 05 32 fb bd 01 ce ae be
       0.28799835 0.11287312 -0.122654 -0.34141544
000280 5e 25 16 be 02 1a 4e bd d5 de 2e 3e ed a3 66 3d
       -0.14662692 -0.05031777 0.17077191 0.056308676
000290 b4 d5 b9 bd 4f 09 04 bd c2 c4 97 be 04 63 67 3d
       -0.09073964 -0.03223544 -0.29642302 0.056490913
0002a0 be a2 dc bd 44 fe 9e 3e 9e 84 8e be 08 ff 42 3e
       -0.10773228 0.31053364 -0.27835554 0.19042599
0002b0 4f ab 04 be 65 e3 a3 3e 9b 21 d0 bd 8d 60 a2 3d
       -0.12955974 0.32009426 -0.1016266 0.07928572
0002c0 f4 51 45 bc 4e d2 e5 3d 2f 8b 28 ba 36 e3 14 b9
       -0.012043465 0.11221753 -0.00064294314 -0.00014199023
0002d0 1c 3c 68 bc 44 e0 af bb 66 ba 80 be 85 b6 7f 3e
       -0.014174487 -0.0053673107 -0.2514221 0.2497197
0002e0 13 5f c6 bd 8e b0 2c 3e bd 3e 33 3e 39 3d 31 3e
       -0.09686103 0.16864225 0.17504402 0.17308511
0002f0 dd e3 f9 3e 88 c0 21 bd 62 17 3d 3d b4 d5 7e 3e
       0.48806658 -0.039490253 0.046164878 0.24886209
000300 a9 f4 9e be 81 05 ff bc 97 5b 18 bc c7 fb cf be
       -0.31046036 -0.031130554 -0.0092991805 -0.40621778
000310 42 c2 ba 3c b7 d8 72 bd c0 fb 0a be 75 8a 1b 3e
       0.022797707 -0.059288707 -0.13572598 0.15189536
000320 cc da 14 3e f1 85 7a bd 37 12 88 bd d5 e6 58 3e
       0.1453659 -0.061162893 -0.06644099 0.21181805
000330 d4 a7 06 be 21 82 02 be e9 b1 3d bd 38 44 01 3d
       -0.13149959 -0.12744953 -0.046312246 0.0315592
000340 cd 09 8c 3e 2c b7 a6 bc e4 f1 b3 bd f5 3f b7 bd
       0.27351227 -0.020351015 -0.08786371 -0.08947746
000350 17 63 12 be cd 83 ea 3d 0f 71 75 3e 0d 51 81 be
       -0.14295612 0.1145092 0.2396891 -0.2525715
000360 30 ab d9 bd 67 dd 12 be ee 02 ad bd 7f 9e 95 3e
       -0.106283545 -0.14342271 -0.084478244 0.29222485
000370 42 19 3a 3e 7e f4 81 be 28 d0 1f 3f 17 f7 03 3e
       0.18173698 -0.25381845 0.62426996 0.12887226
000380 54 52 13 3e b6 14 1a 3e 3e f3 e5 bd 53 23 84 3e
       0.14386874 0.15046963 -0.112280354 0.258082
000390 aa ee e9 bd 6e a0 25 3e 88 05 e8 3d 3f b2 28 be
       -0.11422475 0.1617448 0.1132918 -0.16474245
0003a0 cc 15 86 3d 48 a0 09 3d d9 38 88 3c 01 46 7a 3d
       0.06547126 0.03360012 0.01662867 0.061101917
0003b0 ab ae 41 3e 98 27 19 3e 5d cb be 3d da ea 74 be
       0.18914287 0.1495651 0.09316132 -0.23917714
0003c0 d4 49 84 be 81 78 6f be 32 fe 06 3e 72 fd 22 be
       -0.25837576 -0.23385812 0.13182905 -0.15916994
0003d0 2f f2 a2 be c8 17 3f 3e 4f 42 19 be 21 91 4e be
       -0.31825396 0.18661416 -0.14966701 -0.2017255
0003e0 c8 42 c1 3d 93 6c c4 3d 9d 17 8c 3e ec e3 1f 3e
       0.09436566 0.095910214 0.27361766 0.15614289
0003f0 77 66 05 3f 9e fe 36 be e3 17 14 bd c3 f7 94 bc
       0.52109474 -0.17870566 -0.036155593 -0.018184548

fc2.bias f4 [128]
000000 f1 6f 85 bd 50 4e 04 be 4c 47 c1 bd f9 f5 b1 bd
       -0.06515492 -0.12920499 -0.09437427 -0.08689494
000010 25 59 c9 be 88 53 aa 3c d1 b4 e6 bc a4 e0 ad bc
       -0.39325824 0.020791784 -0.028162392 -0.021225281
000020 c2 32 3a bd 06 5f c2 3d 9a 95 0e bd 48 62 6b 3d
       -0.045458563 0.094907805 -0.03481064 0.057466775
000030 99 e8 7a bd 82 d1 89 bd 5b 5a a6 bc 00 86 0a 3e
       -0.06125698 -0.067294136 -0.020306757 0.1352768
000040 07 4e a1 bc 77 b4 de 3a 1b b8 50 bd b0 4a 5d 3d
       -0.019690527 0.0016991039 -0.050956827 0.054026306
000050 48 7e 51 be ad 15 50 3d 2e 8a 52 bd 1c 4e 43 3d
       -0.20458329 0.05080192 -0.05140131 0.047681913
000060 24 65 da bd 17 b2 50 be 9f 3e f4 bd df 7d fb bd
       -0.10663822 -0.20380436 -0.119260065 -0.122798674
000070 d5 2f 2e be fd bb ed bd 0a 84 c6 3d 2d 73 54 be
       -0.17010434 -0.116081215 0.09693153 -0.20747061
000080 b4 bd 02 be fa 04 32 3e 5e 27 b1 3d 3d 19 b2 bc
       -0.12767678 0.17384711 0.08650087 -0.02174055
000090 40 1a 72 bd fd f7 fb 3b 8d 3c 08 3e 06 67 4d 3d
       -0.059107065 0.0076894746 0.13304348 0.05014708
0000a0 37 16 54 be 1b a0 b5 bd 68 3f 19 bd 64 cd 76 be
       -0.207116 -0.08868428 -0.037413985 -0.24101788
0000b0 2f 1c 39 be ad f6 87 bc 35 05 83 3d f4 40 ea 3d
       -0.18077157 -0.016597116 0.063974775 0.1143817
0000c0 09 45 bd 3d c8 f3 4f 3d f0 22 97 bd d8 6f ab 3c
       0.09241683 0.050769597 -0.07379711 0.020927355
0000d0 1c 59 08 3e 85 bb aa 3a 66 28 b3 bc ee 1f 20 bc
       0.13315243 0.0013025856 -0.02186985 -0.009773238
0000e0 86 9e 76 bb 3f 11 85 bd 24 17 e0 bd 67 14 0d bd
       -0.0037631108 -0.0649743 -0.10941914 -0.034443285
0000f0 ec 4f f8 3d fd 9b b8 bd f3 65 84 be 7d c8 b0 be
       0.12124619 -0.090141274 -0.2585903 -0.3452796
000100 0d ec 58 3e 2f a3 a2 bd 00 c8 87 3d 37 e6 b2 3d
       0.21183796 -0.07941281 0.06629944 0.08735316
000110 6f ec 82 bd c9 83 21 be 8c 28 8c bd 57 42 28 3d
       -0.063927524 -0.15772928 -0.06843671 0.04107889
000120 8b c5 a2 3c d7 88 4a bd 2a 6d 74 3e 5d 4c 03 be
       0.019869586 -0.049446907 0.23869768 -0.12822099
000130 5e 92 23 be 3f 41 89 bd c9 f9 3c 3d 31 0b 7e bd
       -0.15973803 -0.06701898 0.04613665 -0.06202239
000140 ff 44 e1 3d ba 51 81 3d 5a 9c e9 3d c8 60 88 3d
       0.10999488 0.06314416 0.11406775 0.066590846
000150 55 b0 c8 bd 18 bf 03 bd be a9 39 be 13 ce 07 3e
       -0.09799258 -0.032164663 -0.18131158 0.13262205
000160 a1 ce 63 3c e7 13 f8 bd 89 6e 49 3d d5 51 18 be
       0.013904245 -0.12113171 0.04917768 -0.14874966
000170 f6 96 6f 3e 5e 61 6d 3e 87 7f 32 bb 8e 36 2d be
       0.23397431 0.23181674 -0.0027236657 -0.16915342
000180 d4 f2 17 3b 2d e1 05 3e df 21 24 3d 7f 13 38 3d
       0.0023185508 0.13074179 0.040071364 0.044940468
000190 8c 15 c9 ba b4 7b 04 be 5e e3 06 be 0f 80 34 3d
       -0.0015341504 -0.12937814 -0.13172671 0.04406744
0001a0 2c d9 82 bd 16 ac 31 bd 29 12 83 bb cc 62 90 3d
       -0.063890785 -0.043377005 -0.0039999676 0.07050094
0001b0 be ae d1 bc 3e 03 03 bd 67 37 85 be 64 2b 1f bd
       -0.025596019 -0.031985514 -0.2601883 -0.03885974
0001c0 00 a2 b0 3d b2 f7 8b bd e8 35 af 3c 13 3c 88 3d
       0.08624649 -0.068343535 0.02138801 0.06652083
0001d0 16 da 20 bd 82 36 7f 3e 99 36 a9 be 64 7f fb 3d
       -0.039270483 0.24923137 -0.33049467 0.12280157
0001e0 46 d7 9a be a0 d9 60 3e d0 ec 27 3d 21 af 4b 3e
       -0.30242366 0.21958017 0.040997326 0.19891025
0001f0 92 3c 32 bd 83 f0 35 3d d5 fd c4 3d 16 ac 2e 3e
       -0.043514796 0.044418823 0.09618727 0.17057833

fc3.weight f4 [2, 128]
000000 e1 cd 33 bd 4a 70 f7 be 01 7e ea bf 5c fd 3b be
       -0.043897513 -0.48327857 -1.8319703 -0.18358368
000010 05 9b 33 bf 64 6e 2a be af 5f 09 3d d2 04 76 bf
       -0.70158416 -0.16643673 0.033538517 -0.96101105
000020 fc 31 47 3d 1f 36 69 be 4f f3 2b bf 06 7c 23 3f
       0.048631653 -0.22774552 -0.67168134 0.6386112
000030 ca dc 9c bf 57 8a e2 be e2 13 14 bd 89 10 ed 3e
       -1.225488 -0.4424617 -0.036151774 0.46301678
000040 ba 83 5f 3e 72 8d 38 3f a7 d0 84 be c0 97 30 3f
       0.21827593 0.7209083 -0.2594044 0.6898155
000050 d9 47 4c be d8 76 03 bf ae 06 86 3e 1d 37 ed 3e
       -0.19949283 -0.51353216 0.2617697 0.4633111
000060 32 9f a7 3e 7a 78 5f bf e9 aa 18 bf 33 60 2f be
       0.32738644 -0.8729321 -0.5963579 -0.17126541
000070 b6 0b fb 3c 1f 49 fc bf db 9a b4 be db 15 ee 3e
       0.030645233 -1.9709815 -0.35274395 0.4650105
000080 f5 10 a1 bd 53 94 8d 3f 2a a9 8a 3e c2 26 1c be
       -0.078645624 1.106089 0.27082187 -0.1524916
000090 46 33 62 be 00 fe 43 3f 27 b2 16 bc 09 d9 7c be
       -0.22089872 0.7655945 -0.009197748 -0.24692167
0000a0 4f 71 8a 3e 3c 62 4a be e9 f9 70 be 10 51 d0 bf
       0.27039573 -0.19764036 -0.23532833 -1.6274738
0000b0 bd 1b 79 3f 91 8f a3 bd 90 69 94 3e 36 0e 7b bf
       0.9730795 -0.079863675 0.28986788 -0.9806856
0000c0 f2 b8 3c 3f b2 da 9c be 16 d4 67 3e 3c fb 8a 3e
       0.73719704 -0.306356 0.22639498 0.27144802
0000d0 dc 60 5c 3d d0 6a 42 3e 90 78 9f be 90 58 06 bf
       0.05380331 0.18986058 -0.3114667 -0.52478886
0000e0 ae 35 b6 3e 63 9c 4e bf 08 94 3f 3e b6 ba 5a 3e
       0.3558783 -0.8070738 0.18708813 0.21360287
0000f0 bf 45 94 bc c1 ec 28 bf 98 8a c1 3f 5c 78 95 bf
       -0.018099664 -0.6598626 1.512042 -1.1677356
000100 26 47 07 3f 9b fb 6a 3e 73 1e 07 c0 d5 49 89 3e
       0.5284294 0.22947542 -2.1112335 0.26814142
000110 0b f6 3e bf d9 fb d2 3e 46 aa cd 3d b9 e8 32 be
       -0.7459418 0.4120777 0.10042243 -0.17471589
000120 e7 d0 a5 bf 9c 97 d1 3e 9c fd a1 3f 02 54 8b 3f
       -1.2954377 0.4093598 1.265552 1.0885012
000130 cd 98 ad be 61 b0 96 3e e1 39 9c 3f 84 49 b3 3e
       -0.3390564 0.2943144 1.2205163 0.35017025
000140 99 0f d1 3e d7 b4 94 be 17 0e a4 3f d6 88 a0 bf
       0.40832213 -0.2904422 1.28168 -1.2541759
000150 95 8a 0b 3f f8 f6 60 3a 1d 9c 07 be ff 3f de bc
       0.54508334 0.0008581723 -0.13243146 -0.027130125
000160 d9 6e ea be ba b9 dc bb 17 2a da be 8b d0 76 3d
       -0.45787695 -0.0067360075 -0.42610237 0.060257476
000170 c3 69 88 bc c3 2c e2 3e 7f a4 6e 3e 1d af 20 bc
       -0.016651994 0.44174775 0.23304938 -0.009807375
000180 1b 69 6b 3e 09 9a b2 3e 8a b4 64 be 9b af 84 3e
       0.22989313 0.34883144 -0.22334495 0.25915226
000190 7c 71 aa be 4b 4c 64 be f3 0f 24 bf de ed 81 3f
       -0.33289707 -0.22294728 -0.64086837 1.0150716
0001a0 28 76 7a 3e e9 00 08 3e 46 9a 9a bf 79 b1 e9 3f
       0.24459136 0.13281597 -1.207833 1.8257285
0001b0 51 fe 9a 3e f4 4e 07 be 20 5b 8c 3e 50 31 08 be
       0.30272153 -0.13213712 0.27413273 -0.13300061
0001c0 60 c7 29 3e 9f 1a 0d be 38 d8 ac be a3 e5 d0 3e
       0.16579962 -0.13779686 -0.33758712 0.408002
0001d0 84 3a 63 bf d8 96 06 3f 2e ac 6a bf f7 c6 c1 bf
       -0.8876116 0.5257392 -0.91668975 -1.5138844
0001e0 58 22 2a 3f ba 98 98 bd 0a 5a da 3e 00 50 d7 3d
       0.66458654 -0.07451005 0.4264682 0.10513306
0001f0 eb 9a da 3c 36 c2 b5 3e 99 d8 16 3f b1 fe c8 3e
       0.026685199 0.35499734 0.5892425 0.39256814
000200 e0 1f 50 3f 58 62 0b bf bc 15 48 3e 07 35 18 3f
       0.8129864 -0.54446936 0.19539541 0.59455913
000210 a9 d6 13 3f 13 45 17 3f a2 32 0a 3f 22 9e 91 3e
       0.5774942 0.59089774 0.5398351 0.28440958
000220 75 95 67 3f 4f f0 3f bf e0 06 f6 be 5c be a2 bf
       0.9046243 -0.74976057 -0.4805212 -1.2714343
000230 d0 7e 83 bf 7c f0 4d 3e 00 01 ca 3f 7e 47 68 bf
       -1.0273075 0.20111269 1.5781555 -0.9073409
000240 a8 b4 20 bf be 3d 9b bf a0 40 e6 3e 7c 6f 97 bf
       -0.6277566 -1.2128217 0.4497118 -1.1830897
000250 1c 0c e1 3e af 0c 09 bf 3e 3b 90 3f 37 8d e6 be
       0.4395455 -0.5353498 1.1268079 -0.45029613
000260 0f d2 62 bf a7 47 1c bd 12 9b 18 bd 5f 1c 96 3f
       -0.88601774 -0.03815427 -0.03725726 1.1727408
000270 c5 d9 33 bf fa fe 23 3f c4 96 96 bf 20 eb e4 3e
       -0.70254165 0.6406094 -1.176476 0.44710636
000280 81 20 6d 3f bd 4d fb 3e 47 4b 3a 3f 4a 40 38 3f
       0.9262772 0.49082747 0.72771114 0.719731
000290 d0 be 4e be 28 81 d8 3e 92 3b 55 be b0 d1 f5 bd
       -0.20189977 0.42286038 -0.20823506 -0.12002885
0002a0 bd 89 4b 3e 92 df 41 3e 06 93 61 bf f1 11 3d bf
       0.19876762 0.18932942 -0.88114965 -0.738555
0002b0 5c 22 1e bf 07 fc f1 be d0 66 6b 3f 49 8c 43 be
       -0.6177118 -0.47262594 0.91953754 -0.19096483
0002c0 bf b0 56 3f 44 86 dd bc b9 7c c8 be 74 25 6f be
       0.83863443 -0.027041562 -0.39157656 -0.23354131
0002d0 c4 f1 42 bf 16 8f f8 3e 12 f2 1f bf e1 66 2b bf
       -0.76150155 0.48546666 -0.62478745 -0.66953856
0002e0 01 d9 bd 3e 49 ef 89 3b 26 16 5b 3f 1b 4a 8c 3f
       0.37079623 0.004209433 0.8558067 1.0960115
0002f0 b9 5c 66 bf c4 6f 72 3e e6 7b 33 3f b5 b3 06 3f
       -0.89985234 0.23675448 0.7011093 0.5261796
000300 34 17 8f 3f 52 6f 38 3b fa 3c 51 be cf f9 37 3f
       1.1178956 0.0028142524 -0.20433417 0.7186555
000310 23 cf ff 3e 9e 13 92 bf ab cc 04 3f 53 08 ae 3e
       0.4996272 -1.1412237 0.518748 0.33990726
000320 cf d5 db 3e 65 cc d1 3e 18 7e 0b 3f 78 42 7d 3e
       0.4293656 0.40976253 0.5448928 0.24732387
000330 2a b3 79 3f 0c 9a 96 bf 25 a7 0c bf 80 c8 72 3e
       0.9753901 -1.1765761 -0.5494254 0.23709297
000340 46 c2 f5 be cc 01 72 3e 8b 01 75 3f c0 1c 71 be
       -0.4799978 0.23633498 0.9570548 -0.23546124
000350 47 33 51 bf 47 81 9e 3f 9d b5 bd bf 83 a7 6e bf
       -0.8171887 1.2383202 -1.4821049 -0.9322435
000360 6f 8e 03 bf 13 c1 8a 3f d3 76 88 3e d8 e4 ee 3e
       -0.5138921 1.0840172 0.26653156 0.4665897
000370 6c 10 72 be 31 32 fb 3e bb ea 46 3f 38 ac 93 3f
       -0.23639077 0.4906173 0.7770192 1.1536932
000380 6f ad 27 3f 23 29 80 3f 53 ab ff be b1 f9 0f bf
       0.65499014 1.0012554 -0.49935398 -0.56240374
000390 82 25 ac bd ab 61 30 bf 2c bf 1e 3f d8 5e 9a 3e
       -0.084055915 -0.6889903 0.62010455 0.30150485
0003a0 56 b6 69 bf dc a8 4c be 19 10 e2 be ca 78 e2 be
       -0.9129385 -0.1998629 -0.44152907 -0.4423278
0003b0 01 3a 35 bf db 66 c6 3e 65 0a dc be 5d 2d 04 bf
       -0.7079163 0.38750347 -0.4297668 -0.5163172
0003c0 17 22 17 bf 1f 76 28 3f 11 32 c2 3e 0c 34 51 bf
       -0.5903639 0.6580524 0.37928823 -0.8172004
0003d0 24 66 3c 3f a6 ad 80 3f 0e 7e 0f be 8c 70 94 bb
       0.73593354 1.0052993 -0.1401293 -0.004530018
0003e0 06 fb 87 bf e9 af 88 be 87 9f c3 3f dc 9f 5f 3f
       -1.0623481 -0.2669671 1.5283059 0.873533
0003f0 dd 77 5b bf 0a 24 1d 3f 9c d6 54 bf 83 5b 0b 3f
       -0.8572977 0.61383116 -0.8313997 0.5443651

fc3.bias f4 [2]
000000 07 f2 a3 bd fa 8d 0f be
       -0.080051474 -0.14019004
