checkpoint_Critic.pth (torch_old, 82411 bytes, 5 tensors)

fcs1.weight f4 [128, 24]
00000000: 9847 3cbd fc9b 1a3c 0f50 5ebc b1ff 2abc
00000010: 2c11 573d 2ab1 bc3d 84f8 293d e012 9b3d
00000020: c139 01bd ce33 90bd fd66 353d 3f40 9fbd
00000030: a3d2 00be 6fbb 163e bdb7 943b 63c4 62bd
00000040: 9a03 613d 6b79 593d 2ee2 3fbd 4a1c 8e3d
00000050: da53 63be 573c e73c 2ab9 873c c270 98bd
00000060: 912f e53c 67b0 74bd 3ede 193d 0e6d cbbd
00000070: b14d 853d 968d 833c 529e 82bd bba2 6a3d
00000080: 6957 033d 7b42 53bd 21a3 5cbc 1441 c93c
00000090: 2916 9e3d 4809 91bd 0994 2dbc 735d c4bd
000000a0: 5619 9b39 beb2 f3bd 86cb 4b3d 6d00 83bd
000000b0: b086 edb8 61cb 883d baf1 9ebd 9305 a6bd
000000c0: e3b5 24bc 5c85 423e 9708 a3bd 8e3d 4c3d
000000d0: 8108 623d 1258 213e afcc fa3c 7f5a 893c
000000e0: 0330 823d 0127 213e fb0b d2bc 6448 123d
000000f0: beff 96bc 6805 ba3d e597 043d 3487 e83c
00000100: 7172 a8bd d48c e03d 5878 58bc 4954 14bd
00000110: c467 0abe 31c7 48bd 33aa a93c de73 9cbd
00000120: a6eb b23d 21e3 00be 70cc 1b3d b1b1 0a3e
00000130: dcc0 dc3d e0d5 bfbd 789c 43bd 6980 103e
00000140: 01db 253d 9182 3cbd 8df6 883c d5dd de3d
00000150: 7edf 163e 078d 0cbe 1f7c 6e3c 1955 113d
00000160: a2c7 9a3d ad1c 8ebc 89dd 98bd d86e cbbc
00000170: 7624 083e 9cc3 d4bd 4c83 ddbc 828d 783d
00000180: 5e93 bcbc 27e8 173e 26a4 843d 8523 883d
00000190: e8f4 71bd ed33 dbbd 0870 e4bc 3b0c f13d
000001a0: c62e 31bd a708 bd3d a6d1 82bc 4bac f03d
000001b0: f61f 5d3d 112d a4bd dcc8 3bbd 7d60 bd3d
000001c0: 6299 8abd 4609 063e e7a7 87bd 29db 023d
000001d0: 87da 18bd ef7a c5bc a6fe 59bc a723 3b3d
000001e0: 9e50 c1bc 9026 113e 189b 68bd 61db b7bd
000001f0: 6ab7 8fbd c4b0 0fbb 104e 09bd 5312 e6bd
00000200: 5e3f 51bd 191c 3f3d c35e 783b 2914 17bd
00000210: 5522 c1bc 9a9e 23bd a43b 473d 868e 833d
00000220: f4f7 923d 98db c6bc af60 bb3c e2e9 9f3b
00000230: 9e6e 043e 39ec 4a3d 3a5d dabd bb36 b73d
00000240: 894a 223e 9a21 713d 8db3 41bd f5a2 d4bc
00000250: 8a2d 1abd 8a27 adbd c411 b93d 4b46 dc3c
00000260: 884f 2e3d 7d5e 853d 0bbd 04be 7d35 debc
00000270: 1b2f 473d 33ff 0abd ec7a 883c e539 9ebc
00000280: 027e df3d 27cf 663e 8d6a 893d 0fdc ff3d
00000290: 0f6e 17bc 7a16 603c 9d51 d2bc 6d51 c23d
000002a0: f2b2 0d3d 7ffe 773d 5eba 353d b7a3 59bd
000002b0: 3ffe 29bd 73ff e4bd 0f1a 0bbc 4716 0e3c
000002c0: 64f6 a7bc fd92 47bd aae9 453c c38c b8bd
000002d0: 9b88 0f3d f805 3f3d a514 1cbd 4aa0 c2bc
000002e0: b6a4 523b 6aff b4bb 2145 883d 1853 1c3d
000002f0: b56b 233e b7a5 923c aab6 9abd 6c72 25bd
00000300: 1e7c 173d 7248 abbd 1d66 e43c c49d 8dbd
00000310: f7b0 38bd 89d8 68bd d07f 953c b00e 93bd
00000320: 2136 16bd c7b5 093c 7cfd 843d 7a57 2ebd
00000330: 183a 473d 843b 5dbe f530 38bd 5b88 eabd
00000340: 67bf 67bd 3017 aebb 91c2 2a3d 5581 253d
00000350: 4b95 92bd d073 2dbe 4798 73bd 7889 d33c
00000360: 1991 76bd 806a 453e 0eb7 48bd 0a6f 1b3d
00000370: 2618 663c 029c 54bd 2b00 013d 3982 093c
00000380: 63be 173d 1cde 833e 2e4f 263d a16d f73d
00000390: 098f 0b3d 1d3a 96bc 5b9a 8bbb eb5f ac3c
000003a0: 33a2 6fbd 02d1 9b3e d1c4 5abd f6cb 373d
000003b0: 8fca aebc 7578 a63d 4232 003d c6d9 a0bc
000003c0: 0d87 993d 0179 423d b5fc 66bd 8f14 a1bd
000003d0: 9ae5 b73d c863 cdbd f077 a63d 4231 61bc
000003e0: 9710 033d 8841 8a3c dcd5 183d 5356 96bc
000003f0: ed31 fa3d 0848 61bd d197 c63c f760 f3bc
-0.045966715 0.009436604 -0.013568892 -0.010436938 0.05250661 0.09213479 0.04149677 0.075719595
-0.03154922 -0.07041131 0.04428767 -0.07775926 -0.12580352 0.14719938 0.004538505 -0.05536307
0.054935075 0.05309431 -0.04684656 0.069389895 -0.22199956 0.028227014 0.016567785 -0.07443382
0.027976783 -0.059738543 0.037565462 -0.0993291 0.06508959 0.016058724 -0.063778535 0.057284098
0.032065783 -0.051577073 -0.013466627 0.024567164 0.077190705 -0.070818484 -0.010594376 -0.095881365
0.0002958278 -0.11899327 0.049754642 -0.063965656 -0.00011326128 0.066794164 -0.077609494 -0.08106532
-0.010053131 0.18996185 -0.07960623 0.04986339 0.05518389 0.15756252 0.030615179 0.016766785
0.06356814 0.15737535 -0.025640478 0.03571357 -0.018432494 0.090830624 0.03237142 0.028384782
-0.08224953 0.10964361 -0.013212286 -0.036213193 -0.13516146 -0.04901809 0.02071104 -0.076392874
0.087363526 -0.12586643 0.038036764 0.13544346 0.107789725 -0.09366965 -0.047756642 0.14111485
0.04049206 -0.046022955 0.016719127 0.10882155 0.14733693 -0.13725673 0.01455596 0.035481546
0.07557608 -0.017347658 -0.074641295 -0.024833128 0.13295159 -0.10388872 -0.027040146 0.060681827
-0.023019489 0.14834653 0.06476621 0.066474 -0.05907145 -0.107032634 -0.027885452 0.11769911
-0.043257497 0.09230166 -0.015969109 0.11751612 0.05398556 -0.08016408 -0.04584585 0.09246919
-0.06767537 0.13089475 -0.06623822 0.03194729 -0.03731778 -0.02410647 -0.013305342 0.045688298
-0.023598012 0.14174867 -0.056788534 -0.0897739 -0.07017405 -0.002192543 -0.03352171 -0.11233964
-0.051085822 0.046657655 0.003789828 -0.03688446 -0.023575941 -0.039946176 0.048640862 0.064236686
0.071761996 -0.024274632 0.02287325 0.004880176 0.12932822 0.049541686 -0.10662313 0.08945986
0.15848745 0.058869936 -0.047290374 -0.02595661 -0.037641086 -0.08454807 0.09036592 0.026888987
0.042556316 0.06512163 -0.12962739 -0.027125115 0.048628908 -0.033934783 0.016660176 -0.019314716
0.10912706 0.2253996 0.06709776 0.12493145 -0.009242549 0.013677234 -0.025673682 0.09488187
0.034594484 0.06054544 0.044367187 -0.053134646 -0.041502234 -0.111815356 -0.0084901 0.0086723035
-0.02050323 -0.048724163 0.012079636 -0.09011223 0.035042387 0.04663655 -0.038105626 -0.023758072
0.0032141632 -0.005523612 0.0665381 0.038165182 0.15959056 0.017901285 -0.07554372 -0.040392324
0.0369836 -0.08363427 0.027880723 -0.06914857 -0.04509064 -0.05684713 0.018249422 -0.07180536
-0.036672715 0.0084051555 0.06493661 -0.042563893 0.048639387 -0.21604735 -0.044968564 -0.11451789
-0.05657902 -0.0053128228 0.04168946 0.040406544 -0.071573816 -0.1693871 -0.059471395 0.025822386
-0.06019697 0.19278908 -0.0490027 0.037947692 0.014043843 -0.051906593 0.0314943 0.008392864
0.0370468 0.25755394 0.040602855 0.12081457 0.034071956 -0.018338257 -0.004260344 0.021041831
-0.058504295 0.30432898 -0.053410355 0.044872247 -0.021336822 0.08128444 0.03129793 -0.019635092
0.07496462 0.04747868 -0.056393344 -0.07865249 0.0897934 -0.100287974 0.08128345 -0.013744654
0.031998243 0.01687695 0.037313327 -0.01835171 0.12216554 -0.055000335 0.024242314 -0.029709322

fcs1.bias f4 [128]
00000000: def5 da3d 6f05 8ebe 5bbe 1fbe 5ae9 4bbc
00000010: 2665 9fba 4d0a 833d f952 4d3d c3ef b7bd
00000020: 0a49 c4ba bef4 cb3d 7305 99be 3e91 823c
00000030: c637 033e 73d8 31be 5140 983d 103e ca3d
00000040: 7605 e73c 7ebd 17be fefb 47be 3ed2 c23c
00000050: bb66 19be b245 ac3d f825 41bc a3d8 f3bc
00000060: 0652 243e cd3e 92be fafa 8abe cf03 103e
00000070: 23d1 c7bd aae3 57be 3d0e 08bd ec7b 073e
00000080: 4c5a a7bc 0a7f f23d 4fbe 63bb 04b9 2bbd
00000090: 0d59 2e3d 42ac 3fbd 37d7 e3bd a5d6 04bd
000000a0: 2949 4e3e 7903 6b3d b356 fabb b5c7 c4bd
000000b0: 2426 45be 888f 01be 3259 803d 6f56 04bd
000000c0: 4f70 3cbe f4ed 7dbd 0c8f 3cbe 1271 33ba
000000d0: 20e9 f63c fa85 84be 6a80 4dbe e78f aabd
000000e0: 9b01 26be 1425 f93d 6650 913d 0925 0bbe
000000f0: 3e99 15be 4bb3 053e 7e06 293e 6570 13bd
00000100: c836 1cbd 5b20 35be f41a 813d b832 b2bd
00000110: 674f fd3a f443 24bd 06a0 073d a106 043d
00000120: c100 15be 7acb 39bd 0832 5f3d a7be 7fbe
00000130: 58ef 84bd 500e 54be e778 133e 84e0 253d
00000140: dc0f 7ebd 78be f83d 5fff 15bc 9069 1f3e
00000150: b56e 07ba 6353 763c 2a31 9abc 1bd5 b6bd
00000160: e5ef 3fbe df86 f9bd c029 e33d 0363 c43c
00000170: 4152 febd 8576 12be 909c 563e 251b 863c
00000180: 2d8d 4abe 85cd 65bd ec64 6dbd f082 9bbd
00000190: 129b e6bd ae15 1d3d d439 fbbd c03e 9f3d
000001a0: 0112 38be 9edf 0d3e ad24 fc3d 1647 403e
000001b0: b403 74be a4b9 febd f838 88bd 8755 4dbe
000001c0: 8d94 a73d 297d bbbd 6454 51bd 4849 843d
000001d0: f9a9 7ebe bca8 65bd f86a 21be 1c4a c93d
000001e0: 43ba f03d cde2 c9bd 36c2 71be 5643 d33c
000001f0: 1f85 78be 0b25 5c3e f5d2 183e 0d97 ed3d
0.10691427 -0.2773852 -0.15599959 -0.012445772 -0.0012160882 0.06398449 0.050127957 -0.08981278
-0.0014975381 0.0995879 -0.2988697 0.015938397 0.12814245 -0.17367725 0.074341424 0.09875119
0.028200846 -0.1481838 -0.19529721 0.023781892 -0.14980595 0.08411731 -0.011788838 -0.029766386
0.16046914 -0.28563538 -0.27144605 0.14063953 -0.097566865 -0.2108294 -0.033216704 0.13230866
-0.0204288 0.11840637 -0.0034750884 -0.04192449 0.042565394 -0.046795137 -0.11125033 -0.032431263
0.20145096 0.05737636 -0.00763973 -0.096084036 -0.1925283 -0.12652409 0.06267013 -0.032308992
-0.18402217 -0.061994508 -0.18413943 -0.0006845157 0.03014046 -0.25883466 -0.20068517 -0.083282284
-0.1621155 0.12165275 0.07095413 -0.13588347 -0.14609239 0.13056676 0.16506383 -0.03599586
-0.03813818 -0.17688124 0.06303969 -0.0870108 0.0019326032 -0.040103868 0.033111595 0.032232884
-0.14551069 -0.045360066 0.054491073 -0.24975072 -0.06490964 -0.20708585 0.1440159 0.040497318
-0.062026843 0.12145704 -0.0091551235 0.15567613 -0.0005166338 0.015034529 -0.018822271 -0.089273654
-0.18743856 -0.12183928 0.110919476 0.023972994 -0.124180324 -0.14303024 0.20958161 0.016370365
-0.19780417 -0.0561042 -0.057957575 -0.07593334 -0.11260046 0.038350753 -0.12266889 0.077756405
-0.17975618 0.13854834 0.12311683 0.18777117 -0.23829538 -0.12437752 -0.06651491 -0.20052157
0.08182631 -0.09154732 -0.05110587 0.0645929 -0.24869527 -0.05606912 -0.15763462 0.09828588
0.117542766 -0.09857712 -0.23609242 0.025788944 -0.24269532 0.21498506 0.14924224 0.11601076

fc2.weight f4 [128, 132]
00000000: a1e2 bebd 8d9e 9d3d 3532 25bd 5483 72bd
00000010: 9c18 c0bd 78e5 4fbd 4e24 32bd f73c 183c
00000020: 923d a7bd a343 96bd d6b7 773c d46b 2b3c
00000030: f7c6 09be 1f2b a7bd 8eb5 f4bc 7559 20bd
00000040: da80 1dbe c9a6 213c 3990 ec3c 11ab 223d
00000050: 1de4 023d f92a f6bd e425 f93b 8fe2 a73d
00000060: 762f cbbd 0ab8 47bd d5b5 5b3d beaf b93c
00000070: dfec c1bd ef1d 863d 6e96 bf3c 1973 adbd
00000080: 4176 cabc 0e6a 98bd 2e79 353d c032 acbd
00000090: cb0b 41bd 90db 92bd 133c 403c 1e01 03be
000000a0: 66f0 b7bb 3014 76bc 95fc bdbd aa3f bc3c
000000b0: 0445 f53c 9755 523c 995f c0bd ae30 7bbd
000000c0: 5042 4ebd a87e e2bb 55bd 943b 1da1 06be
000000d0: 5587 fe3c 2551 43bd 9183 f13d 3362 dfbd
000000e0: f654 1abe 5822 9b3d 46d4 abbc 4d5c 043d
000000f0: 2694 75bd 8535 39bd 9187 ba3d 7e24 493d
00000100: 1ea7 8e3d 6f18 7dbc dc94 223a 2550 b53c
00000110: 71c9 9cbd b740 aebd 8ef1 023d 678c 573c
00000120: 4408 993d 21af cdbd 7781 06be cd76 c93d
00000130: c5ea 843c a752 5fbd 981a d1bc 828f bbbd
00000140: b87e 2dbd aedc 05bd e556 d2bd eeb5 c9ba
00000150: f558 aebd cdcc 513d ccf3 a8bd 7ebd 86bd
00000160: df00 463d 397a 82bd 86e3 6c3d 68fa acbd
00000170: ce90 5f3c 83d7 303d 1061 4fbd 1326 ebbd
00000180: 6edc f73d 767b 253d b390 7fbc 493a 37bd
00000190: dc12 893d cd44 57bd 771d 8bbd 3403 02be
000001a0: e214 3ebd 64ea abbd e7c2 3ebd 7b2b 2ebd
000001b0: 745e f7bd 32c8 a1bc 90f6 13bd ff96 e23c
000001c0: 7c5b b53c c4e4 19be 1d03 2abc 7786 77bd
000001d0: f536 923c 61b7 46bc e86b fb3b 517e 353d
000001e0: f239 3cbd c094 a83d 3d0c a53d 5a31 703d
000001f0: 842f b8bc c55e c93c 3bd7 143d f845 113d
00000200: 7fd8 633e 5139 6dbe 5918 00be 51ff 3dbe
00000210: b107 19be 6982 ebbd d105 a5bd 522d 4c3c
00000220: d9a6 b9bd fdb9 a13d 4944 49bd 2ea8 99bd
00000230: e673 df3c 5d2b 9e3c 5e8f 673d ec9c 96bd
00000240: 8643 7c3c 633c a0bd 2e0a 133d 29a6 7cbd
00000250: 023e d4bd 5aa3 b33c 10a4 c4b9 572e 80bd
00000260: e1c6 9a3c 5f96 b3bd e80e 18bc 72b5 29be
00000270: c0fa 943d 0fb6 863d 9e91 71be 8dbb 79bc
00000280: 251f 89bb 9844 f8bc e5bf aebb 2d3d 92bc
00000290: 57b5 803d 41b0 8bbd 476d 243d c9e5 a3bd
000002a0: 6a5e d1bc dc89 2d3d 1ca1 aabd 87d0 c6bd
000002b0: 4afe 9bbd 5b32 6a3d d13c b13d f69c 6d3d
000002c0: b626 a43d aa66 00be ebc6 1bbe 3ac4 063d
000002d0: 8616 d2bb e5c4 803d d75e e53c 822f 28bd
000002e0: ce5c 99bd a372 cf3c 35ea 11bd 329a c23b
000002f0: d737 3c3c f735 8d3d 823c 26bc e1d9 b4bc
00000300: f3d6 b03d bf39 4cbd fcbb 813d ac82 7a3d
00000310: 8559 92bc 1f80 69bd acc0 96bc de21 edbc
00000320: 876e ec3c f752 38be 32f4 4cbd 16ec c03c
00000330: 4eb2 d9bd 2f95 013d 648f 853d f12d 94bb
00000340: 2cf2 61bd e252 c73c 2295 48bd 2574 56bd
00000350: 65b7 b8bd 4fbf 7dbc 2b5e 033e d173 66bd
00000360: 756a 5ebd 109b 97bd dab4 783d 32fd ae3d
00000370: f9b6 513c a8af d1bb 36ce 9abd f9da 6d3d
00000380: 0683 efbc 47d7 693c 8bb2 f33c b2a4 6abd
00000390: 9343 38bd 373d 933d 3476 ccbd 12d1 3abd
000003a0: 4e3b 82bd c1d9 8b3d ca3c 833b a6d6 91bd
000003b0: 5645 90bd 76b7 06bd f777 0abd 8468 7e3d
000003c0: f18b 76bd fb4c 993d 6e20 143d 330f 863b
000003d0: 191e 92bb 2be7 0dbd ee9a 693c 09ae a63d
000003e0: 1a9e 6d3d 8e34 d8bc 9e59 893d 2519 00be
000003f0: fe0d 68bc 902b 97bd df1d 4e3d 28d2 52bc
-0.0932057 0.07696257 -0.040331084 -0.059207276 -0.09379694 -0.050755948 -0.043491654 0.009291879
-0.081660405 -0.073371194 0.0151195135 0.01046272 -0.13454805 -0.081625216 -0.029871728 -0.039147813
-0.15381184 0.009866425 0.028877364 0.039713923 0.031955827 -0.12019915 0.007603394 0.081975095
-0.09921162 -0.048759498 0.053640205 0.022666808 -0.09469008 0.06548678 0.02338716 -0.08469219
-0.024714591 -0.07442103 0.04430502 -0.08408117 -0.047130387 -0.071707845 0.011733073 -0.12793395
-0.0056133745 -0.0150194615 -0.09276692 0.022979576 0.029940136 0.012837789 -0.09393234 -0.06132572
-0.05035621 -0.0069120713 0.0045391717 -0.13147397 0.03107039 -0.047684807 0.117926724 -0.10907402
-0.15071473 0.0757491 -0.020975243 0.032314587 -0.05995574 -0.045217056 0.091078885 0.049107067
0.06965469 -0.01544772 0.00062019913 0.022132942 -0.076556094 -0.08508437 0.031968646 0.013156033
0.0747228 -0.10043169 -0.13135324 0.098371126 0.016225228 -0.054522183 -0.025525376 -0.09158231
-0.042357177 -0.03268116 -0.1027048 -0.0015389302 -0.08513061 0.051220704 -0.082496256 -0.065791115
0.048340674 -0.06370968 0.05783417 -0.08446199 0.013645364 0.043174278 -0.050629675 -0.114818715
0.121025905 0.040400945 -0.015598464 -0.04473332 0.0669305 -0.052555848 -0.06792729 -0.12696534
-0.046406634 -0.08394316 -0.046572592 -0.042521935 -0.120785624 -0.01974878 -0.036123812 0.027659891
0.02213835 -0.15028673 -0.010376719 -0.06043097 0.017848471 -0.012128682 0.0076727755 0.044309918
-0.0459537 0.08231497 0.08058975 0.058640815 -0.022483595 0.024581322 0.036338072 0.035467118
0.22250555 -0.23166396 -0.12509288 -0.18554427 -0.1494434 -0.11499483 -0.0805775 0.012461977
-0.09065027 0.078968026 -0.049137387 -0.07502781 0.027276944 0.019307787 0.05653321 -0.07354149
0.015396958 -0.07824018 0.03589838 -0.0616819 -0.103633896 0.021928478 -0.0003750627 -0.062588386
0.018893661 -0.087689154 -0.009280898 -0.16573122 0.07274389 0.06577694 -0.23590705 -0.0152424695
-0.004184621 -0.030306146 -0.005332934 -0.017851437 0.06284588 -0.06820727 0.040143277 -0.080028124
-0.025557715 0.0423678 -0.083315104 -0.09707742 -0.07616861 0.05717693 0.08654178 0.058011018
0.08015196 -0.12539163 -0.152126 0.03290198 -0.0064113764 0.06287555 0.027999325 -0.041060932
-0.07488404 0.025323218 -0.035623748 0.0059387917 0.011487923 0.068950586 -0.010146262 -0.022076549
0.08634748 -0.04985976 0.06334683 0.061159775 -0.017864952 -0.05700695 -0.01840242 -0.028946813
0.028861297 -0.18000399 -0.05003757 0.023550075 -0.10629712 0.031636413 0.0652149 -0.004522078
-0.055162594 0.024331514 -0.04897035 -0.052356858 -0.09019355 -0.015487506 0.12828891 -0.056262795
-0.054300744 -0.07402623 0.06071935 0.08544387 0.012799972 -0.0063991137 -0.07558863 0.058070157
-0.029237282 0.0142725175 0.029748222 -0.057285972 -0.04498632 0.0718941 -0.09983483 -0.04560954
-0.06358968 0.06828643 0.0040050494 -0.07121019 -0.07044475 -0.032889806 -0.033805814 0.062111393
-0.060192052 0.07485386 0.03616374 0.0040911674 -0.0044591543 -0.034644287 0.0142581295 0.08138663
0.058012106 -0.026392248 0.06706546 -0.12509592 -0.014163492 -0.07381356 0.050321456 -0.012867488

fc2.bias f4 [128]
00000000: 2f2b b13b 0685 e23c 2719 043d 132e 63bd
00000010: 9ed7 dc3c 0945 ccbd de81 b63d 8b39 55bd
00000020: d2a5 063c 2aef bc3c 768e 663c 8a66 80bc
00000030: 36f9 9cbc 90e7 ddbd c5e0 6bbd bd89 02be
00000040: ad53 b4bd ee3a e0bc 8082 79bc d2bc bbbd
00000050: 7fa5 9ebd 5bed 283d 5616 74bd 0825 7fbd
00000060: fc6b cbbc 82e4 1a3d 96d7 0f3d 44c3 1dbe
00000070: 895a 8fb9 dab9 593d d064 a7bd acf6 8e3c
00000080: c6c9 483d e66d 31bd 4f91 afbc e2c8 a2b9
00000090: a203 29bd d36f 343d 6463 05be af75 75bd
000000a0: 0bba 25bc 9046 84bd d5cc 5d3d c0aa 05bd
000000b0: 36ba debc f1c2 d63c 565b 5b3d 98fd 9bbd
000000c0: 1e2a aa3c 249d cbbd 64f4 6c3d 5d5c debd
000000d0: cede bebd 42d1 29bd 9be7 f3bc 5423 193d
000000e0: 2c25 8f3c 8f45 a6bd 7870 5a3b 26dc e8bb
000000f0: 6de1 553b d07a c4bd 4d7b 2b3d 3eb1 debd
00000100: 57bb c9bd fce0 bbbc e9e5 9ebc 5271 a0bc
00000110: 03ce ce3c f90b 443d c2ec ebbd b9cb 80bd
00000120: b72f 29bd 0c2e 86bd 3344 b1ba a734 893c
00000130: 42e2 973d 02c1 3f3d ab6b b83c b56a 4a3d
00000140: 372d 953d 1358 1ebd f25b 8f3c d719 683d
00000150: 8961 6abd 5c74 61bd 96d4 6bbd a092 1f3d
00000160: ff9a 87bd aa83 5c3c 7bca 93bd 0628 40be
00000170: 4cb0 a33d 32f1 20bd 2aac 96bd efc9 c53c
00000180: d3da 393d 0f6c dcbd 52ab 9dbd 6415 5c3c
00000190: 0fd9 83bc ce91 0e3d c5ce dcbd 35d1 c83d
000001a0: ddc5 15bd 3557 cbbc d8e8 463d 4cba 02bd
000001b0: 77fe e7bd a4f1 12bc 836f 303d 9de4 f036
000001c0: 59a4 b23a 9de6 d93d 0408 cfbd 9d88 82bd
000001d0: 631e 52bd fa68 8c3d ddb6 a8bc d0eb 103d
000001e0: b502 d9bc e9fc 6cbc 2746 dc3b cb99 9ebd
000001f0: 3e4a 88bd efa3 6d3d 6c7d 68bd db30 c2bd
0.005406759 0.027651321 0.03225055 -0.05546386 0.026958283 -0.09974105 0.08911489 -0.05205683
0.008218246 0.023063261 0.014072051 -0.015673894 -0.019161802 -0.10835183 -0.057587404 -0.12747855
-0.088050224 -0.02737185 -0.0152288675 -0.09166874 -0.077464096 0.041241985 -0.059591614 -0.062291175
-0.024831764 0.03781558 0.03511771 -0.15406519 -0.0002734254 0.053155757 -0.08173525 0.017451607
0.04902055 -0.043317698 -0.021431593 -0.00031048717 -0.04126323 0.044051956 -0.13026196 -0.059926685
-0.010115157 -0.06458771 0.05415042 -0.032633543 -0.027188402 0.026216002 0.0535539 -0.076167285
0.020772036 -0.099420816 0.057850257 -0.10857461 -0.0931984 -0.04145933 -0.029773524 0.037387207
0.01747378 -0.08118736 0.0033331197 -0.007106322 0.0032635585 -0.09593737 0.041865636 -0.1087365
-0.09850185 -0.02293443 -0.01939674 -0.019585285 0.025244718 0.04786298 -0.11519767 -0.06288857
-0.04130527 -0.065517515 -0.0013524353 0.01674874 0.07416202 0.046814926 0.022512278 0.04941817
0.07284015 -0.038658213 0.017499898 0.056665268 -0.057221923 -0.05504261 -0.057575785 0.038958192
-0.0662136 0.0134591255 -0.072163545 -0.18765268 0.0799261 -0.03929252 -0.073570564 0.024144141
0.045374703 -0.10762798 -0.076986924 0.013432834 -0.016094713 0.03480702 -0.10781626 0.09805528
-0.03656565 -0.024821857 0.0485619 -0.031915948 -0.11327832 -0.008968744 0.043075096 7.1791715e-06
0.0013629302 0.10639689 -0.10108951 -0.06373713 -0.05129851 0.0685596 -0.020595009 0.03538114
-0.026490549 -0.014464595 0.00672223 -0.077441774 -0.066547856 0.058017667 -0.056760237 -0.09481975

fc3.weight f4 [1, 128]
00000000: 973d 343c 2f6c 833c aae5 a03b bcb0 75bc
00000010: c411 013b 5a46 ecbb 3876 90ba a8c6 2bbb
00000020: f403 31bb 2995 193c 08f9 dbbb ce74 a33c
00000030: f958 013d 37d8 013c f5cf 46bc b0c4 50bc
00000040: 3403 5b3b 2ca7 d9bb 1c49 fdbb fe2f 10bd
00000050: 799d 023d f04e d0bb 37b5 6c3c 8451 b73a
00000060: e5bc 883c 0a36 8d3c 46ca 1e3d 1739 2fbc
00000070: 3314 16bc f501 393c ea36 52bc e80b a8bb
00000080: d053 9a3c a4b6 24bc 659e 7e3c 7d68 bb3b
00000090: 1477 8fbb e20b 5a3c f9f1 0dbc 3d77 cdbb
000000a0: 0fc2 80bb 2a31 863b 67b0 203c 61be 3e3c
000000b0: bb80 0c3d 5a3c 17bb edab 37bc 9be8 5abb
000000c0: 1309 eabb 1ffd 383c dedc 75bb 5121 12ba
000000d0: ad42 54bb 1c4d a93b 57fc 36bc 2076 9fbb
000000e0: 0cc2 eb3c 79b8 c83a a0a3 133c ae2d aebb
000000f0: c2d5 a7bb 86bb f2bb f711 37bb f46a b5bb
00000100: 13d9 ebbb e6ae 123c 389a 83bb 386c 35bb
00000110: bf83 753b a54b 5d3c 8ad8 b9bb 7616 4c3c
00000120: 4420 b0ba 394a eabb e2ff 8abc 75d6 b73c
00000130: 5ea0 c9bb ba21 8dbb 1b6c 09bc 64bb 8b3b
00000140: 97d1 033c 24c9 03bc 3e16 f33b e504 81ba
00000150: 5d22 4bbc 3548 253d d728 543c 5fd5 0bbc
00000160: c425 9ebc 203d 6b3b ff8b 55bc f9f3 f4bc
00000170: 8916 f83c df5c d93b 429a 7cbb 0a07 eebb
00000180: b6ee 90bb 694c fd3c 3c27 41bc 2c25 babb
00000190: 7748 023d 855c 2dbc 6e37 aabc 77e0 783b
000001a0: ea84 4d3c 77c3 103c c42d 9cbb 8e63 cc3b
000001b0: 29d2 413c a685 163c 9536 bb3b 1f2e 06bb
000001c0: ed5f 9ebc 6838 b7bb afe9 f1bb bb4b 72bb
000001d0: c93a 963c a222 59bb 9c39 a8bb f2c2 bd3c
000001e0: 3d9d 8dbb 5de6 5dbb d34f 383b 41d8 74bd
000001f0: 06db df3a 7836 123b 6946 cb3b 1ef1 35bb
0.011001012 0.016042797 0.0049101906 -0.01499575 0.0019694427 -0.007210535 -0.001102156 -0.0026210938
-0.0027010413 0.009373941 -0.0067130364 0.019953158 0.03157899 0.007925085 -0.012134542 -0.012742206
0.0033418657 -0.006642243 -0.0077296626 -0.03520202 0.03188846 -0.0063570663 0.014447502 0.0013986086
0.016691634 0.017237682 0.03876712 -0.010694764 -0.009160089 0.0112919705 -0.012830475 -0.0051283725
0.018838793 -0.010053311 0.015540694 0.005719243 -0.004378209 0.013308497 -0.008663648 -0.006270318
-0.0039293836 0.0040952163 0.009807683 0.01164207 0.034302454 -0.0023076744 -0.011210424 -0.0033402804
-0.007142195 0.0112908175 -0.003751568 -0.00055744225 -0.0032388375 0.005166663 -0.011168561 -0.0048663765
0.028779052 0.0015313766 0.009011179 -0.005315504 -0.0051219175 -0.0074076084 -0.0027934292 -0.0055364314
-0.007197508 0.008952832 -0.004016187 -0.0027682912 0.003746256 0.013506805 -0.0056715654 0.012456527
-0.001343735 -0.0071499613 -0.016967718 0.022441128 -0.0061531505 -0.004306999 -0.008387591 0.004264282
0.008045576 -0.008043561 0.007418423 -0.0009843378 -0.01239833 0.040352065 0.01294919 -0.008534758
-0.019305117 0.0035894588 -0.013033866 -0.029901491 0.030284183 0.0066333856 -0.0038544093 -0.0072640227
-0.004422988 0.030920224 -0.011789139 -0.0056807008 0.03180739 -0.01058114 -0.020778384 0.0037975588
0.012543896 0.008835665 -0.004766198 0.006237454 0.011829891 0.009187138 0.005713294 -0.0020474268
-0.01933285 -0.005591441 -0.0073825936 -0.0036971408 0.018338578 -0.0033132215 -0.0051338207 0.023164246
-0.004321723 -0.003385923 0.002812375 -0.05977655 0.0017078824 0.0022310298 0.006203462 -0.0027762125
