checkpoint_Critic_2.pth (torch_old, 81387 bytes, 5 tensors)

fcs1.weight f4 [128, 24]
000000 1f 79 94 3d a3 45 a0 bd b8 fd 90 bc 9f 39 6b bd
       0.072496645 -0.07825782 -0.017699108 -0.057428
000010 14 a4 a6 3c ce c9 1a 3d 57 61 50 bd 5b c1 9d 3d
       0.02034191 0.037790112 -0.05087408 0.07702895
000020 18 e4 1b 3c 36 96 a5 bd ee 50 ae bd 6c 63 eb 3c
       0.009514831 -0.08085291 -0.0851153 0.028733931
000030 8c e7 b8 3c dd ce 65 bd e0 75 01 3d ea 37 6b 3d
       0.022571348 -0.056105483 0.031606555 0.05742637
000040 e9 69 87 3d d0 74 48 bc 1e 42 eb bc 00 6c 02 3d
       0.06611998 -0.0122348815 -0.02871805 0.031841278
000050 60 27 4a bd fb 7a a4 bd 50 cf ac bc 08 cb 2d 3c
       -0.049353957 -0.08031269 -0.021094948 0.010607488
000060 d1 8f e6 3c 2e 5a 95 3d 58 44 4e bc 81 c9 4d bd
       0.028144749 0.07292591 -0.012589537 -0.050240997
000070 3d e9 ec bb 77 32 b3 3c 0d 48 a8 3d 4d 13 84 3d
       -0.0072299526 0.02187465 0.082168676 0.06448994
000080 26 95 a0 bd fb 33 ae 3c c6 68 43 3d 7d dc df bc
       -0.07840948 0.02126502 0.04770734 -0.027326817
000090 ce 0f 01 3d 97 32 1c bc fa ca 15 bd 1f c7 11 bd
       0.031509213 -0.009533546 -0.036570527 -0.035590287
0000a0 d0 74 56 3d 24 fb 99 3d 31 48 9f 3d 58 6c 79 3c
       0.052357495 0.075186044 0.07777441 0.015223585
0000b0 bd 2d 5b bc 3f 99 4f 3d e7 23 8f 3d 5a 52 b6 bb
       -0.013377604 0.050683256 0.0698927 -0.0055640163
0000c0 c3 9b ea bc 8f 77 68 bd b2 be 1d 3d ae f1 95 bd
       -0.028638726 -0.056754645 0.03851194 -0.07321487
0000d0 7c 40 02 3d 2e 98 8e bd f1 76 aa 3d 04 eb a3 bd
       0.03179978 -0.0696262 0.083234675 -0.0800381
0000e0 b5 31 66 bd 48 c2 70 bc a0 ee ba bc 1c 62 1f bc
       -0.056199748 -0.014694758 -0.022818863 -0.009727981
0000f0 e9 79 41 bd 4d 66 04 bc c5 51 72 bd e5 b3 a4 bd
       -0.047235403 -0.008081031 -0.059160013 -0.08042125
000100 dd de b4 bd 9f 45 8b 3d 90 16 b0 3c 8b bc a2 3d
       -0.0883157 0.068003885 0.021495134 0.07946118
000110 f5 8c 45 3c c2 be bf bc 18 e1 50 bc 48 2a ad bd
       0.012057533 -0.02340639 -0.012748979 -0.0845533
000120 27 c3 a3 3d 8b d5 4d 3d 76 e3 1b bd f8 db 9c 3c
       0.07996207 0.05025248 -0.03805872 0.019147858
000130 fa e6 5f 3d e2 d7 2a bd 99 95 5b bd fa c8 7f bd
       0.054663636 -0.04170979 -0.053609464 -0.062447526
000140 49 03 b3 bd de d3 a3 3d 40 59 ca 3a e9 87 76 bc
       -0.08740861 0.07999395 0.0015437976 -0.015047052
000150 e0 ba 9b 3b 22 b3 85 bd d7 7c 89 3d 28 15 b6 bd
       0.004752502 -0.065283075 0.067132644 -0.08890754
000160 70 f4 8a 3d 90 26 80 bd f6 8e 1c 3d 0b 50 66 bb
       0.06784904 -0.06257355 0.038222276 -0.0035142924
000170 c3 c5 b5 bd 76 69 9b 3d da cb 55 3d f5 14 a2 3c
       -0.08875611 0.075884745 0.05219636 0.019785384
000180 a4 23 38 3d cf 8c b2 bd 9c 99 b7 3c f2 a9 02 3d
       0.044955865 -0.08718263 0.022412114 0.031900354
000190 5b 30 64 3d 38 fe bf bd 00 e6 a2 ba 43 a3 86 3d
       0.055710178 -0.0937466 -0.0012428164 0.065741085
0001a0 b1 b4 7a bd 85 6f 7c bd 1d 0e a5 3d 86 fb 81 3c
       -0.061207477 -0.06162979 0.080593325 0.015867006
0001b0 78 a6 ac bc f4 b2 65 bd 10 0a 6c 3c bf d8 1c 3c
       -0.021075472 -0.056078866 0.014406696 0.009573161
0001c0 65 51 9c 3d e6 54 c0 bc 6e 3b 18 3d d3 8b 2c 3d
       0.07632712 -0.023477983 0.03716605 0.042125534
0001d0 e4 f8 dd 3c 32 d2 83 bd 16 df 04 3d dc 0e 8a bc
       0.02709622 -0.06436576 0.032439314 -0.016852789
0001e0 d3 0b 8b bd 45 19 2e bd a4 c4 c3 bc 5e 87 a6 bc
       -0.06789365 -0.042504568 -0.023897476 -0.02032822
0001f0 c7 17 69 bc 79 84 85 3d e2 fb 26 3d 8e c3 ce 3c
       -0.01422686 0.06519408 0.040767558 0.025239732
000200 a5 e4 0b 3d e1 d6 85 3d b4 8c 7a bd b2 b6 a2 bc
       0.0341536 0.065351255 -0.06116934 -0.019862507
000210 c5 38 96 bd dd de 4f bd 36 07 17 3d 25 cd 8f 3d
       -0.07335047 -0.05074965 0.03687211 0.0702155
000220 5f 70 b8 3c 45 13 03 bd 2b 90 27 bd bb da 7b bd
       0.02251452 -0.0320008 -0.040908974 -0.061487895
000230 02 9e 56 3c f6 ce a1 bd 71 14 91 3d be 04 d8 bb
       0.013099195 -0.07900803 0.07083977 -0.006592362
000240 10 fe 44 3c b5 69 48 bd b6 5a 17 bd c4 85 97 3c
       0.012023464 -0.048928935 -0.036951743 0.018496402
000250 21 84 9a 3c 89 67 30 3d 6e e5 6b 3d f8 f9 8e bd
       0.018861832 0.04306749 0.057591848 -0.069812715
000260 66 cb ab 3d b7 cb d1 3a f9 79 96 bd 24 09 3e 3d
       0.083884045 0.0016006146 -0.07347483 0.046395436
000270 52 78 40 bd 9e c0 88 3d bc e4 2d bd 91 33 2b bd
       -0.046989746 0.06677364 -0.042454466 -0.041797224
000280 f9 c8 24 3d c4 df a1 3d 4e 27 84 bd 6a 59 12 3d
       0.040230725 0.07904008 -0.06452809 0.035729803
000290 77 d2 89 bd 4a 24 94 3d 00 03 3b bb d6 2f 46 3d
       -0.06729596 0.07233484 -0.0028535724 0.048385464
0002a0 ce c1 69 bd 76 7f 32 3c f1 04 92 3d 3a 58 67 3d
       -0.057069592 0.010894647 0.07129849 0.056480624
0002b0 71 fd 92 3d 78 1e 98 3d 5c 83 a5 bc 53 7e 85 bd
       0.07177246 0.074276865 -0.020204239 -0.06518235
0002c0 4b 61 eb 3b 8e 3e a8 bd 2b af b0 bd 1e c5 21 3d
       0.007183229 -0.08215056 -0.08627161 0.039494626
0002d0 ac 2c 9c 3d ef f5 08 3d 4d 02 9c bd d4 2f 16 3c
       0.07625708 0.033437666 -0.07617626 0.009166677
0002e0 53 98 7e 3d 83 0f 30 ba 52 17 8f bd 1e 61 25 bc
       0.062156986 -0.00067161786 -0.0698687 -0.010093955
0002f0 35 1d 3e bd ef 60 9e 3c 12 e8 2d bd a3 1f 9c bd
       -0.046414573 0.01933333 -0.042457648 -0.07623222
000300 1e a1 af 3c 24 77 ab bc 82 fa a5 bd 67 cf ad 3d
       0.021439131 -0.020930834 -0.08104421 0.084868245
000310 75 8d ce bc 73 bb a3 bd c8 ea fd 3c 3f a3 a3 3d
       -0.025213936 -0.079947375 0.030995741 0.07990121
000320 c6 cf 38 bd c2 e0 91 bd 20 9f 26 bc de e7 b5 3d
       -0.045120023 -0.07122947 -0.010169774 0.08882116
000330 0e 5b ae 3d 27 76 f4 3c 1c e4 a8 bc 4d 36 66 3d
       0.08513461 0.029841496 -0.020616584 0.05620413
000340 1a 60 83 3b fe a4 75 3c 1c 03 91 3c 5c d8 18 bd
       0.004009259 0.0149929505 0.017701678 -0.03731571
000350 f4 98 26 bd 94 5e 5b bd 34 7d e7 bc 7f ea a6 3c
       -0.04067321 -0.053556994 -0.028257944 0.020375488
000360 84 78 14 3b 5c fd 80 3c b5 b0 9d 3d b4 da 54 3c
       0.002265484 0.015745811 0.0769972 0.012991596
000370 6e ed 44 3d c4 91 53 bc b4 fb 83 bd 4b 0b 44 3d
       0.048077993 -0.012913171 -0.06444493 0.047862332
000380 95 6f ab 3d 78 f0 51 3d 90 2f bc 3b 59 e5 2f bc
       0.08370892 0.05125472 0.0057429746 -0.010735833
000390 62 0d a2 bd 22 d2 89 3d 51 3a 82 3d 41 ab c2 3c
       -0.07912709 0.06729533 0.06358779 0.0237633
0003a0 05 1e 40 bc 5d 00 1a 3d 34 66 60 bd 35 ee 7c 3d
       -0.011725907 0.037598003 -0.05478497 0.06175061
0003b0 59 66 91 bd 87 df b6 3d d9 a8 36 bd 39 29 22 bd
       -0.070995994 0.08929353 -0.04459462 -0.039590094
0003c0 35 2d 2f 3c 19 3d 0c bd 04 3d bf 3c e4 ad 7c bd
       0.010691931 -0.034237955 0.023344524 -0.061689273
0003d0 39 52 02 bd 4f d7 48 bb ac dc e5 bc 8c 64 fe bc
       -0.031816695 -0.0030645912 -0.028059326 -0.031053804
0003e0 bb db b1 3a e7 26 32 3c ae cd 3f 3d bd b2 1f 3d
       0.0013569513 0.010873533 0.04682701 0.038988817
0003f0 f3 69 3c 3d df bd 42 bd 28 af 6b bd 67 27 35 bd
       0.04599948 -0.047544356 -0.05754009 -0.04422703

fcs1.bias f4 [128]
000000 66 24 43 3e ad 02 1f 3e fa 65 33 be 23 d5 a3 bd
       0.19056854 0.15528364 -0.1751937 -0.07999637
000010 db 4b d6 3d 4c de e2 bd 43 b2 17 3d 08 f0 ae bd
       0.10463687 -0.11077556 0.037035238 -0.08541876
000020 1e 26 2d 3d 6d f6 d3 3d c6 52 7e 3d 4b b1 17 3e
       0.04227268 0.10349736 0.062090658 0.14813726
000030 c6 37 da bc f7 b3 ec 3d 5b 05 82 3d 56 04 75 bd
       -0.026637923 0.11557763 0.06348678 -0.05981859
000040 d7 b6 16 be d0 4c 42 3e 61 d5 7f bd e4 bf 1c 3e
       -0.14718185 0.18974614 -0.062459353 0.15307575
000050 b6 26 04 3e 05 db 70 bb fa d2 30 be ff fe 8b 3c
       0.12905392 -0.003675164 -0.17267981 0.017089365
000060 a5 30 cc bd a6 0b 4b 3d f3 54 a7 bd 98 12 2d 3e
       -0.09970216 0.049571656 -0.081705 0.16901624
000070 e8 1b 3b be 74 74 6a bd ee 68 19 3d 17 af 8d 3c
       -0.18272364 -0.057239965 0.037453584 0.017295403
000080 72 77 2e 3e c7 81 84 bd 76 7a 26 be 57 04 0e 3e
       0.17037752 -0.064700656 -0.16257653 0.13868843
000090 08 1a 75 3d 87 3e 09 3e 7f bb eb bd a2 56 ec bd
       0.05983928 0.13402759 -0.115103714 -0.115399614
0000a0 d1 0a b3 bd f6 1d 82 3c 25 7e 89 3d 44 a8 e4 bd
       -0.087422974 0.015883427 0.06713513 -0.111649066
0000b0 02 b2 82 bc 62 9b 2c bd c5 d7 3a 3e 24 8a 91 bd
       -0.015954021 -0.042140372 0.18246372 -0.07106426
0000c0 83 51 4d 3e ec 3b 03 be 34 91 a4 bd 34 7d 1e be
       0.20050626 -0.12815827 -0.08035508 -0.15477449
0000d0 44 81 17 3e c5 e8 12 be 8a 85 a9 3d e6 05 99 bd
       0.14795405 -0.14346607 0.08277424 -0.07471828
0000e0 a5 ac 4f 3e 37 aa e3 3c 6a 04 3b be 7b d6 1e 3d
       0.20280702 0.027791126 -0.18263403 0.038778763
0000f0 1b df c0 3c 91 a4 4d be 31 86 33 3d af c3 43 3e
       0.023543885 -0.20082308 0.043829147 0.19117616
000100 f8 1b 6f 3d 21 60 ae ba 23 4e 0d bd 29 c7 4d 3d
       0.058376282 -0.0013303795 -0.034498345 0.050238762
000110 0f dd af bd b5 06 50 3e b6 63 38 3e 82 96 c9 3d
       -0.085870855 0.20315059 0.18006787 0.0984316
000120 2f d3 9f bd 0a 9f 40 be de 8c f6 bd 36 2e 4e 3e
       -0.07803952 -0.18810669 -0.12038587 0.20134816
000130 4c 97 40 be 1a 03 45 be 29 6b 52 bc d1 9a 8a 3d
       -0.18807715 -0.19239464 -0.012842932 0.0676781
000140 bd 79 46 be c5 0f 42 be 49 e2 c5 3b e8 1b 8b bd
       -0.19382377 -0.18951328 0.006038938 -0.06792432
000150 40 94 13 3e a1 d9 82 3d e1 b8 32 be fc 7c 3b be
       0.14412022 0.06389166 -0.17453338 -0.18309397
000160 88 5c 14 3e ec 7d 22 bd 61 80 b1 bd 63 32 84 3d
       0.14488423 -0.03967087 -0.086670645 0.06454923
000170 19 47 27 bd 25 31 cf 3d 1d f5 59 3d f3 6b b1 bd
       -0.04083929 0.101167955 0.053212274 -0.08663168
000180 b8 39 1f be dd 2e e9 3d c9 78 00 be f1 fa b5 bc
       -0.15549362 0.113858916 -0.12546076 -0.022214385
000190 f0 77 25 3d 84 5a e9 bd 01 26 de 3d b3 41 10 be
       0.040397584 -0.113942176 0.108470924 -0.14087562
0001a0 92 15 63 3d 07 cb 97 3c 7c a5 95 3d 8e 23 4d be
       0.055440493 0.018529428 0.07306954 -0.20033094
0001b0 4f ef 25 3c 99 e4 d1 3d a5 f3 03 be 2c 12 3d 3d
       0.010127856 0.1024868 -0.12885912 0.04615991
0001c0 5a 44 13 3b 13 49 38 3e 8d 75 2e bd 5c a8 02 ba
       0.002247116 0.17996626 -0.042592574 -0.0004984194
0001d0 ad 7c bc bd 35 64 62 bd 74 c8 82 3d e2 5c 41 be
       -0.092034675 -0.055271346 0.0638589 -0.18883088
0001e0 b8 67 1c 3e 47 b7 15 3e 4a e3 b4 3d df c4 22 3e
       0.1527394 0.14620696 0.088324144 0.15895413
0001f0 06 a2 89 bd 8e 2d 36 3d 4b a7 e4 3b 06 b2 13 be
       -0.06720357 0.044477038 0.0069779507 -0.1442338

fc2.weight f4 [128, 130]
000000 d2 fa 69 3d 62 da 13 bd 5d ec 87 3d 2b 5f 73 bd
       0.057123967 -0.036096938 0.066368796 -0.05941693
000010 df b3 7a 3d 0e 70 7a bc 7c e8 24 bc dd 95 87 bd
       0.061206695 -0.015285505 -0.010065194 -0.06620381
000020 2a 47 75 3b 9d c1 ab ba 65 2e c3 bb 28 f2 49 3d
       0.003742645 -0.0013103966 -0.0059564584 0.049303204
000030 70 9f ab bd 52 f5 54 bd f6 3a 22 bd 47 42 ab bd
       -0.0838002 -0.05199177 -0.03960701 -0.08362251
000040 cc 44 65 bd 7e 5e 83 3d 5e 79 ed 3c 1d 5c 58 bd
       -0.055973813 0.06414507 0.028988536 -0.05282222
000050 5d 58 9e bd 59 98 82 3d 5b b2 b5 bd 3a 05 90 3d
       -0.07731698 0.06376714 -0.08871909 0.07032247
000060 5e 64 6e 3d 83 6d 8b bd 43 b5 a7 3c 78 1e ca bc
       0.058201186 -0.06807997 0.020472175 -0.024672732
000070 a5 37 cb bc d2 ac 84 3c 93 fa 9b bd 44 4e 7c bd
       -0.024806807 0.016195688 -0.076161526 -0.061598077
000080 5a 33 0f 3d 61 97 8e bc 2c c2 8d bd ae ea 27 bb
       0.034961082 -0.017406167 -0.06921801 -0.0025622058
000090 31 f8 b5 bb 26 5e 25 3d d2 2f 5b 3d d8 2a b0 bd
       -0.0055532684 0.04037299 0.053512402 -0.08601922
0000a0 a3 8c 0b bd d7 12 9a 3d 93 1d 9a bd 7c f5 82 3d
       -0.03406967 0.07523125 -0.07525172 0.06394479
0000b0 63 2e ae bd f8 57 7f 3d df e6 4b 3c 5b 25 f1 bc
       -0.08504941 0.062339753 0.012445181 -0.029436758
0000c0 ac b4 ff bc 1d a0 a3 3c c3 00 8e 3a a8 6d 12 3d
       -0.03121408 0.019973809 0.0010833967 0.035749108
0000d0 87 1d aa 3d 81 2e 6d bd 49 81 e2 bc ee 02 a0 bd
       0.08306413 -0.057905678 -0.027649539 -0.07813059
0000e0 9e ad 20 bd d8 a5 c9 3c f4 a5 3d bc 7e 03 dd 3b
       -0.039228074 0.024615213 -0.011575211 0.006744801
0000f0 f6 2e 07 bd 48 d9 f5 bb 74 da 44 3d 38 44 99 3c
       -0.03300377 -0.0075027086 0.048059896 0.018709287
000100 3c a5 1d 3d 25 7c 49 bd 99 e5 66 3c ef 73 85 bd
       0.038487658 -0.04919066 0.014092826 -0.06516253
000110 6d 3d 6f 3c 0d 0e b0 bc 0e 8a 1c bd ec b1 d7 bb
       0.014602047 -0.021491075 -0.038217597 -0.0065824892
000120 65 38 0d 3d 0e 71 be 3d f3 40 0a bd f8 10 ae bd
       0.03447761 0.09298907 -0.033753347 -0.0849933
000130 a7 24 05 bd 3b 77 ad 3c bb f2 4d 3d ca 37 77 3d
       -0.032505658 0.021175018 0.050280314 0.06035594
000140 6a 11 08 bc d0 ed 42 3c 14 2a 9c 3d 0c 9b 56 bd
       -0.008304933 0.011897519 0.07625213 -0.052393958
000150 42 bc f2 3c 63 f8 39 bd 2e 14 44 bc dc e7 3c bc
       0.029630784 -0.045402896 -0.011967702 -0.011529889
000160 33 1e fa 39 62 8a 52 3d b4 0c 06 bd 66 02 9d bc
       0.00047706216 0.051401503 -0.03272696 -0.019166183
000170 0c 61 f5 bc e2 08 4e bc e6 20 88 3d 46 48 b9 3d
       -0.029953502 -0.01257536 0.066469 0.09046988
000180 8e e9 bb 3c 6c f7 0e bd 61 d5 38 3d 3b ff 47 bd
       0.022938516 -0.03490393 0.04512537 -0.04882739
000190 d0 46 6c bd ea 37 75 3d 36 2f a4 bc b8 d7 b5 bd
       -0.05768472 0.059867777 -0.020042043 -0.08879036
0001a0 c5 76 65 bd 59 0f 41 bd 16 03 c0 3d b8 af 82 3c
       -0.05602147 -0.047133777 0.093755886 0.01595293
0001b0 7f 75 04 bd c6 4b c1 3c 91 2a 02 3d 70 fd 4b 3c
       -0.032338616 0.023595702 0.031778876 0.012450561
0001c0 ee 2f 75 3c 63 34 d6 bc ad ee af 3d cc ba 97 3d
       0.014965041 -0.026148027 0.08590446 0.074086756
0001d0 32 b2 7f bd a7 c7 05 3d d9 c2 82 3d a1 32 84 bd
       -0.0624258 0.032661106 0.063848205 -0.06454969
0001e0 27 98 09 bd 34 92 72 bd 1e 3f 7b 3d 3c d2 c0 3d
       -0.03359237 -0.05922146 0.06133949 0.09415099
0001f0 2e 8c 82 bc a5 03 90 bd fe 77 50 3d 67 4a f3 3a
       -0.015935984 -0.07031945 0.050895683 0.0018561602
000200 30 0f 95 3b 4c 73 8a bd 7d 0a 04 bd f6 33 68 3d
       0.0045489296 -0.067602724 -0.032236565 0.05669018
000210 70 2a fe 3c dd e8 83 bc 44 dd 99 3b e7 a1 8e 3c
       0.031026095 -0.016102249 0.0046955664 0.017411185
000220 54 28 9b bc f6 d2 8c 3d 7b 03 3e 3d ba 30 8b bd
       -0.018940128 0.06876175 0.046390038 -0.06796403
000230 61 53 34 3d be a6 4d 3d 56 78 8b bd 51 f9 28 bb
       0.04402483 0.050207846 -0.06810062 -0.002578337
000240 b7 95 97 3c 98 b9 d6 bb 0d 33 b6 3c ca d8 ca 3c
       0.018504007 -0.006552886 0.02224114 0.024761576
000250 ce 8d a5 bd 0a dd 92 bd bd e3 1c 3d f4 4a 37 3d
       -0.08083688 -0.07171066 0.038303126 0.044749215
000260 61 b6 8a bd ba 2f 4a 3d 15 7c 09 bc 94 46 85 3d
       -0.06773067 0.04936192 -0.0083914 0.06507602
000270 d3 26 1c bd 22 b4 cf 3c b9 94 86 3d 75 61 34 3d
       -0.038122963 0.025354449 0.06571335 0.044038255
000280 f6 dc a8 bd dd cb a6 bc d7 6d 9e bd 76 59 b2 3c
       -0.0824527 -0.020360881 -0.07735794 0.021771174
000290 02 ed 99 3b 04 4b 15 3d 56 da a1 bc c6 43 8e bc
       0.004697443 0.036448494 -0.019757431 -0.017366301
0002a0 0c a3 99 3d b4 1e 1c 3d 39 d4 4f bc c2 07 bd bc
       0.07501802 0.03811522 -0.012684875 -0.023074988
0002b0 65 df ed bc 85 82 a4 3d f7 26 90 bb 46 a9 84 3b
       -0.029037187 0.08032707 -0.004399176 0.0040484993
0002c0 89 c0 8e bd f2 16 95 3d 90 a7 ff bc 25 d5 65 3d
       -0.06970317 0.07279767 -0.03120783 0.056111474
0002d0 31 a3 ae bd dd b1 3d bd e5 c3 bb 3c 6c 64 af bd
       -0.0852722 -0.0463122 0.022920558 -0.08564076
0002e0 55 ea c0 3d 13 cf 70 3d 56 74 a4 3d c6 b3 31 3c
       0.09419695 0.05879123 0.08030002 0.010846084
0002f0 6c 09 b0 bd 62 2a bd 3b fb 83 62 bd e0 b6 75 3d
       -0.08595547 0.0057728747 -0.055301648 0.059988856
000300 05 05 a1 bd cb 37 84 bc 6f 0a 7f bd 69 26 4e bd
       -0.078622855 -0.016139885 -0.06226581 -0.0503296
000310 cd 92 a7 3c ee c3 6b bd 97 da 8b 3d a2 f8 a8 bd
       0.020455742 -0.0575599 0.06828802 -0.08250548
000320 a3 31 a6 bc 69 c2 b1 bd 66 71 ab 3d 4f 94 b9 bb
       -0.02028734 -0.08679659 0.083712384 -0.0056634317
000330 80 7f 52 3d f5 99 e2 bc 73 16 c0 bc c0 9e 82 3d
       0.051391125 -0.027661303 -0.023448205 0.063779354
000340 23 10 00 3d ff 45 c4 3b a4 4a a1 bd 80 ca 25 bb
       0.03126539 0.0059897895 -0.07875565 -0.0025297701
000350 2e e5 3a bd e9 ee 91 3d c5 59 1e 3d 76 b0 70 3c
       -0.04562872 0.071256466 0.03865983 0.014690509
000360 ca a7 b4 bd 69 c5 ae 3d be fa be 3c f1 f9 89 bd
       -0.08821066 0.08533747 0.023312923 -0.06737126
000370 8c 7e 7b bc 41 22 80 3d ea 4c 13 3c ba ec 5e bd
       -0.015349995 0.062565334 0.008990506 -0.05442498
000380 c9 0e 33 bd d0 88 ab 3d 3f 0e cf bc ac 30 96 3c
       -0.043715272 0.08375704 -0.025275348 0.018333755
000390 9f 9e ac bd 25 cc f5 3b 31 6a 81 3d 3b 77 0c 3d
       -0.08428692 0.0075011426 0.063190825 0.034293395
0003a0 df f2 9c 3d 3b 91 e5 3c e8 0c 86 3d 59 00 45 bd
       0.076635115 0.028023353 0.065454304 -0.048096035
0003b0 33 b1 85 bc e0 47 57 bb 72 66 94 bd b8 74 c7 bc
       -0.016319847 -0.0032849237 -0.072461024 -0.024347648
0003c0 d6 4f 68 bd 55 8b 98 3c a8 dd 60 bd 4a 14 ce 3b
       -0.056716762 0.018621126 -0.054898888 0.0062890397
0003d0 00 25 5e bd a9 15 8d 3d d4 03 86 3d 14 64 8c 3d
       -0.054234505 0.06888897 0.06543699 0.06855026
0003e0 92 60 5a 3d 8a 8d 9b bd 4f 7d 6e bd 9f 64 0f 3d
       0.053314753 -0.07595356 -0.058224972 0.03500807
0003f0 92 96 84 bd d3 4c 57 3d 07 b0 11 3d cc 6f 88 bd
       -0.064740315 0.0525635 0.035568263 -0.066619486

fc2.bias f4 [128]
000000 1f 1f 97 3d b0 df 88 bd 07 1d 24 bc 05 53 b3 bd
       0.07378983 -0.0668329 -0.010016686 -0.08756069
000010 d7 96 3d bd 98 e4 94 3d 56 ef 46 bd 2c a5 4b 3d
       -0.04628643 0.07270163 -0.048568092 0.049718067
000020 89 c6 29 bd 9b 9e 97 3d 80 72 1d bc cc 86 4c bc
       -0.041449104 0.074032985 -0.009609818 -0.01248331
000030 1f 06 9f 3d 92 06 6a bc 3b 78 7c 3d 40 55 81 3c
       0.077648394 -0.014283793 0.0616381 0.01578772
000040 e6 b0 89 3d 78 65 0a bd 53 a2 6f bb 69 33 17 bd
       0.06723194 -0.033788174 -0.0036565259 -0.036914263
000050 89 08 50 bd b2 45 97 bd f1 c1 31 bc 66 f9 ac 3d
       -0.05078939 -0.0738634 -0.010849462 0.084460065
000060 7a 40 3e 3c 0f aa ee 3c 03 42 8e bc 8c e6 3e bc
       0.011612052 0.029133825 -0.017365461 -0.011651646
000070 0c 70 74 3d aa 28 a4 bd 7e d4 8b ba e4 b1 82 bd
       0.05967717 -0.080155686 -0.0010668186 -0.06381586
000080 5d b8 46 bd 97 72 88 3d 88 d5 2e 3d f6 ed 59 bd
       -0.048515666 0.06662481 0.042684108 -0.053205453
000090 e0 43 10 3d 7f ca 4e 3d 45 85 53 bd 26 44 1f 3d
       0.03522098 0.050486084 -0.051640768 0.03888335
0000a0 69 10 95 bd 3f 01 8d bc d3 d4 83 3c 5b 3e e0 bb
       -0.072785206 -0.017212508 0.016092693 -0.006843371
0000b0 4a 76 23 bd 1f 98 89 bd 09 73 9f bc d9 ac 42 bd
       -0.03990773 -0.06718468 -0.019464033 -0.04752812
0000c0 18 e5 78 bd 66 17 d9 3c 9f d0 e0 3c 39 94 92 bd
       -0.060765356 0.026500415 0.027443228 -0.071571775
0000d0 9c aa 14 bd 9b 6b 50 bd 27 9f 14 bd 48 c3 d6 3b
       -0.03629552 -0.05088387 -0.036284592 0.006554041
0000e0 31 d7 57 bd 24 fe b3 3d 76 97 ef 3c ff 46 10 3d
       -0.052695457 0.08788708 0.029247027 0.035223957
0000f0 69 bf d1 3c 0b 6e 6a bd 3a 5e f7 ba b6 42 8f bd
       0.025603967 -0.05723385 -0.0018872686 -0.06995146
000100 41 dd 4a bd 3e c8 17 3d 35 10 8a bd 7e b9 a7 3d
       -0.04952741 0.0370562 -0.067413725 0.08189677
000110 8e 04 28 3d 5b 98 c9 3b 23 3b 1c 3a 46 7c eb bc
       0.04101997 0.0061521954 0.000595974 -0.028745782
000120 c5 8f 53 3c f5 d9 0f 3d 60 bb 02 bd 5c c0 25 bd
       0.012912695 0.03511997 -0.031916976 -0.04046665
000130 00 5d b9 bc 0a b3 21 bd 29 83 8f bd f0 8b 80 bd
       -0.022627354 -0.039477386 -0.07007439 -0.06276691
000140 45 63 09 bd bd d9 5b 3d 61 f3 78 3d d1 66 12 bd
       -0.033541936 0.05367445 0.06077898 -0.035742585
000150 ac d2 a4 3d 8f d0 33 bd 77 0a 9d 3b 84 80 a7 3d
       0.08047995 -0.04390007 0.0047925073 0.08178809
000160 c6 37 a1 3c 76 c6 30 bd 85 a3 9f 3c 48 a6 95 bd
       0.019679915 -0.043158017 0.019487152 -0.07307106
000170 de fd fa 3c 04 5f 90 bd 56 74 8b 3d 14 34 ef bc
       0.030638631 -0.07049373 0.06809299 -0.029199637
000180 59 78 ca 3a 84 08 87 bc 74 b1 a1 bd 14 72 9c 3d
       0.0015447243 -0.016483553 -0.078951746 0.07638946
000190 e5 91 4e 3d 93 dd 72 3d da b7 a3 3d d1 bb ab 3d
       0.050432105 0.05929334 0.07994051 0.083854325
0001a0 1a d5 aa 3d 4b 38 0f 3d 03 0d ca 3c 16 30 af bd
       0.08341427 0.034965795 0.024664408 -0.085540935
0001b0 af c9 c4 3c 5c 67 b0 3b 08 7a 20 bc 2f 01 0f 3c
       0.024021951 0.005383415 -0.0097947195 0.00872831
0001c0 f7 58 d5 bc 2f 95 9b 3d dd 8a 19 bc 0c 4f aa bd
       -0.026043398 0.07596814 -0.0093714865 -0.08315858
0001d0 93 7f 9f 3c 41 ee a7 3d 44 3f 62 bd 60 eb 3a bc
       0.019470012 0.0819974 -0.055236116 -0.011408657
0001e0 6b a3 d7 bb cc 39 9b bd 51 ef f5 3c 3a f2 7d bd
       -0.0065807602 -0.07579383 0.030021342 -0.061998583
0001f0 e8 03 c0 bc 61 25 07 bd 74 1c 49 3d 8e 27 97 bd
       -0.023439363 -0.03299463 0.0490994 -0.07380591

fc3.weight f4 [1, 128]
000000 d0 05 18 3c 5b aa 1c bc 05 0a 0b 3b de 07 85 bb
       0.00927873 -0.0095621 0.002121569 -0.0040597757
000010 60 23 1a 3b 66 93 3c 3b 6d 03 7b 3c 73 1b 40 bc
       0.002351962 0.002877438 0.015320641 -0.011725294
000020 28 42 a8 bb 75 4c 30 3b 7f 41 1f bd b2 1c d2 3c
       -0.0051348396 0.002690104 -0.03888082 0.025648449
000030 d9 78 a2 bc 18 26 ae 3b d0 bf dd 3a 5e 95 8c ba
       -0.019833015 0.0053145997 0.0016918126 -0.0010725667
000040 80 52 59 3b 1e 82 03 3b f2 82 d6 bb 63 2b 84 b8
       0.0033160746 0.002006657 -0.0065463716 -6.302332e-05
000050 4b 55 50 3c e3 9e 7e 3b c9 97 11 3c 7f 9d dc 3a
       0.012715648 0.0038852028 0.008886286 0.0016831605
000060 08 a6 f7 b9 3c 93 76 3a 4b 58 0d 3c 7e f0 39 3a
       -0.00047235214 0.0009406095 0.008627008 0.0007093026
000070 e4 1c 5e bb 96 94 5c 39 d5 53 75 bc 79 96 64 bb
       -0.0033891732 0.00021036188 -0.0149736 -0.0034879728
000080 57 68 48 3c e8 dd f0 3b 72 26 f0 bb ac 6f 3a bb
       0.012231908 0.007350672 -0.007328802 -0.002844791
000090 86 dc 9b bb 78 08 2b bb f7 ea 7e bb bb ee 8a 3b
       -0.004756513 -0.0026097577 -0.0038897374 0.0042398847
0000a0 a6 d3 ba 3b c4 69 90 3b 87 ab 37 bb 9d 89 8e b9
       0.0057015 0.0044071395 -0.0028025822 -0.0002718688
0000b0 63 ef 5c ba df 62 6b bc 53 a8 82 3b d5 34 f0 ba
       -0.00084280054 -0.014366834 0.003987351 -0.0018326292
0000c0 4a 4d 40 bb 4e fb a3 3c af ae 07 bc 06 d3 b0 bb
       -0.0029342943 0.020017292 -0.008281394 -0.0053962497
0000d0 9d 8e 2d bb e0 ad f0 3a 4f 8f 7d 3b de 7c 09 bb
       -0.002648271 0.0018362366 0.0038690155 -0.0020978968
0000e0 cd c0 a6 bb 7d 3c 0f 3c 13 4e 8c 3b 50 f1 a9 39
       -0.0050889016 0.008742449 0.004281768 0.00032413984
0000f0 7f cc 1c bc 4c 48 c8 3b bf 8d 23 bb e9 c0 4c bc
       -0.00957024 0.006112134 -0.0024956313 -0.012497165
000100 39 be f6 3b 39 7f 57 3c 9e 67 1e 3c 7c a0 ba bb
       0.0075300005 0.013152891 0.009668259 -0.0056954008
000110 33 21 30 3c 22 93 58 ba 25 44 04 3c 86 33 87 3b
       0.010750103 -0.00082616706 0.008072888 0.004126015
000120 61 73 03 bb 0d 15 32 b9 cf 74 14 3b 3f f9 36 3b
       -0.0020057785 -0.00016983245 0.002265263 0.0027919558
000130 ee c3 89 3b 24 a7 c0 ba 24 ac cd 39 32 2a 4e bc
       0.004204265 -0.0014698249 0.00039228902 -0.012583302
000140 d9 4e 05 3c 00 31 91 bb 67 9b c5 3b 78 74 2c bb
       0.0081364745 -0.00443089 0.0060304883 -0.0026314538
000150 5a 9b 94 3a 4b 3b 0f b9 19 85 58 bc 27 7c 07 3b
       0.0011337802 -0.00013659631 -0.013215327 0.0020673366
000160 54 de 29 bb df 69 5d 3b 78 55 50 bb 58 d3 39 bc
       -0.0025919871 0.0033785028 -0.0031789225 -0.011341892
000170 b4 6f 0b bc b7 b8 32 bb 74 cc 40 3b 85 40 80 bb
       -0.008510519 -0.0027270743 0.0029418739 -0.0039139413
000180 72 1d c3 3a 04 11 54 ba 23 98 4a 3b 89 9e 49 3b
       0.0014886095 -0.0008089694 0.0030913434 0.003076466
000190 ec 34 17 3b 0a 97 3f bb d8 ab c9 3a ad 4b b8 bc
       0.0023072315 -0.0029234313 0.0015386296 -0.022497023
0001a0 1d e6 3c 3c c2 dc cc 3a 57 84 89 bb 9c 56 8f 3b
       0.011529473 0.0015629756 -0.0041966843 0.0043743383
0001b0 a3 29 5f 3b 5a c7 ad 3b 30 97 cd bb 2f d7 0f ba
       0.0034051917 0.0053033056 -0.0062741265 -0.0005487082
0001c0 f2 68 00 bb 37 d5 5a 3b fc e1 2d 3b 47 f2 b9 ba
       -0.0019593802 0.0033391246 0.0026532402 -0.0014186584
0001d0 f0 18 74 ba 80 d2 88 3b 57 d4 49 3b 31 f0 62 ba
       -0.00093115773 0.004175484 0.003079673 -0.0008657007
0001e0 11 03 e3 bb b0 a6 8c 3c c7 9a de 3b 08 69 33 ba
       -0.006927856 0.017169327 0.0067933532 -0.0006843959
0001f0 22 88 be 3a 3f a1 8c bb bc 3e 6c bb 5c 94 70 3c
       0.001453642 -0.004291683 -0.0036048135 0.014683809
