checkpoint_Actor.pth (torch_old, 83368 bytes, 10 tensors)

fc1.weight f4 [128, 24]
00000000: 5981 6cbd 3fcf 6cbd d3a5 e13d ab25 7dbc
00000010: efd6 c93b a9a9 bf3c b719 d9bb cc53 d9bd
00000020: 8741 6a3d 65c5 8b3d 1bc4 37bc f5f5 81bd
00000030: 6167 863d 0fc1 2b3e 63c1 a0bc eef4 88bd
00000040: 127f d3bb b795 cebb 9e8b a03c 26a4 a2bd
00000050: f169 e13d 7fe0 c23d db2d 5a3c 95bc 6f3d
00000060: d1e1 8bbd e644 9cbd 4e48 ef3c bd7c 0abd
00000070: 3fbe 3abd 1918 80bc 5258 ab3d a301 a0bd
00000080: c74d 113d 6619 dabd 3171 a7bd d53c 143d
00000090: 17ac a73d a0d5 42bc 45b9 b5bc 693d bebd
000000a0: 9f9a 83bd de9e 923b 7ed0 9e3b 69d8 d2bc
000000b0: ee02 5c3d 76b7 df3c 156e 1bbd 64a0 f2bc
000000c0: e785 cbbd 3f13 843d e29e af3d b3da f23c
000000d0: 68d6 50bd d981 56bc 9877 afbd 9ea3 0cbd
000000e0: 90c4 a1bc d136 1e3e 9ff0 54bc 54ae 683c
000000f0: ef5b 30bc 0e15 16be 0ec5 aabc c40a 593d
00000100: e9ff f53c 5323 b03d 6748 9ebd 8971 99bd
00000110: 5bc6 99bd 2cfd 2bbe f399 6e3d be94 293d
00000120: e990 b03d 69e1 0a3e 05a8 12bd 118b e0bd
00000130: 03d2 84bd cebc bebd b861 a13c 0a9b fdbd
00000140: 11c8 a0bc 0922 483d 54d9 043d f3b8 b6bd
00000150: 3222 c4bd 4e50 d2bc 9565 f1bc d465 5bbc
00000160: 4dd2 653d 0f04 6a3d 1030 423d 471f 75bb
00000170: 62fe 6fbc 6180 9c3d 4607 51bd ce33 333b
00000180: 41ce c53c c7eb f43c 2876 aabc d2ac 8b3b
00000190: 4d24 5ebd c061 fa3b 41e9 673c b4d8 853d
000001a0: 6b6f 743d cff5 133c c303 47bd a4da 8a3b
000001b0: 9b0a 28bc 6494 9abb 3f79 343d 7b47 c73d
000001c0: f847 8b3d 96d0 043e cbd5 5b3d a7e9 b53c
000001d0: 5471 e7bd f2a9 88bd 3354 41bd bd95 d53c
000001e0: 5499 99bd 4568 fcbc 1a01 57bd b748 003e
000001f0: 36e4 67bc a0f6 243a 449d a0bb 6471 b93d
00000200: 69b3 01be cbe6 8fbc bfce 3f3c 8914 10bd
00000210: 43f3 b33d e192 9a3d 5f8b c1bc 348f cf3d
00000220: ca9c c4bd 92be 8fbd 4f9e b53c 3ab8 54bd
00000230: bb73 253d 19cd 813d 4d19 4bbc 7f4f 9e3c
00000240: ae4b 12bd f162 ddbc 9652 b2bd 83fd bb3d
00000250: 0ce6 0bbd 391f 79bc bb3d 32bd 4965 8e3d
00000260: 6328 09bd 9e8b ffbd 912e 783c c289 2d3d
00000270: 0e49 b5bc d87b 0c3e 336a 023d 8ad4 803a
00000280: cfdc 1fbd 2a5e e2bc 0d81 84bc a5e6 b83c
00000290: 75b0 70bd d1a0 a83c 34e5 6a3c 5c7d 45bd
000002a0: f89d 2a3d 0081 d6bd 9ae5 42bd 11db b03d
000002b0: 775d a03d 23c8 babd c3fd 353c 737f 4cbc
000002c0: cdd7 883d f8ef 31be 1e8e 4ebd 7353 233c
000002d0: 3e6d 143d 3eae 503c f8e4 ab3c d0c4 50bd
000002e0: 1215 10bd c0a7 81ba 756c 783d 4dd7 c33c
000002f0: 244c ca3d fb39 66bd 7363 43bd 8c54 6e3d
00000300: daf0 ff3c 7523 873d d8cd ab3c 0868 d43c
00000310: a4a3 0fbe 9caa 22bd f966 f0bc 7573 c0bd
00000320: a0d1 073d ba39 883c be36 c23d 4eef 353d
00000330: 8988 20bd 1d1f 933d 12f0 8e3d e429 003d
00000340: 0662 ec3c 4970 bc3d 45b5 13bd ab99 19bd
00000350: dd36 bfbd 7822 483d 1d6f 25bd 8168 eb3c
00000360: 58f9 12be b574 97bd f9ef 8d3c 889a aebc
00000370: 093d 88bd 4292 8b3d cc6e 5ebc beee 97bd
00000380: 37f6 b8bd 79ba 963d 7369 11bb d981 4d3d
00000390: ea13 e0bc 5cae 3ebc 583c 13bd fb94 66bd
000003a0: 176b e03c 6401 493d 52ab 93bd 8257 593d
000003b0: bc20 a13d 685b 24be f6f1 923d f001 fe3d
000003c0: bf00 993d 36cd 983c 60ea abbb 121c 683d
000003d0: 390f 213d 5238 0ebb 3281 313d 2b55 e9bc
000003e0: 0b4f 983d 6724 23bd 06da 0dbd 1d93 c73b
000003f0: 3edd 26bc e568 2dbe ee00 34bc 9353 2b3c
-0.057740543 -0.057814833 0.110179566 -0.015450875 0.0061596553 0.02339633 -0.00662538 -0.10611686
0.057191398 0.068247594 -0.011216189 -0.06345741 0.06562687 0.16772865 -0.019623464 -0.06687342
-0.006454357 -0.0063044685 0.019597825 -0.07941465 0.11006535 0.095154755 0.013316597 0.058529455
-0.068301804 -0.07630329 0.029209282 -0.033810366 -0.04559159 -0.01563649 0.08366455 -0.07812812
0.035474565 -0.106493756 -0.081758864 0.036190826 0.081871204 -0.0118917525 -0.02218307 -0.09289057
-0.06425976 0.004474505 0.0048466315 -0.025737958 0.05371373 0.02730916 -0.03794678 -0.029617496
-0.09937649 0.064489834 0.08575226 0.0296453 -0.050985724 -0.0130924815 -0.085677326 -0.034335725
-0.019747049 0.15450598 -0.012996822 0.014201719 -0.010764106 -0.14656469 -0.020845916 0.052988783
0.030029254 0.086004876 -0.077286534 -0.07492358 -0.075085364 -0.16795796 0.058252286 0.041401617
0.086213894 0.1356255 -0.035804767 -0.10964025 -0.06485369 -0.093133554 0.019699916 -0.12383087
-0.01962665 0.048860583 0.032433823 -0.08921995 -0.09576835 -0.025673058 -0.029467383 -0.013390977
0.05610876 0.057132777 0.047409117 -0.0037402676 -0.014648052 0.07641674 -0.051032327 0.002734411
0.024146201 0.029897584 -0.020808294 0.004262545 -0.054233838 0.0076410472 0.014154733 0.065354735
0.05967657 0.009030773 -0.04858757 0.00423749 -0.010256435 -0.0047173966 0.04406094 0.09730431
0.06800836 0.12970194 0.053670686 0.02220614 -0.113009125 -0.066730395 -0.04719944 0.026072377
-0.07499948 -0.030811438 -0.052491285 0.12527739 -0.014153531 0.00062928535 -0.00490156 0.09054831
-0.12666096 -0.017566105 0.011707007 -0.035175834 0.08786633 0.07547546 -0.023626028 0.10134736
-0.09600218 -0.0701877 0.022170214 -0.051933505 0.040393572 0.063379474 -0.012396169 0.019325016
-0.035716705 -0.027024718 -0.08707158 0.09179213 -0.034154937 -0.015205198 -0.043515902 0.06952912
-0.03348578 -0.12477802 0.015147821 0.042367704 -0.022129562 0.13719118 0.03183956 0.0009828967
-0.03902894 -0.027632792 -0.016174817 0.022570917 -0.058762033 0.020584496 0.014336873 -0.048215255
0.041654557 -0.104738235 -0.047582246 0.086355336 0.07830327 -0.09120204 0.011107865 -0.012481558
0.06681786 -0.17376697 -0.050428502 0.009968626 0.036236994 0.012736855 0.020983204 -0.050968945
-0.035176344 -0.0009891912 0.060650308 0.023906374 0.09877804 -0.05620764 -0.047702264 0.0581861
0.031242777 0.0659856 0.020972177 0.025928512 -0.14027268 -0.039713487 -0.029345976 -0.09397022
0.0331589 0.016629089 0.094830975 0.04441767 -0.03919271 0.07183669 0.069793835 0.03128995
0.028855335 0.09201104 -0.036061544 -0.037500065 -0.09336636 0.048860997 -0.04038917 0.028736355
-0.1435293 -0.07395307 0.017326342 -0.02131392 -0.066522665 0.06815006 -0.013576221 -0.07418583
-0.09031337 0.073597856 -0.0022188097 0.05017266 -0.027353246 -0.01163825 -0.03594622 -0.056294423
0.027394814 0.04907359 -0.07210411 0.05306197 0.07867572 -0.16050494 0.07175057 0.12402713
0.074708454 0.01865254 -0.0052464455 0.056667395 0.039321158 -0.002170105 0.0433361 -0.028482994
0.07436951 -0.039829638 -0.03463175 0.0060905353 -0.010184584 -0.16934545 -0.01098655 0.010456937

fc1.bias f4 [128]
00000000: 77e9 093e 3fc6 55be d5a5 50be 0fcd 873c
00000010: eb2c 00be 907a 393e 51c1 ef3d 19d2 60bd
00000020: 4c6b 893d a276 2b3e 3254 5fbe 9215 b8bc
00000030: 6cd7 2d3e ae8d 32be d820 1bbd b539 e63d
00000040: 024a e8bb f62c 00be 6021 05be e324 be3b
00000050: 6416 19bd ef4d e93d ed39 523d d467 f73d
00000060: 4af5 423e 2556 55be 266f 7fbe 59e3 c03d
00000070: c758 61bd c096 5cbe 4680 ebbd 13f2 513e
00000080: 4452 bfba cfa4 833d fa9a 833d ebe0 acbd
00000090: 467c 86bd 2411 34bb fd4a 54be 92cd bebd
000000a0: 9912 f23d 1cee 1a3c 383d 993d f950 7bbd
000000b0: 22dd 07be a3c3 36be a491 263e 93ac 46be
000000c0: 8bb3 2bbe 31f3 0c3e edc1 04be c654 85bd
000000d0: 3285 edbd 9c89 7abe 2255 3ebe dfe2 edbd
000000e0: 9d2d 20be 25b4 853d 7893 aabb 54c1 5dbe
000000f0: ac03 b5bd 403d 2e3e 195f be3d d21a 1bbe
00000100: 759e 56bd 20c3 2bbe 9d46 173d 72d3 3cbe
00000110: 99d6 0fbd b2d1 8fbc 7128 803d 334f 4bbc
00000120: dc73 b0bd a043 90bd cf0a d4bc 29a5 43be
00000130: ddc5 c13b efda 18be b4d0 f13d 38fe 26bb
00000140: c5e2 41be 204e 583d 7b09 2fbd f6e2 663e
00000150: a3c8 cb3b cfa8 223e c7d2 483d bb65 0abe
00000160: d3c6 13be 8eb0 4abe c344 123e 0d2f d53d
00000170: ba29 7ebd b9f2 7ebe 8c33 523e 464a b03d
00000180: 35b7 2dbe e417 6abc 7444 fd39 eb93 433b
00000190: 8101 94bd 9f00 2e3d ae7a e2bd 6373 6e3a
000001a0: bf7a 04be 6a6a 1d3e 72bd b43d dd8c 643e
000001b0: d906 27be 0cf1 9dbd fd34 19be 6f36 3bbe
000001c0: c6b1 fc3d d469 90bd 033b b3bd f92b 31bd
000001d0: bc76 83be 4ce8 6cbd b2da bcbd 7c0f 053e
000001e0: d0b8 373d 6c32 d9bd 192d 95be 8fe7 9f3d
000001f0: e8f8 c9bd b9dc ea3d 9932 433e 2870 df3d
0.13467966 -0.20876406 -0.2037576 0.016577272 -0.12517135 0.1811316 0.11706794 -0.054887865
0.067099184 0.16744474 -0.21809462 -0.022471223 0.16976708 -0.17436859 -0.03787312 0.112414755
-0.0070889005 -0.12517151 -0.13001013 0.005802737 -0.03737487 0.11391818 0.051324774 0.120803505
0.19038883 -0.20833643 -0.24944744 0.09418363 -0.055016305 -0.21541882 -0.114990756 0.205025
-0.0014596661 0.06427919 0.06426044 -0.08441337 -0.06566672 -0.0027476037 -0.20731731 -0.09316553
0.118199535 0.009456184 0.0748238 -0.06135652 -0.13267949 -0.17848067 0.16266495 -0.1940177
-0.16767709 0.13764645 -0.12964602 -0.0651031 -0.115976706 -0.24466556 -0.18587163 -0.11615538
-0.156424 0.065285005 -0.005205568 -0.2165578 -0.08838591 0.17015553 0.09295482 -0.1514695
-0.05239721 -0.16773653 0.036932576 -0.18440035 -0.035116766 -0.017556045 0.062577136 -0.012409019
-0.086158484 -0.070441484 -0.02588406 -0.19105972 0.0059134797 -0.14927267 0.11807385 -0.0025481116
-0.18934162 0.05280888 -0.04273365 0.22547516 0.006218986 0.15884708 0.049029138 -0.1351537
-0.14431314 -0.19793913 0.14284043 0.10409365 -0.062051512 -0.24897279 0.20527476 0.086079165
-0.16964419 -0.0142879225 0.00048306922 0.0029842805 -0.07226849 0.04248106 -0.110585555 0.00090961735
-0.12937449 0.15372625 0.08825196 0.2231936 -0.16311206 -0.07711992 -0.1496162 -0.18282484
0.12338595 -0.07051435 -0.0875149 -0.043254826 -0.25676525 -0.057838723 -0.092214 0.12994188
0.044853985 -0.1060532 -0.2913597 0.07807838 -0.09861928 0.11467881 0.1906227 0.10910064

fc2.weight f4 [128, 128]
00000000: fa67 0f3e 11b9 883d cc47 06be 3faa 50be
00000010: 2318 13be bc5b 4dbd acc2 c1bc c81e e3bd
00000020: d821 013d 7b90 a63d 6f8a 943c 278c c1bd
00000030: d0d9 ebbd ace0 6e3d d5e6 88bd a89f 853c
00000040: 9e37 8f3d 8410 53be ecd5 d7bd 0a1e c73a
00000050: 4404 cf3c d64f 62bc e826 e83c 2ec8 e7bb
00000060: 8d04 3ebe 2e7c 9f3b aa4e a33d 9b68 1a3e
00000070: 9ca7 efb9 4c0e 2ebe 6a1e 9abd 945f 7e3d
00000080: edd8 dbbc 7762 adbc 4cd8 8d3c d8f6 b0bd
00000090: eb61 eabd e58a 553c 67df 013d 5382 363d
000000a0: ab19 3d3c f8e9 14be 8e6e f73a 5ce3 7a3b
000000b0: f203 d73d 2d62 e0bd 4260 0abd 1496 2d3e
000000c0: 79bd 0abe 4732 16be c0fb 91bc 7f6d 173e
000000d0: 7062 3bbe 771f 773d ca0b cebd 03ea e1b8
000000e0: d679 b9bd 7037 a3bc 256e 23bd 9d9c 903d
000000f0: f9c3 793c 4f5a 9e3c 7cb0 0abe 417d 82bd
00000100: 0b60 aa38 38f8 043d 161d d9bd b24d 30be
00000110: 2912 d7bc 597f c43d 126d 363c 9606 ac3d
00000120: 414b b2bc d812 a6bd 82c2 bdbd 8ca2 003e
00000130: f563 50be 7660 273d c642 89bc 6c4e 3b3d
00000140: af43 f13d f340 21bd 657b f4bb fa3c 77bd
00000150: f3ed b8bd 91e3 1fbd eb9c c1bc e125 86ba
00000160: 6286 15be cd83 99bd 5649 a93d 415d 2c3e
00000170: 856e 883e 11f7 31bd 993e e53d 1f1f e9bd
00000180: 3015 39be b6b1 8dbd eae7 8abd 2ebf f2bb
00000190: 7845 183d 1b51 1ebd a2b4 f4bc 3138 20bd
000001a0: 70fa 163e 4401 acbd 3428 19be 634a c23b
000001b0: 9c35 de3d 7d34 b73d 3639 173d a859 f63a
000001c0: 3b4e a7bd 385a 8c3b 73d5 9e3c d06d 09bc
000001d0: c726 1a3e 111e ebbd 7ced 4cbd 6b1e b2bd
000001e0: 501d edbd e09e 24bd 9ddc 85be 6ee1 79bd
000001f0: b8cb 873d 5b1f b7bc 9f0e 88bc 176e bbbd
00000200: cb03 0d3e 18ba 9fbd 7d3e 8fbd 5c55 8bbd
00000210: 4a43 be3d 03b0 09be c9c3 f7bd 1c99 c9bd
00000220: 32a2 e2bd eb8c 9bbd 3902 c5bd c7be 25bd
00000230: a7a4 08bd 3f33 adbd c48b a8bd a38f 353c
00000240: 4b28 6c3e 5318 423d b766 d8bd f8f1 063d
00000250: eaac 273b 10a5 87bc 778d 9a3d 9d13 b5bd
00000260: 0f58 d93a be4b 993d 34d4 093e 29ea aebd
00000270: a96b 9e3d f04b 06bd 8493 0cbe ddfd b3bd
00000280: ad19 313c f5e1 ca3d 6495 853c 5c18 9d3d
00000290: 83e4 1ebe f474 103e 3bdf 033d 12c0 583d
000002a0: c5c5 b83c e410 963c 66b8 65bd ab8e 313d
000002b0: 4b3a 28b9 a1e0 49bd 0efa adbd 0869 a93d
000002c0: 0a61 d0bd 33d4 b43a 0590 42bd 67f7 cd3d
000002d0: 98c4 b5bc 8166 a9bc 7615 acbd 5587 ad3c
000002e0: 13a1 20bd e943 a0bd c174 763d 06d0 c53d
000002f0: 5df2 49bd 5035 9ebc ae4a 0fbd 01fa 23bd
00000300: 51bb 14bd 1fd7 87bc 2323 e3bb 41ce 2fbe
00000310: 4b80 d1bd 2eaa ca3b 2d21 d3bd 83d5 3b3d
00000320: 9392 dcbc e9c2 403d 8ce8 12bd 4407 48bd
00000330: eeef d63d 5b9c 13bd a21d b3bc d69e b83d
00000340: 1835 7fbc 78e1 b6bd 8bf1 c4bc a465 d13d
00000350: 6b2c 80bd a8f2 c33c f470 763d 3f04 b8bb
00000360: 5057 cb3b 3fda 833d bcdb 493d 725d 143e
00000370: d3af a03d 0872 73bd 173a c63d 1897 213d
00000380: c92e 32bc 331a 193d cddb d6bd 002a cf3d
00000390: 38cb cebd c64b 673d b3d1 5b3d b36a 2bbe
000003a0: cc0d 483e 6f8a 4e3e 6df5 8ebb 6936 8abd
000003b0: 8496 7fbd dda4 d6bd ea72 5c3d 2457 febc
000003c0: a9f1 d03c 91af 3abd abe4 aabd c528 97bd
000003d0: 16b8 a93d 3bb6 abbd 5d69 10bd a31a d6bd
000003e0: 14cb 943c 0c28 1ebc 24e4 c7bd 54b0 81bd
000003f0: 0ae4 0d3d eeba ce3d b8a1 d63c a31a f9bd
0.14004508 0.066759236 -0.13113326 -0.20377444 -0.14364676 -0.050136313 -0.023652397 -0.110898554
0.031526417 0.08133026 0.018132417 -0.0945056 -0.11516154 0.058319733 -0.06684653 0.016311482
0.0699303 -0.20611769 -0.10538849 0.0015191447 0.025270589 -0.01381298 0.028338864 -0.007073424
-0.18556423 0.0048670983 0.07973988 0.15078966 -0.0004571051 -0.16997641 -0.07525332 0.06210287
-0.026836837 -0.021165116 0.017315052 -0.08640832 -0.114444576 0.013033603 0.031707194 0.04455788
0.011541764 -0.14542377 0.0018877552 0.003828249 0.104987994 -0.109562255 -0.033783205 0.16951782
-0.1354884 -0.14667617 -0.017820239 0.14787863 -0.1829927 0.06033274 -0.10060842 -0.00010772424
-0.090564415 -0.019923896 -0.039899964 0.070611216 0.015244477 0.019330172 -0.13543886 -0.063715465
8.124121e-05 0.032463282 -0.10601251 -0.17217138 -0.026253777 0.09594602 0.011134403 0.08399694
-0.0217644 -0.08109063 -0.09265615 0.12562007 -0.2035063 0.040863477 -0.016755473 0.045729086
0.11780488 -0.03936858 -0.007460999 -0.060360886 -0.0902976 -0.039035384 -0.023634395 -0.0010234677
-0.14602044 -0.07495842 0.08265941 0.16832449 0.2664682 -0.04344851 0.1119358 -0.11382889
-0.18074489 -0.06918661 -0.06782515 -0.0074080443 0.037175626 -0.038651567 -0.029871289 -0.03911609
0.14743972 -0.08398679 -0.14956743 0.0059292777 0.10850069 0.08945558 0.036919795 0.001879503
-0.08169218 0.004283216 0.01938889 -0.008387998 0.15053855 -0.11480344 -0.05003117 -0.08697208
-0.115778565 -0.040190578 -0.26144877 -0.061006002 0.06630653 -0.022353819 -0.016608534 -0.09151857
0.13770978 -0.077991664 -0.069943406 -0.068033904 0.09290178 -0.1344605 -0.1209789 -0.098436564
-0.110660926 -0.07595237 -0.096195646 -0.040465143 -0.03336015 -0.0845704 -0.08229783 0.011081609
0.23062246 0.04738648 -0.10566466 0.032945603 0.0025585243 -0.0165582 0.075465135 -0.088416316
0.001658203 0.0748515 0.13459855 -0.08540756 0.07735378 -0.032787263 -0.13728148 -0.08788655
0.010809344 0.09906379 0.016306587 0.07670662 -0.15516858 0.14107114 0.03219531 0.052917548
0.022555241 0.018318601 -0.05608406 0.04334895 -0.00016043444 -0.04928649 -0.0849496 0.08271986
-0.10174759 0.001379615 -0.04750063 0.10056954 -0.02218847 -0.02067876 -0.08402531 0.021182695
-0.039216112 -0.07825453 0.06016994 0.09658818 -0.0493034 -0.01931253 -0.03498333 -0.040033344
-0.03631145 -0.01658207 -0.006931679 -0.17168523 -0.10229548 0.006184838 -0.10309062 0.045857918
-0.02692536 0.04706088 -0.035866305 -0.048835054 0.10494982 -0.036037784 -0.021864716 0.090146706
-0.015576623 -0.089297235 -0.024040958 0.102244645 -0.06258472 0.023919418 0.060166314 -0.0056157405
0.006205477 0.064381115 0.04928182 0.14488772 0.07846036 -0.05943492 0.096790485 0.039450735
-0.010875412 0.0373785 -0.104911424 0.10115433 -0.10097355 0.056468748 0.05366678 -0.16739921
0.19536513 0.20169996 -0.004362753 -0.06748659 -0.062399402 -0.10480664 0.053820528 -0.031047411
0.025505858 -0.04557759 -0.08344396 -0.07380823 0.08287065 -0.08384367 -0.035256732 -0.10454299
0.018163241 -0.009653103 -0.09760311 -0.0633246 0.034641303 0.10094248 0.02620016 -0.12163284

fc2.bias f4 [128]
00000000: 813f 333e 2a26 e33a a7f6 923c 155f 1a3e
00000010: a4d9 14bd 58c3 d43d caae 283e b016 143e
00000020: e201 143e b5c2 1c3e e438 003e a706 3d3e
00000030: cc7f f73c 3f7b 0b3e 63a6 fe3d d0ee 753d
00000040: 52a7 483e 9b0d 343e c432 d83d 59c8 073e
00000050: b760 123d d765 2a3e 4f1e 163e 6fb2 ce3d
00000060: 1da6 253e 49c6 0e3d 9504 713d 12b1 1d3e
00000070: 40c8 c23d faab b53d 7c5c aa3d 440a 3f3d
00000080: 0851 adbc ecf4 1e3e 8446 f33d b550 473d
00000090: bd43 e23d 1d87 aa3d e1e0 073e d4e4 043e
000000a0: c574 87bc 0097 503e 3bdd 7e3d d00d 083d
000000b0: b55b 943d c0b6 de3d f3de 2a3e d8f2 5e3e
000000c0: 0eb6 273c baa8 d03c 3a33 313d 45b4 0a3e
000000d0: 7429 6e3d c0f2 683d f585 1c3e 3938 043e
000000e0: e8b7 b53d b60f f73d 37e5 043e 3450 9e3d
000000f0: 8357 a03d 4484 713c f04a 063d ce39 053d
00000100: a212 643e 75a8 5f3c fb55 1a3e a151 123e
00000110: 352f a73d 5413 023d a8db 8b3d 7256 963d
00000120: 03ab 0c3e 8d30 053d b341 143e 9c9e 443c
00000130: 02f4 423e 7ccb 143d d165 543e e22b 583d
00000140: cff1 223e 71b1 a13d 9f7c 753d c40c 163e
00000150: 51dd 3a3d cdb0 553d a7b6 453d cee4 d53d
00000160: 6a79 143e ffd9 663d 4119 3e3e 9989 773d
00000170: 46be 8f3e 446d 5a3e 4bde 883c 50a0 f03d
00000180: dde5 c13d 04e1 1d3e 6a20 233e c82a 213e
00000190: 9bd3 333d 6cea 273e 0946 ca3d d339 993d
000001a0: 1919 013e 4c44 c93d abc7 983c afad 873d
000001b0: 3d53 133e 8206 5c3e aae8 b4bc d493 ec3d
000001c0: e037 003d 2447 a83d fcff d53c 72d4 d33c
000001d0: 6f93 d43d 4b36 173e 4361 4d3b 2b50 ce3d
000001e0: 8154 8d3d 6f32 313e e0a4 993d 2530 1d3e
000001f0: 63f3 4b3e 8857 c93c 0442 e73d 9e0b 343e
0.17504694 0.0017330099 0.017939879 0.15075333 -0.03634037 0.10388821 0.16472927 0.1446178
0.14453843 0.1530865 0.12521702 0.18459569 0.030212305 0.13621233 0.124340795 0.060042202
0.19595078 0.17583315 0.10556558 0.1326002 0.035736766 0.16640411 0.1466 0.10092627
0.16176648 0.03485707 0.05884226 0.15399578 0.09510851 0.088706926 0.08318421 0.04664065
-0.021156803 0.15523118 0.11878684 0.048660953 0.11048076 0.08326552 0.13269378 0.12977916
-0.016535172 0.20370102 0.0622227 0.033216298 0.07244054 0.108747005 0.16686611 0.21772325
0.010236276 0.02547108 0.043261744 0.1354533 0.058145 0.05687213 0.15285476 0.12912072
0.08872968 0.120635435 0.12978064 0.07730141 0.078291915 0.014741007 0.03278631 0.03252583
0.22272733 0.013651003 0.15071861 0.14288951 0.08163301 0.031756714 0.068290055 0.07340707
0.13737111 0.032517005 0.14478187 0.012000706 0.19038394 0.03632687 0.20741965 0.052776225
0.15912555 0.078951724 0.0599333 0.14653307 0.04562122 0.052170563 0.048269894 0.10444032
0.14499441 0.05636024 0.18564321 0.060433958 0.28074855 0.21330744 0.01670756 0.11749327
0.09467671 0.15417868 0.15930334 0.15738976 0.043902975 0.16398019 0.098766394 0.07481732
0.1260723 0.0982748 0.018649897 0.066249244 0.14387222 0.21486858 -0.0220836 0.115516335
0.031303287 0.08216694 0.02612304 0.025858138 0.10379683 0.14766805 0.003133849 0.100738846
0.069008835 0.17304395 0.075021505 0.15350397 0.19917063 0.024577871 0.11291888 0.17582557

fc3.weight f4 [2, 128]
00000000: c291 54be e212 b8bd ebe8 03be 6cdc 6abe
00000010: 4697 f53d 2fce ae3d e500 e1bd 9a36 383e
00000020: 3cdb e2bd 7393 b4bc 2006 553e fc50 023e
00000030: 3f77 f8bd 0b15 61be 0af9 633d d7fe 02be
00000040: 80cb a7bd ecae 06bd f43d 4dbe 8fc5 503e
00000050: df27 2f3e e54a b5bd 15dc 823d 54d5 efbd
00000060: 6b33 163e 9ca9 72bd a9ae 903e b451 6d3e
00000070: 4d0b 50be d2e5 0abe 2242 bdbd 1707 1abe
00000080: 12e3 083d e31d 39be e3b2 6c3e 565f 30be
00000090: 359f 02be b739 2ebe 0221 53bc 486d 7ebe
000000a0: 4d2f f73d a314 b3bd 84c3 74be 89e9 a83d
000000b0: 02f0 c3bb 6250 c0bd f674 1d3e 068b b2bd
000000c0: 1ff6 37be 5feb 503d 12de f63b 9d6f 0f3e
000000d0: 33f8 873e 6709 713e dcd9 10be a7f3 4b3e
000000e0: ff28 16be 2187 90be d87b 87bd 3ba7 3ebe
000000f0: 9d36 c1bd 050c 22bb 719c 28be 87ac 08be
00000100: 53a6 27bd 1a97 7b3e 2d51 213e ada3 d9bd
00000110: 041e f03c 47bc 19be 8a51 4cbe 4f76 403e
00000120: 0470 ec3d e9b3 753e 5562 6a3e 487f 4abe
00000130: 63e5 95be eee1 623e 1d39 24bd a06e 0fbe
00000140: 15f8 29be b31d 46be 5d30 b83c 9f86 64bd
00000150: 9559 273e d221 8abd 62c6 683e a411 e4bd
00000160: 5203 30bd 326f 733e eb7e d2bd 13e7 0d3e
00000170: dcd1 1e3e eaf7 64bd f64a 5b3e 199e 763e
00000180: 8521 5bbe 83ea 6e3e b7f2 6fbe a9ca 103e
00000190: 962d 6d3e 8937 91bd 950e 73bd 3519 08be
000001a0: 3d29 04be 837a 433e 70c3 843e a290 c1bd
000001b0: bc86 58be 1373 00bd 1f1b b0bc 89df e0bd
000001c0: d213 b33d eaa9 87bd 0ad7 02be cf0b 0abd
000001d0: c3a5 bbbc f68e 05be 19ba a4bd 8ef3 10be
000001e0: 3e91 5f3e 6a79 27be 8bde 7c3e 1c9b 5a3e
000001f0: e1bc 1abe 9922 2d3e 8f26 a6bd a9fe 81bb
00000200: f000 f03c 1be1 17be dc2f 91bc 023e 2fbd
00000210: b031 fc3d fd5c 67be e7f5 603e 8065 3cbd
00000220: 1998 ebbd b43c 9d3e 549e 0bbd 468c 5fbd
00000230: e282 0fbe 2be7 cfbd a1e9 9b3e 4ee5 47bd
00000240: c684 a03e 6da5 da3e f442 e23d d2d6 1c3d
00000250: 5acf 153e f143 3abe 9e6e 3fbe 972b d9bd
00000260: 5aa8 2dbe df89 cb3e bc73 09bd bd83 70bd
00000270: d4b1 133e bac7 34bd 5007 4cbe b066 8b3d
00000280: b2dc 863e dc87 753d c225 b0bd d2a4 f4bd
00000290: 8e79 31be 8fbb 5dbd 9fe0 8d3e eed2 cc3d
000002a0: c957 e43a e7fa a03e 843a e23d 2627 7f3e
000002b0: 4986 8a3e 500a 45be a249 e7bd 71cf 96be
000002c0: 9087 9b3d 9b0f 8d3e 6813 acbe 8665 023c
000002d0: 9566 cfbd 265d 6fbd 97ed f33b 2e17 0c3d
000002e0: 554b 2b3d 2272 9a3d 9925 323e 324b 273d
000002f0: 8654 353e 9065 853e c71a 683e 74fd ec3d
00000300: a12d 96be 1f3f dfbb ec3b 6f3d d806 1abe
00000310: 5f5b 8ebe 6d74 853c 6793 1cbd f1c5 673d
00000320: 75a1 493e 1ef0 7cbb 0e06 cd3c 5fd4 d43d
00000330: ba21 cb3d dd0d cfbc 7543 87be 871c 9abd
00000340: 6159 bc3d 97e9 9d3c 0d6e 903e aa0c ba3e
00000350: 5fc0 1e3e 4bd4 a83e 2dc9 9fbc 24a1 c8bd
00000360: 2687 b5be 6852 8b3d 9fc2 37be 2bd3 273e
00000370: 86b5 48be 12f7 a1be 029c 1a3e 47b0 77bc
00000380: 2179 0ebd 4325 03be 8591 b93d 2b03 d2bd
00000390: 42e0 1a3d 4c47 90be ffe1 6ebe d233 afb9
000003a0: d17d 353d dfdb 9b3c 490d 1cbd 3692 05be
000003b0: 9952 4b3d c7d9 5ebe f5e6 a93e 46a7 af3d
000003c0: f027 38be 643c b03e 1f41 19be 8b8c 7c3e
000003d0: 3e15 9f3e 0c25 e1bd 5d61 7dbe 01f3 98bd
000003e0: 1f60 e3bd d035 10be d241 bf3b 1f87 7dbd
000003f0: 673e 90be f68e 613d 935a c23d acc2 8cbe
-0.20758727 -0.089879766 -0.1288182 -0.22935647 0.11991744 0.0853542 -0.10986499 0.17989579
-0.11076972 -0.022042966 0.20803118 0.12726206 -0.121321194 -0.21980684 0.055657424 -0.12792526
-0.081931114 -0.032881662 -0.20043164 0.20387863 0.17105053 -0.088521756 0.063896336 -0.11710611
0.14668052 -0.059243783 0.28258255 0.23175699 -0.20316811 -0.13564232 -0.092411295 -0.15041767
0.033419676 -0.18077807 0.23115115 -0.17223868 -0.12756045 -0.17014204 -0.012886288 -0.24846375
0.12069569 -0.087441705 -0.23902708 0.08247668 -0.005979539 -0.09390332 0.15376648 -0.08717923
-0.17964981 0.051005717 0.007533797 0.14007421 0.26556548 0.23538743 -0.14145607 0.19917165
-0.14664076 -0.28228095 -0.06615418 -0.18618481 -0.09434245 -0.0024726402 -0.16465928 -0.13347064
-0.040930104 0.2456936 0.15753622 -0.10626922 0.029311188 -0.15013228 -0.1995298 0.18795131
0.11544803 0.23994412 0.22889073 -0.19775116 -0.2927657 0.22156498 -0.04009353 -0.14007044
-0.16598542 -0.19347267 0.022483999 -0.055792447 0.16342767 -0.06744732 0.22731927 -0.11136177
-0.042971916 0.23772886 -0.10278114 0.13857679 0.15509742 -0.05590049 0.21415314 0.24083747
-0.21399505 0.23331647 -0.23432432 0.14139809 0.23161921 -0.070906706 -0.05934008 -0.13290866
-0.12906356 0.19089703 0.25930357 -0.09451415 -0.21145147 -0.031359743 -0.021497307 -0.10980136
0.08744015 -0.066242054 -0.12777343 -0.033702668 -0.02290619 -0.13042817 -0.08043308 -0.14155409
0.21832749 -0.1635491 0.24694268 0.21348232 -0.15111114 0.16907729 -0.08112823 -0.0039671254
0.029297322 -0.14831965 -0.017723016 -0.042783745 0.12314165 -0.22594066 0.21968804 -0.045995235
-0.1150362 0.30710375 -0.03408654 -0.054577135 -0.14014772 -0.10151514 0.30451682 -0.048802666
0.31351298 0.42704335 0.110479265 0.038290806 0.1462988 -0.1818998 -0.18694541 -0.10604017
-0.16958752 0.39753625 -0.03355764 -0.058719385 0.14423305 -0.044135787 -0.19924664 0.068066955
0.26340252 0.05994402 -0.08600952 -0.119454995 -0.17331526 -0.054133948 0.27710435 0.10001169
0.0017421182 0.31441423 0.11046317 0.24917278 0.27055576 -0.19242215 -0.11293341 -0.2945514
0.07594216 0.2755097 -0.33608556 0.007958775 -0.10126988 -0.058438443 0.0074440944 0.034201793
0.04181989 0.075413 0.17397155 0.040843196 0.17708024 0.2605405 0.22666465 0.1157178
-0.29331687 -0.0068129445 0.058406755 -0.15041673 -0.27804086 0.016290868 -0.03822651 0.056585256
0.19690497 -0.003859527 0.025027301 0.10392069 0.09918542 -0.025275165 -0.26418653 -0.075249724
0.09196735 0.019276423 0.28208962 0.36337787 0.15503071 0.32974467 -0.019505108 -0.0979636
-0.35454673 0.06802827 -0.17945336 0.16389148 -0.19600496 -0.31633812 0.15098575 -0.015117711
-0.034783486 -0.12807183 0.09060959 -0.102545105 0.037811525 -0.28179395 -0.23328398 -0.0003341721
0.04430944 0.019025741 -0.038098607 -0.13044056 0.04963932 -0.21762763 0.3318402 0.08576827
-0.17983985 0.34421074 -0.14966248 0.24662988 0.31070894 -0.10993394 -0.24744172 -0.07468224
-0.11102318 -0.14083028 0.005836704 -0.06189644 -0.2817261 0.05506798 0.09489932 -0.27492273

fc3.bias f4 [2]
00000000: b5ea 9fbc 8b60 7ebd
-0.019521097 -0.06210379

bn1.weight f4 [128]
00000000: fd03 633d 7d4c 4e3f 1e01 643f 9600 4a3f
00000010: db05 003f 0b87 043f c5c3 743f 3692 453e
00000020: 8aab 363f 0159 053f 6408 063f 8ad5 7c3f
00000030: 56ad a53e 45a4 c93e 2642 9c3e 2ce2 5a3f
00000040: dd2d ff3e 7d71 ca3e 0cee 0e3f aa43 fe3e
00000050: 4483 0a3f b1a6 d13e f7a7 703f aa1c 4e3f
00000060: 276e 2b3f 9dcb 8b3e b258 6b3f 796b 6a3f
00000070: 4e2a b93e dbab 2d3f 18a3 583f d0a2 073f
00000080: da6e 403f cd33 4d3e 32b3 923e e85a 863f
00000090: b7c8 b63e 60ec 843f 9396 5f3e 040b 3c3f
000000a0: 34bb 063f cbeb 073f b50d db3d c2ab 5e3f
000000b0: c8b0 7d3e 3c2f 323f 65c6 673f 9930 b53e
000000c0: 961d 7e3f e6d5 d43e 9b92 673f 7c94 813f
000000d0: bfc7 813f 037e 0d3f 4d31 913f 0718 a13e
000000e0: 70f3 be3e 5aa4 363f 4ea7 703f 6994 a33e
000000f0: 76f6 6f3f 1b54 623f 8998 d43d d86e 973f
00000100: 1d83 943e 0274 6e3f 7ae7 883f 9670 cd3e
00000110: 61c3 2d3e da53 ac3e ac0c d23e 3c05 863f
00000120: f38c bf3e 3e98 b53e 2f44 f33e 17ed 003f
00000130: 943b 683f 88b7 ea3e 071c 893f e0d0 6a3f
00000140: 8198 f03e cea6 333f dd83 a53e b163 af3e
00000150: 15a8 7d3f c1a2 153f 7800 393f deb5 273f
00000160: 11e5 003f 7c4f b33e 91ac 013f 4cc9 2d3e
00000170: 7e8f e73e 9dca 873f b4a5 373f 4d49 723e
00000180: 161c 253f 581f 803e ee5d 923e f5e7 953f
00000190: 900c a63e a41c 673f 5ccf 363f 7d62 583e
000001a0: 5480 8a3e 002a 513f 8dcf 783f 7d90 133f
000001b0: 3795 153f ffc0 f73e efed 803f ff30 893e
000001c0: 567f 6d3f 447b f83e 3426 313e 8e59 353f
000001d0: 6d35 433f fe94 d23e c9ed 4f3e a3a1 b03e
000001e0: 3a03 b23e 9585 073f e30f 9d3e ec96 313f
000001f0: ab6b 6a3f 0c97 733f 8458 df3e d796 e73d
0.055423725 0.8058546 0.89064205 0.78907144 0.50008935 0.5176856 0.9561122 0.19294056
0.713555 0.52088934 0.52356553 0.98763335 0.32358807 0.3938314 0.30519217 0.8550136
0.49839678 0.3953971 0.5583198 0.49661 0.54106545 0.40947488 0.94006294 0.8051249
0.66964954 0.27303782 0.91932213 0.9157024 0.36165088 0.67840356 0.8462386 0.5298281
0.75169146 0.20039292 0.2865234 1.0496492 0.35700008 1.0384636 0.21834783 0.7345431
0.526294 0.53094167 0.10695974 0.8698083 0.24774468 0.69603324 0.905371 0.3538864
0.99263895 0.41569442 0.9045808 1.0123439 1.0139083 0.55270404 1.134317 0.31463644
0.37295103 0.7134453 0.94005287 0.31949165 0.93735445 0.88409585 0.10380656 1.1830702
0.29006281 0.93145764 1.0695641 0.4012496 0.16969062 0.33657724 0.41025293 1.0470347
0.37412223 0.35467714 0.47512957 0.5036177 0.9071591 0.45843148 1.0711678 0.9172497
0.4699135 0.701764 0.32327166 0.34255746 0.990846 0.5845147 0.7226634 0.6551188
0.5034953 0.3502158 0.5065394 0.1697132 0.45226663 1.0608708 0.7173722 0.23660775
0.6449598 0.25023913 0.28587288 1.1711413 0.3243146 0.9027808 0.71410155 0.2113132
0.27051032 0.8170471 0.971917 0.57642347 0.5843081 0.48389432 1.0072612 0.26795194
0.92772424 0.48531544 0.1729973 0.70839775 0.76253396 0.41129297 0.20305552 0.3449832
0.34768087 0.52938205 0.30676183 0.69370914 0.9157054 0.95152354 0.4362222 0.11308067

bn1.bias f4 [128]
00000000: 0373 a43e ef72 92bd 66d0 dfbd 78dd 1ebd
00000010: f921 66be 819a 2abd 5cd1 86bd 6af3 28be
00000020: 61e8 7abd a4c3 0cbe b290 8bbd 8331 963c
00000030: 1bd3 1a3d ca37 31bd 5206 ffbc 1d1b e13b
00000040: d89a 72be 7b7f 493d 6f33 7dbd cb44 533d
00000050: e2e7 63bd 13ba 76bd e47b 90bb fdd9 71bd
00000060: 4330 01be 96a1 713c 45d1 1d3d 27a0 cbbc
00000070: 12b0 493d bb08 22bd 8155 f9bd 2ba3 4bbd
00000080: f1ea 913c 50e9 ee3d e8c8 19bd 1fd5 dcbc
00000090: c9b8 16be 2897 f23c ff9b 0dbe ae0c adbd
000000a0: 2436 bc3c fbd6 113d 9fe8 6ebc b81b a0bd
000000b0: d1a0 85bb 85b2 bebd 08f8 2f3d fa03 2ebd
000000c0: 0772 88bd dcc4 72bd 0e52 9fbc cf13 b7bd
000000d0: bbd5 f73d c3b0 923c b416 a5bd 9737 7dbd
000000e0: 8468 703d 6a18 a0bc 93d3 573c 7f23 a9bd
000000f0: b037 3ebd 8c52 72bd e9c1 94be f2f1 c5bd
00000100: f2ac 26bb 0113 84bd 6b8f febc 3ac1 dcbd
00000110: 40f6 0cbd 2e1b eb3c 5b4a 90bd 4c76 45be
00000120: cbaf 7cbd 6c80 37be bd51 bebc f68a db3c
00000130: 6d5f 733a de5a 833c 746e 42bd b02b 173d
00000140: 24fd 10bd 7bed 14bd 5d57 12be 9415 ae3c
00000150: 0cca 92bd a5d2 71bd bd7d 023b e642 91bd
00000160: 59c2 ea3b bceb acbd 2f47 75bc 942f 503e
00000170: 8ac9 273c d722 bdbd ee08 c13d 6840 efbd
00000180: 5290 b1bd 61c1 c8bd 1702 64be fd85 a4bd
00000190: a26e 39bd 25c7 73bd d502 e83c 1c0d 43be
000001a0: c1ce 053d fd66 7abd e633 01be bf38 653a
000001b0: 2af6 8c3b 6ff5 bebd e066 013d bcd1 84bd
000001c0: 0e6f 6bbd dc96 17bc 8d07 31bd 3bcd 8dbd
000001d0: 2114 81bd bdb1 b7bd ded3 223d 668f e9bd
000001e0: 6349 34be f1b7 4abd 5a51 14be 67d3 b5bc
000001f0: c57f 2cbd 3523 a63c f84d 45bd 338b 04be
0.32118997 -0.07150828 -0.10928421 -0.038785428 -0.22473897 -0.041651253 -0.06582901 -0.16499105
-0.06125677 -0.13746506 -0.06814708 0.018334156 0.037798982 -0.043266095 -0.031130943 0.0068696872
-0.2369188 0.04919384 -0.06181663 0.051579278 -0.055641063 -0.060236048 -0.0044093 -0.05904578
-0.12616067 0.014747998 0.038529653 -0.02485664 0.04924018 -0.039559107 -0.12174512 -0.049716156
0.017812224 0.116655946 -0.037545115 -0.026957093 -0.14718927 0.029613093 -0.13829039 -0.08449684
0.022975035 0.035605412 -0.014581828 -0.07817787 -0.0040780087 -0.09311394 0.04296115 -0.04248426
-0.06662374 -0.05926977 -0.019448306 -0.08939325 0.12101313 0.017906552 -0.08060971 -0.061820593
0.058693424 -0.019542892 0.013173002 -0.082587235 -0.046439826 -0.059160754 -0.29054192 -0.09665288
-0.0025432673 -0.06448937 -0.031074246 -0.107790425 -0.03441453 0.028699484 -0.07045432 -0.19283408
-0.061691087 -0.17920083 -0.023232335 0.02679966 0.0009283934 0.01603454 -0.047468618 0.036906898
-0.035397664 -0.03635929 -0.14291139 0.021250524 -0.07167444 -0.059038777 0.0019911372 -0.07092838
0.0071642813 -0.084434 -0.014970585 0.2033065 0.010240922 -0.09235161 0.09425531 -0.116822064
-0.08670105 -0.09802509 -0.22266422 -0.08033369 -0.045271523 -0.05951609 0.028321663 -0.1904797
0.03266788 -0.061133374 -0.12617454 0.00087441126 0.004301806 -0.093241565 0.03159225 -0.06485316
-0.057478957 -0.009252276 -0.04322009 -0.0692391 -0.063026674 -0.08969448 0.039752834 -0.11404304
-0.1760612 -0.049491826 -0.14484158 -0.022195531 -0.042114038 0.02028046 -0.04817006 -0.12943725

bn1.running_mean f4 [128]
00000000: 5afb 1140 2f14 943f 593e 3b3e ba5b 7b3e
00000010: 53fa 003e 19f7 1040 e422 ec3f 0a4c 893e
00000020: 33e3 e33f 9462 6d3f fd3a 7f3d 6a3d ca3f
00000030: 1522 f13f bad4 853c 56eb 6d3e 9cdc b13f
00000040: c3c1 433d 0c38 073f 27e7 1340 9bc8 6f3f
00000050: 42a4 be3f 5ce9 ec3e 0546 613f 66a9 2340
00000060: 457e c63e 9d18 273f 0d63 db3e dc39 b53e
00000070: b9a9 cf3f ffa9 e73e 01d8 1c3d 4509 1240
00000080: 489e 0140 6751 903f b037 b03d 3302 453f
00000090: 9c2f 003e 96a8 2e3d fa5a 533e 0caa 203f
000000a0: e7d4 153f d000 ac3d f6c2 3840 4375 9e3f
000000b0: 334c 6e3f 9e12 473e d009 8c3f c764 553e
000000c0: 0019 6d3e dd7c e13f 5a05 fd3f 03ed ef3e
000000d0: bf9c 383e 9989 373d ec5b 173f 9989 893f
000000e0: 1c2d 2d3e 3b69 973e 051d 533f 64d2 893f
000000f0: 1b38 303f b527 553f 91cc da3e 09bd 0c3e
00000100: 1da4 713e d154 cf3d a099 a43d a672 ec3e
00000110: 4a7d f03f 71e0 c63d 8f5f ed3f d9a5 c33e
00000120: 2be8 0c3f 04a4 0d3e 1b12 9e3f 9ff6 6f3f
00000130: c983 ab3d 4317 803f 38a3 833f 54ba 4a3e
00000140: db56 023a 4173 a33d 8fc7 cb3e 1e8c df3f
00000150: 13b9 d13f 52c9 9d3f ca4c 5c3f 100b 553f
00000160: 9874 253f ca36 bf3d 795e 3740 ea75 263f
00000170: 46f9 ff3d 939b 253f 9755 d53e 8831 b93f
00000180: c3ac b53d e1ba 243f 290f 423d a6dd 783f
00000190: e3ab 9f3f baf3 f83e bd28 803e e3ed 0c40
000001a0: fa6a a13e 4fc1 133e 04c2 393c 3d32 d23f
000001b0: 0319 9b3f be76 0d40 350c 423f 76ad a83f
000001c0: 304c b23f d076 d93f 5612 bd3d 466b 3e3c
000001d0: 075b 003f 4439 6c3f 312f d73e 27e9 993f
000001e0: 476d 4c3d 0212 dd3e daa1 143d 57e3 5b3b
000001f0: 77e4 913f c7b5 1d3f ae82 f53f 835e 0b40
2.2809663 1.156866 0.18285502 0.2454671 0.12595491 2.2650816 1.8448148 0.26815826
1.7803711 0.92728543 0.062312115 1.5799992 1.8838526 0.016336787 0.23234305 1.389545
0.047792207 0.52819896 2.3109834 0.93665475 1.4893878 0.4627179 0.87997466 2.5572143
0.3876821 0.6527193 0.42849007 0.35395706 1.622367 0.45246884 0.038291935 2.2818158
2.0252857 1.1274842 0.086043715 0.7695648 0.12518162 0.042641245 0.20640174 0.6275947
0.5852799 0.083985925 2.8868995 1.2379535 0.9308502 0.19440696 1.0940495 0.20839225
0.23154068 1.761623 1.9767258 0.46860513 0.18028544 0.044808958 0.59124637 1.0745116
0.16911739 0.29572472 0.82466155 1.0767331 0.6883561 0.83263713 0.42734197 0.13743986
0.2359776 0.10123599 0.08037114 0.4618122 1.8788235 0.097107776 1.8544787 0.3821247
0.5504176 0.13832098 1.2349275 0.9373569 0.083747454 1.0007099 1.0284185 0.19797641
0.0004972049 0.07980967 0.3980069 1.7464635 1.6384605 1.2327063 0.8605467 0.83220005
0.6463103 0.09336622 2.8651412 0.6502367 0.12498717 0.6469051 0.41666862 1.4468241
0.08870842 0.64347655 0.04737774 0.9721321 1.2474331 0.4862345 0.2503108 2.2020195
0.3152693 0.1442921 0.011337761 1.6421582 1.2117008 2.2103724 0.75799876 1.3177936
1.39295 1.6989384 0.09232013 0.011622256 0.50138897 0.9227488 0.42028192 1.2024277
0.049908902 0.431778 0.036287166 0.0033552253 1.1397847 0.61605495 1.9180505 2.1776435

bn1.running_var f4 [128]
00000000: 6c1e a640 f5d7 6140 a764 373e 2130 c03e
00000010: 5ebd b63d 4d86 7e40 6d0b 8840 befa b43e
00000020: 4c75 aa40 65b0 6e3f bb7f af3d c035 6440
00000030: fde1 8040 3144 6b3c 23f9 993e 90de 3140
00000040: ea16 953c bf6a 603f f00e 513f db86 0f40
00000050: eff1 2440 6f80 333f ce79 973f 85e3 c940
00000060: 3c5c 863e 6e20 8d3f 8463 a03e f8a8 0b3f
00000070: 442b 7e40 8dc8 c03e dcc1 073d bee6 c740
00000080: 160a 9540 e709 3f40 09db bf3d c133 a03f
00000090: 3765 073e e204 233d a6a3 6c3e 8fde 3b3f
000000a0: 2827 5e3f fa3c 493d 42d5 3841 4817 6540
000000b0: 4e71 8b3f 108b 823e fea8 d73f 86cc 9e3e
000000c0: 90a4 893e dc40 4940 7eee b140 24e7 233f
000000d0: 8653 d23d 121d 873d c734 4a3f 83dd 1a40
000000e0: d54f 223e 97dc d63e 14fc 903f a6dc b13f
000000f0: 0cba 9a3f 0c38 1740 ff28 493f 2e49 dd3d
00000100: 1e07 8f3e 67e8 a83d 0f2a 303d 2195 253f
00000110: 21af 6b40 3295 cb3d 1e9c 5440 8789 db3e
00000120: 3a41 563f fce0 0c3e 4a58 3c40 0b08 0840
00000130: 8fd6 2d3d d295 0040 30a7 2040 01f2 553e
00000140: f2e5 fd38 ee1d 943d c6d0 113f acef 8d40
00000150: ee1a a540 d155 853f 840b 4b40 a565 b73f
00000160: 4dde 223f 8a74 7e3d fdeb 0f41 6798 973f
00000170: a2f6 b83d 73be 793f 8ff8 203f dfb5 0f40
00000180: 709f 673d e6a3 313f e4a8 0f3d 4296 ad3f
00000190: ec77 c43f 692f 4d3f 22fc df3e 61f4 4340
000001a0: 6a10 093f 6479 d63d e262 0d3c 699d 3840
000001b0: 8a53 5c40 68a4 2540 5267 9c3f c3bb af3f
000001c0: 4793 f23f ef75 8640 6734 023e 688b af3b
000001d0: a021 513f a667 903f c906 403f 4e50 ae3f
000001e0: ceb3 063d be77 483f 0c14 693c 9ef3 2c3a
000001f0: b84a 3140 215f 513f 28ea 6a40 9e20 6440
5.1912136 3.528806 0.1790949 0.3753672 0.08922838 3.976947 4.2513947 0.3534755
5.3268185 0.93237907 0.085692845 3.5657806 4.0275865 0.01435952 0.3007289 2.7792091
0.018199403 0.8766288 0.8166342 2.242606 2.5772665 0.7011785 1.1834047 6.3090234
0.26242244 1.1025522 0.31325924 0.545547 3.9713907 0.37653008 0.033143863 6.246917
4.657481 2.9849794 0.093679495 1.2515794 0.13222204 0.03979958 0.23109302 0.7338647
0.867785 0.049130417 11.552065 3.579546 1.0893953 0.2549672 1.6848447 0.31015414
0.26883364 3.1445837 5.560363 0.6402457 0.10269837 0.065973416 0.7898678 2.41977
0.15850766 0.41965172 1.1326928 1.3895462 1.2088027 2.3627958 0.7857818 0.108049735
0.27935117 0.08247452 0.04300886 0.6468068 3.682564 0.09940566 3.3220286 0.42878363
0.8369328 0.137577 2.9428887 2.125491 0.042440947 2.0091443 2.5102043 0.20893098
0.00012106811 0.07232271 0.5695919 4.435507 5.1595373 1.0416814 3.1725779 1.4327894
0.63620454 0.06212286 8.995114 1.1843385 0.090314165 0.9755623 0.6287927 2.2454755
0.056548536 0.69390714 0.035073176 1.356148 1.5349097 0.8015047 0.4374705 3.0617907
0.5354067 0.10472372 0.0086295325 2.8846076 3.4425988 2.5881596 1.2219031 1.3729175
1.8951195 4.201896 0.12715302 0.0053571947 0.8169193 1.1281631 0.75010353 1.3618257
0.03288632 0.7830771 0.014225971 0.0006597581 2.7701855 0.8178578 3.6705418 3.5644908
