checkpoint_Actor_2.pth (torch_old, 80877 bytes, 6 tensors)

fc1.weight f4 [128, 24]
000000 13 13 f9 3c f5 95 3c bd cc f6 95 3c 37 a6 d8 3c
       0.030404603 -0.046041448 0.018306158 0.026446445
000010 d0 c5 aa 3d ad 77 0a 3d f0 3a a6 3b 00 92 6c bd
       0.08338511 0.033805538 0.005072944 -0.057756424
000020 36 63 e6 3c 56 18 80 3c d3 82 96 3d 00 ba a0 3d
       0.02812348 0.015636604 0.073491715 0.07847977
000030 d1 54 82 3d 89 f9 38 3c bf fe 5d bd 98 70 a8 3d
       0.06363834 0.011289963 -0.054198023 0.082246006
000040 78 8a a7 bd 0c da d5 bb 48 17 19 bd 0e 47 6e 3d
       -0.08180708 -0.0065262374 -0.03737572 0.05817323
000050 88 4e ab 3d 5c ed 52 bd 94 42 f7 3c 52 9a 92 3d
       0.08364588 -0.051495895 0.030183114 0.071583405
000060 ef c9 85 bd 9c 4b 4d bd 6e 96 94 bd ca 79 8e bd
       -0.065326564 -0.050120935 -0.07255255 -0.06956823
000070 eb 85 03 bd 77 29 7d 3d 70 f1 23 3c f4 e5 a5 bd
       -0.032110136 0.061807122 0.010006294 -0.08100501
000080 2b a5 90 bd c1 d3 a4 3b 48 39 82 3c d1 2f b3 bd
       -0.07062753 0.005030126 0.015896454 -0.08749355
000090 52 47 ff 3c d7 ec 6e bd 1e a0 ae bd 4c 14 bf bd
       0.031161938 -0.058331337 -0.08526634 -0.09330043
0000a0 c9 02 b4 bd 03 38 2c 3d db 2d ad 3d 33 11 0e 3d
       -0.08789594 0.042045604 0.08456012 0.03468437
0000b0 57 7e 0e bd 4d 4a 16 3c b1 b3 4a bd 8a b6 90 bd
       -0.034788456 0.009172988 -0.049487773 -0.070660666
0000c0 0a 80 66 3c 3f ab ba 3d 7c 17 fa 3c 9f 27 09 bc
       0.014068613 0.09114694 0.030528776 -0.008371263
0000d0 fe 85 26 bd 2e 04 10 3d 10 14 3f bc 97 07 bd bd
       -0.04065513 0.035160236 -0.011662498 -0.09229963
0000e0 49 4d b1 bb e0 e1 a5 3d 42 67 7d 3d 99 3b d4 bc
       -0.0054108244 0.08099723 0.061866052 -0.025907325
0000f0 fd f8 90 bd 8a b7 1c bd 40 ee 4c bb 03 40 5e bd
       -0.07078741 -0.038260974 -0.0031269938 -0.054260265
000100 ab 9c 52 bd d5 37 03 3d f8 e5 a4 bd 7c a2 fe bc
       -0.05141894 0.032035667 -0.080516756 -0.031083338
000110 ae 05 b4 3d b7 94 48 3d 48 a8 0f bc 32 3e 37 3d
       0.08790146 0.04896995 -0.008768149 0.04473705
000120 3a 11 92 bd a7 c4 38 bc b9 75 b2 3d 02 8a ed bc
       -0.07132192 -0.011277354 0.0871386 -0.028996471
000130 f0 56 c7 bd e4 5e 98 bd 0d e0 9e bd a5 92 9e bd
       -0.09733379 -0.07439974 -0.07757578 -0.07742814
000140 36 50 ee 3b 66 ce 81 bd 20 9b 84 3b 3a 45 f2 bd
       0.0072727455 -0.063381955 0.0040468127 -0.1182961
000150 88 c3 e9 bc 05 a7 28 3d 16 36 18 3d 72 76 2f 3d
       -0.02853562 0.041174907 0.037160955 0.042837568
000160 a7 68 5a 3c 8c 8b c2 bd 92 75 5b 3d 89 00 c1 bd
       0.013330615 -0.09499273 0.05357892 -0.0942393
000170 9f 63 34 bc 3d 47 a0 3d 41 f3 92 3d 9e 81 98 bc
       -0.01101008 0.078260876 0.07175303 -0.018616494
000180 df 7d 65 3c 2d ef fa 3c 8b 60 b2 3d f6 a5 12 3d
       0.014007061 0.030631626 0.0870982 0.035802804
000190 55 77 52 bd fb ba cf 3c f0 87 a3 bd 64 d4 5a bd
       -0.051383335 0.025357714 -0.079849124 -0.053425208
0001a0 2a 2a cf 3b 41 a2 f0 3c 4e 0e 62 3d b1 b8 b3 bc
       0.006322165 0.029374244 0.055189423 -0.021938654
0001b0 90 5e 05 bd bc ad 74 3d e1 cc 88 3d d6 a8 85 bd
       -0.032560885 0.059736 0.066797026 -0.065263435
0001c0 34 09 4b bc fd d0 2d bd 9e 00 2e 3d 21 2e b9 bd
       -0.012392331 -0.042435635 0.042481057 -0.090420015
0001d0 68 71 9d bd 55 94 68 bb a5 b7 95 3d 07 8f 70 bc
       -0.07687646 -0.0035488803 0.07310418 -0.014682538
0001e0 b7 ba a8 3c e1 80 b9 3c e1 bb ab 3d 85 b4 9d bd
       0.020596845 0.022644462 0.083854444 -0.07700447
0001f0 31 9e 5b 3b 35 d3 1f 3d 68 a7 00 3c f9 48 1c 3d
       0.0033511037 0.039019782 0.007852413 0.03815553
000200 fd 07 b3 bd 90 f8 f4 bc 9f 39 6b bd 6a 73 74 bc
       -0.08741758 -0.02990368 -0.057428 -0.014920095
000210 c2 ef 40 3d 25 14 3a bd 5b c1 9d 3d c3 eb d2 bc
       0.04710365 -0.045429368 0.07702895 -0.025747186
000220 b5 45 bc bd a4 d4 cb bd 6c 63 eb 3c cf d0 3b bc
       -0.09192983 -0.09952667 0.028733931 -0.011463358
000230 5c ba 36 bd 1a a8 39 3d ea 37 6b 3d da 6b 03 3d
       -0.04461132 0.04532633 0.05742637 0.032085277
000240 0c 62 6b bc 5c 0c d9 bc 00 6c 02 3d 80 38 67 bd
       -0.014366638 -0.026495151 0.031841278 -0.056450367
000250 d0 64 88 bd 22 3a f0 bc 08 cb 2d 3c c6 78 a0 3c
       -0.066598535 -0.029324595 0.010607488 0.01958884
000260 8b fb 8a 3d 70 f3 52 bc 0d d5 61 bd 74 2f fa bb
       0.06786259 -0.012875423 -0.05513482 -0.0076350514
000270 a5 91 19 3d a8 c0 94 3d 06 1b 74 3d 95 56 b7 bd
       0.037492413 0.07263309 0.059596084 -0.08952061
000280 3c f1 84 3c f5 8f 3f 3d 36 70 f3 bc 1e 6f 28 3d
       0.01622831 0.046768147 -0.029716592 0.041121595
000290 30 6c c2 3b 13 a3 3f bd 04 91 1b bd 96 d4 4d 3d
       0.005933307 -0.04678638 -0.037980095 0.050251566
0002a0 bb 1d 83 3d 62 63 96 3d f0 98 6b 3c 65 2e db 3b
       0.06402155 0.073431745 0.014379725 0.0066888803
0002b0 4e 35 0e 3d 3a a6 99 3d 30 f9 d1 bb 8a ae 84 bc
       0.034718804 0.07502408 -0.0064078793 -0.016196508
0002c0 81 67 85 bd ce f3 07 3d da 4f 9d bd c7 e1 08 3d
       -0.065138824 0.033191495 -0.07681246 0.033418443
0002d0 f8 ae c4 bd bd e2 b4 3d 30 49 ab bd 71 89 4e bd
       -0.09603685 0.088323094 -0.08363569 -0.050424043
0002e0 40 21 b9 bc a7 5e e9 bc f0 41 6c bc e0 7b 5b bd
       -0.022598863 -0.028487517 -0.014420018 -0.053584933
0002f0 28 d2 12 bd 98 17 68 bd d6 4f ae bd 3f f1 b8 bd
       -0.035844952 -0.056663126 -0.08511321 -0.09030389
000300 a7 c3 86 3d b3 1e 4d 3c 57 46 a4 3d 12 45 6b 3c
       0.065802865 0.012519526 0.08021229 0.014359729
000310 a4 21 0d bd 3f 7c ef bb 7c a0 ab bd 27 1b ac 3d
       -0.03445591 -0.0073085125 -0.08380219 0.084036164
000320 6d 58 4f 3d d4 5c 4a bd 6c 6e bc 3c 8e 7d 79 3d
       0.05062144 -0.049404934 0.023001872 0.060910754
000330 f6 26 46 bd 12 9a 3a bd be ff 6f bd a9 50 a8 bd
       -0.048377 -0.04555709 -0.058593504 -0.0821851
000340 f4 5f 49 3d 7f ab d5 bc 70 d6 40 bc 7e 36 46 3c
       0.049163774 -0.026082752 -0.011769876 0.012097953
000350 2b a2 d1 bd 51 de d4 3d fd 5e af bd 5c b3 95 3d
       -0.10236009 0.10393966 -0.085630395 0.07309601
000360 61 10 8e bd 67 d5 c9 3c 00 e2 4a b9 3c 14 e6 bd
       -0.06936718 0.024637891 -0.00019348413 -0.11234328
000370 89 df a6 3d 78 de 6f 3d 24 49 bd 3c 61 09 5e 3c
       0.08148105 0.058561772 0.023106165 0.013552041
000380 df 3b c5 bd d0 99 0c 3c d8 b9 0c 3d e0 94 f1 3c
       -0.0963056 0.008581594 0.034356922 0.029489934
000390 63 de a0 bd bc 0a eb 3b 33 ab 8b 3d a0 ed c0 bd
       -0.07854917 0.0071729105 0.06819763 -0.09420323
0003a0 37 fc 95 bd 31 ea 83 3d 64 0f 99 3c c4 38 43 bd
       -0.07323497 0.06441153 0.018684097 -0.047661558
0003b0 3b b9 19 bd 9e 0d 07 3d 78 00 4b 3c 12 b8 2f 3d
       -0.037530165 0.03297197 0.0123902485 0.042900153
0003c0 97 36 dc bc 00 ee db 3c 2e 98 39 3d f6 7a 19 ba
       -0.0268815 0.026846886 0.045311145 -0.00058548094
0003d0 53 ae 81 bd a2 c1 06 3d 68 ec 5f bc bb ba b7 bd
       -0.06332078 0.032899506 -0.0136672035 -0.08971163
0003e0 2d a0 2b bd 44 f1 15 bd ec 8e 87 bc 52 22 23 bd
       -0.041900802 -0.036607042 -0.016547643 -0.039827652
0003f0 da 0a 8c 3d 1f 9b 38 3d 00 bc ed 3c 51 a0 19 3c
       0.06838007 0.04506981 0.02902031 0.009376601

fc1.bias f4 [128]
000000 5f aa 4e 3e a2 1f 26 3e 23 1b 2b be e7 7b 5a bd
       0.20182179 0.16223004 -0.1670957 -0.05334082
000010 3b 85 05 3e ef 17 d8 bd ef 2c 2e 3d f0 bd 9d bd
       0.13039105 -0.1055144 0.04252332 -0.07702243
000020 ea d4 83 3d d2 1a ee 3d a3 4c 99 3d 86 0a 14 3e
       0.064370945 0.11626209 0.074853204 0.1445714
000030 23 27 51 bc cd 82 f5 3d 8d ba a5 3d f0 22 89 bd
       -0.012765679 0.11987839 0.08092222 -0.06696117
000040 4f 8c 09 be e6 e3 3f 3e 96 b8 85 bd 36 5b 28 3e
       -0.1343243 0.1873928 -0.065293476 0.16441044
000050 61 ab 1a 3e e1 90 82 3c 9d 9f 25 be ad c7 08 3d
       0.15104438 0.015938224 -0.16174169 0.03339355
000060 2e 5e 97 bd f5 28 84 3d 69 c9 86 bd e1 72 32 3e
       -0.0739101 0.064531244 -0.06581385 0.17426635
000070 0a 21 43 be 1b 82 40 bd d8 e3 71 3d 36 e6 1e 3d
       -0.19055572 -0.04699908 0.05905518 0.038793765
000080 61 7f 43 3e 98 92 5d bd ee a5 0e be 77 67 25 3e
       0.1909156 -0.05409488 -0.13930485 0.1615275
000090 f9 1a 18 3d 26 75 15 3e f3 12 ea bd e6 d1 cc bd
       0.037135098 0.1459547 -0.114293955 -0.100009724
0000a0 4f e7 81 bd ac 4b 84 3c ff f3 aa 3d 3d e9 d7 bd
       -0.06342947 0.016149364 0.0834732 -0.105425335
0000b0 79 a8 62 bb a8 bc 84 bc 5f e7 4e 3e 63 00 83 bd
       -0.003458528 -0.01620324 0.20205449 -0.06396558
0000c0 1a d1 5e 3e d5 e7 e9 bd 13 80 8a bd b4 e7 0b be
       0.21759453 -0.114211716 -0.067627095 -0.13662606
0000d0 c7 7b 1d 3e 6c 51 0a be 58 c6 cb 3d cc 9d 99 bd
       0.15379249 -0.13507622 0.099499404 -0.075008005
0000e0 87 aa 61 3e d1 c4 65 3d f2 0b 2e be c2 35 62 3d
       0.22037707 0.056095902 -0.16996744 0.05522705
0000f0 10 92 ff 3c 27 d0 42 be 35 4d 13 3d d9 c0 58 3e
       0.031197578 -0.19024716 0.035962302 0.21167316
000100 8d 0a 9a 3d 14 43 7b 3c 9f a2 ae bc c2 d6 b6 3d
       0.07521544 0.015335817 -0.021317778 0.089276806
000110 9c 25 a5 bd e7 b1 3c 3e 6c d2 3d 3e a2 26 e3 3d
       -0.08063814 0.1842724 0.18537301 0.11091353
000120 4a 50 7a bd d3 01 2c be 90 77 d3 bd ab ca 53 3e
       -0.061111726 -0.16797571 -0.10325539 0.2068278
000130 c4 9f 36 be f8 46 3f be 79 b2 a6 3a ec 1a ac 3d
       -0.17834383 -0.18679416 0.0012717984 0.084035724
000140 88 4a 3c be c9 d2 30 be 37 e6 58 3c d0 ee 75 bd
       -0.18387806 -0.17267908 0.013238481 -0.060042202
000150 bc 45 1f 3e 07 f2 bd 3d 8d e3 3a be 47 04 17 be
       0.15553945 0.09274679 -0.18250866 -0.14747725
000160 d7 ff 16 3e cd fc ba bc 8d d4 92 bd e5 93 a2 3d
       0.14746033 -0.022825623 -0.07169447 0.07938365
000170 81 c6 12 bd 59 ba f8 3d 05 7c 94 3d c8 2b a4 bd
       -0.03583384 0.12144918 0.07250217 -0.08016163
000180 0b 5e 21 be bb 58 ff 3d 34 0f df bd c0 bf 2d bc
       -0.15758531 0.12468096 -0.10891572 -0.010604799
000190 23 b1 2f 3d ca 7e c2 bd 55 9f fe 3d 5c 9b 06 be
       0.04289354 -0.09496839 0.12432734 -0.13145202
0001a0 5b 32 7e 3d 4a 2e 05 3d af c3 a3 3d 41 a4 4d be
       0.06205974 0.032514848 0.07996308 -0.20082189
0001b0 2f 85 d5 3b e2 a9 de 3d 65 59 eb bd 00 40 85 3d
       0.006516121 0.10872246 -0.1149166 0.06506348
0001c0 3a 20 9e 3a ae 6b 3b 3e 38 0a 31 bd 7f c0 ac 3c
       0.0012064048 0.18302795 -0.043222636 0.021087883
0001d0 9a 67 8a bd 14 ce d6 bc 54 13 92 3d 65 82 3c be
       -0.06758042 -0.026221313 0.07132593 -0.18409117
0001e0 66 a1 27 3e 01 8c 30 3e 08 8a bb 3d f8 b9 2e 3e
       0.16370162 0.17240907 0.09157187 0.17063129
0001f0 99 ed 67 bd 91 06 6c 3d 42 03 ac 3c 9d 94 01 be
       -0.056623075 0.05762345 0.020997647 -0.12654348

fc2.weight f4 [128, 128]
000000 d6 0d 31 3d 22 ab 05 3d ec 3e 5c bd 6b eb a9 3d
       0.043226086 0.032633908 -0.053770944 0.082968555
000010 16 25 54 bd ad 1e 0f 3d 68 5d 98 bc fd 64 8a bd
       -0.05179318 0.034941364 -0.018599227 -0.06757543
000020 75 3e f1 3c c4 35 bf bc 8f 18 4b 3d d2 63 9c 3c
       0.029448727 -0.023341067 0.049583968 0.019090567
000030 6c bf e1 bc 48 c2 b4 3c 12 fd bc 3d e6 82 cb 3c
       -0.027557097 0.022065297 0.09227957 0.02484269
000040 2a ef 8e bd b6 5e 6d bd ff 8f 55 3d a0 9b 6a bd
       -0.06979211 -0.05795165 0.05213928 -0.05727732
000050 e5 d6 02 3d 2e cc 08 3d ba cc 9a 3d 56 04 98 3d
       0.03194322 0.033397846 0.0755858 0.07422702
000060 c0 d2 e2 3c b9 05 3f 3d 4e ab ea ba 2f 30 99 3c
       0.027688384 0.046636317 -0.0017903836 0.018699734
000070 c9 e2 80 3d 4f 7a 90 bd f4 fe 27 bd 81 3e a8 3c
       0.06293256 -0.070545785 -0.041014627 0.020537617
000080 71 f2 78 bd da 12 75 3d 4a 21 95 3d 03 68 55 bd
       -0.060778085 0.05983243 0.0728174 -0.052101146
000090 7a b5 28 bd 0e 07 26 bd 3f 7e 78 3d 1e b6 16 bd
       -0.041188695 -0.04053407 0.060667273 -0.036794774
0000a0 15 13 8e bc f0 d4 5c bd e6 c0 e5 3c 42 4c 29 3c
       -0.017343083 -0.05391401 0.028046083 0.010333123
0000b0 e1 48 0a 3d 88 69 1c bd 77 58 8b 3c 7c 3c 3b 3b
       0.03376091 -0.03818658 0.017009957 0.0028569987
0000c0 b8 c7 a1 3d 68 a7 99 bc c9 e9 a0 3d e4 97 31 3b
       0.078994215 -0.018756583 0.07857091 0.002709859
0000d0 1e 58 6f 3c dd 92 01 bd 05 6e 66 bd da fa 4f bd
       0.014608411 -0.0316342 -0.056257267 -0.05077634
0000e0 ba 70 7d bd 74 30 65 3d 54 5b 47 3d 4f e7 ae ba
       -0.061875083 0.05595441 0.04867108 -0.0013344082
0000f0 1c b3 52 3d 7d 97 26 3d e3 8d 94 3d 19 47 a1 3d
       0.051440343 0.040671814 0.07253625 0.07874889
000100 e4 38 c4 3d e2 52 1b bd 0a 2b a5 3d 5f 8a 93 bd
       0.095811635 -0.03792084 0.0806485 -0.072041266
000110 45 80 2a 3d a8 20 26 bd eb 4a 87 3d c6 ce e0 3c
       0.041626234 -0.040558487 0.06606086 0.027442347
000120 14 b6 94 bd a0 8c ff 3c af 96 52 bd 9b 5d af 3d
       -0.07261291 0.031194985 -0.051413234 0.08562776
000130 1e 9b 97 bc 38 61 8a bd 28 ab e2 bc 86 6f b6 3d
       -0.018506583 -0.06756824 -0.027669504 0.0890799
000140 9c 7c de 3c f2 40 24 3d ba db 92 3d b5 37 a3 bc
       0.027159028 0.040101 0.07170816 -0.019924024
000150 a1 f5 87 3d f9 69 7f 3d 60 75 b9 39 b0 77 d8 3d
       0.06638647 0.062356923 0.000353734 0.105697036
000160 ce bf 2f 3b 07 26 46 bd d6 9a a7 bd 6e 15 58 bd
       0.0026817205 -0.04837611 -0.081838295 -0.052754812
000170 b7 1e 40 bd 81 29 13 3d 18 c0 45 3d c7 06 62 bc
       -0.046904292 0.035928253 0.048278898 -0.013795561
000180 4f bb 8d 3c 10 f7 a6 3d aa 3a 61 3b f9 4a 69 3d
       0.01730123 0.08152592 0.0034367242 0.056956265
000190 ad 69 18 3d 39 08 cb 3d ce df be 3d 6b c6 80 bd
       0.037210155 0.09913678 0.09320031 -0.06287845
0001a0 fd 90 1a bd 35 34 27 bd ac 50 e3 bc bf 73 5b bd
       -0.037735928 -0.040821273 -0.027748428 -0.05357718
0001b0 d1 de 88 bd 50 0f 8b 3d 9d 58 30 3d 15 ba 94 3d
       -0.06683124 0.0679003 0.04305326 0.07262055
0001c0 1b b7 0a bc cd 6d 5b 3d 04 bf b0 bd 5d c2 d9 3c
       -0.008466507 0.05357151 -0.08630183 0.026581937
0001d0 de 40 54 bb 1c 2d 1d 3d 30 60 9a bc 66 f0 2b 3d
       -0.0032387297 0.038373098 -0.018844694 0.04197731
0001e0 91 48 99 bc d8 16 1c bd bc 37 7c ba c4 51 b0 bb
       -0.01871136 -0.038107723 -0.0009621342 -0.005380841
0001f0 df d8 42 bd 48 f1 bf 3d a5 7a 8f 3d b9 0a 88 3d
       -0.047570106 0.093721926 0.070058145 0.0664267
000200 5e 15 06 bd 02 37 91 3d 7a 88 26 bd bb de 93 3d
       -0.03273522 0.0709057 -0.040657498 0.07220217
000210 4d 19 d5 bb f2 ad b9 bb 44 24 2f bd a9 ef 11 3b
       -0.00650326 -0.005666488 -0.042759195 0.0022268093
000220 2e ad 1b 3c 5a 6d 77 3b ac a8 79 3d 75 4c 8b bd
       0.0095017385 0.0037754388 0.060951874 -0.068016924
000230 96 ec 45 bd 04 0a ef bc 75 58 71 bd 46 5d 34 bd
       -0.04832133 -0.02917958 -0.05892225 -0.044034265
000240 ab 75 8a 3d 4e 6d f5 3c 40 b0 6a bd 43 41 90 bd
       0.06760725 0.029959347 -0.05729699 -0.07043698
000250 e3 ea 8b 3d af 7b a7 bd 3f cf 80 3d c8 37 8f 3d
       0.068319105 -0.08177888 0.06289529 0.06993061
000260 29 0d 86 bd 2e 21 06 3d 10 5e dd bc af 72 3d bc
       -0.06545479 0.032746486 -0.027022392 -0.011562987
000270 c5 5c 92 3c 47 e2 b5 bd da 8e 69 bd 24 b4 1f 3d
       0.017866502 -0.088810496 -0.057021 0.038990155
000280 4a 10 69 bc e8 48 6d bd 8e 50 35 3c 13 d2 99 3b
       -0.014225075 -0.057930857 0.011066569 0.0046942323
000290 83 0f 26 3d 20 12 85 3d 36 36 80 bd df 71 ca bc
       0.040542137 0.06497598 -0.0626034 -0.024712501
0002a0 59 be ba 3d 94 a4 85 bd 66 d1 b7 3d 43 67 7e bd
       0.09118337 -0.065255314 0.089754865 -0.062110197
0002b0 15 5e 8a 3d 18 d2 35 bc 77 ce 4b bd 51 65 54 bb
       0.06756226 -0.011097454 -0.049757447 -0.0032409022
0002c0 bb 0c 24 3d ee ce 86 3b 28 3e 44 3d db b6 bb 3d
       0.040051203 0.0041140234 0.04791084 0.09165736
0002d0 84 97 6a bd e3 07 49 bc c9 d3 5e bd c7 67 2f bd
       -0.057273403 -0.012269947 -0.054401193 -0.04282358
0002e0 4a bb d7 3c ad c1 a3 bb f2 a4 c9 3b fb dc ab bc
       0.026334424 -0.004997453 0.006153696 -0.020979395
0002f0 c2 18 3d 3b 19 a3 54 3d 74 25 91 3c 98 8b 31 3d
       0.0028853868 0.051913355 0.017718054 0.043346018
000300 55 69 22 bd c1 17 d8 3c 83 b8 51 bd 3c 6e 0c 3d
       -0.039651234 0.026378514 -0.051201355 0.034284815
000310 ef 19 8d bc c7 be a3 bc 7e 34 a1 38 c5 7d 3c 3d
       -0.01722428 -0.01998843 7.686856e-05 0.04601838
000320 54 ef c0 3d fa e4 d0 bc e9 ba a5 bd e3 b7 df bc
       0.09420648 -0.02549981 -0.08092291 -0.027309364
000330 19 0b 33 3d a3 65 84 3d d0 04 94 3d 91 48 b3 ba
       0.043711755 0.06464698 0.072274804 -0.0013678243
000340 8d 76 af 3c eb 3e bb 3d 76 2c 35 bd cb 45 13 3d
       0.021418834 0.0914286 -0.044231854 0.03595523
000350 f5 48 16 bd cc dd 09 3c e2 3c 96 bb c6 e5 2a 3d
       -0.03669067 0.008414697 -0.0045848945 0.041723035
000360 af de 8a 3d 8a 5d f3 bc a9 35 86 bb d4 3f bd bc
       0.06780755 -0.029707689 -0.0040957523 -0.023101725
000370 f7 c7 19 bb d8 04 9a 3d 57 e5 cc 3d a7 df 00 3d
       -0.0023465136 0.07520455 0.100046806 0.03146329
000380 f9 98 b3 bc a4 b6 4c 3d fd 1f 37 bd f3 0a 3e bd
       -0.021923529 0.049978867 -0.04470824 -0.04639716
000390 ab f0 84 3d 00 5f dd bb 71 16 9a bd 43 01 61 bd
       0.06491216 -0.0067557096 -0.075238116 -0.054932844
0003a0 4d 17 23 bd 91 41 c5 3d c2 78 d7 3c ee 0f 9b bc
       -0.039817143 0.096316464 0.026302699 -0.018928494
0003b0 13 8e 01 3d 02 c0 4a 3d 3b 7e a6 3c 74 79 a3 3c
       0.031629633 0.04949952 0.020323863 0.019955374
0003c0 b5 bd 85 bc 81 e5 be 3d 91 81 a1 3d 3c 5e 41 bd
       -0.01632581 0.09321118 0.07886041 -0.04720901
0003d0 74 46 36 3d 6d 87 b6 3d b2 70 8d bd b3 26 e5 bc
       0.044500783 0.08912549 -0.069062606 -0.027972555
0003e0 5a c5 6b bd f8 4f 73 3d 5a 2a c7 3d f8 67 31 bc
       -0.057561256 0.059402436 0.09724875 -0.010828011
0003f0 1a f0 72 bd f1 20 80 3d 64 3a 3c 3c 2f 16 7a 3c
       -0.05931101 0.06256283 0.011488531 0.015264078

fc2.bias f4 [128]
000000 bf 89 91 3d 53 de 6e 3d 90 11 cb 3c 51 c9 65 bd
       0.07106351 0.058317494 0.024788648 -0.056100193
000010 bf b0 89 3d 4a a4 e6 bc d9 2c 66 3d 5c 1f 4d bd
       0.06723165 -0.028154511 0.056195114 -0.050078735
000020 bf 29 18 3d 8c bc 0e 3c 4e 92 91 3d 96 60 d9 3c
       0.037149187 0.008711945 0.071079835 0.026535314
000030 9d 23 56 3d 4b a9 91 bd 2f 02 17 3d 08 00 b2 bd
       0.052280057 -0.07112368 0.036867317 -0.08691412
000040 4a 92 a5 bd 7d 7a 57 bd 2a a4 5b bd 54 6c 05 bd
       -0.08084543 -0.05260705 -0.053623356 -0.032574013
000050 70 29 08 3d 4b 83 d0 3c 70 9d 9b bc c6 86 66 3d
       0.033242643 0.02545323 -0.01899597 0.056280874
000060 57 9e 8d bd ed 84 b3 3d 47 1f 08 bd 84 b9 00 bd
       -0.069149666 0.08765588 -0.033232953 -0.03142692
000070 60 f6 46 3b a8 1b b4 bc 35 83 44 3d 81 27 88 3b
       0.0030359253 -0.021985844 0.04797669 0.0041551
000080 1d 5f 6a 3d de 02 a8 b9 88 0c df bc f7 3e c4 3c
       0.057219613 -0.00032045593 -0.027227655 0.023955805
000090 45 df 2b 3d e3 f7 66 3d 47 db 26 3c 21 57 85 3d
       0.041960973 0.056388747 0.010184116 0.06510759
0000a0 94 5a 07 bd d9 74 4b bb c6 c0 60 bd b4 a4 60 bd
       -0.033045366 -0.0031044988 -0.054871343 -0.054844573
0000b0 ea 20 88 bd bf 24 49 bd fa bc 34 3d 03 4d 2b bd
       -0.06646903 -0.04910731 0.044125535 -0.04182149
0000c0 62 ae 8c bd e2 25 9d bd f6 e6 85 bd a2 19 10 3d
       -0.068691984 -0.07673241 -0.06538193 0.035180695
0000d0 8b 76 b2 bc 1e da 41 3c 5a a2 6a 3d 25 fa b2 3d
       -0.021785041 0.011831788 0.057283737 0.087391175
0000e0 fa ba 4d bd 7f 4b 93 3d f6 49 5b 3d 9d b6 92 3c
       -0.050227143 0.07192134 0.05353733 0.017909342
0000f0 82 cc d4 bc 6f 59 fc 3c 94 07 9f 3c db f0 30 3d
       -0.025976423 0.030804364 0.019412793 0.043198448
000100 9d 88 8a bd 4d dc ef bc 8c 19 69 3b 41 a5 94 bd
       -0.06764338 -0.029279852 0.0035568206 -0.07258082
000110 50 88 50 bd 89 fa 46 3d 63 4f 21 bd a9 49 9a 3d
       -0.050911248 0.048578773 -0.03938235 0.07533581
000120 d1 2b c1 3d 1e dc 2f 3c c3 87 11 bc f4 96 2c 3b
       0.094321854 0.010733632 -0.008882466 0.0026335092
000130 ca c5 bc bc 39 39 c0 3d 90 c4 23 bd 91 fa 11 bd
       -0.023043532 0.09385914 -0.03998238 -0.03563935
000140 c0 fc da bc 9a 2e 4c 3a 47 75 53 bd 1b 87 ba bc
       -0.026731849 0.00077889266 -0.051625516 -0.022769501
000150 47 5d 9b bc ee 93 ab 3d f1 a0 d8 bc 91 ce 65 3c
       -0.018965377 0.08377825 -0.02644393 0.0140263
000160 8f 5e 1e 3c f0 61 13 bc 83 11 16 bd 40 a5 20 3d
       0.009666099 -0.008995518 -0.036637794 0.039220095
000170 6c 18 8e 3d 85 fe b1 3b a1 71 29 bc 8d e9 18 3d
       0.06938252 0.0054319524 -0.010342033 0.037332106
000180 50 9c a0 3c 54 4e 5c 3b a2 af 04 3d 67 ff 30 3d
       0.019605786 0.0033616023 0.03239406 0.04321232
000190 eb ed 4b 3d b9 db 05 bd f2 7a 1f 3d 02 fc e6 ba
       0.049787443 -0.032680247 0.03893561 -0.0017622712
0001a0 c9 b9 12 3d 50 de fb bb a1 6e 1d 3c 13 84 d9 3c
       0.03582171 -0.007686414 0.0096088955 0.026552236
0001b0 34 b2 af 38 96 cc 8c bd 00 b3 6f bd a1 53 8f bc
       8.377843e-05 -0.06874959 -0.058520317 -0.017495932
0001c0 92 b5 41 bd c0 23 a0 bd b8 d7 70 bd 71 92 a4 bc
       -0.0472923 -0.07819319 -0.058799475 -0.02008936
0001d0 d8 6e 43 bd ae cb 50 3d c6 60 16 3d d3 ad 9d bd
       -0.04771313 0.050975494 0.036713384 -0.0769917
0001e0 9d a7 7c 3b 26 dc 51 ba ad d2 50 3c 44 f7 67 3d
       0.0038552054 -0.0008005522 0.0127455415 0.056632295
0001f0 20 fb e3 bc 15 ef bf 3d 16 b4 63 3d fc 7e b0 bd
       -0.027829707 0.09371773 0.055591665 -0.0861797

fc3.weight f4 [2, 128]
000000 11 ee 90 bc a7 bf 87 bc 6e 1a ad ba 55 b1 c3 bc
       -0.017691644 -0.01657088 -0.0013206729 -0.02388827
000010 d0 46 e5 bc e2 da f2 bc 05 d0 6e bc e3 2a f3 bc
       -0.027987868 -0.029645387 -0.014575963 -0.029683536
000020 59 ea 0f bd 66 58 2b bd fb 9d 4c bc aa 37 ad bc
       -0.0351356 -0.04183235 -0.012488837 -0.021144707
000030 3d 21 b4 bc 94 d6 8d bc 32 c2 c9 bc 4a 65 0a 3b
       -0.021988505 -0.017314233 -0.024628732 0.0021117502
000040 68 df 17 3b 74 01 56 bd 98 ab a8 bc ad ac 47 bc
       0.0023173932 -0.05224748 -0.020589635 -0.012187165
000050 70 ae 97 bc a1 3d a8 bc d5 ee 89 bc 16 e2 21 bd
       -0.018515795 -0.0205372 -0.016837517 -0.039522253
000060 b4 e1 cb bc 5b 54 98 bc 04 50 86 bc 29 a5 81 bc
       -0.024887897 -0.018594911 -0.016395576 -0.015825825
000070 40 83 39 3a f4 30 7b bc 6a 12 c1 bc 44 4d c3 bc
       0.0007076748 -0.015331496 -0.02356835 -0.023840554
000080 06 d2 b1 bc a8 17 8b bc bc 75 bc bc eb 37 2f bd
       -0.021706592 -0.016979054 -0.023005359 -0.042777937
000090 0d 85 1a bd 89 0b 75 bc 02 ed 90 bc 45 79 96 bc
       -0.037724543 -0.0149563635 -0.01769114 -0.018368373
0000a0 70 38 f2 bc 24 29 83 bc 4c cc 22 bd a3 b2 84 bd
       -0.029567927 -0.016010828 -0.039745614 -0.06479385
0000b0 a8 6f e0 bc 8f d4 ec bc fd 6f 0f bd c8 05 bd bc
       -0.027396992 -0.02890995 -0.03501891 -0.023074046
0000c0 81 7e a3 bc 2a 99 73 bc 73 66 aa bc 4d 1d 9a bc
       -0.019957783 -0.01486806 -0.020800805 -0.0188128
0000d0 b6 54 f9 bc fa f7 94 bc c9 f6 ae bc b6 8c a8 bc
       -0.030435901 -0.01818465 -0.02135791 -0.020574909
0000e0 d9 72 66 bc 5d d3 cf bc 69 0e 84 bc 0e 9a ed bc
       -0.014065468 -0.02536934 -0.016120153 -0.029004123
0000f0 11 76 8c bc 3e 1a 92 bc 34 bb 56 bd e5 d9 bc bc
       -0.017146142 -0.017834779 -0.052424625 -0.023053119
000100 b4 03 6c bc d5 e3 e7 bc 2f b1 91 bc a7 30 ca bc
       -0.01440518 -0.028306881 -0.017784683 -0.024681402
000110 b5 c9 ab bc cb c6 05 bd 95 56 48 bd 88 46 02 bd
       -0.020970205 -0.032660287 -0.048910696 -0.031805545
000120 e8 56 27 bd bc 56 7d bd 59 0d 93 bc 10 c8 85 bc
       -0.040854365 -0.061850294 -0.0179507 -0.016330749
000130 80 83 80 bc 1f 4a bb bc df 41 c9 bc fd bd 24 bd
       -0.015687704 -0.022862492 -0.024567543 -0.04022025
000140 5f ef 8c bc ed 40 96 bc 40 55 23 39 37 3b 98 ba
       -0.017203985 -0.018341506 0.0001557665 -0.0011614327
000150 c4 91 8d bc 5e 29 9e bc d0 3f d7 bc da db 90 bc
       -0.01728142 -0.019306835 -0.026275545 -0.017682958
000160 fb 06 00 bd 40 6a 0d 39 43 d1 8d bd 6a e7 60 bc
       -0.031256657 0.00013486389 -0.06924679 -0.013727048
000170 d4 5e df bc 01 53 8a bc 9f 29 3b bd cd 0a c9 bc
       -0.027266897 -0.016885282 -0.04569399 -0.024541283
000180 ed 58 f2 bc 01 fb 74 bc 7e f5 b2 bc c7 d3 8a 3a
       -0.029583419 -0.014952422 -0.021845575 0.0010591679
000190 59 76 9a bc 96 6e 00 bd 6b c2 74 bc 12 4f 59 bd
       -0.01885526 -0.031355463 -0.014938931 -0.053053923
0001a0 80 1c 16 bd 32 f6 6f bd 3a 81 14 bd cc 56 ab b9
       -0.036648273 -0.0585844 -0.036256053 -0.0003268033
0001b0 89 3a 33 bc 1f b5 77 bc 69 3b 91 bc 7d 9b 2e bd
       -0.010939249 -0.015118866 -0.017728524 -0.042628754
0001c0 7d 57 99 bc 37 95 8a bc 73 39 6d bc c9 cf 3a bd
       -0.018718475 -0.016916854 -0.014479029 -0.045608316
0001d0 8b cf 4b bc 9c 3b e6 bc 12 c2 19 3b 7a 34 a2 bc
       -0.012439619 -0.028104596 0.0023461622 -0.019800413
0001e0 d0 5b 88 bc aa 22 9e bc 23 38 a0 bc 8e 13 95 bc
       -0.016645342 -0.019303638 -0.019558018 -0.018197801
0001f0 0b ad 95 bc af 82 65 bc f7 ca 84 bc 10 eb 2f 3a
       -0.01827099 -0.014008208 -0.016210062 0.0006710747
000200 94 1a 4c 3a 85 53 8b ba 98 f0 4c 3a a5 cf bc bb
       0.0007785943 -0.0010629749 0.00078178337 -0.005762058
000210 e1 2b 17 bc b0 cb 6a bb 05 16 a3 3a aa 45 44 bb
       -0.00922677 -0.0035826974 0.0012442475 -0.002994875
000220 9e 4e 2f 3a b0 81 3d 3a 61 ea c8 bb b1 2d 18 bc
       0.0006687435 0.0007229103 -0.006131456 -0.009288237
000230 f5 fa c1 ba 65 1a 55 bb ab 8c 44 bb 90 74 6f 3a
       -0.0014799522 -0.0032516953 -0.0029991071 0.00091344956
000240 88 d9 fa b9 29 8b 1d bd dc e0 1e bb 48 93 79 3a
       -0.0004784579 -0.03846279 -0.0024242913 0.0009520543
000250 58 5e 47 bb 90 03 cd bb 90 0d ba ba 29 b8 1e bc
       -0.0030421223 -0.006256528 -0.0014194716 -0.009687462
000260 c8 b5 81 bb c7 ba 21 bb 15 54 17 bc f3 e5 11 39
       -0.0039584376 -0.0024677978 -0.009236355 0.0001391394
000270 00 42 b5 b8 b3 32 1f bc 64 32 01 bc 7c 38 e7 bb
       -8.643046e-05 -0.0097166775 -0.007885549 -0.007056294
000280 29 9d d9 bb 8d 64 1a bc fa 78 53 3a 44 89 17 ba
       -0.0066410494 -0.009423387 0.0008067038 -0.0005780647
000290 ae b5 99 b9 e7 1b 64 bb 1c 7d 45 bb 6a 15 68 bb
       -0.00029317796 -0.003480667 -0.0030134385 -0.0035413154
0002a0 03 98 b5 bb c9 8d c5 bc 7c 8c bc bc bd 1f ad 3b
       -0.005541803 -0.02411546 -0.023016207 0.0052833245
0002b0 a1 ae b3 39 91 80 66 bb 85 cd 7e bb e8 27 55 bb
       0.0003427165 -0.0035171846 -0.0038879823 -0.0032525007
0002c0 c8 05 1b bc 20 4e 96 39 0c 3f 1b 3a 70 14 3e bb
       -0.009461828 0.00028668437 0.00059221755 -0.002900388
0002d0 84 33 91 bb 65 7d 22 bb b7 6b 97 bc 1b a4 01 bc
       -0.00443119 -0.002479398 -0.01848398 -0.007912661
0002e0 ae 38 53 38 c2 87 ce 39 5f 40 e4 bb da a9 05 bc
       5.0359107e-05 0.0003939253 -0.0069656814 -0.008158172
0002f0 ff b9 bf 3a e7 70 8a bb ae ea 0c bb f1 81 5e 39
       0.0014627575 -0.004224885 -0.0021502185 0.00021219977
000300 d2 45 c7 ba 7a f9 3c 3b a5 24 de bb 82 46 a0 bb
       -0.0015203303 0.0028835223 -0.0067792707 -0.0048912177
000310 44 04 be bb 3e 02 45 bc da 1d 65 bd c3 58 fc bc
       -0.0057988483 -0.01202446 -0.05593667 -0.030804044
000320 bd 70 52 ba 5d 4c 2e 3b 84 ea 89 3a 7a 52 04 bc
       -0.00080276636 0.002659581 0.0010522162 -0.008076305
000330 a8 9a d1 b9 5b dd 1a bb 2d f6 57 ba ef 34 69 bc
       -0.00039978814 -0.0023630473 -0.0008238282 -0.014233812
000340 c2 8e d1 bb 35 cd 80 bb c3 32 c6 ba c4 f2 08 bb
       -0.006395192 -0.0039307126 -0.0015121329 -0.0020896653
000350 b0 61 3e bb 26 c3 84 bb d3 d8 da bb 84 a1 de 3a
       -0.0029049926 -0.004051584 -0.0066786795 0.0016985391
000360 98 d8 a8 bb 6e bd 06 3b 12 f1 11 bc 98 2c 86 b9
       -0.005152773 0.0020559686 -0.008907573 -0.00025591697
000370 a4 5c a9 bb 83 e2 87 ba d3 d1 c9 39 b3 57 94 3a
       -0.0051685143 -0.0010367188 0.0003849404 0.001131764
000380 5f 9c d2 bb ba 42 1e bc d0 5a ac 3b ef 97 ec ba
       -0.0064273323 -0.009659464 0.005259849 -0.0018050651
000390 45 6e 1b bb 60 44 f7 bb ef 67 b7 bc b4 08 0e bd
       -0.0023716849 -0.0075459927 -0.022388427 -0.03467627
0003a0 3e 2d fc bb cc 52 9c bb 69 8e 29 bb a0 17 0c bc
       -0.007695823 -0.0047706123 -0.0025872237 -0.0085505545
0003b0 b4 63 26 3b 1c 73 9d 3a e9 c3 20 3b e3 d8 04 3c
       0.0025389018 0.0012012455 0.0024530834 0.00810835
0003c0 01 b6 d8 b8 3a 2f f1 3a 66 74 8e bb 5e a9 65 bb
       -0.000103335835 0.0018400915 -0.004347372 -0.0035043578
0003d0 b5 ac c1 bb a1 ba 38 3a c4 76 c9 3a 98 99 bf ba
       -0.005910481 0.0007046853 0.0015370478 -0.0014617918
0003e0 5d 4d 6b bb 6d 68 ad 3a e3 6c a9 bb ce ef bf bb
       -0.0035904266 0.0013229974 -0.005170451 -0.0058574444
0003f0 88 39 8b b9 08 68 0c bb ea 34 b9 ba 4c 4b 88 ba
       -0.0002655501 -0.0021424312 -0.001413015 -0.0010398417

fc3.bias f4 [2]
000000 b8 70 d3 3b c7 1b 50 3d
       0.006452646 0.05080774
