checkpoint_Critic.pth (torch_old, 82411 bytes, 5 tensors)

fcs1.weight f4 [128, 24]
000000 92 94 9f 3f de f7 77 3f d7 c8 9f bd 65 bf fd 3d
       1.2467215 0.9686259 -0.07801979 0.12390021
000010 ca 1c 9a 3f cf a7 fa bf e5 0c bc bc 05 19 57 3e
       1.2040036 -1.9582461 -0.022955367 0.21005638
000020 d6 7a 80 3f 39 4e 66 3e db 6d ca bd 82 fb cb bd
       1.0037487 0.22490777 -0.098842345 -0.09960081
000030 90 bd 6a 3f 6c 10 58 bf 28 ec 0d be ff 1d 9e bd
       0.916955 -0.8440006 -0.13859618 -0.07720565
000040 ac c3 ef 3f 6a cc 24 be 90 b2 ef 3a 7d 73 47 3f
       1.8731589 -0.16093603 0.0018287469 0.77910596
000050 24 5e 35 bc 77 9f 81 be ac 9c 85 3d a7 a1 22 3f
       -0.011069808 -0.25316975 0.065240234 0.6352791
000060 15 33 e9 3e 8b cc dd 3e 6e 78 44 3d 58 92 14 bd
       0.45546785 0.43320116 0.047966413 -0.036272377
000070 99 04 c8 3f 1c 6c 34 c0 94 a2 5a bd f6 76 f6 3d
       1.5626403 -2.8190985 -0.053377703 0.12034409
000080 d6 b0 b6 3e e1 f6 40 bf 74 7c 29 3d 14 ab 06 3e
       0.3568179 -0.7537671 0.041378453 0.13151199
000090 44 f1 19 40 2b d7 81 be 2a 3f 35 3d af 51 35 3c
       2.4053507 -0.25359473 0.04424969 0.011066838
0000a0 59 21 5c 3e 15 3d 46 be 6a c5 f0 3d 50 6a 22 3e
       0.21497096 -0.19359238 0.11756404 0.15860868
0000b0 d4 6c 04 c0 02 31 94 40 a7 9c 20 bc a8 e7 10 3e
       -2.0691423 4.6309824 -0.009802974 0.1415087
0000c0 af e9 d1 3f 8a 4b 19 3f 1b 9f 17 bf ed 59 08 bf
       1.639944 0.5988089 -0.5922715 -0.53262216
0000d0 be 05 84 3f 6d 48 f7 3f 5c ce f6 be c3 d2 10 bf
       1.0314252 1.9318978 -0.48204315 -0.56571597
0000e0 21 74 e1 3f 32 b4 11 40 03 f2 d6 bd 51 c4 3c bf
       1.7613565 2.2766232 -0.10495379 -0.73737055
0000f0 e1 f0 cd 3e 63 d8 ea 3e d3 53 40 bd b9 a4 3e bf
       0.4022284 0.45868215 -0.04695494 -0.74470097
000100 35 b1 c2 3f 08 62 32 40 a3 58 8d bd ca f5 e0 bd
       1.5210329 2.7872334 -0.06901672 -0.109843805
000110 43 63 58 3f 9c a5 00 c0 c4 be 0f bd 97 9c 19 be
       0.8452646 -2.010108 -0.035094038 -0.1500114
000120 9f 86 85 3f 16 79 0b be 95 07 34 be 2d aa 00 bf
       1.0431708 -0.1362041 -0.17581017 -0.5025967
000130 09 09 d8 3e 6b 02 eb bf ce f0 85 be 1c 6d fe be
       0.42194393 -1.8360113 -0.26160282 -0.4969262
000140 0c e9 af 3f 71 1c c6 3c 8b e0 0e be 98 ae 39 be
       1.3742995 0.024183484 -0.13952844 -0.18133008
000150 60 91 e1 3e c2 d9 14 c0 a7 17 11 be 82 65 82 be
       0.44056225 -2.325791 -0.14169179 -0.2546807
000160 81 96 cb 3f 53 b8 14 bf 3f 4e 4e 3e ac 43 22 3e
       1.5905305 -0.58093756 0.20147036 0.15846127
000170 e6 05 9b 3c 71 08 01 c0 e5 0c 7f 3e 44 d3 79 3e
       0.018923711 -2.0161402 0.24907263 0.24396998
000180 e4 b1 83 3f a0 96 57 3f 9e da 7a bd 2b e0 f1 3d
       1.0288663 0.8421421 -0.061243646 0.11810335
000190 24 2a be be 68 d2 de bf 8f 96 1d be 3c 64 2d 3e
       -0.37141526 -1.7407961 -0.15389465 0.16932768
0001a0 e4 86 95 3f d0 55 9f 3f 73 1f f3 bc 65 11 5f 3e
       1.168179 1.2448063 -0.029678082 0.21783979
0001b0 9c 4f 14 3d 1d 91 b7 bf 8c ef 73 bd f6 6b 45 3e
       0.036208734 -1.434116 -0.05955462 0.19279465
0001c0 26 73 93 3f 5d 38 9d 3f 2e e1 af bd f2 e5 12 be
       1.1519516 1.2282826 -0.085878715 -0.1434553
0001d0 f8 a1 46 3f a0 08 b7 bf 0f f4 06 bd fe d3 04 be
       0.77590895 -1.4299507 -0.032947596 -0.12971494
0001e0 0c 28 a9 3f 67 d1 9b 3f 74 09 20 be 81 18 84 3e
       1.3215346 1.217328 -0.15628606 0.25799945
0001f0 f4 98 16 3e 19 26 e1 bf 2d 36 08 be 8b 15 71 3e
       0.14706784 -1.7589751 -0.13301916 0.23543374
000200 3e 92 a2 3f 7f 70 a1 3f b6 38 bf bc 6d d7 0d 3e
       1.270088 1.2612456 -0.023342472 0.1385171
000210 fa 48 86 3e f1 bb df bf d4 33 b0 3c d1 63 75 3e
       0.26227552 -1.747923 0.021509089 0.23963858
000220 a2 86 ac 3f 57 73 98 3f a3 c3 7a 3c 1e 70 8c be
       1.3478587 1.1910199 0.0153054325 -0.2742929
000230 96 ae 4e 3f 51 1c d0 bf 22 de e9 bd 57 43 42 be
       0.80735147 -1.6258641 -0.114193216 -0.18971
000240 bf c5 87 3f fc eb 74 3f c2 c5 18 be bd 55 d5 3c
       1.0607222 0.95672584 -0.14919189 0.02604186
000250 76 e0 f2 3c bb 6d 9b bf 95 03 3d bc 8c 8e a1 3d
       0.029648047 -1.2142862 -0.011536499 0.07888517
000260 af 24 76 3f 57 60 83 3f b3 13 fe bd 75 c6 c6 bd
       0.96149725 1.0263776 -0.12406101 -0.097058214
000270 5f cd c5 3d ee b0 40 bf c9 13 b6 3c 59 c7 b6 bd
       0.09658312 -0.75269973 0.022226231 -0.08924741
000280 87 dd 82 3f c2 e2 7f 3f b6 ef dc 3c bf b1 6b be
       1.0223855 0.9995538 0.026969772 -0.23017024
000290 7e 46 0e 3e 98 60 5d bf d2 c2 86 bd 81 3b 85 be
       0.13894078 -0.86475515 -0.06580128 -0.2602196
0002a0 df 55 0b be 26 9c 25 40 0f 16 9d 3d cd ac 9d bc
       -0.13606976 2.5876555 0.07670223 -0.019247437
0002b0 5e b5 84 bf 6e a7 ab 3f f4 50 c3 3c 23 51 2e 3d
       -1.0367849 1.341047 0.023842312 0.042557847
0002c0 5f 59 a5 be 07 2d 17 40 e9 a2 fc 3c b0 7a b0 bd
       -0.32294747 2.3621233 0.0308394 -0.08617151
0002d0 0a 2d 94 3e 16 1e cf 3f 4b 7e 9e bc 0c 54 a2 bc
       0.28940612 1.6181056 -0.01934733 -0.019815467
0002e0 2a 32 2a bf 4f 4b 0e 40 a1 c2 75 3b ac db 47 3f
       -0.66482794 2.2233465 0.003750004 0.7806957
0002f0 9a 95 21 40 21 17 1c c1 77 a6 0d be 26 bf 33 3f
       2.524756 -9.755647 -0.13833033 0.70213544
000300 6b a4 12 40 1d d0 1e bf 2b 5c 60 be de 01 76 bf
       2.2912853 -0.62036306 -0.2191016 -0.960966
000310 a1 e8 39 3f 08 29 41 bf e9 38 6a be f2 af 76 bf
       0.7262059 -0.75453234 -0.22873272 -0.9636222
000320 d4 85 68 40 b3 c0 2a 3e 9b 5c 5b 3d 5c f4 59 3e
       3.6331682 0.16675071 0.053555112 0.21284622
000330 10 56 4c 3f 41 0f 32 c0 0c c7 66 bd 36 45 10 3e
       0.7981882 -2.782181 -0.05634217 0.14088902
000340 54 27 fa 3f 93 f8 ae bc 83 52 86 bd 1a 42 f7 bd
       1.9543252 -0.021358764 -0.065587066 -0.12073155
000350 d1 d8 e0 3e 4e f6 63 c0 9f bf 2a be b7 90 0a be
       0.43915418 -3.5619082 -0.1667466 -0.13531767
000360 0f 6c dc 3e 76 b8 aa be 4f b2 3d 3c b4 dd ba 3d
       0.43051192 -0.33343858 0.011578157 0.09124318
000370 29 6f f0 be 93 89 18 40 01 93 bc 3d 75 ad 7c 3d
       -0.46959808 2.3833969 0.09207726 0.06168886
000380 bc b8 de 3e e4 8e 92 bf 5a 8c 34 3d eb 61 f0 bd
       0.43500316 -1.1449857 0.044079162 -0.11737426
000390 78 c0 6a 3f 2f d7 97 bf 39 7d 4c ba 0a 5a 5e be
       0.91699934 -1.1862544 -0.0007800642 -0.21714035
0003a0 07 68 b9 3d 31 4f 70 bf 79 e7 cf b8 b0 ac 9e 3f
       0.09053045 -0.93870836 -9.913644e-05 1.239645
0003b0 9e 32 cf 3e 68 d3 89 c0 cd 46 ad 3d b4 6a 96 3f
       0.40468305 -4.3070564 0.0846077 1.1751313
0003c0 d0 8f 3c 3f f3 76 fd 3c e6 0f 37 be 10 12 53 bb
       0.7365694 0.030940508 -0.17877159 -0.003220681
0003d0 df a4 f6 3f 2d 4a d7 3f 73 4e 28 bd 85 b1 7c 3d
       1.9269065 1.6819512 -0.04109044 0.061692733
0003e0 b9 52 a7 3f 94 13 b0 3e 6b ce 9a 3d 7d 0b 8f be
       1.307212 0.34389937 0.07558902 -0.27938452
0003f0 9e 5a d2 3f 14 fc 00 40 69 07 80 3d 02 db 94 be
       1.6433904 2.0153856 0.062514134 -0.2907334

fcs1.bias f4 [128]
000000 56 69 25 c0 a7 1c c5 bf 82 77 66 c0 5e f2 17 c0
       -2.5845542 -1.5399369 -3.6010442 -2.374168
000010 f2 6a c6 bf 6b fc 9b bf 7d 88 7e bf 97 e9 05 3f
       -1.5501387 -1.2186407 -0.99427015 0.52309555
000020 2e f9 01 c0 27 43 89 be 43 68 11 c0 a7 11 67 c0
       -2.0308337 -0.26809046 -2.2719886 -3.6104524
000030 1f 14 bb bf ed 67 a9 bf f1 00 b0 3e ff 53 44 bf
       -1.4615515 -1.3234841 0.34375718 -0.7669067
000040 fd 3d 61 40 d0 f7 bc bf a2 49 3b bf ad ac 75 bf
       3.5194085 -1.4763126 -0.7315923 -0.9596661
000050 0b d1 8c c0 ac 0c 32 bf fc 7f 11 bf 8b 68 43 bf
       -4.400518 -0.69550586 -0.56835914 -0.76331395
000060 49 a6 71 be a9 fa 5f bf dc be d1 bf ce ea ae 3d
       -0.23598589 -0.8749185 -1.6386371 0.08540879
000070 e8 b0 42 c0 e9 3f 2e bf 27 4e ca bf a6 43 4a bc
       -3.0420475 -0.6806627 -1.58051 -0.01234523
000080 9c c2 00 c0 3b 4d c8 be 9c 31 4e c0 58 29 31 bf
       -2.011878 -0.39121422 -3.221778 -0.6920371
000090 4f 30 8d c0 71 1e 58 bf f1 51 31 c0 8c f8 c8 3f
       -4.412147 -0.8442145 -2.7706263 1.570085
0000a0 de 57 00 bf a4 a4 48 c0 23 6f 6e bf c5 97 98 bf
       -0.50134075 -3.1350489 -0.9313833 -1.1921316
0000b0 97 5c 8f c0 9b 20 64 c0 9c fb e8 be f9 c9 92 c0
       -4.4800525 -3.56449 -0.45504463 -4.587155
0000c0 20 eb 13 c0 ac 43 ff bf 88 0d e2 bf 0f 28 e0 bf
       -2.311226 -1.9942527 -1.766038 -1.7512225
0000d0 12 c6 4e c0 f0 5e 9d bf c2 c5 ef bf 0b 4e 4a c0
       -3.2308393 -1.2294598 -1.8732226 -3.1610134
0000e0 2c 8f f0 be b7 9c 24 3e 2f 22 0d c0 24 43 54 c0
       -0.4698423 0.16075407 -2.2052114 -3.316598
0000f0 0d f7 f0 bf 19 ce 5c bf 52 19 a8 bf 05 91 f2 bf
       -1.8825394 -0.8625198 -1.3132727 -1.8950506
000100 58 2d 0a c0 26 d4 f5 bf b5 c5 90 3e 39 f4 a4 bf
       -2.1590176 -1.9205368 0.28275838 -1.2887031
000110 8a 1f 90 bf 66 54 86 be cb ea 05 bf 8c d1 9e be
       -1.1259625 -0.26236266 -0.5231139 -0.31019247
000120 f4 62 2e c0 fd 6b 69 c0 e2 ba e4 bf 5d 80 3c 3f
       -2.7247896 -3.647216 -1.7869532 0.73633367
000130 dd 5d df bf 2e 0a a7 c0 89 6d 1a 3f 9f ee 90 bf
       -1.745052 -5.2199926 0.6032339 -1.1322821
000140 e8 10 d7 bf c1 16 c6 bf 49 e3 6d bf ac d3 bd bd
       -1.6802034 -1.5475694 -0.92924935 -0.09268889
000150 54 8b ef bf bb 30 2b c0 ad 69 28 bf 31 98 af bf
       -1.8714395 -2.6748493 -0.6578625 -1.371832
000160 69 cb 61 bf 22 09 f1 bf 5a fd b9 be ff d8 85 be
       -0.88201004 -1.8830912 -0.36326104 -0.26142117
000170 76 99 90 bf 9c 66 ac bf 59 8d 9d be ad c6 13 bf
       -1.1296833 -1.3468814 -0.30771902 -0.5772503
000180 da d2 92 bf f9 ac 91 bf 5e a6 5f 3d 18 a3 b2 3f
       -1.1470597 -1.1380912 0.05460202 1.3956022
000190 06 18 ef be 5a e4 c9 bf 5f 75 9c bf 6d 98 3a c0
       -0.46698016 -1.5772812 -1.2223319 -2.9155533
0001a0 99 4d b2 bf 7d 4f 9e be 0d ef 0d c0 9e 47 c0 be
       -1.3929931 -0.3092002 -2.2177155 -0.3755464
0001b0 d5 ee c9 bf bd 64 4e bf 4a 40 f5 bf 79 d2 29 c0
       -1.5776011 -0.80622464 -1.9160244 -2.6534712
0001c0 ac 9c 91 bf 2b 4e 4a bf e8 6f 44 bf c6 07 dd bf
       -1.1375937 -0.79025525 -0.76733255 -1.7267997
0001d0 b1 51 26 bf 65 77 e4 be 0e 65 95 bf 7d d7 6a c0
       -0.649684 -0.4462234 -1.1671464 -3.6694024
0001e0 c4 e7 48 bf cd a4 85 bf c4 32 bc bf 21 5b ca 3e
       -0.78478646 -1.0440918 -1.4702992 0.3952265
0001f0 94 a0 66 bf bf 36 a6 be 9b 71 6e bd cf 4e 49 c0
       -0.9008877 -0.32463643 -0.05821381 -3.145435

fc2.weight f4 [128, 132]
000000 ea 30 ed bd c3 18 b3 bd 13 4e 16 be f2 dd a7 bd
       -0.11581595 -0.08744957 -0.1467822 -0.081966296
000010 20 fe 05 be 31 39 d5 bc 80 63 1e 3c 1b e4 a5 bd
       -0.13085222 -0.026028248 0.009667277 -0.08100148
000020 9d 93 70 bd 6b 22 dd bd a8 87 62 bd d4 e6 b4 bd
       -0.058734525 -0.1079758 -0.055305153 -0.088330895
000030 3a 29 93 3b 83 af 44 be c1 ec d5 bd 19 a6 c7 bd
       0.0044909986 -0.19207577 -0.10445548 -0.097484775
000040 c1 b6 29 be e4 62 05 be d0 8e 79 3b 92 02 45 bd
       -0.16573621 -0.13026005 0.0038079508 -0.048098154
000050 bf 81 16 bc 0c f1 92 bd ae 34 01 bd 4a 14 05 3e
       -0.009186207 -0.07174882 -0.03154438 0.12996021
000060 b0 26 ad bd 36 d4 c3 bd 25 a9 f1 bc d9 ad 40 bc
       -0.08454645 -0.095619604 -0.0294996 -0.0117601985
000070 f9 9e d7 bd 72 87 95 3d ad 1c 82 3d 06 cd aa bd
       -0.105283685 0.07301225 0.06353126 -0.08339886
000080 84 a6 8c bd 31 9d d6 bd a9 5c a5 be c8 d5 08 be
       -0.06867698 -0.10479201 -0.32297257 -0.13362801
000090 00 54 6b bd e7 16 26 be 34 ee 34 bd ef 49 10 be
       -0.057453156 -0.16219674 -0.04417248 -0.14090703
0000a0 2e 84 d0 bc a5 31 78 bd 11 69 d1 bd f8 07 d4 3b
       -0.025453653 -0.06059422 -0.10225118 0.0064706765
0000b0 8c f9 76 bc 03 31 81 3c d0 0d 9f bd 96 1c ab 3d
       -0.015074145 0.01577044 -0.077663064 0.08355062
0000c0 9a d0 21 bd a8 18 52 bc 01 f7 cb bc 66 f8 ce bd
       -0.03950558 -0.012823261 -0.024898054 -0.10105972
0000d0 90 21 a9 bd aa 22 5a bd b7 84 11 3d b5 ff c4 bd
       -0.08258355 -0.053255714 0.035526957 -0.09619085
0000e0 dd 0e 25 be b1 0f b7 bb 30 c1 97 bd 3e 47 23 be
       -0.16118951 -0.0055865874 -0.074098945 -0.15945145
0000f0 83 46 92 bd ca 07 a2 bd e9 a9 7d bc 46 d2 de bc
       -0.07142355 -0.07911642 -0.015482404 -0.027199876
000100 79 a8 09 bd f3 76 3e bd 5d a6 13 bd 40 ff 1a 3d
       -0.033607934 -0.046500158 -0.03604733 0.03784108
000110 33 35 65 bd 78 96 2a be 53 70 ab bc 6d 1f ff 3c
       -0.055958938 -0.16658962 -0.020927584 0.031142915
000120 ab 93 00 3d 0f 10 87 bc f0 c0 0f be 78 36 3e 3c
       0.031390827 -0.01648715 -0.14038444 0.011609666
000130 a4 1c 9e 39 95 9d 87 bd ae 75 ed bc c2 57 0e be
       0.00030157447 -0.06621853 -0.028986778 -0.13900664
000140 af 49 35 be a0 36 83 bd c3 6d 96 bd 57 89 4c 3c
       -0.1770389 -0.06406903 -0.07345154 0.012483916
000150 c9 b3 91 bc 85 f6 3a bc 2a b1 f7 bd 0b b7 03 bd
       -0.017785924 -0.011411314 -0.12094338 -0.032156985
000160 40 3f b7 3d 4d 6d 04 be d8 96 50 3d 74 f7 32 bd
       0.08947611 -0.1293232 0.050925106 -0.04369302
000170 e4 1c ef 3c c7 76 ab bb 04 89 b1 bc e3 8c 03 be
       0.02918858 -0.005232665 -0.02167178 -0.12846713
000180 d7 15 11 be 2f 37 08 3b 7d 01 22 be ae 55 19 be
       -0.14168487 0.0020784845 -0.1582088 -0.1497409
000190 2d da e2 bd 03 75 9a bd 19 76 0c be d8 f3 98 bc
       -0.1107677 -0.075418495 -0.13716926 -0.018670961
0001a0 8d 0c 5a bd ac a3 9c bd 7c cf b9 bd 80 d4 63 3d
       -0.053234626 -0.076484054 -0.09072778 0.055622578
0001b0 d8 27 a9 bd cb 66 06 bd 7f e3 b1 3d 82 d3 d5 bd
       -0.08259553 -0.032812875 0.086859696 -0.104407325
0001c0 5f 46 07 bc 63 d9 6c bd ba 26 6c bc 56 25 a8 3b
       -0.008256524 -0.057824504 -0.01441353 0.005131404
0001d0 64 5b 47 bd ae 00 18 bd 46 f3 16 bd 70 8c 95 bb
       -0.04867114 -0.037110023 -0.036853097 -0.0045638606
0001e0 b1 4a f9 bd 8b 5a a2 bb 75 0d 15 3d 15 11 6c 3c
       -0.121724494 -0.004954641 0.036389787 0.01440837
0001f0 dd 85 49 bd b1 5e f4 3c 08 da 75 bc 1c d2 68 bd
       -0.049199928 0.029830309 -0.015005596 -0.056841
000200 06 c5 9f 3b 6c b1 04 be 6e 11 fc 3d 23 55 5f 3b
       0.004875782 -0.12958306 0.12308012 0.0034077845
000210 b9 2e 59 bd b6 38 75 be 62 59 80 bd 9d 8e 82 bb
       -0.053023074 -0.23947415 -0.062670484 -0.003984286
000220 0c e7 4a be ba 4e 04 bd 9e 28 8a bb c0 e4 2c be
       -0.198147 -0.032301642 -0.0042162677 -0.16884136
000230 c4 7d 82 bc 85 37 c3 bc 74 44 eb bc f5 80 e2 bc
       -0.01592911 -0.023830185 -0.028719164 -0.027649382
000240 8b c6 c4 3d bc 01 e6 bd cf 3b a3 bd c8 d3 ee bd
       0.096081816 -0.112307996 -0.07970392 -0.11661488
000250 c1 cb c5 bd 75 4c ab bd d3 73 7b bd 73 e1 2e be
       -0.096580036 -0.083641924 -0.061389755 -0.1707819
000260 86 cb 83 bd ef a0 e3 bd cb a5 1c bd 96 e4 57 bd
       -0.064353034 -0.1111468 -0.03824405 -0.05270823
000270 ef da 52 3d 6a a2 07 3c 7c c5 0e be 5e 76 69 bd
       0.051478323 0.008278469 -0.13942522 -0.05699765
000280 53 38 07 be ec 12 0f 3c c7 b3 05 bd 8e a9 b3 bd
       -0.1320508 0.008732539 -0.032642152 -0.08772574
000290 2a 73 3b bd 72 c7 f3 bd d7 16 78 be 31 46 79 bd
       -0.045764126 -0.119032755 -0.24227463 -0.060857955
0002a0 58 17 8c bd c4 e7 d1 bd 56 cb 8e bd 83 ec 83 be
       -0.0684039 -0.10249284 -0.06972377 -0.25766382
0002b0 96 3a b3 bd 33 20 c4 3b 53 1f 57 3d 2f 31 25 bd
       -0.08751409 0.0059852838 0.052520107 -0.04033011
0002c0 ba 48 87 bd 57 d6 cd bd 38 10 e3 bd e8 2b a5 3a
       -0.06605668 -0.10050648 -0.11087078 0.0012601586
0002d0 a0 82 99 bd 28 6b 53 3d b1 52 a0 bd fd 9d ff bd
       -0.07495618 0.051615864 -0.07828272 -0.12481306
0002e0 c4 88 2f be 76 c5 82 bd b2 54 0a be ce e0 2b bd
       -0.17142016 -0.06385319 -0.13508871 -0.041962437
0002f0 c8 4c 58 be 2e e2 cf b5 d7 11 bb bc 49 f0 3a be
       -0.2112304 -1.5488529e-06 -0.022835655 -0.18255724
000300 47 6e d1 3c 37 a8 c4 bd b5 36 f2 bb d7 cd 04 be
       0.02556528 -0.09602397 -0.0073917755 -0.12969147
000310 dc 93 a8 bd f7 9c 87 bd fd b0 84 bd a8 7c b0 bd
       -0.08231327 -0.066217355 -0.0647907 -0.08617526
000320 9c 81 9d bd d6 4c 06 be d0 d8 f3 bd 3a 38 93 3d
       -0.07690737 -0.13115248 -0.11906588 0.07188459
000330 71 b3 00 be 22 60 ac bc 68 96 de 3b de 13 71 bd
       -0.12568451 -0.021041933 0.006792832 -0.058856837
000340 5a ee 28 be 21 46 c2 bd be 6d d6 bd ab 8d 33 be
       -0.16497174 -0.09486032 -0.104701504 -0.17534511
000350 3f 6e 70 be 0d bf 61 bc 0e fb 10 bd 66 f7 f1 bd
       -0.23479556 -0.01377846 -0.035395674 -0.11814766
000360 31 6b 86 bd d4 8f d9 3c ae b9 b6 bd ab c9 31 3d
       -0.06563414 0.02655784 -0.08922134 0.043405216
000370 22 7f f3 3b 1e 1b 5d bd 1a f5 40 bd c5 c4 47 ba
       0.007430927 -0.05398094 -0.047108747 -0.00076205685
000380 97 37 b4 3c 4b 29 8c bd 7b 2b 21 3d b7 42 f5 bd
       0.021999164 -0.068438135 0.039348107 -0.119756155
000390 b0 89 77 bd c3 e5 9c 3d 2f 75 62 be 2f 64 58 be
       -0.060434043 0.07661011 -0.22115014 -0.21131967
0003a0 33 24 1a be f3 93 09 be d3 ef ea bd 83 a4 2c bd
       -0.15052871 -0.13435344 -0.11471524 -0.042149078
0003b0 03 85 97 bd 57 ab ed bd 08 54 17 bd 24 76 6f 3d
       -0.07398417 -0.11604946 -0.036945373 0.058462277
0003c0 5c 66 11 be e6 ef 9d 3c 42 03 22 bd a4 e6 b0 bd
       -0.14199203 0.019279432 -0.03955389 -0.08637741
0003d0 f1 02 84 bd 23 04 cb bc 2b 1a 10 3e 0c 1e 75 3a
       -0.064458735 -0.024782246 0.14072482 0.00093504856
0003e0 23 17 15 be c2 d8 92 bd cf 3f 0b 3b 77 8b 61 bb
       -0.14559607 -0.071702495 0.002124775 -0.0034415403
0003f0 d8 4c 01 be d5 cc 8f bd 2f e8 d2 3c f8 ab 92 bd
       -0.1262697 -0.070214905 0.02574548 -0.07161707

fc2.bias f4 [128]
000000 a6 a9 ac be 8d f8 db be a7 b5 2d c0 56 36 57 bf
       -0.3372318 -0.42963067 -2.7142122 -0.84067285
000010 b9 56 5a bf 9f f1 d3 bf 73 0d 1f bf e8 7f 80 3e
       -0.8528858 -1.6558112 -0.62129897 0.25097585
000020 6f d5 95 bd b1 08 c0 be be 06 f4 3d a4 b8 8c bf
       -0.073161 -0.3750663 0.119153485 -1.0993848
000030 c7 7f 2e bf 71 37 c9 be fa dd d2 be 5d d2 f7 be
       -0.6816372 -0.3930011 -0.4118498 -0.48402682
000040 17 5f ff be 97 ab 93 be d9 2d e3 bf ff 5d 90 bf
       -0.49877235 -0.2884185 -1.7748367 -1.1278685
000050 3a 14 0e bf 4e d9 80 c0 84 7c 0d bf db 12 bd bf
       -0.55499613 -4.0265265 -0.5526812 -1.4771379
000060 cf 3b 08 bf 48 ab 2c be 34 63 1a bf b5 d7 ec be
       -0.5321626 -0.16862214 -0.6030762 -0.4625832
000070 76 cc 69 be 07 13 12 bf 60 da e8 be da 23 de be
       -0.22831902 -0.57060283 -0.45479107 -0.43386728
000080 62 06 83 bf 1b 06 99 bf 9b e7 13 bf 11 6f b9 be
       -1.0236323 -1.1954988 -0.57775277 -0.3621755
000090 93 a6 2e bf e3 fe aa be 2e f6 dd be e1 03 f9 be
       -0.6822292 -0.33397588 -0.43351883 -0.48635772
0000a0 61 ad 66 be f9 a0 10 bf 51 3e 9b be b4 50 4d bd
       -0.22527076 -0.56495625 -0.3032098 -0.050125793
0000b0 3b d6 bc be 05 cf 56 bf 61 fc 39 bf 41 cb d4 bf
       -0.36882195 -0.83909637 -0.72650725 -1.6624528
0000c0 c2 19 00 bf 06 d0 a7 be 11 91 e6 be 6d d3 b4 be
       -0.50039303 -0.32775897 -0.45032552 -0.35317555
0000d0 03 b6 47 bf 2f 31 62 bf 91 6f c9 be 52 93 a5 be
       -0.780121 -0.883563 -0.3934293 -0.3233896
0000e0 b7 93 69 bf 94 98 1c bf 45 b8 b8 bf a7 4c bf c0
       -0.9124102 -0.61170316 -1.4431235 -5.978107
0000f0 87 5e 76 be 3b ea d1 be 7a fb f8 be 7e f3 bb be
       -0.24059497 -0.40999016 -0.4862936 -0.36709207
000100 0b 37 b8 be 44 50 da be 76 5a 09 bf 18 62 80 be
       -0.35979494 -0.42639363 -0.5365366 -0.2507484
000110 32 c8 15 c0 32 80 1a bf 7c fc 30 bf ab 8e 27 bf
       -2.340344 -0.6035186 -0.6913526 -0.6545207
000120 0c 45 9a be 93 e8 0f bf 0a 64 8a bf 99 67 aa be
       -0.30130804 -0.56214255 -1.081178 -0.33282164
000130 64 d4 6f bf d4 c1 93 bf 29 92 33 bf d3 dd d1 be
       -0.9368346 -1.1543527 -0.701449 -0.4098955
000140 50 21 a8 be 1b 51 08 bf 7d 05 8e be d3 1c 9c be
       -0.32837915 -0.5324876 -0.27738562 -0.3049074
000150 7b 9b 58 3f b2 9e ca be c5 32 56 bf 3c b1 58 bf
       0.84612244 -0.395742 -0.8367122 -0.8464544
000160 8d 2d fc be f7 1a 4d bf 6b 97 e4 be 3e 7f 22 bf
       -0.49253502 -0.8011927 -0.44646773 -0.63475406
000170 28 c5 01 bf 9c a5 93 bf 2a f0 9a bf 8d 17 93 bf
       -0.5069146 -1.1534915 -1.2104542 -1.1491562
000180 2a 95 d5 bf ad 23 d0 be 21 8f 0b bf a5 13 6a c0
       -1.6686146 -0.40652218 -0.5451527 -3.657449
000190 5c 56 92 be 09 86 fc be 28 cd 9d 3f 6f 78 74 be
       -0.28581512 -0.4932101 1.2328234 -0.23874067
0001a0 84 f4 e8 bf 4e fa de be 21 c2 e3 3f 38 14 4d bf
       -1.819962 -0.43550342 1.7793618 -0.80108976
0001b0 4b 1b e2 be ec 6a 5d be 4c 45 76 bf 75 ac 5c be
       -0.44161448 -0.21622819 -0.9619949 -0.21550162
0001c0 a9 8c a8 be 6f cd 9a be 07 29 02 bf 37 14 de bf
       -0.32919815 -0.30234858 -0.5084385 -1.7349919
0001d0 81 4a c0 be ff ae dc bf 82 fd 17 bf 6b 25 45 be
       -0.37556842 -1.7240905 -0.593712 -0.19252555
0001e0 4f d3 01 c0 27 56 8a be 0a 88 3b c0 79 fa b1 be
       -2.0285223 -0.27018854 -2.9301782 -0.34761408
0001f0 9f 44 00 bf 01 88 5b bf 03 01 06 bf e8 35 8d bf
       -0.5010471 -0.857544 -0.52345294 -1.1032076

fc3.weight f4 [1, 128]
000000 d7 bd 5b 3c 72 08 c8 bc fd 70 39 3c a6 f1 03 bd
       0.013411961 -0.02441809 0.011318442 -0.032212876
000010 99 18 d5 bd cd cf 46 be 96 7b 8f bc d2 a2 ec bb
       -0.10405082 -0.19415207 -0.017514985 -0.007221558
000020 85 fb bb bd 29 7c 21 bc 54 94 a8 ba 31 51 2e bd
       -0.09178833 -0.009856262 -0.0012861588 -0.0425579
000030 b3 f5 1e ba a9 c9 94 bb 59 b8 9a 3c 72 4b a4 3a
       -0.0006063834 -0.0045406413 0.018886732 0.0012534691
000040 70 5b 08 bc 8e 48 43 bd 49 9f fa 3c 4a 2b cc 3b
       -0.008322582 -0.047676615 0.030593531 0.0062307464
000050 c6 8e ac 3c cd 2e 53 bd 05 07 5b bc 97 6e 31 3c
       0.021064173 -0.051558305 -0.013368373 0.010829589
000060 57 56 ad 3b 01 cf 59 3b 77 a2 15 bc 2e 8a ce bc
       0.0052898335 0.0033234956 -0.009132973 -0.025212374
000070 68 53 35 3c 6e b7 a8 3c c5 ca a9 3b 51 03 8b bc
       0.011067249 0.020595279 0.0051816427 -0.016969355
000080 d7 6e 0c 3d 04 84 74 3c 2d da 30 bc 3d bf e6 bb
       0.034285393 0.014924053 -0.010794205 -0.0070418403
000090 b5 71 79 bc 24 4e 56 bc 95 77 8b bc 78 e6 5d bc
       -0.015224864 -0.013080154 -0.017024795 -0.013543718
0000a0 f5 ff 54 bc 57 cc 0e 3c f5 d9 a3 3c cd 65 44 bb
       -0.013000478 0.008715711 0.020001391 -0.0029967905
0000b0 13 b6 68 ba 71 0c e3 bc 39 6e 11 3d 03 64 88 3c
       -0.0008877229 -0.027715893 0.035505507 0.016649252
0000c0 6c 5f 38 3b 50 61 02 bc bf c7 50 3b b6 a6 48 3c
       0.0028133048 -0.007957771 0.003185734 0.012246778
0000d0 82 88 1c bc bd 33 86 3d 0a dc 82 bd c6 66 f9 3b
       -0.00955403 0.06552837 -0.06389625 0.0076111285
0000e0 c5 fe e2 ba a2 0a 3d bc 5a 10 86 3c 10 3c 11 3b
       -0.0017318359 -0.01153818 0.016365219 0.0022161044
0000f0 d1 17 f6 bc 9f 9a ee bc 93 d8 ca 3c 20 c6 51 bc
       -0.030040653 -0.029126463 0.024761474 -0.012803584
000100 40 9b 7c 3c 9c 7d eb 3c af 7b 8e bd 42 88 4c 3d
       0.015417874 0.028746419 -0.069571845 0.049934633
000110 62 41 86 3b 94 c3 88 bc c6 8a 1b bd f9 66 cf bc
       0.0040971497 -0.016694821 -0.03797414 -0.025317656
000120 a5 35 97 ba 90 8c f1 3b 1e 5b 1a bc 1e f4 e8 bc
       -0.0011536373 0.0073714927 -0.009421138 -0.028436717
000130 9b e0 19 ba bf 2e 11 3c 09 e4 f9 bb 09 4a a8 3a
       -0.00058699556 0.008861243 -0.007626061 0.0012839447
000140 45 d2 d9 3b 00 8a 7d bb eb 86 65 bb 2b a4 84 3c
       0.0066473805 -0.003868699 -0.0035023044 0.016191563
000150 27 4e 0a 3c 6b 12 0b bc b8 c5 ef 3d dd 87 15 3c
       0.0084414845 -0.008488278 0.11707634 0.009126631
000160 70 4b 9c 3b e1 d6 87 3c 33 93 a2 bd 4e 69 06 bb
       0.004769735 0.016581954 -0.07938232 -0.0020509544
000170 22 8b c7 bc 48 43 bb bc 24 78 04 3c bc 75 5b bb
       -0.024358336 -0.02285923 0.008085284 -0.0033486923
000180 f9 e3 9f bc 5a c2 89 3c 94 37 ff bb 6e 32 9a 3d
       -0.019517886 0.016816307 -0.007788608 0.0752915
000190 88 17 d8 3c 02 84 33 3a 11 2b 5e bd a4 86 8a bc
       0.026378408 0.0006847979 -0.05424029 -0.016909905
0001a0 89 c8 42 bc 8a 7e a4 bc d9 f1 d1 3c 68 ce ad bc
       -0.011888632 -0.02007987 0.025628017 -0.021216586
0001b0 22 69 60 bc 96 53 e5 bc 64 5f ac bb 5e 52 0e bc
       -0.013696941 -0.027993958 -0.005260395 -0.00868663
0001c0 fa 74 c1 3c c0 08 e8 ba 8f fc fd bc 52 40 08 3e
       0.02361535 -0.0017702803 -0.031004218 0.13305786
0001d0 bf 36 1a 38 73 6b 97 bc 4d 0e 58 bc a8 08 02 3d
       3.6767447e-05 -0.018483853 -0.013187003 0.031746536
0001e0 ef 01 ca bc 01 0f 4d 3c 17 17 10 39 0f e1 77 bc
       -0.024659125 0.012515784 0.00013741512 -0.015129342
0001f0 2a e2 a2 ba d7 a5 1d 3c af 92 76 bb c2 50 ec bb
       -0.0012427021 0.009622059 -0.0037624051 -0.0072117755
