checkpoint_Actor.pth (torch_old, 80877 bytes, 6 tensors)

fc1.weight f4 [128, 24]
-0.07081717 0.014506915 0.10854953 -0.024541777 -0.043408494 -0.11222998 -0.008255803 -0.11520766
0.054630652 0.129119 -0.039696224 -0.11700892 0.02998959 -0.059976336 -0.048103668 -0.12042483
-0.0099786045 0.0066687646 0.071638174 -0.12702255 0.11437715 -0.14165516 0.06535685 0.010920785
-0.014311391 -0.14157857 0.00667767 0.03471465 0.002043918 0.09287736 0.061132804 -0.00960345
0.09964431 -0.1067488 -0.056082267 0.13217708 0.12874565 0.06241225 0.0034933519 0.003096044
-0.11550885 -0.08031803 -0.07459102 0.07103415 0.036718536 0.1944641 -0.11738458 0.06715453
-0.06654569 -0.030993802 0.09910389 0.03565041 -0.045110755 0.02374407 -0.0723257 -0.028330484
-0.011677652 0.061899915 -0.15291525 0.024413697 0.013934451 -0.07105333 -0.16076429 0.06320061
0.030911867 0.010093546 -0.12262687 -0.058327317 -0.031215187 -0.021392899 0.012911968 0.057997648
0.09501341 0.08013406 0.020371465 -0.116672084 -0.008324067 -0.060237743 0.07587608 -0.13086249
-0.009629173 -0.011195226 0.037157252 -0.11451979 -0.07266729 -0.015264373 -0.024743628 -0.03869101
-0.0075827944 -0.08352958 0.03823624 -0.00957371 -0.06775867 0.15138893 -0.060205135 -0.0030990278
0.09311725 0.08704795 -0.061683334 0.1149942 -0.055573087 -0.053758673 -0.026720323 0.17608619
0.08995546 0.044796057 -0.035931513 0.09321941 -0.030898806 0.022646045 0.05671704 0.18628676
0.057719227 0.1817332 -0.0043573165 0.04401242 -0.07710785 -0.0055815736 -0.105227426 0.04787873
0.017293777 0.047740497 0.0353751 0.039814934 -0.008061779 -0.096950576 0.08296489 0.0050859735
0.016318597 0.07143912 0.10397519 -0.11775736 0.10623919 -0.07159489 0.06864197 0.018765694
0.044072088 -0.0482239 -0.017633751 -0.09109461 0.10532904 -0.038659524 -0.0522004 -0.019836105
-0.06940364 -0.04905563 -0.07940021 -0.032787215 -0.06791992 -0.10068682 -0.035844136 -0.05505014
-0.049979787 -0.15337656 0.020893158 -0.033994265 -0.052539777 0.012229004 0.037584957 -0.07537873
-0.059326958 -0.051873315 -0.06534571 -0.009267445 -0.086325996 -0.09923465 -0.034834284 -0.080053516
0.039672665 -0.037366472 -0.034939356 0.12513113 0.10198802 -0.002625211 0.023750616 0.026294265
0.06319358 -0.10851739 -0.046724703 0.029975384 0.040966365 0.06716374 0.024686817 -0.030962255
-0.039264202 0.013563547 0.0922735 0.00081295916 0.113311425 -0.032963496 -0.016079258 0.03509253
0.041232605 0.080192804 0.052616563 0.022507925 -0.09069976 -0.08108732 0.0022983314 -0.09739055
0.07037132 0.054547004 0.093323775 0.032695565 0.017768398 0.007573194 0.06828658 0.019567989
0.020944431 0.023484737 -0.06701104 -0.078969695 -0.104300626 0.07823376 -0.07133867 -0.012733219
-0.11303589 -0.18882985 0.052933004 -0.003616236 -0.052608132 0.13252567 0.02203044 -0.056488574
-0.097922124 -0.078273766 0.0045081624 0.12576683 -0.058520716 0.18695752 -0.029219128 0.01929964
0.016944768 -0.06015109 -0.058305394 0.09701042 0.04388193 0.09686983 0.08554978 0.16797552
-0.045023993 -0.03557018 -0.08129584 0.086229034 0.06331111 0.04663021 -0.032713145 0.0010785875
-0.012968307 -0.057687093 -0.06292018 0.029743213 0.014996514 -0.12644672 -0.039275084 0.03410971
00000000: 9808 91bd 69ae 6d3c 374f de3d d60b c9bc
00000010: 1bcd 31bd d5d8 e5bd 5943 07bc fef1 ebbd
00000020: 64c4 5f3d c537 043e 8298 22bd 5fa2 efbd
00000030: bbac f53c bfa9 75bd 5a08 45bd 4ba1 f6bd
00000040: 4d7d 23bc a785 da3b 09b7 923d 3312 02be
00000050: 913e ea3d 0d0e 11be d0d9 853d 18ed 323c
00000060: 537a 6abc f9f9 10be 5bd0 da3b f330 0e3d
00000070: 41f3 053b 7c36 be3d 6466 7a3d ca57 1dbc
00000080: 5112 cc3d 1d9f dabd 85b6 65bd 6e59 073e
00000090: e6d5 033e fda3 7f3d b8f0 643b 00e7 4a3b
000000a0: e78f ecbd c87d a4bd 2dc3 98bd 5a7a 913d
000000b0: 2d66 163d 9921 473e 5467 f0bd 5088 893d
000000c0: 1b49 88bd b7e6 fdbc fbf6 ca3d 2a06 123d
000000d0: 0ec6 38bd ed82 c23c 7f1f 94bd 5515 e8bc
000000e0: 9f53 3fbc c48a 7d3d d195 1cbe 3cff c73c
000000f0: 534d 643c 6984 91bd 659f 24be 526f 813d
00000100: e23a fd3c 665f 253c cc23 fbbd a0e8 6ebd
00000110: feb6 ffbc 2940 afbc b88c 533c f18e 6d3d
00000120: 6496 c23d 531d a43d 0fe2 a63c c6f1 eebd
00000130: ab61 08bc dabb 76bd eb64 9b3d d100 06be
00000140: aec3 1dbc 2e6c 37bc 3432 183d 5a89 eabd
00000150: 97d2 94bd 6c17 7abc 26b3 cabc 777a 1ebd
00000160: 1779 f8bb 8e11 abbd 9b9d 1c3d 0ddb 1cbc
00000170: 0fc5 8abd b305 1b3e a999 76bd 0f19 4bbb
00000180: 42b4 be3d 3246 b23d aaa7 7cbd 1482 eb3d
00000190: 9ba0 63bd 0e32 5cbd 94e4 dabc f04f 343e
000001a0: 913a b83d 127c 373d ec2c 13bd d1e9 be3d
000001b0: 7e1f fdbc 3384 b93c 2050 683d f5c1 3e3e
000001c0: ff6a 6c3d 4518 3a3e d2c7 8ebb 5e46 343d
000001d0: b8ea 9dbd a2e5 b6bb 7a81 d7bd 7d1c 443d
000001e0: aeab 8d3c 8a8b 433d 7be5 103d fc14 233d
000001f0: 8d15 04bc 068e c6bd 7fe9 a93d 3da8 a63b
00000200: 94ae 853c ac4e 923d f2f0 d43d c52a f1bd
00000210: ef93 d93d 57a0 92bd 2994 8c3d 83ba 993c
00000220: ef84 343d 6d86 45bd a874 90bc d08f babd
00000230: c0b6 d73d 7359 1ebd 16d0 55bd 547f a2bc
00000240: 7f23 8ebd 8eee 48bd 949c a2bd e34b 06bd
00000250: 9919 8bbd e434 cebd 4dd1 12bd 417c 61bd
00000260: 9bb7 4cbd bf0e 1dbe 2128 ab3c 923d 0bbd
00000270: f333 57bd 295c 483c aff2 193d 2a60 9abd
00000280: d300 73bd 1d79 54bd f9d3 85bd 7bd6 17bc
00000290: afcb b0bd 893b cbbd 65ae 0ebd 19f3 a3bd
000002a0: ce7f 223d 960d 19bd 921c 0fbd 6022 003e
000002b0: 18df d03d bb0b 2cbb a790 c23c 1267 d73c
000002c0: a36b 813d 5e3e debd 6762 3fbd f08e f53c
000002d0: 59cc 273d 258d 893d 023c ca3c 8ea4 fdbc
000002e0: 80d3 20bd a439 5e3c e4f9 bc3d c41c 553a
000002f0: d20f e83d bb04 07bd a6b8 83bc 2fbd 0f3d
00000300: 85e3 283d 203c a43d 7784 573d 8a62 b83c
00000310: ccc0 b9bd 1c11 a6bd 9a9f 163b b274 c7bd
00000320: d71e 903d ae6c 5f3d 8920 bf3d c9eb 053d
00000330: 088f 913c 8e28 f83b d6d9 8b3d 0c4d a03c
00000340: a893 ab3c 1063 c03c 163d 89bd ddba a1bd
00000350: 919b d5bd 0639 a03d 021a 92bd fe9e 50bc
00000360: 5c7f e7bd 9d5c 41be 47d0 583d 5ffe 6cbb
00000370: a07b 57bd cfb4 073e 2e79 b43c 9060 67bd
00000380: 658b c8bd ff4d a0bd 35b9 933b 05c9 003e
00000390: 6bb3 6fbd cb71 3f3e f45c efbc 471a 9e3c
000003a0: c1cf 8a3c fd60 76bd a3d1 6ebd 66ad c63d
000003b0: 8abd 333d b063 c63d b934 af3d c601 2c3e
000003c0: 146b 38bd 09b2 11bd 6f7e a6bd d998 b03d
000003d0: 41a9 813d 52ff 3e3d 38fe 05bd 645f 8d3a
000003e0: 0679 54bc 4d49 6cbd 4cdc 80bd 0aa8 f33c
000003f0: f0b3 753c 407b 01be e9de 20bd a0b6 0b3d

fc1.bias f4 [128]
0.1621193 -0.11809377 -0.09936607 0.10541661 0.008954106 0.13976409 0.10884151 0.054707147
0.057199538 0.13020512 -0.1388753 0.021727549 0.14111763 -0.12268744 0.13597672 0.15471426
0.101690985 -0.035114884 -0.03160783 0.04659714 -0.10473164 0.09172558 0.05627044 0.035404105
0.20995298 -0.14022744 -0.19799064 0.19406405 -0.06544539 -0.14048351 -0.022074293 0.1724086
-0.021477755 0.11148026 0.13245495 -0.034981836 0.14096838 0.10222066 -0.07952037 -0.028577905
0.16590822 0.06863918 0.02824554 -0.029450018 -0.14225493 -0.032013725 0.15545972 -0.003128426
-0.11531268 0.06404539 -0.14062047 -0.020910824 0.046363935 -0.14773853 -0.11541429 -0.07556892
-0.11519676 0.21991943 0.06596794 -0.14186092 -0.061280694 0.14146167 0.1626157 0.07298581
0.0014289311 -0.13778856 0.14375524 -0.01862963 0.005506486 -0.027982678 0.043619156 0.05385967
-0.039970666 -0.018505298 0.015433591 -0.13272566 0.04144141 -0.13797472 0.20911561 0.13842636
-0.0050812527 0.1533844 0.02193878 0.23363213 0.04087404 0.15859437 0.09753002 -0.10193296
-0.1347087 -0.07476757 0.18433206 0.14206065 -0.047850363 -0.13365963 0.26461902 0.062013164
-0.12479854 -0.070143186 0.04655312 -0.019493975 -0.04802946 0.06410684 -0.07800329 0.10775861
-0.12946284 0.19350772 0.20007305 0.23357384 -0.1565902 -0.046698757 -0.048959993 -0.1254344
0.10904125 -0.07513353 0.049985107 0.15956436 -0.12739812 0.07919206 -0.0738454 0.1553802
0.23743576 -0.068271756 -0.13903892 0.11968471 -0.09367896 0.20993121 0.20804921 0.14388494
00000000: 9a02 263e 26db f1bd 7080 cbbd aae4 d73d
00000010: 3eb4 123c 511e 0f3e 4ce8 de3d 9a14 603d
00000020: 104a 6a3d 7e54 053e 5435 0ebe f9fd b13c
00000030: 2481 103e 8d43 fbbd 7b3d 0b3e 6a6d 1e3e
00000040: 5d43 d03d a0d4 0fbd 3677 01bd a5dc 3e3d
00000050: 8b7d d6bd 9fda bb3d d57b 663d e503 113d
00000060: eafd 563e c897 0fbe 0fbe 4abe bab8 463e
00000070: 3c08 86bd e9da 0fbe 26d5 b4bc e18b 303e
00000080: 1ef2 afbc c34f e43d 45a2 073e 1d49 0fbd
00000090: 045a 103e 1159 d13d 93db a2bd 361c eabc
000000a0: d8e3 293e b392 8c3d 3163 e73c 2a41 f1bc
000000b0: 47ab 11be d320 03bd d530 1f3e 4706 4dbb
000000c0: 0e29 ecbd 3b2a 833d d0fe 0fbe 2d4d abbc
000000d0: 1ce8 3d3d c548 17be 545e ecbd e1c3 9abd
000000e0: 47ec ebbd 8f32 613e 331a 873d fd43 11be
000000f0: 7701 7bbd 54db 103e bb84 263e 9679 953d
00000100: f94a bb3a 7218 0dbe 9334 133e 2a9d 98bc
00000110: c16f b43b ee3b e5bc 00aa 323d f59b 5c3d
00000120: 48b8 23bd 6c98 97bc 2cdd 7c3c 3ce9 07be
00000130: 78be 293d 3f49 0dbe 6722 563e a4bf 0d3e
00000140: a380 a6bb cd10 1d3e f5b8 b33c 433d 6f3e
00000150: 8a6b 273d 9066 223e d2bd c73d 3ac2 d0bd
00000160: 14f1 09be bd1f 99bd 8bc1 3c3e 5978 113e
00000170: befe 43bd 12de 08be 257c 873e 8401 7e3d
00000180: 6096 ffbd 3ba7 8fbd 7cae 3e3d d4b1 9fbc
00000190: 8aba 44bd 724a 833d 30c0 9fbd 8cb0 dc3d
000001a0: e891 04be e326 463e f3df 4c3e fb2d 6f3e
000001b0: 2e59 20be 3247 3fbd 468a 48bd e071 00be
000001c0: 0551 df3d 9cdf 99bd 2fbd 4c3d d764 233e
000001d0: a774 02be 722f a23d 423c 97bd fd1b 1f3e
000001e0: 5c22 733e 10d2 8bbd 3860 0ebe 421d f53d
000001f0: c1da bfbd 35f8 563e da0a 553e 9356 133e

fc2.weight f4 [128, 128]
0.05670988 0.13828227 -0.0052061593 -0.02280217 -0.050883517 -0.043946613 -0.027396843 -0.006588873
0.06697409 0.07548958 0.017807536 -0.04137408 -0.08428135 0.05545767 0.12925562 0.05003057
0.08412047 -0.05542104 0.003834894 0.0048863012 0.0022545706 -0.013949404 0.054631982 0.017217638
-0.1331641 -0.028254297 0.07866506 0.092737816 -0.0022687686 -0.041683964 -0.012351043 0.09622088
-0.0011411732 -0.038489196 0.015619067 -0.14495368 0.009848067 -0.011295921 0.07012382 -0.08025168
0.12126066 -0.00998014 0.015778506 -0.02986117 0.06515208 0.009078698 -0.0077968105 0.060702045
-0.04344106 -0.04886163 -0.017364651 0.078548685 -0.017796133 0.09305403 -0.015334501 0.085494615
0.008926772 0.022213014 -0.048568163 0.06498337 0.037019435 0.023224661 -0.012377223 0.028123388
-0.021214275 0.001737678 0.10882332 0.03503817 0.0031237323 0.014149326 -0.004987142 0.01895765
-0.014999459 -0.07622857 -0.051121406 0.119881056 -0.007942089 0.031319562 0.044231076 0.122689664
0.10736434 -0.0005969349 -0.02008417 -0.000737403 -0.05890485 0.008042886 0.021485297 0.027243061
-0.01140989 0.010973501 0.06575287 0.108429015 0.06894483 -0.040753487 0.09855937 -0.096074395
0.01102576 -0.0008181957 0.035840843 -0.09195884 0.07798796 -0.04426653 -0.016692923 0.058909237
0.03412137 -0.031241547 -0.02932089 -0.04584877 0.10204748 0.103467636 0.0045226966 -0.0016683936
-0.096184395 0.003998524 0.012319465 0.09227109 0.13897748 -0.04243742 -0.042888753 -0.0802592
0.045534704 -0.046714235 -0.0101918075 0.021429718 0.09863814 -0.019684155 0.09038421 0.017652234
0.080576204 -0.06851744 -0.08448301 -0.039658636 0.06407906 -0.042809542 -0.039325096 -0.09557138
-0.048099414 -0.067529775 -0.032647077 0.0018196829 0.040295057 -0.11485858 0.011551439 0.021368353
-0.03278695 0.082364485 -0.062383585 0.050459284 0.05122039 0.011379977 0.0712586 -0.060883593
0.11735037 0.07717715 0.08355321 -0.07620212 0.10977547 0.022873906 -0.069531456 -0.08282891
-0.0052634147 0.107618146 0.05494192 0.15099326 -0.099380404 0.08632645 0.0581949 0.06588961
-0.03568438 0.07948856 -0.009278834 0.09353533 -0.0069480455 -0.097981684 -0.081868656 0.040879756
-0.011453272 0.0032668018 0.027087403 0.06646945 -0.011601474 0.008653629 -0.030063024 0.056958977
0.1149033 -0.020974139 0.09131506 0.07515045 0.047343582 0.012246851 0.071535416 -0.065606825
-0.047755692 0.059259772 0.035487484 -0.09036339 -0.0058415206 -0.08143017 0.004552397 -0.03882401
-0.008160505 0.038322765 0.0475617 0.003415875 0.08171727 -0.024265531 0.008388245 0.031398237
0.04107984 -0.027200934 -0.0041668043 0.068743035 -0.036673315 0.015629094 0.08915642 0.008320582
0.06963365 0.10387698 0.12260362 0.12040868 -0.04080236 -0.07077742 0.033069253 0.12765887
-0.007859596 0.08074894 -0.033668615 0.10804663 -0.08224044 0.089438036 0.034324642 -0.10287082
0.07030888 0.0583729 0.111829825 -0.027315237 -0.03090351 -0.050728004 0.032588415 0.03914593
0.067023896 0.010336656 -0.075236574 -0.07767381 -0.027914856 -0.09373445 -0.020054372 -0.031724233
0.040437263 0.04448628 0.058463775 0.047818832 -0.0014593514 0.08384109 0.0955974 -0.09949277
00000000: 9e48 683d de99 0d3e 6e98 aabb 9ecb babc
00000010: 3c6b 50bd 5d01 34bd 586f e0bc 79e7 d7bb
00000020: b629 893d 489a 9a3d 1ce1 913c de77 29bd
00000030: b39b acbd 9527 633d 965b 043e dbec 4c3d
00000040: 5a47 ac3d 2c01 63bd d852 7b3b 441d a03b
00000050: 6bc1 133b 0a8c 64bc c9c5 5f3d 010c 8d3c
00000060: 2b5c 08be 8e75 e7bc 261b a13d 53ed bd3d
00000070: 9faf 14bb cebc 2abd 075c 4abc 740f c53d
00000080: 6b93 95ba d9a6 1dbd 1de7 7f3c bd6e 14be
00000090: c959 213c 8712 39bc 149d 8f3d fe5a a4bd
000000a0: 8257 f83d be83 23bc ed41 813c 6a9f f4bc
000000b0: 746e 853d d2be 143c 637c ffbb b5a2 783d
000000c0: 41ef 31bd 2223 48bd 5040 8ebc 22de a03d
000000d0: 32c9 91bc 1c93 be3d 8f3d 7bbc cd17 af3d
000000e0: 9841 123c 11f8 b53c 69ef 46bd 0016 853d
000000f0: b1a1 173d a541 be3c d6c9 4abc 0563 e63c
00000100: 8fc9 adbc ccc2 e33a c3de de3d 2f84 0f3d
00000110: 88b7 4c3b 93d2 673c 2e6b a3bb 134d 9b3c
00000120: 4ac0 75bc b91d 9cbd ae64 51bd 3384 f53d
00000130: 891f 02bc f148 003d a52b 353d b844 fb3d
00000140: d6e1 db3d 9f7b 1cba 8f87 a4bc 474e 41ba
00000150: 3646 71bd 4fc6 033c ef01 b03c d72c df3c
00000160: 8cf0 3abc 33ca 333c 71a9 863d 0810 de3d
00000170: f232 8d3d 21ed 26bd 7fd9 c93d a7c2 c4bd
00000180: 64a5 343c 2f7c 56ba d9cd 123d eb54 bcbd
00000190: 27b8 9f3d d250 35bd 99bf 88bc d04a 713d
000001a0: dac2 0b3d 46ee ffbc 5d32 f0bc ebcb 3bbd
000001b0: 45fe d03d d7e6 d33d 2133 943b 00ae daba
000001c0: 53fc c4bd 0d06 833b 95d7 493c a0f8 bc3d
000001d0: 1d50 0e3e dcd2 2dbd 1eac 2fbd ef5e a4bd
000001e0: 9982 3a3d 6d57 3fbd 8afb 26bc 608d af3c
000001f0: cb02 ca3d aa40 a1bc 5b1b b93d 6b9b 903c
00000200: 2305 a53d df52 8cbd 6e05 adbd 1871 22bd
00000210: e23b 833d 0f59 2fbd 5a13 21bd edba c3bd
00000220: e403 45bd 0d4d 8abd f1b8 05bd 6d82 ee3a
00000230: 6e0c 253d fa3a ebbd 3f42 3d3c af0c af3c
00000240: 9c4b 06bd b6ae a83d ee85 7fbd 65ae 4e3d
00000250: 79cc 513d 1573 3a3c 07f0 913d 1361 79bd
00000260: 6455 f03d 0e0f 9e3d f21d ab3d db0f 9cbd
00000270: f6d1 e03d 0f62 bb3c 8266 8ebd 34a2 a9bd
00000280: b978 acbb e766 dc3d c70a 613d fa9d 1a3e
00000290: f487 cbbd eccb b03d c75d 6e3d 22f1 863d
000002a0: c929 12bd e6ca a23d 4006 18bc 738f bf3d
000002b0: 6eac e3bb 9faa c8bd c1aa a7bd 8871 273d
000002c0: 81a6 3bbc d717 563b 67e6 dd3c 2321 883d
000002d0: 1c14 3ebc f3c7 0d3c bb46 f6bc d14d 693d
000002e0: 6c52 eb3d f5d1 abbc 6403 bb3d 7be8 993d
000002f0: 58eb 413d 04a7 483c 2981 923d df5c 86bd
00000300: 799b 43bd 60ba 723d 535b 113d 7110 b9bd
00000310: 3a6a bfbb dcc4 a6bd 462c 953b ed05 1fbd
00000320: a4b3 05bc 55f8 1c3d 0fd0 423d dfdc 5f3b
00000330: 625b a73d 82c8 c6bc d96e 093c 709b 003d
00000340: 5643 283d 7ed4 debc b089 88bb 26c9 8c3d
00000350: c236 16bd 9608 803c a497 b63d 0d53 083c
00000360: 169c 8e3d 74bd d43d 9b17 fb3d d398 f63d
00000370: 6020 27bd c1f3 90bd a073 073d 02b9 023e
00000380: 89c5 00bc b35f a53d 1ae8 09bd 8d47 dd3d
00000390: ad6d a8bd 4a2b b73d ff97 0c3d f0ad d2bd
000003a0: 1afe 8f3d 6c18 6f3d 0907 e53d 34c4 dfbc
000003b0: 5c29 fdbc 2bc8 4fbd 6e7b 053d 7c57 203d
000003c0: d343 893d 145b 293c a215 9abd 7213 9fbd
000003d0: b2ad e4bc d9f7 bfbd 1149 a4bc 45f1 01bd
000003e0: 8ba1 253d 3f37 363d b677 6f3d aedd 433d
000003f0: b547 bfba e1b4 ab3d 92c8 c33d dec2 cbbd

fc2.bias f4 [128]
0.11685815 -0.057296656 -0.053676598 0.045980442 -0.07332341 -0.05061363 0.058678985 0.04095893
0.1142312 0.10319564 0.08969577 0.0983011 -0.04761878 0.0054753968 0.036606632 0.05169375
0.07729788 0.039695457 0.041443013 0.077349 -0.0229039 0.16270854 0.018320743 0.0643306
0.024882555 -0.08270828 -0.047666974 0.06863732 -0.033089098 0.01333016 -0.008555065 -0.056019533
-0.054840624 0.112306595 -0.015899664 -0.076021425 0.12257889 -0.009472101 0.044061027 0.06539821
-0.04940895 0.10057558 0.011678906 0.0066980617 0.008023414 0.040029358 0.07068967 0.078233406
-0.051095173 -0.008324998 0.058901023 0.13011247 -0.019904777 0.0011393381 0.06496315 0.08383839
-0.005702154 -0.048495375 0.06680561 -0.013601815 0.007912886 -0.03263854 -0.091227524 -0.033753444
0.13915509 -0.05627102 0.078700885 0.081771806 0.014564233 0.0054579643 -0.04326519 0.05829039
0.04957067 -0.007082878 0.094700456 -0.07636351 0.043666124 -0.023434661 0.08533855 -0.042370737
0.1017738 0.022830402 0.056650713 -0.014427848 0.0029019795 -0.048005342 -0.025234843 0.073243015
0.023056606 -0.07629765 0.08367325 0.029497704 0.13296491 0.104593046 -0.054974467 0.070020586
-0.015304759 0.092930034 0.042267997 0.070510074 -0.064808734 0.09795685 0.043463524 -0.0052919504
0.04610188 0.003523951 -0.005058122 0.05696745 0.05756295 0.029194597 -0.028741518 0.0611294
-0.015827365 -0.039754797 -0.03515437 0.008840665 -0.00041842737 0.08791159 -0.06504545 0.06280562
-0.0027235812 0.104154736 -0.025022173 0.09529867 0.07345901 0.0069186175 0.0959634 0.022428503
00000000: 5353 ef3d e6af 6abd fedb 5bbd fd55 3c3d
00000010: 952a 96bd 3d50 4fbd 6059 703d 8dc4 273d
00000020: 0cf2 e93d 3c58 d33d 6ab2 b73d 1652 c93d
00000030: e90b 43bd f56a b33b d6f0 153d d3bc 533d
00000040: 5a4e 9e3d b497 223d 26c0 293d 2769 9e3d
00000050: f6a0 bbbc 119d 263e 6215 963c c3bf 833d
00000060: 80d6 cb3c f562 a9bd 723e 43bd b991 8c3d
00000070: 6f88 07bd be66 5a3c 8b2a 0cbc bd74 65bd
00000080: 90a0 60bd 0001 e63d 0340 82bc 1fb1 9bbd
00000090: a40a fb3d df30 1bbc 5679 343d 7fef 853d
000000a0: 0a61 4abd 92fa cd3d e258 3f3c 6a7b db3b
000000b0: a374 033c d3f5 233d bfc5 903d d638 a03d
000000c0: 2c49 51bd 9365 08bc 3342 713d 343c 053e
000000d0: 580f a3bc d855 953a 660b 853d 76b3 ab3d
000000e0: 22d9 babb 16a3 46bd 61d1 883d 26da 5ebc
000000f0: 0da5 013c fdaf 05bd 7fd5 babd 0d41 0abd
00000100: ac7e 0e3e 717c 66bd ee2d a13d fa77 a73d
00000110: d29e 6e3c b9d8 b23b d736 31bd e7c1 6e3d
00000120: 9d0a 4b3d 7d17 e8bb 50f2 c13d 7964 9cbd
00000130: 40db 323d 0cfa bfbc fac5 ae3d f08c 2dbd
00000140: c86e d03d d306 bb3c 940a 683d c862 6cbc
00000150: 232f 3e3b 40a1 44bd 4db9 cebc 6f00 963d
00000160: 35e1 bc3c f141 9cbd e25c ab3d 2ba5 f13c
00000170: f427 083e e134 d63d e82c 61bd f466 8f3d
00000180: d0c0 7abc 1a52 be3d 3521 2d3d 9667 903d
00000190: 71ba 84bd 9a9d c83d cf06 323d 1968 adbb
000001a0: 53d5 3c3d 16f2 663b 9abe a5bb b356 693d
000001b0: 21c7 6b3d 8229 ef3c 5573 ebbc d262 7a3d
000001c0: 64a8 81bc edd5 22bd 07fe 0fbd 70d8 103c
000001d0: 5f60 dbb9 fe0a b43d 8d36 85bd 3ca0 803d
000001e0: 1c7e 32bb 144f d53d 4dfb ccbc f32b c33d
000001f0: ad71 963d 92b5 e23b 7688 c43d fbbb b73c

fc3.weight f4 [2, 128]
0.021563701 -0.0063093104 -0.024345635 -0.003164262 -0.03863463 0.013110341 -0.01725148 -0.00017416371
0.021985808 0.005377994 0.038910903 0.03397324 -0.0668778 0.0019689074 -0.030186178 0.026910542
-0.038509786 0.0018835234 -0.015864978 0.009801519 -0.02545881 0.076365836 -0.0093667535 0.019427862
0.0327812 -0.01428023 -0.0014887603 0.03900077 -0.027750498 0.025143763 -0.03762027 0.010555021
-0.04865227 0.051449325 -0.016284341 -0.03743362 0.075913996 -0.042621803 -0.016197748 -0.054866467
0.02309291 0.03675583 0.027426736 -0.020757703 -0.010295904 -0.046045993 0.015425252 -0.056666303
0.02499742 0.022068283 0.035777923 0.0552941 0.024983749 0.0002657667 -0.03678453 0.027826123
-0.0017877386 -0.052480232 -0.012603851 0.028503543 -0.0095102945 0.031263586 -0.03383454 -0.03732987
0.042215537 0.019053755 -0.00218143 0.011740929 -0.010848119 0.0665798 -0.02542086 0.019722022
-0.043102194 0.042248476 0.020579116 -0.0066611776 0.0007977171 0.020298718 0.013550518 -0.012169775
0.010211301 0.030740935 0.038913127 -0.00622852 -0.012409194 -0.018211648 0.018237446 0.046303317
-0.035866477 -0.062208816 -0.02324454 0.023151398 0.04405969 0.01408128 -0.014342546 0.042304546
-0.03332471 0.052650623 -0.07008418 0.0078489315 -0.016348517 0.05022583 0.012293641 -0.0539764
-0.03733309 -0.009930034 0.025814727 0.048930008 -0.004191757 -0.06247902 0.0394428 -0.038551606
-0.03697493 -0.015305098 0.034432545 0.047349572 -0.04146263 0.011734948 0.0039777923 0.005016014
-0.024994364 0.018656768 -0.020311832 0.044066787 -0.0534791 0.021164468 0.023409616 -0.0006000346
0.050545234 -0.034128927 -0.022944992 0.006246196 -0.028787741 -0.023679838 -0.0082300715 0.034670744
-0.02471619 0.028484834 0.012104256 -0.010010572 -0.021490633 -0.03986051 -0.016574914 -0.04412126
-0.014012108 -0.013037477 -0.009117102 0.034370564 -0.016347168 -0.087519966 0.015201395 0.060141467
0.03776371 -0.020194398 0.028869418 0.015263122 -0.017362934 -0.048510544 -0.014417074 0.046301488
0.008709457 -0.044164557 0.042877156 -0.00852742 -0.08722612 -0.023775237 0.029221227 -0.013636943
-0.026915055 0.009580802 -0.024767658 -0.023823202 0.032220975 0.06582378 0.034577638 0.017244529
0.036842607 0.03786205 0.027259283 0.041617047 0.023742978 0.03706537 0.019886851 0.04253287
0.050587047 0.00456726 -0.008116444 0.04025909 -0.027243372 0.024018243 -0.015277977 0.04280251
-0.0154569475 0.028947487 -0.021048633 0.06563617 0.042535465 0.047893446 -0.007855615 0.02155888
0.023310687 0.017900696 0.014977108 0.0029603506 -0.018248864 0.02717569 -0.03292667 0.0239908
0.036530253 0.09098226 0.036580503 0.00352712 0.0067636664 -0.012500689 0.030873759 -0.047991566
-0.0029071844 0.010210441 0.045620054 0.033337206 -0.039095055 0.04307841 0.008537448 0.038345665
-0.015118319 -0.035487052 -0.019667216 0.036720846 0.04735053 -0.030236926 0.0059642685 0.0011250074
-0.03082806 -0.0353958 0.048841946 -0.046830438 0.03841479 -0.0031793308 0.049924627 -0.009718447
-0.008966999 -0.0012515634 -0.03677101 0.006206739 0.04010472 0.068400346 -0.035008345 -0.03416056
0.06089 0.014330761 -0.015296124 0.017602503 -0.0011724671 0.037708983 0.062257003 0.021351604
00000000: 5ca6 b03c 55be cebb 7f70 c7bc 825f 4fbb
00000010: 593f 1ebd c1cc 563c fa52 8dbc b79f 36b9
00000020: 951b b43c e239 b03b 0a61 1f3d 8627 0b3d
00000030: 3af7 88bd c908 013b 0149 f7bc 7f73 dc3c
00000040: 70bc 1dbd 8fe0 f63a 45f7 81bc 8d96 203c
00000050: ff8e d0bc b165 9c3d 0377 19bc 2e27 9f3c
00000060: 9445 063d a0f7 69bc 8222 c3ba 45bf 1f3d
00000070: 0355 e3bc 4bfa cd3c b617 1abd f8ee 2c3c
00000080: 9a47 47bd 87bc 523d bd66 85bc ff53 19bd
00000090: cc78 9b3d 3394 2ebd 24b1 84bc a9bb 60bd
000000a0: 582d bd3c 488d 163d 09ae e03c 0f0c aabc
000000b0: 27b0 28bc b99a 3cbd 32ba 7c3c ed1a 68bd
000000c0: 64c7 cc3c 8bc8 b43c df8b 123d 117c 623d
000000d0: b8aa cc3c 9a56 8b39 60ab 16bd 9cf3 e33c
000000e0: 8e52 eaba 83f5 56bd 6280 4ebc 4380 e93c
000000f0: 11d1 1bbc 3f0e 003d 1696 0abd 35e7 18bd
00000100: 33ea 2c3d 9f16 9c3c 53f6 0ebb 075d 403c
00000110: 4fbc 31bc fd5a 883d 683f d0bc 1490 a13c
00000120: ed8b 30bd bd0c 2d3d 8995 a83c 0246 dabb
00000130: e31d 513a 7f49 a63c fe02 5e3c bc63 47bc
00000140: 4d4d 273c 6ad4 fb3c 5f63 1f3d 9d18 ccbb
00000150: ef4f 4bbc 9830 95bc b266 953c 8ca8 3d3d
00000160: bae8 12bd acce 7ebd 556b bebc 00a8 bd3c
00000170: ef77 343d 2bb5 663c 00fd 6abc 8847 2d3d
00000180: 7e7f 08bd 2ea8 573d 4b88 8fbd ce98 003c
00000190: 53ed 85bc 9ab9 4d3d 456b 493c 5c16 5dbd
000001a0: 95ea 18bd 95b1 22bc 6879 d33c d56a 483d
000001b0: 025b 89bb 00ea 7fbd c68e 213d 4ae8 1dbd
000001c0: 0673 17bd 3cc2 7abc 2409 0d3d a0f1 413d
000001d0: b8d4 29bd f043 403c 2458 823b 605d a43b
000001e0: fbc0 ccbc 14d6 983c 0065 a6bc 607f 343d
000001f0: e70c 5bbd 1b61 ad3c 86c5 bf3c a44b 1dba
00000200: 8508 4f3d c6ca 0bbd 23f7 bbbc e4ac cc3b
00000210: 45d4 ebbc 38fc c1bc 6cd7 06bc e902 0e3d
00000220: 9b79 cabc 0759 e93c ee50 463c 6203 24bc
00000230: 200d b0bc c644 23bd 1dc8 87bc 7fb8 34bd
00000240: 0a93 65bc 249b 55bc e65f 15bc 26c8 0c3d
00000250: 7fea 85bc ab3d b3bd 460f 793c e656 763d
00000260: 1fae 1a3d b96e a5bc 8f7f ec3c 2c12 7a3c
00000270: b63c 8ebc feb2 46bd 9735 6cbc a1a6 3d3d
00000280: 1cb2 0e3c e5e5 34bd f59f 2f3d 98b6 0bbc
00000290: 9ca3 b2bd 49c4 c2bc 5b61 ef3c 7c6d 5fbc
000002a0: f67c dcbc ccf8 1c3c 8be5 cabc e028 c3bc
000002b0: 24fa 033d 9ece 863d 48a1 0d3d 6644 8d3c
000002c0: 46e8 163d 3d15 1b3d dc4e df3c a376 2a3d
000002d0: a280 c23c dbd1 173d c0e9 a23c f236 2e3d
000002e0: 5d34 4f3d f4a8 953b d5fa 04bc b7e6 243d
000002f0: 7e2d dfbc e8c1 c43c 7b50 7abc af51 2f3d
00000300: 233f 7dbc 4823 ed3c 2f6e acbc 426c 863d
00000310: ab39 2e3d eb2b 443d d6b4 00bc 409c b03c
00000320: 0ef6 be3c 7ba4 923c 8b62 753c 7102 423b
00000330: a47e 95bc 8d9f de3c 1ede 06bd 5b88 c43c
00000340: bfa0 153d e854 ba3d 70d5 153d 4127 673b
00000350: bfa1 dd3b b1cf 4cbc f7ea fc3c ce92 44bd
00000360: 7686 3ebb b249 273c 18dc 3a3d 988c 083d
00000370: 2322 20bd fd72 303d a7e0 0b3c 5810 1d3d
00000380: d3b2 77bc df5a 11bd 241d a1bc 9968 163d
00000390: a1f2 413d 6eb3 f7bc e96f c33b fc74 933a
000003a0: 218b fcbc 30fb 10bd 7e0e 483d 46d1 3fbd
000003b0: d458 1d3d 525c 50bb c47d 4c3d 1f3a 1fbc
000003c0: 52ea 12bc 800b a4ba 339d 16bd e761 cb3b
000003d0: d944 243d 7b15 8c3d e964 0fbd f2eb 0bbd
000003e0: cb67 793d 91cb 6a3c 989c 7abc 2033 903c
000003f0: 78ad 99ba bc74 1a3d 3301 7f3d 8fe9 ae3c

fc3.bias f4 [2]
0.03644364 -0.026222564
00000000: ed45 153d b4d0 d6bc
