checkpoint_Actor.pth (torch_old, 83368 bytes, 10 tensors)

fc1.weight f4 [128, 24]
00000000: 9c95 fabd a594 62bd 5414 483d 403c 163b
00000010: 0b10 3cbd 17cb c9bd 7c2d 8bbd 21fd b4bd
00000020: 7241 a1ba 5f4f 873d 73e1 ccbc 3de8 b5bd
00000030: 882e 683c bda9 10bc a7e0 08bd 32e7 bcbd
00000040: bb0d 2abd a77f 19bc 8277 4f3d 15df c3bd
00000050: 25f0 8d3d 17f1 e0bd 0dbd 353d 0146 2d3d
00000060: c965 e0bc 82ce 6abd 7ad2 353a e80f 59bc
00000070: 9ea8 65bd 4f16 5c3c 63e3 613d f5ca 6bbd
00000080: 1f1b a43d f1e7 f6bc f4e1 c7bd 6f07 863d
00000090: b173 673d 96d3 ccbc 5cbe 1bbd 3e54 82bd
000000a0: 6151 c6bd ebc6 783c 7a6b c0bb 8baa 6cbb
000000b0: 7e1b eb3c f9a1 673d 6155 47bd 4f75 f5bb
000000c0: 7568 0abe e082 a2bd 2939 b63d 1f95 31bd
000000d0: d1d0 46bd cc25 a8bc 48dd a8bd 12d3 dbbd
000000e0: 843b 9bbd 2c8c 39bc 4961 63bc 69cb 3fbc
000000f0: 887f 4e3b 5015 c1bd 7dfd b1bc 51d8 dd3c
00000100: 62f8 d3bc 1e4b c4bd ad57 1fbd 088d 57bd
00000110: 31b4 4bbd 49a2 19bd 82e9 c53d 5e75 823d
00000120: fd64 d53d fa04 e13b 0cf0 c9bc 030a 88bd
00000130: d4a1 b13a 6404 ecbd cac1 fc3c ef19 a5bd
00000140: c6d3 63bb c619 03bd c0cc ae3c 3248 56bd
00000150: 5d63 67bd 1f30 80bd 4425 26bd b4a0 c03c
00000160: 3982 433c 7f31 36bd 1040 873d 01fe 4c3d
00000170: 8892 593c a069 843d 2ab7 04bd 2b83 673d
00000180: 8e4e 013d fc09 873d bfdc 74bd 28f5 883c
00000190: 7568 bcbc fc06 88bd b84e cbbc 1b5b 9f3d
000001a0: 8dfe 573d 7e48 f83b ff77 6ebd 94d8 003b
000001b0: 86b8 093d 0c3f dbbc 0305 0d3d c1a0 c23d
000001c0: 468b da3c e931 bb3d b274 763d 19e2 be3b
000001d0: 4df3 3abd e279 44bb 1eb5 26bd 5ec9 1e3c
000001e0: 878f 553c 0974 963c 6da4 6c3c 9a93 6e3d
000001f0: ca7b 8dbd b693 b9bd 8816 7e3d 49a7 c03c
00000200: 1214 5a3c b176 383d 889b c43d 2d80 b8bd
00000210: e1b7 343d 05b3 52bd 5f7d 783d bf32 3e3d
00000220: 2df9 f73c 8686 a0bd c8ab ae3b 4e29 b5bd
00000230: 0ca3 633d cfdc 653c e67f efbc 51e5 8cbc
00000240: d01f 68bb a748 f5bb 9e86 44bd 353d 1d3d
00000250: 1efb 22bd 6072 8cbd c2f5 90bb 7a19 843c
00000260: 0fa8 1fbc 2947 efbd a9b9 a1bb 10a5 fd3c
00000270: 1f92 ffbc 6080 a83d 869d 403c e9c0 2abc
00000280: 8710 e9bc 0194 cdbc daea 71bd 7241 2d3d
00000290: 1598 92bd fd6e 9abb 7fe2 e9bc 555e e9bc
000002a0: 0221 fe3b 2d7f acbc b9e1 88bd dbc4 a93d
000002b0: 1fe7 453d d251 7cbc 9479 05bc 9a98 82bc
000002c0: 4209 183d d0b9 aabd bb5f afbd 9d30 e33b
000002d0: 86b3 7bbc 6393 253d 76fb 68bc 8a33 5dbd
000002e0: f411 3bbd 940d 9c3d cf22 8b3d 5fb4 dabc
000002f0: 5b06 ec3c 005e bdbd 6f8a 25bd f475 f83b
00000300: d542 8cbc 2528 f13c e098 07bc 15c7 243d
00000310: 45d4 a9bd 0c5c 66bd a800 70bd b029 a3bd
00000320: 4740 8abb 1fdb c33b e647 893d 5c9a 873d
00000330: 8693 b93c 1a02 1a3d 8d02 2c3d 766f 593d
00000340: 3ba6 c13c 3386 b13d df54 8abd 99a6 c3bc
00000350: 8e1d 2ebd ff30 083d c931 93bd b97a 2d3d
00000360: 96a1 c6bc 5ee0 38bd efea 843d 7399 30bd
00000370: fd7a 25bd 488c 1b3d 3042 0b3d f894 c4bd
00000380: d6ee 02bc eaf7 8e3d e8bc 6ebd 02fd 273d
00000390: 4cee 1fbd 52a7 4b3d 3d71 bcbd e20c 86bd
000003a0: e4bd 213d 0da6 c4bc 9fe9 bebd f49b 58bc
000003b0: d485 a33d 29f2 d33b a367 4f3d 3685 6c3d
000003c0: a4f8 5ebd 23d4 16bd fc51 85bd 4dc8 873d
000003d0: 65e9 fdbc b0da be3d d24a 87bc df6b 9abc
000003e0: 53c9 16bd 9b94 b8bd 6d9a c1bc 2531 0f3d
000003f0: 413c a4bd 0168 19bd 1090 4837 b113 213d
-0.12235567 -0.05531754 0.04884751 0.0022924095 -0.045913737 -0.098531894 -0.06795785 -0.08837343
-0.001230283 0.06606936 -0.025009846 -0.088821866 0.01417125 -0.008829531 -0.03341737 -0.092237845
-0.041517 -0.009368814 0.05065108 -0.09564034 0.069305696 -0.10983484 0.044369746 0.04230309
-0.027392285 -0.057325847 0.00069359655 -0.013248421 -0.05606901 0.013433053 0.055148493 -0.0575666
0.080129854 -0.030139895 -0.09759894 0.065443866 0.056506816 -0.025003236 -0.038023338 -0.06363724
-0.096834905 0.0151841445 -0.005872187 -0.0036112394 0.028699633 0.056550954 -0.048665408 -0.007490791
-0.1351641 -0.07935119 0.08897621 -0.043355104 -0.048538987 -0.020525835 -0.08245331 -0.10733618
-0.07579711 -0.0113249235 -0.013878175 -0.011706212 0.003150912 -0.09427893 -0.021727318 0.027080687
-0.025875274 -0.0958464 -0.038901974 -0.052624732 -0.04973239 -0.037508283 0.09663679 0.06370042
0.104196526 0.0068670483 -0.024650596 -0.066425346 0.0013552257 -0.11524275 0.030854125 -0.08061587
-0.0034763678 -0.032007 0.021337867 -0.052314945 -0.056491245 -0.06259178 -0.040562883 0.02351413
0.011932903 -0.044480797 0.06604016 0.050046925 0.013279565 0.06465459 -0.03240124 0.056521576
0.031569056 0.06593701 -0.059780832 0.016718462 -0.022999028 -0.06641957 -0.02481781 0.07781049
0.052732993 0.007577001 -0.058219906 0.001966034 0.03362324 -0.026763462 0.034428608 0.095033176
0.026677739 0.09140379 0.060169883 0.005825293 -0.045642186 -0.0029979874 -0.04070007 0.009691564
0.013034708 0.018365877 0.014443499 0.058246233 -0.069083765 -0.09061377 0.062033206 0.023517268
0.013310449 0.045035068 0.09599978 -0.090088226 0.044120673 -0.051440258 0.06066644 0.046435114
0.030270183 -0.07838158 0.0053305365 -0.08845769 0.055575415 0.014029696 -0.029235791 -0.01719919
-0.0035419352 -0.0074854675 -0.047979943 0.03838845 -0.039790265 -0.06857753 -0.004423828 0.01612543
-0.009744658 -0.116834946 -0.0049354625 0.030962497 -0.031197606 0.082276106 0.0117563065 -0.01042197
-0.028450264 -0.025094988 -0.059061863 0.04229874 -0.071579136 -0.004712938 -0.028550385 -0.028487364
0.0077553997 -0.021056736 -0.06683678 0.082895 0.048316117 -0.015400367 -0.008146662 -0.015941907
0.037118204 -0.08336222 -0.08563181 0.0069332854 -0.015362626 0.040423762 -0.014220109 -0.05400423
-0.04567142 0.07619777 0.067937486 -0.026697336 0.028811624 -0.09246445 -0.040415224 0.0075824205
-0.017121712 0.029438088 -0.008276194 0.040228922 -0.0829244 -0.056240126 -0.058594376 -0.07966936
-0.0042190882 0.005977049 0.06703167 0.066212386 0.022653352 0.03759966 0.04199462 0.053084813
0.023638835 0.086681746 -0.06754469 -0.02388315 -0.042508654 0.03324985 -0.0718723 0.042353366
-0.024246972 -0.04513585 0.064901225 -0.04311509 -0.040400494 0.03797558 0.03399867 -0.09598726
-0.007991513 0.069808796 -0.058285624 0.04101277 -0.039045617 0.049720116 -0.09201286 -0.06545426
0.039487734 -0.02400496 -0.093219034 -0.013220776 0.0798451 0.0064680767 0.050635945 0.057744227
-0.05443634 -0.036823403 -0.06509778 0.06630001 -0.03099508 0.09319055 -0.01651517 -0.018850265
-0.03681309 -0.09012719 -0.023633206 0.034958977 -0.08019305 -0.0374527 1.1954471e-05 0.03932542

fc1.bias f4 [128]
00000000: 8afb 123e 0452 32be 8501 93bd bc96 1e3d
00000010: 55f4 33bc b6a3 173e 23c6 db3d cb48 10ba
00000020: 89b4 213d 19b2 fd3d 115e 27be cae3 bdbd
00000030: 811c 3a3e 24e6 24be f6f8 523d dd35 fd3d
00000040: 9d67 3b3c 0a94 01be 71dc eabd 1d12 1b3d
00000050: a5d0 d9bd 2de5 c23d 9e3f bd3d b80f a83d
00000060: 553b 593e d0be 3abe 6ff2 41be 8e7c d23d
00000070: a60d c0bd 99c7 5bbe f6b3 b3bd ad99 4f3e
00000080: 0a1c 9abc 5ca9 d13d 5ce8 883d 43ed a5bd
00000090: 0de3 8f3d 7d6d 5e3d a458 d5bd 9f21 953c
000000a0: 048d cd3d 9eeb 103d 8c49 febc 0e85 1ebc
000000b0: a50a 03be 8b19 29bd f0a1 9d3d d5b2 85bd
000000c0: 8c4e 2dbe 9432 4c3b 3561 38be 6eba 80bd
000000d0: 1755 463b ad21 28be a907 b0bd 781f fabd
000000e0: 245c 04be 5a14 223e c2e0 d43d 5323 dabd
000000f0: 03de 9cbd e36d e93d de57 1d3e 6c58 453d
00000100: 3ee3 483a 1dd0 25be 03d8 163e 6aec 64bd
00000110: f4e4 02bd 935c 83bd 634a b53d 55e9 2b3d
00000120: 6f94 87bd ac3a 7cbd 551c 463d 6281 20be
00000130: cfac 0abc 1541 ecbd b9e2 263e c782 db3d
00000140: 7ed4 04bd b2fc 0b3e 9f73 4b3d 2dc9 2f3e
00000150: 1504 583d 7a2a b23d 38f2 053d d7b1 eebd
00000160: 8999 55be b462 14bd 1fe8 003e d3e2 de3d
00000170: 73b2 a5bd 6bc8 e4bd 16b5 443e 9ea5 0a3d
00000180: d843 23be 7c9f 4bbd ed26 4e3b 5618 83bc
00000190: 138c b8bd 63ec b83d 0311 dbbd a4b1 023c
000001a0: fcfb 42be 0ddf 273e a380 2e3e 01c8 4e3e
000001b0: 79da 6dbe e6c1 aebd 6464 27bb 9b89 54be
000001c0: 2c25 ed3d c857 06be 217c 8ebc 8072 8f3d
000001d0: 1e0f 52be e957 1c3d c7d5 05be a7fb ed3d
000001e0: dfc8 213e c73f 07bd 320a 17be b524 043e
000001f0: f4fb 13be 2d43 303e 55aa 503e 046c bf3d
0.14353767 -0.17414099 -0.07178024 0.03871797 -0.010983546 0.14808545 0.10731151 -0.0005504011
0.039478812 0.12387485 -0.16344477 -0.09271963 0.18174936 -0.16103417 0.05150696 0.12363789
0.011438278 -0.12654129 -0.11467827 0.03785907 -0.10635499 0.09516368 0.0924065 0.08206123
0.2121404 -0.18236852 -0.18940137 0.10277663 -0.09377603 -0.21462859 -0.08774559 0.20273466
-0.018812198 0.10237381 0.06684944 -0.08101895 0.070257284 0.054303635 -0.104172975 0.018204508
0.10036662 0.035380952 -0.03104093 -0.009675277 -0.1279703 -0.041284125 0.07696903 -0.0652825
-0.16924495 0.0031158077 -0.18005832 -0.06285559 0.003026312 -0.16419096 -0.08595211 -0.122130334
-0.12925774 0.15828076 0.10394432 -0.10651269 -0.07659533 0.11397912 0.1536555 0.04818003
0.0007663256 -0.1619267 0.1473084 -0.055889525 -0.031956628 -0.064141415 0.08852079 0.04197057
-0.06620108 -0.06157939 0.048366863 -0.15674356 -0.008464052 -0.11535851 0.16297425 0.10718303
-0.03242921 0.13670614 0.04967081 0.17166586 0.052738268 0.08699508 0.0327017 -0.11655014
-0.2085935 -0.036226943 0.12588547 0.10883107 -0.08090677 -0.11171039 0.19209704 0.03384935
-0.15943849 -0.049712643 0.0031456307 -0.016002815 -0.09011092 0.09029462 -0.10696604 0.007976923
-0.19041437 0.16393681 0.17041259 0.20193483 -0.23227872 -0.08533077 -0.0025542015 -0.20755617
0.115793556 -0.13119423 -0.017393174 0.07004261 -0.20513579 0.038169775 -0.13069831 0.116202645
0.15799282 -0.033019807 -0.14749983 0.12904628 -0.14451581 0.17213126 0.20377477 0.09346774

fc2.weight f4 [128, 128]
00000000: 8455 393d 1da3 d53d 06bd 25bd 3637 b8bd
00000010: ad16 09bc 5fd4 69bd 9f9a 4dbd ebed 53bd
00000020: 11c2 0d3d bbba d13d e827 d63c 5e89 c9bd
00000030: 4125 febd bbe3 083d a550 bb3d 589c aabc
00000040: b011 893d ae1a c2bd d86a 00bd ba61 463d
00000050: 22df 013b ed4e 98bd a6c3 a43c 8e48 1ebd
00000060: 05f7 86bd 7a43 c5bd 645a 3d3d 1d6c 503d
00000070: 2deb 45bd 6e31 69bd 4f28 c8bc 2c43 193d
00000080: ad00 85bd fdd3 81bb 730d 263d 3d16 a3bd
00000090: 4e64 a7bd ef8f ec3b 0e42 933d 0a03 8bbd
000000a0: 806c d03d d6bd 5d3a dfac be3c 931c b4bd
000000b0: 2f42 ca3d 092f 5fbd e697 b8bc 2566 b73d
000000c0: f459 cebd 26f6 bdbd b724 6cbd f4af 413d
000000d0: 7bf2 e6bd 42d8 eb3c 7cca 6bbd 5fa4 a33d
000000e0: e186 e43c 14ab 743d 1dc9 86bd e388 7f3c
000000f0: 6f45 653c 98b0 6a3d 8951 89bd f2ab 62bb
00000100: 8028 b235 8012 9a3c c15a 0e3d caec 783a
00000110: d0b6 cabb d0e3 0038 ee23 02bb 6ab9 bcbb
00000120: 0e0a 27bc 734f 25ba 5c6f 8abd 60dc 8a3d
00000130: 0145 40bd a982 4fbc c113 263c 3845 683d
00000140: e7da cf3d c7cb 6cbc 6899 49bd cf67 c5bd
00000150: 8f3e dabd 10bb b0bd d8ed 9c3c e118 273d
00000160: 44e6 68bd 0d02 79bb e22d d23d 7e7a a03d
00000170: 8678 c23d 8365 8dbd 0638 6a3d 9d4b 55bd
00000180: 3f65 3ebd b001 e8bc 38ef b53a f277 b8bd
00000190: aafb 373b 2665 88bd ad98 cabd a636 733c
000001a0: d9cc 663d 56d4 77bd 639e 13bc 5e55 9bbd
000001b0: 0b04 693d f902 5a3d d7d1 0c3d 17a8 923b
000001c0: ffda dabd 5396 823b a65b 1ebd 6f38 9f3d
000001d0: 6f19 15bc 4853 0fbe 634e c53a a737 a9bd
000001e0: c492 11bd dabe 8dbd 99cd 3bba 5b59 483c
000001f0: 9826 e23c eb20 d0bd ecb0 8d3d 9e5c 09bd
00000200: 7338 be3d 58c3 e8bd f512 a6bd ff10 91bd
00000210: fe7a 47bd b014 bfbd 8713 33bd 7eba ffbd
00000220: 4ef7 98bd 0be6 16be 1f53 4dbd 893c b33c
00000230: e8f3 943d 1e96 1dbe 7c50 d63b 7073 553d
00000240: c7f7 bfbd 0163 fb3d 0176 e7bd 5fd2 cfbc
00000250: 611d 07bd b719 0c3d 2736 653d c1ea 62bd
00000260: a44e a23d b41a d23d ca59 f43d ed32 09be
00000270: 7dcf fa3d 17a1 3fbd 44b1 04be 876c 84bd
00000280: e24d da3c 4ce9 0a3d cfaa cabc f903 173e
00000290: 16b9 c1bd 6988 4e3b 3add 923d c19c 03bc
000002a0: eaad 50bd a234 c23d 3abe 86bd acd7 e03d
000002b0: dec5 abbd 8a89 9bbd a7d4 efbd 5d97 2dbd
000002c0: 7f59 523b 8dff 20bd 38c7 dc3c 3696 313d
000002d0: 8d71 a13d d5ff 5e3c 7aa9 00bd 1da0 173c
000002e0: 9733 fd3d 658b edbd 9416 743d 4911 843d
000002f0: 66ba e23c 73bf 25bd c254 2f3c 4e14 67bd
00000300: aaca c6bd 1ccc 2abd 3446 f83d 112b cabd
00000310: 17bb 4f3c 8b2b 10be 81b5 69bd e43b bbbd
00000320: 1823 61bd 2b52 aebd 2a1b fc3c bb1f 613b
00000330: 60e8 f13d 6b5c 813b 6318 df3c 567d a13d
00000340: 79df a6bb 6b09 9bbd ed94 e5bc 69db ee3d
00000350: 34d3 5bbd 6c45 a73d 3f4a 103d 040f 6ebd
00000360: baff e53d 86ee e73d 1dd6 6d3d 3a89 063e
00000370: d9ee b4bd ff56 a8bd e6d4 ecb9 715a 553c
00000380: aa99 683d d30b 9f3d 3557 cdbd a54b bb3d
00000390: 0f23 98bd 5763 8c3d 04ce a73d 9111 17be
000003a0: 473e afbc 3fd6 2c3c be99 4c3d 64bb 12bc
000003b0: 38e5 933c ebac 5abd 4f50 d2bc e868 00bd
000003c0: 777c 39bc 4c75 07bd fc87 3ebd b7c3 0dbe
000003d0: 7314 593d 4679 56bd ac72 e0bd 16f5 c8bd
000003e0: cb81 4e3d 2488 3e3d a556 8ebc 08ea 193d
000003f0: 2602 173b 7895 083e 1e00 883d 349e 4abd
0.04524757 0.10431502 -0.04046347 -0.08994906 -0.008367223 -0.0570873 -0.050196286 -0.051740568
0.034608904 0.10240694 0.026142076 -0.09840654 -0.12409449 0.033420306 0.09146241 -0.020826504
0.06692827 -0.09477745 -0.031351894 0.048433043 0.0019816835 -0.07436929 0.020112824 -0.038643412
-0.06590084 -0.09632011 0.04622878 0.050884355 -0.048319984 -0.056931905 -0.024433283 0.037417576
-0.064942695 -0.0039620386 0.04054017 -0.07963226 -0.081734285 0.0072193067 0.07190333 -0.06787689
0.10176945 0.0008458769 0.02327579 -0.087945126 0.09875905 -0.054488216 -0.022533368 0.089550294
-0.10075751 -0.09275465 -0.0576522 0.047286943 -0.11276718 0.028789643 -0.05756615 0.07990336
0.027896347 0.059733465 -0.06581328 0.015596601 0.013993605 0.05729732 -0.06705005 -0.003458735
1.327382e-06 0.01880765 0.03475452 0.00094957335 -0.0061863437 3.0729745e-05 -0.0019857842 -0.0057594078
-0.010195268 -0.00063060893 -0.06759521 0.067803144 -0.046940807 -0.012665429 0.010136546 0.056706637
0.10149174 -0.014452881 -0.049218565 -0.096389405 -0.10656463 -0.08629429 0.019156381 0.04079521
-0.056860223 -0.0037995607 0.10262658 0.078358635 0.09495644 -0.069041274 0.057182334 -0.052074064
-0.046483275 -0.028321117 0.0013880497 -0.09007253 0.0028073587 -0.066599175 -0.09892402 0.014844572
0.0563477 -0.060505234 -0.00900993 -0.07584642 0.05688862 0.05322549 0.034379806 0.0044756043
-0.106863014 0.003985205 -0.03866162 0.07774436 -0.009100302 -0.13996613 0.0015053268 -0.08262568
-0.035540357 -0.06921168 -0.00071641203 0.012228335 0.027606294 -0.101625286 0.06918511 -0.033535592
0.092881106 -0.11365384 -0.081090845 -0.0708332 -0.04870128 -0.09330118 -0.043719795 -0.124867424
-0.074690446 -0.14736192 -0.0501281 0.021879451 0.07273084 -0.15389296 0.006540356 0.052112043
-0.09373432 0.12274743 -0.11301804 -0.025368867 -0.032987002 0.03420421 0.055959847 -0.05539966
0.07925156 0.102589995 0.119311884 -0.13398333 0.122466065 -0.046784487 -0.12958246 -0.064660124
0.026648466 0.033913895 -0.024739651 0.14747609 -0.094591305 0.0031514412 0.07171102 -0.0080329785
-0.050947107 0.09482695 -0.065792516 0.10978636 -0.083873495 -0.07594593 -0.11710482 -0.04238068
0.00320968 -0.039306212 0.026950464 0.043356143 0.07882986 0.0136108 -0.031411625 0.009254483
0.123633556 -0.11598853 0.059591845 0.064486094 0.027676772 -0.040465783 0.01070136 -0.05641585
-0.09706624 -0.04169856 0.12122765 -0.098714955 0.012678883 -0.1407911 -0.05705786 -0.091422826
-0.05496511 -0.08511766 0.030774672 0.0034351188 0.118119 0.0039477847 0.027233308 0.07885234
-0.005092558 -0.07570156 -0.028025115 0.11662943 -0.053668216 0.08167538 0.035227057 -0.05811979
0.112304166 0.113247916 0.058065522 0.13138285 -0.08834619 -0.08219718 -0.0004517205 0.013022051
0.05678717 0.07765927 -0.10026399 0.091452874 -0.07428562 0.06854885 0.08193591 -0.14752795
-0.021392 0.010549127 0.049951307 -0.00895581 0.018053636 -0.053387564 -0.02567306 -0.031350046
-0.011321179 -0.033070847 -0.046516404 -0.1384419 0.052998018 -0.05236175 -0.10959372 -0.098123714
0.05041675 0.046516553 -0.0173753 0.037576705 0.0023042052 0.13338268 0.06640647 -0.04946728

fc2.bias f4 [128]
00000000: 8a7f d73d 1145 1fbc 437e 823a 7581 cb3d
00000010: 52de 36bd 104e f6bc 7082 f33d 1176 523d
00000020: 1064 113e 7bc7 193e ce48 a43d 4f02 0e3e
00000030: 74cb 1a3c 3447 533d c49c bd3d 2797 713d
00000040: 0d9f 103e c533 c83d a09c e43d 803f 933d
00000050: a506 233d ce66 0b3e 05f5 623d f1ed 1d3d
00000060: 5203 05bc 2b4a 16bd 8d52 923c 0866 6b3d
00000070: e1bd ab3b 52e5 723d 6af2 263d f377 48bc
00000080: 8fce 8c3b e7a6 eb3d da56 ba3c c3d1 d33a
00000090: 42e9 923d 4046 99ba d3cb a53d 1186 c93d
000000a0: 7148 82bc 21fc 263e 4fb4 f53c 196f 573d
000000b0: 0f80 563d c6ec c53d a20c ad3d c39d b53d
000000c0: 1ecf 8bbd 8ccf 633b 7eae 483d b681 c73d
000000d0: 437e fd3c 1da5 a5bb 4161 c43d c815 c23d
000000e0: ff11 a93c bd22 d2bc a7f8 153e dead c73c
000000f0: 781c 6b3d f40a 91b9 d70a 8fbd cb04 123d
00000100: 90de 133e 0cd6 a4bc 8c12 0d3e ca57 ff3d
00000110: 0ef5 a93d 4f6e 733c 6672 e13c 7e2d a73d
00000120: 55ef a23d 6a90 24bd 1170 033e 8f0e 8dbc
00000130: 59fe f63d 45c9 1cbd 6389 083e 2e26 873c
00000140: e001 b83d 9721 0abb 6e43 8e3d bab2 ea3c
00000150: 190f 853d e2f6 ae3c f6ac f2bc fbcf c43d
00000160: 4daa e23d aef7 a3bc 7412 d03d dce2 563d
00000170: 26b7 093e b99c 213e 85ba f23b 70e8 373d
00000180: d890 6f3d 2ce0 d53d 6810 813d 9c02 573d
00000190: 7613 29bd d4ff ed3d e7c9 be3d f5ba 8c3d
000001a0: 4d16 a63d 5396 853d 49f4 843c e2ea 903d
000001b0: c2d6 9b3d ee8f fc3d ef36 15bd 1379 e73d
000001c0: c3ee 8e3d 8424 233d 38b2 523c 51a6 033b
000001d0: f5f6 113d df7e a63d e46c b5bc 7579 ce3d
000001e0: 3950 4b3d 85c4 143e 5bf5 7c3d 54de b03d
000001f0: d4b6 be3d f68f 203d 911f d93d 537d 493d
0.10522373 -0.009721057 0.0009955842 0.09936801 -0.044645615 -0.03006652 0.11890113 0.05138213
0.14198327 0.15017502 0.08021699 0.13868068 0.009447921 0.051581576 0.09258416 0.05898204
0.14123173 0.09775499 0.11162686 0.07189846 0.03980126 0.13613436 0.05540945 0.038556997
-0.008118467 -0.036691826 0.017861629 0.05747035 0.005241141 0.05930073 0.040758528 -0.012235629
0.0042970846 0.115064435 0.022746492 0.0016160536 0.07173397 -0.001169391 0.08095517 0.09840024
-0.015903683 0.16307117 0.029993204 0.052596185 0.05236822 0.096643016 0.08449675 0.08867981
-0.06826614 0.0034761159 0.048994534 0.09741537 0.030943995 -0.0050550834 0.09588862 0.09476811
0.020638464 -0.02565133 0.14645635 0.024374899 0.057400197 -0.00027664716 -0.069844894 0.035649102
0.1444037 -0.020121597 0.13776606 0.12467916 0.082986936 0.014857843 0.02752037 0.08162974
0.07955805 -0.040176786 0.12835719 -0.017218856 0.12060232 -0.038277883 0.13333659 0.016497698
0.08984733 -0.002107715 0.06946455 0.028649677 0.0649702 0.021357957 -0.02962349 0.096099816
0.110676385 -0.020015564 0.1015977 0.052462444 0.13448772 0.15782441 0.0074074888 0.044899404
0.058487743 0.10443148 0.06301957 0.052492723 -0.041278325 0.11621061 0.093158536 0.06871597
0.08109722 0.06522813 0.016229765 0.0707605 0.07609321 0.1233214 -0.036429342 0.1130239
0.06979134 0.039829746 0.0128598735 0.0020088146 0.035635907 0.081296675 -0.02214665 0.1008176
0.049637053 0.14528091 0.061757427 0.08636156 0.093122154 0.03919979 0.10601724 0.049191784

fc3.weight f4 [2, 128]
00000000: 16c6 44bd 1097 773d ad2d 76bd 8144 79bd
00000010: b60a 4abd 55ec 153d 52c2 313d 5060 1fbd
00000020: d70c 783d 4617 82bd 1343 32bd 43db 8b3d
00000030: 8646 813d 6d7e 79bd 07a9 743d 8f81 5d3d
00000040: 2522 3abd 8e75 b73b 0378 823d 0900 d4bc
00000050: 95ce 6fbd e205 893d 7eeb 39bd 98fb acbc
00000060: 0e41 91bb 667e 453d 37a9 823d bae9 0bbd
00000070: e50e 343c b94c 633d 8d60 593d dd3b 893d
00000080: 4066 353d e398 893d 5d27 32bd f953 7d3d
00000090: cefb 39bd 0aa5 ddbc bbda 25bd 3d94 3bbd
000000a0: 3a35 4b3d 6395 a5bc 75a0 6b3d 0cb4 2c3d
000000b0: 6883 0c3d aba8 3a3d e932 62bd 0f8d 5dbc
000000c0: 29d4 27bd 7582 353d 5987 18bd 1c8e 29bd
000000d0: 7620 a23d 8fc3 ccbc fe17 0dbb def9 353d
000000e0: d14f 5dbd b73a 26bc 9c40 8e3d 1d4f 703d
000000f0: 304b 8a3d 1b9f 22bd cbf9 29bb 2aa1 543d
00000100: 48ce 783d b04e 0d3d 6ade 73bd 7e52 733d
00000110: 8df1 883d 5668 aa3d e982 853d d19b 233d
00000120: 1333 0ebc b200 41bc 2f75 6f3d 0768 873d
00000130: 36d6 8b3d edde c1bc b11b 413d e42e 80bd
00000140: 0197 28bc aa04 0ebd fd0a 64bd 73f6 0b3c
00000150: b247 80bd 61a2 433d 7fe0 a9bb 571c 963d
00000160: 89fb 9d3d 9273 233d 2d40 d6bc b5e0 4abd
00000170: 055e 4c3d 6c2f 7c3d d7e9 24bd cdb2 a93b
00000180: a191 88bd 422b 933d 8533 38bd 9e6e 00bc
00000190: 1b25 10bd df94 8c3d cdaa 633d 7875 703d
000001a0: 9b58 e9bc d429 623d fd52 723d 9d41 5ebd
000001b0: 56d8 9e3c 3be9 8d3d b2dc 093d fadb 6f3d
000001c0: d898 933d 32d8 8b3d 7f20 9e3d 2df7 f83c
000001d0: 49f2 ccbb c4cf 55bd a056 3d3d 1731 65bd
000001e0: 502d 6a3d c873 753d 6c5c 763d 9de8 54bd
000001f0: 726e d0bc 738a 6c3d 149d 483d ad41 923c
00000200: 6011 843c 3aef 2fbd 0ed4 933d 1aec 0b3d
00000210: a38a 1e3c 878a 6abd d81b 3d3c cbeb 85bc
00000220: 05a2 08bd 1914 993d f7d8 003a ea02 3bbd
00000230: dd7f 973b 9728 8a3d 9d16 a13b d9e7 00bd
00000240: 2de9 7e3d 626a 603d 14ea 0ebd 8c71 b6bc
00000250: 4c25 f33c fbf6 42bc 868a 46bc 5947 fdbc
00000260: ae62 debc c199 853a c097 12bd e12f a5bb
00000270: e291 8dbd b832 1abd 887b 24bc 338c 43bd
00000280: 87b2 34bb 99f1 35bd a1c9 0f3c badb 09bd
00000290: b9b9 a03b 3b22 95bc 3227 19bc ca68 f03b
000002a0: 10a4 dfbc 8728 9f3d dd9d 1abd b56a 2aba
000002b0: 3ab5 1c3d af27 9fbd 84e8 9b3b 7a4c 2abd
000002c0: 83d9 46bb 3aaf 4c3b 4c08 08bc fe14 91bc
000002d0: d72b 2dbd 5c5b 12bd 2888 6abd 2550 033c
000002e0: bfa2 b53c 42f7 47bd 2e01 3bbd b945 b7bc
000002f0: 3476 3ebd 67cf 923d 2fd6 3dbd 88bf 24bd
00000300: 9118 b7bc 5633 85bd 1ed4 323d 9ef4 10bd
00000310: 3fd5 25bd 94c2 46bd d179 33bd adac b03c
00000320: d64e 0b3d 762e 16bd 7e88 363c 2e73 683b
00000330: aa31 0cbd 960d 39bc d5f6 d9bc 4936 4a3d
00000340: 2c0c 68bd 3ecd 9bbb 7c82 903d b4be d03c
00000350: 53eb 863d 5cf9 c1bc 1229 7dbd d151 1abd
00000360: 3aa8 5cbd 3b1a 333c 97f4 c0bc edad 8f3c
00000370: 6773 5d3b 4fe3 87bd b52b 943d 4d3a 80bd
00000380: 0c94 a73d 5922 54bd 9480 20bc e559 1bbd
00000390: d7f8 1cbc 2286 8ebd 5a2a aebc 0423 9dbc
000003a0: 1a8c 513d 56d3 2dbd a352 81bc b225 a23d
000003b0: 334c 8dbd 9636 6dbd cf7d f83b b97f 02bd
000003c0: ad8d 9cbd b456 46bd 6548 28bd 8e48 523c
000003d0: 6157 543d 614e b63c b4f8 32bd 47a5 563d
000003e0: 1a2e d8bb 12ef 8cbc 909f 51bd ac72 3d3d
000003f0: 5f3a 1ebd 28a7 edbc bb8c 623c e267 7dbd
-0.048040472 0.0604468 -0.060102154 -0.060856346 -0.04932662 0.036602337 0.04339821 -0.03891021
0.06055912 -0.06352095 -0.043521 0.0682893 0.063122794 -0.060911585 0.05973151 0.054078635
-0.04544272 0.0055987304 0.06370547 -0.025878923 -0.05854662 0.06690575 -0.0453906 -0.021116063
-0.004432804 0.048216246 0.063799314 -0.034158446 0.010989879 0.05549309 0.053070594 0.06700871
0.044286966 0.06718614 -0.04349457 0.06184766 -0.045406155 -0.027056236 -0.0404918 -0.045795668
0.049611308 -0.020212835 0.05752607 0.042163894 0.034305006 0.04557101 -0.055224333 -0.0135224005
-0.040973816 0.044313867 -0.037238453 -0.04139529 0.07916348 -0.024995593 -0.0021529193 0.044427745
-0.054031197 -0.010145835 0.06945917 0.0586692 0.06752622 -0.039702516 -0.0025936242 0.05191151
0.0607436 0.03449887 -0.059538282 0.059404843 0.06686697 0.08320682 0.0651911 0.03994352
-0.008679169 -0.011779951 0.058461364 0.066116385 0.06827967 -0.02366587 0.04714555 -0.06258944
-0.010289908 -0.034672417 -0.05567454 0.008542645 -0.06263675 0.04776228 -0.0051842327 0.07329624
0.07713992 0.03990514 -0.026153648 -0.049530704 0.04989435 0.061568663 -0.04026207 0.0051787854
-0.066684015 0.07185985 -0.044971008 -0.007838873 -0.035191637 0.068643324 0.05558281 0.058705777
-0.028484633 0.05521567 0.059161175 -0.054261792 0.019390266 0.06929251 0.033657737 0.058559395
0.07206887 0.06828345 0.07721042 0.0303913 -0.0062544686 -0.052200094 0.04622519 -0.05595502
0.05717212 0.05992487 0.060146734 -0.05197965 -0.02544329 0.057749223 0.048977926 0.017853582
0.016121566 -0.042952754 0.072181806 0.03416071 0.009676608 -0.057261016 0.011542283 -0.016347786
-0.03335764 0.074745364 0.0004915143 -0.045657076 0.004623397 0.06746023 0.004916026 -0.031471107
0.062234093 0.054788955 -0.034891203 -0.02227094 0.02968087 -0.011899705 -0.0121179875 -0.03091781
-0.027146664 0.0010192917 -0.03578925 -0.005041108 -0.069125906 -0.037646025 -0.010039218 -0.047741126
-0.002757223 -0.04441986 0.008776099 -0.033656813 0.0049049524 -0.018204799 -0.009347724 0.0073367106
-0.02729991 0.07771402 -0.037748206 -0.0006500886 0.03825877 -0.07771241 0.0047579426 -0.04157684
-0.003034205 0.0031232373 -0.008302759 -0.017710205 -0.042278137 -0.03573166 -0.057258755 0.008014713
0.02217233 -0.048819788 -0.045655422 -0.022372114 -0.046499446 0.07168465 -0.04634684 -0.04022172
-0.022350581 -0.06503932 0.043659322 -0.035389535 -0.04048657 -0.048525408 -0.043817345 0.021566713
0.03401073 -0.036665402 0.011140941 0.0035469043 -0.03422705 -0.011294743 -0.026606956 0.049368177
-0.056652233 -0.0047546914 0.07056138 0.02548156 0.06587853 -0.023678474 -0.061806746 -0.037675682
-0.05387137 0.010931547 -0.02355413 0.017538989 0.003379071 -0.066351525 0.07234899 -0.0626112
0.081825346 -0.05179057 -0.00979628 -0.037927527 -0.009580812 -0.069591776 -0.02126043 -0.019181736
0.051159002 -0.042437874 -0.015786475 0.07917346 -0.068992995 -0.057913385 0.007583357 -0.031860087
-0.0764421 -0.04842253 -0.041084666 0.012834681 0.051841144 0.02225417 -0.043694213 0.052403715
-0.0065972926 -0.017203841 -0.05117756 0.046251938 -0.038629886 -0.02901037 0.013827498 -0.06186665

fc3.bias f4 [2]
00000000: a802 743c a95a 213c
0.014893211 0.009848275

bn1.weight f4 [128]
00000000: d1e8 973c 406b 613f f2e1 423f e738 3a3f
00000010: e4ac ac3d 28d6 093f 90b6 783f 0615 3c3e
00000020: 22ab 373f 5ca5 f43e 9db5 0a3f e088 813f
00000030: e790 af3e 13dd 8d3e e565 3d3e a9da 633f
00000040: da8d 823e 0975 a93e 21bc 103f 63e8 083f
00000050: 331e 033f 3707 c03e 90fc 7a3f e79c 4d3f
00000060: a251 163f fbee 4a3e 6c5d 5d3f 9ce3 483f
00000070: 6578 bc3e 9542 1b3f 3205 453f 237d 0c3f
00000080: e8a1 4e3f dbcb 373e 2165 8b3e 9447 8b3f
00000090: 7d2c 6c3e 40bd 683f 4cd3 c53d dc6c 2e3f
000000a0: 9e86 103f 2f4c 003f f8ee 123e 60fa 673f
000000b0: 0180 633e 70ec 063f 0442 623f 3d1f 8f3e
000000c0: 9b64 733f 4d16 9a3e 72c8 6c3f 5d7a 613f
000000d0: 80a7 5d3f 8f48 063f 9fa5 813f de08 b23e
000000e0: dd95 6b3e a9d3 403f 0164 613f cc6c 723e
000000f0: 8b07 723f 10e8 663f a6da f53d f3a6 823f
00000100: 94d8 853e a35a 663f 1e4e 743f be5d 833e
00000110: f56e 403e 35d8 3e3e 52d5 c63e 2c10 613f
00000120: 99a9 b53e e3af 823e e17c df3e 4fb2 fa3e
00000130: 680f 593f 149e 003f e26f 853f bd1d 683f
00000140: f68c 993e 195a 223f 4f5e 963e 4fe6 b83e
00000150: 9487 7a3f 7741 123f 2e08 413f 534b 283f
00000160: 023d df3e 0343 b23e f786 0f3f b493 a93d
00000170: 9a59 6e3e 180a 843f 7480 393f 564a 603e
00000180: 4505 e83e db2b 513e 1e54 093e 3c23 7e3f
00000190: 1fba a93e 7ff7 513f 8ba7 1d3f 057c 4c3e
000001a0: 5404 4c3e 2cab 2d3f 852b 543f d4b1 0a3f
000001b0: 7e54 1e3f 3bb6 ca3e 4b42 553f ab45 7c3e
000001c0: d366 6e3f 9a1a fd3e aab9 2f3d fe74 323f
000001d0: a3df 2e3f e251 703e ae3e 773e 7e02 613e
000001e0: 9098 843e d903 f43e 6b82 163e 6a7b 143f
000001f0: c36a 6b3f a95f 693f e197 c63e e49e de3d
0.018543633 0.88054276 0.76126015 0.72743076 0.08431414 0.538424 0.9715357 0.18367395
0.717455 0.4778241 0.5418337 1.0119896 0.3429024 0.2770773 0.18495901 0.89005524
0.2549885 0.33097103 0.5653706 0.53479594 0.51217955 0.37505504 0.9804163 0.8031754
0.5871831 0.19817726 0.86470675 0.78472304 0.36810604 0.6064847 0.7696105 0.54878443
0.807158 0.17948858 0.27225593 1.0881219 0.23063846 0.9091377 0.09659442 0.68134856
0.5645541 0.50116247 0.14348972 0.90616417 0.22216798 0.52704525 0.8838198 0.2795352
0.95075387 0.3009514 0.92493355 0.88077337 0.8658371 0.52454466 1.0128669 0.3477239
0.23006387 0.7532297 0.8804322 0.23674315 0.9454276 0.9019785 0.120045945 1.0207199
0.26141798 0.8998205 0.954317 0.25657457 0.18792327 0.18637164 0.38834625 0.879153
0.35480955 0.25524816 0.43649963 0.48964164 0.84789133 0.5024121 1.0424769 0.90670377
0.29990357 0.6341873 0.29368827 0.36113212 0.97863126 0.5713114 0.75403106 0.65739936
0.43601233 0.3481675 0.56065315 0.08280125 0.23276368 1.031558 0.7246163 0.21903357
0.4531652 0.20426886 0.13410994 0.99272513 0.33149812 0.82018274 0.61583775 0.19969185
0.19923526 0.6783931 0.82878906 0.54177594 0.61847675 0.39592156 0.8330428 0.24635951
0.9312565 0.49434358 0.042901672 0.69709766 0.6830999 0.23468736 0.24145004 0.21973607
0.25897646 0.47659186 0.14698188 0.58000815 0.9195978 0.9116159 0.3878775 0.1087015

bn1.bias f4 [128]
00000000: ed26 a23d 8a4a 89bd 1025 06bd 2917 6fbd
00000010: 8e8d b6bd 9703 90bc 323d c4bc d220 afbd
00000020: 5b56 58bd bede 85bd e327 703c cbaa 863d
00000030: 3524 8e3d 320f 81bd 52ae 45bd fcae 933d
00000040: 904b 73bd 2a84 933d b18b 2bbd 998c 32bc
00000050: db1e 6ebd af30 2d3c afa8 363c d7a0 d23c
00000060: 0b9e 87bb b6bc 4b3d ee19 5f3d e84b 50bd
00000070: d989 803d e8fd c9bc f90b 94bd c210 0e3d
00000080: c506 6a3d 580e d3b9 893a 71bc 2102 333d
00000090: 5803 73bd fb77 98bb 9477 c73d d5b7 05bd
000000a0: ed49 8fbc cb95 433d a695 ba3c ce32 263d
000000b0: 02e8 85bc 90ca 693b 1dd9 46bc 4ee7 18bd
000000c0: e108 febc 6709 0bbd de05 873d 3925 ffbc
000000d0: 158d 743d 0389 873d f14f 003b cd31 853c
000000e0: c829 8a3d 9cd8 4ebb 3b8c ad3b 8ace 5a3c
000000f0: 52a7 403d fd00 2dbd 9ae4 adbd a105 60bd
00000100: df47 db39 ade7 8dbd 7966 893d 8395 69bd
00000110: fcae 513d 5470 2bbd 1e6e 8fbd f339 95bd
00000120: 8a7a 85bd db74 99bd c2eb 433d 218c f73b
00000130: 1f93 123d 622c 673d 669e 2abd ceee 6e3d
00000140: 128b 8dbd dc3b 46bd 972c 3bbd da12 763d
00000150: cb22 babc 1d39 573c 3e2a 7c39 13a0 57bd
00000160: 6c9d 323c a97b 543d fca3 843c 5527 983d
00000170: b6fc 3fbc c871 95bc 8799 093d 6227 b4bd
00000180: 0243 113d 848b 343c 5c37 b9bd c833 31bc
00000190: 0fdd 90bd 9238 51bc 868e 623d 289b 82bd
000001a0: 7d21 4abd 0a13 40bd e668 d1bc 0736 613d
000001b0: 8aa7 f33c 6611 e73c a538 243d d087 2a3d
000001c0: 0284 0cbd 3f3a dcbc 2bde 843d a289 82bd
000001d0: 4b83 8fbc 6e4c c1b9 9bee b4bc b0d4 1bbd
000001e0: e65a 64bd 76c9 5e3c af6f 87bd a719 763d
000001f0: d8e7 cebc dcf3 333d 4ac5 5ebd 1d06 233c
0.07917581 -0.0670367 -0.03275019 -0.058371697 -0.08913718 -0.017579837 -0.023954961 -0.08551182
-0.05281673 -0.06536625 0.014657947 0.06575545 0.069405 -0.063017264 -0.048261948 0.0721111
-0.059398234 0.07202943 -0.041881267 -0.010897779 -0.058134895 0.010570689 0.011148616 0.02571146
-0.0041387132 0.049740516 0.054468088 -0.05085364 0.06276292 -0.024657205 -0.07228846 0.03468395
0.057135362 -0.00040255743 -0.0147234285 0.043703202 -0.05932936 -0.0046529747 0.097396046 -0.03264602
-0.017491305 0.047750276 0.022776436 0.040575795 -0.016345982 0.0035673715 -0.012136725 -0.037329964
-0.031010093 -0.033944514 0.06592916 -0.031145679 0.05970486 0.0661793 0.0019578899 0.016259098
0.067462504 -0.0031562215 0.005296258 0.013354907 0.04703457 -0.04223727 -0.08490868 -0.05469287
0.00041824483 -0.06928954 0.06708998 -0.05702735 0.05119227 -0.04185517 -0.07003425 -0.072864436
-0.06517513 -0.074929915 0.047832258 0.0075545465 0.035784837 0.05643881 -0.041654967 0.05833321
-0.06911291 -0.04839693 -0.04569682 0.060076572 -0.022721669 0.013136175 0.00024048329 -0.052642893
0.01090179 0.051875744 0.016191475 0.07429377 -0.011717966 -0.018242732 0.03359368 -0.08796574
0.035464294 0.011019591 -0.09043762 -0.010815568 -0.070734136 -0.012769835 0.055311702 -0.0637725
-0.049348343 -0.046893157 -0.025562715 0.054983165 0.029742975 0.028206538 0.040093083 0.041633427
-0.03430558 -0.026883243 0.06487688 -0.063739076 -0.01751866 -0.00036868773 -0.022086432 -0.03804463
-0.05575075 0.013597837 -0.06613099 0.060083058 -0.025257036 0.043933734 -0.05438737 0.009950188

bn1.running_mean f4 [128]
00000000: 3f48 9b3f de29 963f 86e9 9e3f e612 103e
00000010: c365 8d3e b4e2 9a3f b926 863f 02e1 363f
00000020: 29eb b63f 5e23 ae3f 05e5 983f e1a7 0b3f
00000030: 9225 5e3f b487 213f bb0f 183e daf7 e13f
00000040: 7a3c 413f 1154 933e b091 213f 109e a03f
00000050: 64c4 8f3e 5084 523f 8755 b73f 977d db3f
00000060: 8710 ce3e 0c21 2c3f 7421 ab3f d918 9c3f
00000070: d289 123e b184 cf3e 1966 a83e 95c9 0540
00000080: 240b f13f 24f8 693f e828 953f 2607 503d
00000090: a004 3b3f d653 763e 2287 af3f 735b b03f
000000a0: 1914 733f 60e8 aa3d d5ae c53f 8a50 253f
000000b0: a1dd 323f a429 933f d003 853f 0258 043f
000000c0: 6c37 a73e bb99 c13e be14 cc3f 1cf2 e43e
000000d0: 4661 5f3f b237 b73f c64e 913f 4d4d 213f
000000e0: 542e 603d 92c3 8d3e 92f8 d53f b0cc ce3f
000000f0: a109 8d3f 6f10 8b3f d3e0 0040 d641 333f
00000100: defb c03f 44fc 2a3f c5a1 5a3f 9e8c 043f
00000110: 4e73 e53d 28bf 213f 689b 0740 364c 883f
00000120: e123 213f 6a62 a03f 00a9 b83f c059 823f
00000130: 28dc 0c3d 3c18 8d3f 799f 143e 04fd ed3f
00000140: 9cd8 ab3d 681c 0e40 4c34 c63f 52bc 543e
00000150: 0720 2640 1786 6f3f 0454 b63f 9c0a 663f
00000160: 8057 0f3d 7b19 4d3f f2b4 ed3f acf1 8a3f
00000170: 7992 4b3d 559c f13f 0b03 643f 51f6 713f
00000180: 6ccd 133d 87c6 cc3f cbfa 4e3f 223a 1e3f
00000190: a84e f63e 3c9c be3f 37fb 403f 1eba 153f
000001a0: 6275 d53e 2c17 653f 21a9 9b3f db33 0040
000001b0: 70ba 8c3d f779 a23f 93d1 a13f 4fd4 7e3f
000001c0: 64e7 0040 8f1e 933f 455f 643f 87ed 3a3f
000001d0: 8710 633e 66b3 fa3e 9590 5e3f ace7 fc3e
000001e0: 0f53 9b3f 88d6 5b3f 18b1 8d3f 3a19 403f
000001f0: 4fc1 cd3f 9ae6 b33f aa9f 273f 9bd5 b43f
1.2131423 1.1731527 1.2415016 0.14069709 0.276167 1.2100434 1.0480567 0.71437085
1.4290515 1.3604543 1.1944891 0.5455304 0.8677608 0.6309769 0.1484975 1.7653763
0.75482905 0.28775075 0.63112926 1.2548237 0.28079522 0.8223314 1.4322976 1.7147702
0.40246984 0.67237926 1.3369584 1.2195083 0.14310387 0.40530923 0.32890394 2.0904286
1.8831525 0.9139426 1.1653109 0.050788067 0.7305393 0.24055418 1.3713114 1.3777908
0.9495254 0.08345103 1.544398 0.6457602 0.6986943 1.1497083 1.0391788 0.5169679
0.3265947 0.378126 1.594383 0.44715965 0.872578 1.4313872 1.1352165 0.63008577
0.054731682 0.2768827 1.6716483 1.6156216 1.1018564 1.086439 2.0137222 0.7002233
1.5076864 0.66791177 0.8540309 0.51777065 0.11203633 0.63182306 2.1188602 1.0648258
0.6294537 1.2530034 1.4426575 1.018364 0.034389645 1.1023021 0.14513959 1.8592839
0.08390924 2.2204838 1.548471 0.20774963 2.5957048 0.9356398 1.424439 0.8985994
0.034995556 0.80117005 1.8570845 1.0855002 0.049700234 1.8875834 0.89067143 0.94516474
0.036084577 1.5998086 0.8085143 0.61807454 0.48106885 1.4891429 0.75383323 0.5848712
0.41691118 0.8948848 1.2160989 2.003165 0.06871498 1.2693471 1.2642082 0.9954271
2.014123 1.1493701 0.8920787 0.7301869 0.22174273 0.48964995 0.86939365 0.49395502
1.2134722 0.85874224 1.106967 0.7503849 1.6074618 1.4054749 0.65478003 1.4127687

bn1.running_var f4 [128]
00000000: 6680 1940 e368 4440 6a8d d53f 3759 ea3d
00000010: cc99 db3e 9532 6440 6d80 ef3f afd5 c53f
00000020: c2ee 9c40 2192 9240 9205 2f40 c724 493f
00000030: 4434 f23e 7eb1 aa3f 4e78 313e a6cf 9a3f
00000040: d189 8c3f 3930 d43e 86a2 803f e999 7640
00000050: ad01 b03e a07f 8d3f 82d1 cf3f b841 0440
00000060: 06f2 4c3f 9889 c03f cd30 a23f b0a8 7a40
00000070: 3b29 5f3e db70 d03e 7d16 123f 4674 6c40
00000080: 3777 eb3f 1e86 ee3f b637 2040 4667 f83c
00000090: bb7e 913f b15a a53e 42b6 0b40 e7f2 d73f
000000a0: 30ac 1840 5cfd 273d 6853 9940 d21d 203f
000000b0: 42ed 963f 38b7 a43f 0337 0740 75f3 8c3f
000000c0: e359 bb3e df65 7f3f afed 8540 c462 873f
000000d0: d08d 513f f9ab 3540 129f 243f c928 913f
000000e0: 30a7 283d 30c6 a33e c317 4d40 f109 ec3f
000000f0: a01a 1840 2dcd 5540 7dd1 5b40 4f66 9d3f
00000100: 94c4 2d40 8a1e ae3f 60db 173f 0b4a 4d3f
00000110: b768 803d 22a9 9a3f 4045 a340 04a7 4440
00000120: 2611 9f3f 2831 8840 1750 4d40 e12b 2940
00000130: 7825 893c d46a de3f 6efe e63d 37d0 1340
00000140: ed26 473d 7625 3b40 1319 fc3f d0c3 9f3e
00000150: a6fd f040 478b ac3f 5269 bc40 cf0e 0e40
00000160: 03a1 d63c 2fb1 a33f 70a6 d640 6d4d 5940
00000170: 8245 a43c 3e63 3140 52c1 0040 7f23 f13f
00000180: db6c d73c 7f1a 8d3f 4ef3 dd3f c9f9 353f
00000190: 8562 253f 15e4 5e40 351d d93f 4251 723f
000001a0: e467 2a3f cf75 0740 34f6 c43f 8804 0040
000001b0: b5b0 b83d 75dc fc3f 06c2 1840 d734 3340
000001c0: 455c 6f40 9899 8340 785e 2940 d088 c93f
000001d0: 0284 833e 70f3 a13e 49f2 0d40 0873 743f
000001e0: 5fe9 0340 e4bd dc3f f944 2740 ff54 eb3e
000001f0: ebe7 8b40 5fc7 ff3e e7b2 6f3f 4304 4a40
2.3984618 3.0689018 1.6683781 0.11442798 0.42890775 3.5655873 1.8711067 1.5455836
4.9041452 4.580338 2.734715 0.7857174 0.473055 1.3335416 0.17331049 1.2094619
1.0979558 0.4144304 1.0049598 3.853144 0.3437628 1.1054573 1.6235812 2.0665112
0.800568 1.504199 1.2671143 3.9165459 0.21793072 0.40711102 0.57065564 3.6945968
1.8395756 1.8634679 2.5034003 0.030322682 1.13668 0.32295755 2.1829991 1.6871003
2.3855095 0.041013107 4.7914314 0.625455 1.1791155 1.2868414 2.1127326 1.1011797
0.36592016 0.9976482 4.185264 1.0577016 0.81857014 2.8386214 0.6430522 1.1340572
0.041175067 0.31987143 3.2045753 1.8440534 2.376625 3.340648 3.4346611 1.2296847
2.7151232 1.360307 0.59319115 0.80191106 0.06269973 1.2082865 5.1022034 3.0726938
1.2427108 4.2560005 3.2080133 2.6433032 0.0167415 1.7376351 0.11278997 2.3095834
0.048621107 2.9241614 1.9695152 0.3120408 7.530963 1.3480004 5.8878565 2.2196538
0.026199823 1.2788447 6.707817 3.3953507 0.020052675 2.7716823 2.0117993 1.8838958
0.026297024 1.1023711 1.7339876 0.71084267 0.64603454 3.482671 1.6962038 0.9465524
0.66564775 2.1165655 1.5387635 2.0002766 0.09018079 1.9754778 2.3868423 2.8001
3.7400067 4.112499 2.646391 1.5744877 0.2568665 0.3163104 2.217913 0.95488024
2.0611188 1.724545 2.6135848 0.45963284 4.3720603 0.49956796 0.9363236 3.15651
