checkpoint_Critic.pth (torch_old, 84902 bytes, 9 tensors)

fcs1.weight f4 [128, 28]
0	0x3fa578e2	1.2927516
1	0x3f4c4fc0	0.7980919
2	0x3c466f0a	0.012111435
3	0xbcdaf542	-0.026728276
4	0x3e989b7f	0.29806134
5	0xbf27318e	-0.6530999
6	0x3d89939b	0.06717607
7	0x3d736c59	0.0594295
8	0x3fa109c6	1.2581108
9	0x3f1eb00e	0.6198739
10	0xbda25ffa	-0.07928462
11	0x3e2ab82b	0.16671817
12	0xbcfe9deb	-0.03108116
13	0xbf0e79e6	-0.5565475
14	0xbdf3c849	-0.11903436
15	0x3e41a739	0.18911447
16	0x3fa6cb63	1.3030819
17	0x3f11e606	0.5699161
18	0x3e876fd8	0.26452518
19	0xbe537aa6	-0.20652255
20	0xbe83e3b7	-0.2575967
21	0xbf28e805	-0.65979034
22	0x3ea7e7bc	0.32793987
23	0xbeb360a6	-0.35034674
24	0xc00135de	-2.0189128
25	0x3f49a7c1	0.787716
26	0x3fde819d	1.7383305
27	0xbfc5ec93	-1.5462822
28	0xbf6a525f	-0.9153194
29	0xbe8f4339	-0.27980974
30	0xbef74128	-0.48291898
31	0xbe9c686c	-0.30548418
32	0x3fb6ba40	1.4275589
33	0x3eb2d3cf	0.34927222
34	0xbedfef8e	-0.43737453
35	0xbeb72f1a	-0.35778123
36	0xbeee4d64	-0.4654342
37	0xbf1a56db	-0.6028878
38	0x3f021b6e	0.50823104
39	0xbda2e210	-0.07953274
40	0x3f34b348	0.7058606
41	0xbe398b0e	-0.18119451
42	0x3f122bd6	0.5709814
43	0xbd79c573	-0.060979318
44	0xbf23a677	-0.6392588
45	0xbefc1708	-0.4923632
46	0xbf5c0872	-0.85950387
47	0xbd2f3f2d	-0.04278486
48	0x3f2491de	0.64285076
49	0xbed2f40e	-0.41201824
50	0xbf64e630	-0.8941374
51	0x3da4f244	0.08054021
52	0x403225c2	2.7835546
53	0xbf34f83b	-0.7069127
54	0x3ffb3e82	1.9628451
55	0x402fc3b1	2.746319
56	0x3fafee18	1.3744535
57	0x3f884a57	1.0647687
58	0xbdb68e30	-0.08913839
59	0xbe7b4ad2	-0.2454026
60	0xbf70bbbb	-0.94036454
61	0x3de2eee5	0.11080722
62	0xbcfefd1e	-0.031126555
63	0xbe816603	-0.2527314
64	0x3f8b99f6	1.090636
65	0xbf8cd868	-1.1003542
66	0x3d4b1c7e	0.04958772
67	0xbf2f61f0	-0.68508816
68	0xbf92f6a5	-1.148152
69	0x3fca2119	1.5791351
70	0x3dab07ce	0.08351098
71	0xbf39ab24	-0.72526765
72	0x3f7ca861	0.98694426
73	0xc004c48b	-2.074496
74	0x3d579d09	0.052639995
75	0x3f3e03dc	0.7422464
76	0xbf6f1acb	-0.9340026
77	0x3ffb6ed0	1.9643192
78	0xbd07cb9b	-0.033153158
79	0x3f3f7786	0.74791753
80	0xc0cdd4bc	-6.4322186
81	0x3f51f2c8	0.8201108
82	0xbf0364d8	-0.5132575
83	0xbecaed85	-0.39634338
84	0x403f8882	2.9927068
85	0x40166918	2.3501644
86	0xbd620456	-0.055179916
87	0x3ce2e0fa	0.027695168
88	0x3fabdc47	1.3426598
89	0xc064e6dc	-3.5765905
90	0xbe161360	-0.14655828
91	0x3d637fdc	0.055541858
92	0x3df9d4c6	0.121987864
93	0x3df087e5	0.1174467
94	0xbc5a5618	-0.01332619
95	0x3d1f75af	0.03893059
96	0xbf102f89	-0.5632253
97	0xbd5e8cc7	-0.054333474
98	0x3d833a1d	0.064075686
99	0x3d0b57eb	0.034019392
100	0xbd76d9e7	-0.0602664
101	0xbe99eecc	-0.30065
102	0xbca515e2	-0.020152036
103	0x3e1e556a	0.1546227
104	0xbfd0904e	-1.6294038
105	0x3f627234	0.8845551
106	0xbc6c8fe7	-0.014438606
107	0x3dd9278c	0.10603246
108	0xbe92f073	-0.28699073
109	0x3e75d241	0.24005987
110	0x3cbbefec	0.022941552
111	0x3ce5aa2a	0.028035242
112	0xbe931b53	-0.28731784
113	0xbf256a7e	-0.6461562
114	0xbcdea259	-0.027177023
115	0x3c2ad2df	0.010426252
116	0x404c0670	3.187893
117	0x3ee5288f	0.44757506
118	0x3cd2fde1	0.025755825
119	0x3cc5f9a3	0.024166888
120	0x3ca82548	0.02052559
121	0xbe86e016	-0.2634284
122	0xbca1cefa	-0.019752014
123	0xbe20a726	-0.15688762
124	0x3fd8b096	1.692889
125	0x3f4d3c44	0.80170083
126	0x3b66588b	0.003514799
127	0xbe37c2d8	-0.1794542
128	0x3f0a6c21	0.5407124
129	0x3d67dd77	0.05660769
130	0xbcf79b70	-0.030225486
131	0xbe07d3c3	-0.13264374
132	0xc0ad9e87	-5.4256015
133	0xbf1735cd	-0.5906647
134	0x3c6fa00c	0.0146255605
135	0xbd011e6d	-0.031523157
136	0x3c34cbae	0.011034889
137	0x3d8727ac	0.06599364
138	0x3e30a11f	0.17248963
139	0xbcef8ae0	-0.029241025
140	0xbea0b91a	-0.3139122
141	0xc0413e63	-3.0194328
142	0x3b5bfd4e	0.003356773
143	0xbed3ce15	-0.41368166
144	0x3e67fba2	0.22654584
145	0xbfce3e8b	-1.6112837
146	0x3cf40972	0.02978966
147	0xbef14795	-0.47124925
148	0xbecf774e	-0.4052071
149	0xc0416b60	-3.0221786
150	0x3df36dfc	0.11886212
151	0xbd8f2aba	-0.06990571
152	0x3d6705a4	0.056401864
153	0xc00f9683	-2.2435615
154	0xbd161e04	-0.03664972
155	0xbe07e778	-0.13271892
156	0xbea206f8	-0.31645942
157	0xc03b1a47	-2.9234788
158	0xbd63c585	-0.05560829
159	0x3eb748f9	0.3579786
160	0x3e8f1be1	0.27950957
161	0xc09c81e6	-4.8908567
162	0xbd8ba073	-0.06817713
163	0x3ed39c6b	0.41330275
164	0x403d266d	2.9554703
165	0x3c7f2e11	0.015574948
166	0x3f1377fb	0.5760495
167	0xbf0c8f69	-0.54906327
168	0x3fa69456	1.3014019
169	0xbd3570ba	-0.044296958
170	0xbdd49757	-0.10380428
171	0xbe9f42bb	-0.311056
172	0x3ec68d2a	0.38779575
173	0xbff33496	-1.9000423
174	0xbe206c16	-0.15666232
175	0xbe7f3b06	-0.2492486
176	0x3f7998c8	0.9749875
177	0x3e020ff5	0.127014
178	0xbe82e01a	-0.255616
179	0xbdc3eed7	-0.095670395
180	0x3d8e121c	0.06937048
181	0xbfde51b7	-1.7368687
182	0xbe9c91ed	-0.30580083
183	0xbcf028a5	-0.029316256
184	0x3f8b18b1	1.086691
185	0x3e806ff0	0.25085402
186	0x3e70cbf2	0.23515299
187	0xbea93d8b	-0.33054766
188	0xba63502f	-0.0008671311
189	0xbfc155c6	-1.5104301
190	0x3dbe9bc9	0.093070574
191	0xbed17621	-0.40910438
192	0x3fc7309d	1.5561711
193	0x3e88bd3f	0.26706883
194	0x3c8a432a	0.01687773
195	0xbe5fff29	-0.2187468
196	0x3b87435e	0.004127904
197	0x3f0fb7e1	0.5613995
198	0xbd7b1c1b	-0.0613061
199	0xbf1fb2df	-0.6238231
200	0x3e8623c2	0.26199156
201	0xbe647781	-0.22311212
202	0x3ae9d202	0.0017839076
203	0xbf1662b6	-0.5874437
204	0x3f103e13	0.5634472
205	0xbdef57b5	-0.11686651
206	0x3f0cb54e	0.5496415
207	0xbf9555a5	-1.1666762
208	0xbe8feea3	-0.28111753
209	0xbf2c327a	-0.6726452
210	0x3f26b117	0.6511397
211	0xbf8d2105	-1.1025702
212	0x3f0c411c	0.5478685
213	0xbdbbcf31	-0.09170378
214	0x3e8aaf78	0.27086997
215	0xbcb4ab8e	-0.02205446
216	0xbf219614	-0.63119626
217	0xbf204e08	-0.62619066
218	0x3e7bd62b	0.24593417
219	0xbd028044	-0.031860605
220	0x3febe4cf	1.8429202
221	0xbfba9121	-1.457554
222	0x3f22a145	0.6352733
223	0x3f8edc14	1.1160913
224	0x3eaf561e	0.3424539
225	0x3e142713	0.1446803
226	0xbf5230e8	-0.82105875
227	0xbf474888	-0.7784505
228	0x3e9558a1	0.2916918
229	0xbe79d26b	-0.24396674
230	0xbf5dad0a	-0.8659216
231	0xbf60d340	-0.8782234
232	0x3e8667b7	0.26251003
233	0xbdb0a3b2	-0.086249724
234	0xbe043c57	-0.12913643
235	0xbf2eb71f	-0.6824817
236	0x3de40c8b	0.11135205
237	0xbe9dc65b	-0.30815396
238	0xbd35fae4	-0.04442872
239	0xbf3f3aab	-0.74698895
240	0x3eae94b3	0.34097824
241	0xbe8cba9c	-0.27486122
242	0xbe36da4e	-0.17856714
243	0xbf2bf195	-0.671655
244	0x3d617aaa	0.055048622
245	0xbf092a46	-0.5358013
246	0xbd277e75	-0.040892083
247	0xbf1b53c6	-0.60674703
248	0xbf64a7df	-0.8931865
249	0xbd813bbb	-0.06310221
250	0xbd325bbc	-0.043544516
251	0x3e08104a	0.13287464
252	0x3e7cab03	0.24674611
253	0x4029c230	2.6524773
254	0xbccb5397	-0.024820132
255	0xbe69f8cb	-0.22848813

fcs1.bias f4 [128]
0	0xbfbde69c	-1.4836001
1	0xbcd43fcc	-0.025909327
2	0xbf9aa6fd	-1.2082211
3	0xbfb43d31	-1.4081174
4	0xbfb0fa13	-1.3826317
5	0x40298f90	2.6493874
6	0xbf90a7e0	-1.1301231
7	0xbf293994	-0.6610348
8	0xbed2ca3b	-0.41169915
9	0xbf818190	-1.0117664
10	0xbf4da483	-0.8032915
11	0xbf5efba4	-0.87102723
12	0xbf4bdd52	-0.79634583
13	0xbfcda0c8	-1.6064692
14	0xbf109af1	-0.5648642
15	0xbface91e	-1.3508642
16	0xbfa1ac46	-1.2630699
17	0xbf3f6f7c	-0.74779487
18	0xc0050958	-2.0786953
19	0xbf7fe5b4	-0.99959874
20	0xbf801355	-1.00059
21	0xbf56d249	-0.8391462
22	0xbf8b72cb	-1.0894407
23	0xbf92f2ab	-1.1480306
24	0xbe203763	-0.15646128
25	0xc02d6eeb	-2.709895
26	0xbf194e0a	-0.59884703
27	0xc0182120	-2.3770218
28	0xbec7dbbd	-0.39034835
29	0x4020ffe6	2.5156188
30	0xbf9d1671	-1.2272474
31	0xbec08594	-0.37601912
32	0x3fe70e53	1.8051246
33	0xbf88b6e0	-1.0680809
34	0xc015e606	-2.3421645
35	0xbe2c427a	-0.16822234
36	0xbef08899	-0.46979216
37	0xbf53609e	-0.825693
38	0xbf5a1949	-0.8519483
39	0x3da5f118	0.081026256
40	0xbf65c8ff	-0.8975982
41	0xbf2d6cd5	-0.6774419
42	0xbfd08292	-1.6289847
43	0x3e9681e3	0.2939597
44	0xbeae1ac7	-0.34004804
45	0xbf1a6b7e	-0.6032027
46	0xbfbb8653	-1.4650367
47	0xbfd1d5c8	-1.6393366
48	0xbe3a2e68	-0.18181765
49	0xbfb4c62a	-1.4122975
50	0xbf70bf63	-0.9404203
51	0xbef704fd	-0.48245993
52	0xbec26023	-0.37963971
53	0xbea0947e	-0.3136329
54	0xbfafc6fa	-1.3732598
55	0xbe0e4c29	-0.1389624
56	0xbf80756d	-1.0035836
57	0xbf25d9d4	-0.64785504
58	0xbfcb600f	-1.588869
59	0xbed547a8	-0.41656232
60	0xbdc284d3	-0.094979905
61	0x3e9002c3	0.28127107
62	0xbedc0de3	-0.42979345
63	0xbee74e70	-0.4517703
64	0x3e1b4314	0.15162307
65	0xbe3ff035	-0.18743975
66	0xc00035bd	-2.00328
67	0xbf07dfe7	-0.5307602
68	0xbf4d5254	-0.8020375
69	0x3f710107	0.9414219
70	0xbf11bd53	-0.5692951
71	0xbfb0cce7	-1.3812531
72	0xbf50e56e	-0.8160008
73	0xbdc8dba1	-0.09807516
74	0xbf7f58cd	-0.99744874
75	0x3f91c851	1.1389257
76	0xbd15efb8	-0.036605567
77	0xbfc02ba9	-1.5013324
78	0xbeae0663	-0.33989248
79	0xbf847054	-1.034678
80	0xbf8fc84b	-1.1233
81	0xbf54fb4b	-0.8319594
82	0xc0857861	-4.1709447
83	0xbeed2deb	-0.46324095
84	0xbf85acf7	-1.044341
85	0xbf3a4bda	-0.7277199
86	0xbf2532de	-0.6453074
87	0xc0175782	-2.364716
88	0xbf478610	-0.7793894
89	0xbf87b145	-1.0600973
90	0xbfe85713	-1.8151573
91	0xbf37f82f	-0.71863073
92	0xbfb5a5d0	-1.4191227
93	0xbfe9d76f	-1.826887
94	0xbfa017c9	-1.2507259
95	0xbfa6d106	-1.3032539
96	0xbf7beee7	-0.9841141
97	0xc0105f5a	-2.2558198
98	0xbfced760	-1.6159477
99	0xbec40ed7	-0.38292572
100	0xbf0dc720	-0.55381966
101	0xbeeb0498	-0.45901942
102	0xbfea834f	-1.8321322
103	0xbf10b375	-0.5652383
104	0xbedd857c	-0.43265903
105	0xbf47d447	-0.78058285
106	0xbf625c73	-0.88422316
107	0xbf06e0ad	-0.5268658
108	0xbf21d3d4	-0.6321385
109	0xbec4fc04	-0.38473523
110	0x3c8eb995	0.017422477
111	0xbfac96e6	-1.348355
112	0xbed15940	-0.40888405
113	0xbfae84ec	-1.3634315
114	0xbf3bbc9d	-0.73334676
115	0xbd6dba49	-0.058038983
116	0xbe58a24b	-0.2115566
117	0xbf09b138	-0.5378604
118	0xbf234ed2	-0.63792145
119	0xbf8d269e	-1.102741
120	0xbf80a6c3	-1.0050892
121	0xbf49087c	-0.7852857
122	0xbf6a99e1	-0.9164105
123	0x3de982b0	0.1140188
124	0xc0914a12	-4.540292
125	0x3f7cae58	0.9870353
126	0xbeb9e5fb	-0.36308274
127	0xbe941b3d	-0.2892703

fc2.weight f4 [128, 128]
0	0xbe1c0cbf	-0.15239237
1	0xbf9056e0	-1.1276512
2	0x3efd79d3	0.49507007
3	0x3e0b7e01	0.13622285
4	0x3e3d7308	0.18500912
5	0xbea86804	-0.32891858
6	0x3dec02f1	0.115239985
7	0xbf8efe96	-1.1171443
8	0xbefd89ad	-0.495191
9	0xbe82b743	-0.25530443
10	0xbd5c0eea	-0.05372516
11	0x3e6827d4	0.22671443
12	0xbe1f04d8	-0.15529191
13	0x3cf6d184	0.030129202
14	0xbe48376e	-0.19552395
15	0xbef4e697	-0.47832176
16	0xb956ee88	-0.0002049749
17	0x3e2651c1	0.16242124
18	0x3dac3026	0.08407621
19	0x3e309c55	0.17247136
20	0xbe6f9f5e	-0.23400638
21	0xbd7c14c1	-0.06154323
22	0xbdb1a88a	-0.086747244
23	0xbd950d59	-0.072779365
24	0x3d95303b	0.0728459
25	0xbe08e99b	-0.13370363
26	0x3eb62a7e	0.35579294
27	0xbee6290c	-0.4495319
28	0x3e1d3cf5	0.15355285
29	0xbe94007f	-0.28906628
30	0xbad3ab40	-0.0016149059
31	0xbddee30d	-0.1088315
32	0x3c4b69af	0.012415334
33	0xbe5ca4e4	-0.21547276
34	0xbd235b0e	-0.03988176
35	0xbcd8fc02	-0.026487354
36	0x3df6375b	0.12022277
37	0x3cdbc67e	0.026828047
38	0x3d7129fa	0.058877923
39	0xbc246090	-0.010032788
40	0x3d68f442	0.056873567
41	0xbe53d2f5	-0.20685942
42	0x3dadb324	0.08481434
43	0xbe3059fa	-0.17221823
44	0x3c7da5f6	0.015481463
45	0x3def5efa	0.11688037
46	0xbf696a1f	-0.9117755
47	0x3dd1825e	0.10229944
48	0x3d12c7bf	0.035835024
49	0x3a800a1c	0.0009768638
50	0xbe28cc14	-0.164841
51	0x3dc2ad82	0.0950575
52	0xbe06ec20	-0.13176012
53	0x3df60ff9	0.12014765
54	0x3e49ccbb	0.19707005
55	0x3e88794a	0.26655036
56	0x3d877409	0.06613929
57	0x3e4037a6	0.18771228
58	0x3dc1cf39	0.09463353
59	0xbe06d69b	-0.13167803
60	0xbeb99ad9	-0.36250952
61	0xbe4b6ca0	-0.19865656
62	0xbf16ee9f	-0.58957857
63	0xbee8d21d	-0.45472804
64	0xbda5dc3c	-0.08098647
65	0x3da7e8c6	0.08198695
66	0xbd585f1b	-0.052825075
67	0x3d9238bf	0.0713973
68	0xbe17fc3d	-0.14842315
69	0xbe36a4cc	-0.17836303
70	0xbdd06e31	-0.10177267
71	0xbe4e1e81	-0.20128824
72	0xbd9f2c11	-0.07772077
73	0x3e2e7b4a	0.17039219
74	0xbf3ba276	-0.7329477
75	0x3e94b348	0.2904303
76	0x3eaf9a55	0.34297433
77	0x3e1895ab	0.14900844
78	0xbe94d76e	-0.2907061
79	0xbcda85d1	-0.026675137
80	0x3d541926	0.051781796
81	0xbd8c97c2	-0.06864883
82	0x3e98845d	0.29788485
83	0xbe2188f0	-0.15774894
84	0xbc817871	-0.015804501
85	0xbee33cce	-0.44382328
86	0xbda088b5	-0.07838575
87	0x3eadb3e1	0.339263
88	0x3c94ef85	0.018180618
89	0xbef677a0	-0.48138142
90	0xbdb8cf80	-0.090239525
91	0xbe3436af	-0.17598985
92	0x3b5666b9	0.0032715036
93	0xbddfeef8	-0.109342515
94	0xbe1ff058	-0.15619028
95	0xbe6c4279	-0.23072232
96	0xbdf6353c	-0.120218724
97	0x3f00c9fc	0.50308204
98	0x3db7306c	0.089447826
99	0xbf005ab6	-0.50138414
100	0x3df08cff	0.11745643
101	0x39c0bc36	0.00036761322
102	0xbe9896b6	-0.29802483
103	0x3c0d83a5	0.0086373435
104	0xbc9588cf	-0.018253712
105	0x3e150e32	0.14556196
106	0xbdb82ca2	-0.08992888
107	0xbf8e2ca3	-1.1107372
108	0x3e8dc29a	0.27687532
109	0xbef1efc0	-0.47253227
110	0xbe877f8f	-0.26464507
111	0x3d3b2090	0.04568535
112	0xbee0f1e8	-0.4393456
113	0xbd91a19b	-0.07110902
114	0xbe201bdd	-0.15635629
115	0xbd4cd23d	-0.050005186
116	0x3ddf9c87	0.10918527
117	0xbe9602a6	-0.29298896
118	0xbe674114	-0.22583419
119	0x3dff0879	0.12452788
120	0xbe27221d	-0.16321607
121	0x3e520017	0.20507847
122	0xbc47535a	-0.012165869
123	0xbe73959a	-0.23787537
124	0x3e37ae04	0.17937475
125	0xbdc7888b	-0.097428404
126	0x3ddde91b	0.10835477
127	0xbdecae1f	-0.115566485
128	0x3cb059ab	0.021527132
129	0xbf02c96c	-0.51088595
130	0x3da845fa	0.08216472
131	0xbe08bbfa	-0.13352957
132	0x3b91e5e0	0.004452452
133	0xbd1b50b0	-0.037918746
134	0xbdeaafc3	-0.11459305
135	0xbe5566c3	-0.20839982
136	0xbdcd5243	-0.10025456
137	0xbe8c70cb	-0.27429804
138	0xbd834003	-0.06408694
139	0xbd1e84bd	-0.038700808
140	0x3d7a6caa	0.061138786
141	0x3d42b069	0.04753152
142	0xbdccca5a	-0.09999533
143	0xbe724e32	-0.23662642
144	0x3df0feec	0.117673725
145	0xbd667076	-0.056259595
146	0xbdbc2fd4	-0.0918881
147	0xbd1b085d	-0.037849773
148	0xbe0ad27a	-0.13556853
149	0x3ba82d86	0.00513238
150	0xbcb3c12f	-0.021942703
151	0x3d8530d9	0.065034576
152	0xbd9dcdc0	-0.07705259
153	0x3d1c8337	0.038211074
154	0x3dc2a2f9	0.09503741
155	0xbe03e1a6	-0.12879047
156	0x3de61778	0.11234945
157	0x3ddcbada	0.107778266
158	0xbc5ca234	-0.013466407
159	0xbd2bd22a	-0.041948475
160	0xbd8c42dc	-0.0684869
161	0x3d31330e	0.04326158
162	0xbdf8053a	-0.12110372
163	0x3cb18c2e	0.021673288
164	0x3c9fef4f	0.01952329
165	0xbbace5b7	-0.0052764076
166	0x3ac6ff9b	0.0015182378
167	0xbcb54678	-0.022128329
168	0xbdaec167	-0.08532982
169	0x3c986657	0.018603487
170	0xbde7c690	-0.1131717
171	0xbd28af3f	-0.041182753
172	0x3d366888	0.044533283
173	0x3b2f42fc	0.0026742807
174	0xbeaaf75e	-0.3339185
175	0x3ca843b7	0.020540101
176	0xbd97162c	-0.07377276
177	0xbd5b02bd	-0.05346941
178	0xbcb95399	-0.02262287
179	0x3d27c832	0.040962406
180	0xbe0bccfd	-0.13652416
181	0xbd6177ce	-0.055045895
182	0xbd45cc27	-0.048290398
183	0xbcd918e0	-0.02650112
184	0x3b938e2f	0.0045030336
185	0x3d4a3cb6	0.049374305
186	0xbdc1ff24	-0.09472492
187	0x3caf603c	0.021408193
188	0xbdd5b7f0	-0.10435474
189	0xbdc4112d	-0.095735885
190	0xbe1a31dd	-0.15058084
191	0xbdb5bb7f	-0.08873653
192	0xbd269e5d	-0.04067837
193	0x3d803eb5	0.062619604
194	0xbd26fac0	-0.040766478
195	0xbc57c5a9	-0.013169684
196	0x3c270b4b	0.010195564
197	0x3d41f417	0.047351923
198	0x3ce99f94	0.028518476
199	0xbdf0b110	-0.11752522
200	0xbd88697e	-0.06660746
201	0xbe10d426	-0.14143428
202	0xbe951c6d	-0.2912325
203	0xbdd257f6	-0.102706835
204	0x3e09ff43	0.13476281
205	0x3d51f31f	0.05125725
206	0x3c9203c0	0.017824054
207	0xbbff3762	-0.0077885846
208	0x3ce12b15	0.027486363
209	0x3d7fade5	0.062421698
210	0x3d4644d5	0.048405487
211	0xbd180d17	-0.03712186
212	0xbd0852de	-0.033282153
213	0xbd7a71e4	-0.06114377
214	0xbdf41b69	-0.119192906
215	0xbdfcc9de	-0.123431906
216	0xbcc8fbc7	-0.02453412
217	0xbc8d624c	-0.017258786
218	0xbe02ece9	-0.12785687
219	0x3d253067	0.040329363
220	0x3d4d8e0f	0.050184306
221	0x3d1083c8	0.035281926
222	0xbe1c4779	-0.1526164
223	0x3d0774fe	0.033070557
224	0xbd923101	-0.07138253
225	0xbdd8850f	-0.10572254
226	0xbd1a1cae	-0.037625007
227	0xbed742a7	-0.4204304
228	0xbd7eb1f6	-0.062181436
229	0x3d10460f	0.035223063
230	0xbe31b1fe	-0.17353055
231	0x3b88976d	0.004168442
232	0x3cd31c5b	0.025770357
233	0xbe20e3ea	-0.15711942
234	0x3d7d2ae7	0.061808493
235	0xbeffd083	-0.4996377
236	0x3dab4c2f	0.0836414
237	0xbde43049	-0.11142022
238	0xbe333cd7	-0.17503677
239	0xbd594fc6	-0.053054594
240	0xbe01917f	-0.12653159
241	0x3d74d478	0.05977294
242	0x3c846593	0.016161716
243	0x3c019769	0.007909634
244	0x3d4c4618	0.049871534
245	0xbe016b34	-0.12638551
246	0x3c0caa0c	0.008585464
247	0x3d367eca	0.04455451
248	0xbdaef3a7	-0.08542567
249	0xbd63a456	-0.055576645
250	0xbdd1949e	-0.102334246
251	0xbd3ab55b	-0.04558311
252	0x3d9986ea	0.07496436
253	0xbd738e39	-0.059461806
254	0xbdcb3276	-0.09921734
255	0xbda7b051	-0.081879266

fc2.bias f4 [128]
0	0xbf803094	-1.0014825
1	0xbe639331	-0.22224118
2	0xbee618fe	-0.44940943
3	0xbe3c08a2	-0.18362668
4	0xbe93fcb2	-0.2890373
5	0xbf0a2c78	-0.53974104
6	0xbf0045f3	-0.50106734
7	0xbf6a5879	-0.9154125
8	0xbf084deb	-0.53243893
9	0xbe8fdc72	-0.28097874
10	0xbea16f4f	-0.31530234
11	0xbf18ad85	-0.5963977
12	0xbeb7847e	-0.3584327
13	0xbe27a2f7	-0.1637076
14	0xbf208d43	-0.6271555
15	0xbe5b7a56	-0.21433386
16	0xbe354a24	-0.17704064
17	0xbee4f463	-0.44717702
18	0xbe847e42	-0.25877577
19	0xbecf154c	-0.40445936
20	0xbe3c354f	-0.1837971
21	0xbed51a96	-0.41621846
22	0xbee070ea	-0.43836147
23	0xbf65c368	-0.8975129
24	0xbe721a17	-0.23642765
25	0xbf23eb62	-0.6403104
26	0xbebb2c75	-0.36557356
27	0xbe965678	-0.29362845
28	0xbe9120db	-0.2834538
29	0xbd49cd4f	-0.049268063
30	0xbed4abe7	-0.415374
31	0xbf033d59	-0.51265484
32	0xbec077d9	-0.37591437
33	0xbf11913f	-0.5686225
34	0xbe9fff2a	-0.31249362
35	0xbf8ac746	-1.0842063
36	0xbebe79ea	-0.37202388
37	0xbece146f	-0.40249965
38	0xbe767676	-0.24068627
39	0xbe96a270	-0.29420805
40	0xbeb1023b	-0.34572014
41	0xbea045aa	-0.3130315
42	0xbea44150	-0.3208108
43	0xbf3b0d99	-0.73067623
44	0xbf2175a4	-0.6307013
45	0xbe8bd62d	-0.2731184
46	0xbdd9b7be	-0.10630749
47	0xbf181574	-0.59407735
48	0xbe209ec9	-0.15685572
49	0xbf59ec75	-0.8512643
50	0xbe77b67f	-0.2419071
51	0xbece264d	-0.40263596
52	0xbf01e874	-0.5074532
53	0xbf04f6fa	-0.51939356
54	0xbe7b0a58	-0.24515665
55	0xbe6944ea	-0.22780195
56	0xbe7fe810	-0.24990869
57	0xbedfa841	-0.43683055
58	0xbddea051	-0.10870422
59	0xbee3ba08	-0.44477868
60	0xbec77288	-0.38954568
61	0xbeb38e61	-0.35069564
62	0xbe818ca4	-0.25302613
63	0xbef83888	-0.4848063
64	0xbf0e6e5f	-0.5563716
65	0xbebf8749	-0.37407902
66	0xbeee5536	-0.46549386
67	0xbe8ea07c	-0.27856815
68	0xbe541828	-0.2071234
69	0xbf08458a	-0.5323111
70	0xbe9e5609	-0.30925015
71	0xbea3a69c	-0.3196305
72	0xbe0927d2	-0.13394096
73	0xbf1613cf	-0.58623976
74	0x3e361a88	0.17783558
75	0xbde080a3	-0.109620355
76	0xbe9b8c10	-0.30380297
77	0xbe89f7e3	-0.26946935
78	0xbee955e6	-0.45573348
79	0xbf4a5326	-0.79033124
80	0xbed89df9	-0.42308024
81	0xbeee14de	-0.46500295
82	0xbeb90dc9	-0.3614333
83	0xbf0cf160	-0.5505581
84	0xbea14005	-0.31494156
85	0xbf46451e	-0.77449214
86	0xbee3f7f7	-0.4452512
87	0xbf08397f	-0.5321273
88	0xbebb9ac0	-0.36641502
89	0xbd5622d9	-0.052279327
90	0xbf063275	-0.5242074
91	0xbee87509	-0.4540179
92	0xbf1527b9	-0.58263737
93	0xbf0a47c0	-0.5401573
94	0xbed4c78c	-0.41558492
95	0xbe99744f	-0.2997155
96	0xbece0bd4	-0.402434
97	0xbea9bce3	-0.33151922
98	0xbecb9158	-0.39759326
99	0xbe9bc0a7	-0.3042042
100	0xbed08b19	-0.40731123
101	0xbec840b6	-0.3911187
102	0xbeedadc5	-0.46421638
103	0xbe9573cc	-0.29189909
104	0xbf18d578	-0.5970073
105	0xbf082d97	-0.53194565
106	0xbefc7bf3	-0.49313316
107	0xbec11208	-0.3770907
108	0xbecc06be	-0.39848894
109	0xbed756ed	-0.42058507
110	0xbda6036a	-0.0810612
111	0xbe7a25ac	-0.24428433
112	0xbedbe3e0	-0.42947292
113	0xbec156e1	-0.37761596
114	0xbe28b923	-0.16476874
115	0xbecc13ff	-0.39859006
116	0xbf307d91	-0.689416
117	0xbd8c6c92	-0.06856646
118	0xbe7e346f	-0.2482469
119	0xbe3924b0	-0.18080401
120	0xbe3ef8ac	-0.18649548
121	0xbee3d0a9	-0.44495133
122	0xbebe474d	-0.37163773
123	0xbf1efea9	-0.6210733
124	0xbf2364d9	-0.63825756
125	0xbeeeade1	-0.46617034
126	0xbf0cf314	-0.5505841
127	0xbec7ccbd	-0.3902339

fc3.weight f4 [1, 128]
0	0x3dca5808	0.09880072
1	0x3bf8bc9d	0.007590844
2	0xbc665337	-0.014057926
3	0x3ba35a12	0.0049851025
4	0x3d5cb235	0.05388089
5	0x3cd33e07	0.025786413
6	0x3d0d9c62	0.034572966
7	0x3d5eedfb	0.054426175
8	0x3c73e50c	0.014886152
9	0xbcb1c3fc	-0.021699898
10	0xbd942529	-0.0723365
11	0xbbb2ab50	-0.005452551
12	0xbcaae985	-0.020863304
13	0xbb911d89	-0.0044285697
14	0xbd46d415	-0.0485421
15	0xbb03dab6	-0.0020119376
16	0xbb420d2b	-0.00296099
17	0xbdf4471e	-0.11927627
18	0xbc1ed645	-0.0096946405
19	0x3d979dd4	0.0740315
20	0x3a7ce31a	0.0009646878
21	0xbc6ff849	-0.014646598
22	0xbcbac8a0	-0.022800744
23	0x3d82c604	0.06385425
24	0x3bc9c0dc	0.006157024
25	0x3d33d1e6	0.043901347
26	0x3d1bccc4	0.038037077
27	0x3da9f003	0.08297732
28	0x3c8f2aab	0.0174764
29	0x3bd7f186	0.006590071
30	0x3da3932f	0.079870574
31	0xbe11eb5f	-0.14249943
32	0x3c8ee0f4	0.01744125
33	0x3e067a15	0.13132508
34	0xbda485a0	-0.080332994
35	0x3d6c1ff6	0.057647668
36	0xbd0c4d64	-0.034253493
37	0x3d96d868	0.07365495
38	0xbb0b0de5	-0.0021217999
39	0x3d1f22f5	0.038851697
40	0xbce55cd1	-0.02799836
41	0xbca9cf51	-0.020728739
42	0x3d14215a	0.03616462
43	0x3d282155	0.041047413
44	0x3e5555d9	0.2083353
45	0x3dcaffb4	0.09912053
46	0x3b460a28	0.0030218456
47	0x3d43be64	0.047788993
48	0x3cd638a1	0.02615005
49	0xbd599c0b	-0.05312733
50	0x3c0c892d	0.008577627
51	0x3d5a8162	0.053346045
52	0x3ceff9cd	0.029293919
53	0xbcc97c3f	-0.024595378
54	0xbdba9a1f	-0.091114275
55	0x3b0cc3c9	0.0021479002
56	0xbab1b7d3	-0.0013558812
57	0x3c62c240	0.013840258
58	0xb837eb07	-4.3849486e-05
59	0xbd5abd26	-0.053403042
60	0x3dadde94	0.08489719
61	0x3c04bb82	0.008101346
62	0xbbe1de14	-0.006892929
63	0xbd5b1826	-0.053489827
64	0xbc3ab641	-0.011395992
65	0xbe21cd20	-0.15800905
66	0xbd941415	-0.07230393
67	0xbdfa8f6f	-0.12234389
68	0xbd3c0aeb	-0.04590885
69	0x3d89069d	0.066907145
70	0x3cdf17fa	0.027233113
71	0xbd9701b3	-0.07373371
72	0xbb97dc76	-0.0046344353
73	0x3db3e202	0.08783342
74	0xbd83f150	-0.06442511
75	0xbbb98026	-0.0056610284
76	0xbdca594d	-0.09880314
77	0x3d45ef02	0.04832364
78	0xbdb877dd	-0.09007237
79	0xbdefae80	-0.11703205
80	0xbe45e5bb	-0.19325916
81	0x3d8ad5ca	0.06779058
82	0x3ccbcacb	0.024876973
83	0x3dc0f768	0.09422189
84	0x3d105a5c	0.035242423
85	0x3b0c5947	0.0021415518
86	0x3e0da934	0.13834077
87	0x3da2c56b	0.07947811
88	0xbd25e20d	-0.040498782
89	0xba95e80d	-0.0011436954
90	0x3ca18174	0.019715048
91	0x3c3eb51f	0.011639862
92	0x3de9739d	0.113990046
93	0x3db9b53e	0.09067772
94	0x3e021846	0.12704572
95	0x3de7ff7d	0.113280274
96	0x3d237368	0.03990498
97	0xbc5958a5	-0.013265763
98	0x3ce5a344	0.028031953
99	0x3e1550fb	0.14581673
100	0x3dab81ec	0.0837439
101	0xbda64052	-0.08117737
102	0xbd02a9ec	-0.03190033
103	0xbdc6e227	-0.09711104
104	0x3c0378ab	0.008024375
105	0xbda38854	-0.07984987
106	0xbda0639d	-0.078315
107	0x3cd2a650	0.02571407
108	0x3b75db35	0.003751469
109	0xbdbbb307	-0.09165006
110	0x3d85a094	0.065247685
111	0x3a493e5d	0.00076768344
112	0x3c65edfa	0.014033789
113	0x3dcbc554	0.09949747
114	0x3cd6e1c0	0.026230693
115	0x3ce8f392	0.028436456
116	0x3dc7eea2	0.097623125
117	0x3b893d87	0.004188243
118	0x3be7983f	0.0070677097
119	0xbd03cfd3	-0.03218062
120	0x3ad77a28	0.0016439604
121	0x3d0ccd2f	0.034375366
122	0xbdb2034d	-0.08692036
123	0xbe0122b5	-0.12610896
124	0xbc7b13c4	-0.015324537
125	0xbd86ac49	-0.065758295
126	0xbe0f159f	-0.13973092
127	0x3ca58bd4	0.020208277

bn1.weight f4 [128]
0	0xbd17e4b4	-0.037083343
1	0x3d0c9c90	0.034328997
2	0x3e446f35	0.19183047
3	0x3f3ccd2a	0.73750556
4	0x3f6e410c	0.93068004
5	0x3eb71622	0.35759073
6	0xbbe757ee	-0.0070600426
7	0xbc290e4c	-0.01031835
8	0x3945103a	0.00018793429
9	0x3e490b85	0.196333
10	0x3c240468	0.010010816
11	0x3c3e2413	0.01160528
12	0x3c21a31f	0.009865551
13	0x3e8c8819	0.27447584
14	0x3d232bcb	0.039836686
15	0xbd5c7a50	-0.053827584
16	0xba8f6eb6	-0.0010943029
17	0x3d6abafe	0.057307236
18	0x3ecdd033	0.40197906
19	0x3be84ff5	0.0070896097
20	0x3b734a36	0.003712309
21	0x3dcb57ba	0.09928842
22	0x3bce0391	0.0062870462
23	0xbc8df7b1	-0.017330023
24	0xbb436d53	-0.00298198
25	0x3e3aae62	0.18230584
26	0x3ca25bd8	0.019819185
27	0x3f115018	0.5676284
28	0x3b121c8a	0.0022294843
29	0x3e82c04c	0.25537336
30	0xbc1d2d5d	-0.009593335
31	0x3bdeb76c	0.006796768
32	0x3eac08d5	0.33600488
33	0x3dcbaea6	0.09945421
34	0x3eb1ce9f	0.34727952
35	0x3cf6d1fc	0.030129425
36	0xba71a933	-0.0009218633
37	0xbd40abee	-0.047038965
38	0x3a465a44	0.0007566551
39	0x3dc6155e	0.09672044
40	0x3ba3bfc6	0.0049972264
41	0xbbf5e2cb	-0.0075038425
42	0x3eb0e972	0.34553105
43	0x3dba1565	0.09086112
44	0x3cda33ca	0.026636023
45	0xbcb2110f	-0.02173665
46	0xbd87de2a	-0.06634171
47	0x3ea4d759	0.32195547
48	0xbbc8790b	-0.006117945
49	0x3f068da6	0.5255989
50	0xbd7dc199	-0.061952207
51	0xbc8d1c5d	-0.017225439
52	0xbb25930c	-0.0025264649
53	0xbcba5ff7	-0.022750838
54	0x3e773e38	0.24144828
55	0x3da590ea	0.08084281
56	0x3c8475cf	0.016169457
57	0x3c4e2c74	0.012583841
58	0x3b48bcde	0.0030630152
59	0x3c8a51df	0.016884742
60	0x3f246930	0.64223003
61	0x3ddbbfae	0.107299194
62	0x3c88dbaa	0.016706306
63	0x3c86aead	0.016440714
64	0x3f260bd0	0.64861774
65	0xbb351302	-0.0027629738
66	0x3f628ea7	0.8849892
67	0xbcdbd938	-0.026836976
68	0x3f2a79dc	0.6659219
69	0x3e9a1be1	0.30099395
70	0xbc7b38fd	-0.015333411
71	0x3ca302f8	0.019898877
72	0xbbb525e4	-0.0055281986
73	0xbbd4ed34	-0.0064980034
74	0x3da45905	0.08024792
75	0x3fadc796	1.3576534
76	0x3f54de64	0.8315184
77	0x3df71468	0.12064439
78	0xbc11240e	-0.008858694
79	0x3ee88c25	0.45419422
80	0xbcd00a98	-0.025395676
81	0x3ba26fac	0.00495716
82	0x3e4d8bff	0.20072936
83	0xbbb922b2	-0.005649888
84	0x3b69e6ba	0.0035690502
85	0xbc50fc02	-0.012755396
86	0xbbcd8be9	-0.006272782
87	0x3e02a6cd	0.12758942
88	0x3d56ed2c	0.05247228
89	0xbbfe577d	-0.0077618943
90	0x3e0ce703	0.13759999
91	0x3e0be6b5	0.13662226
92	0xbc329cf4	-0.010901678
93	0x3da4c9c3	0.080462955
94	0x3e5df90a	0.21677032
95	0x3e92450e	0.2856831
96	0xb91c94c4	-0.00014932739
97	0x3e01ad8f	0.12663864
98	0x3e9190cf	0.28430793
99	0x3dd328aa	0.103104904
100	0xbc91e7c7	-0.017810715
101	0xbc45b4cb	-0.01206703
102	0x3e74bd09	0.23900236
103	0xbc0549a2	-0.008135231
104	0x3ecf8bb4	0.40536273
105	0x3ab10263	0.001350474
106	0xbd88eba4	-0.0668557
107	0xbdc1c289	-0.09460933
108	0x3b1b2602	0.0023673777
109	0xbc6e0382	-0.0145272035
110	0x3e2fbbe2	0.17161515
111	0xbc78ebfa	-0.01519298
112	0xbbf1541c	-0.007364763
113	0xbcb45670	-0.022013873
114	0xba8368d8	-0.0010025753
115	0x3eb1cbb7	0.34725735
116	0x3d9e4575	0.077280916
117	0xbaee5234	-0.0018182457
118	0xbc2f863b	-0.010713155
119	0x3c8d2252	0.01722828
120	0xbba3018e	-0.0049745506
121	0x3b80ff9b	0.0039367205
122	0xbc316de3	-0.010829422
123	0x3e300313	0.17188673
124	0x3ed909e3	0.42390355
125	0x3ec32f77	0.3812215
126	0x3e8cd5f6	0.2750699
127	0x3b822a7b	0.003972349

bn1.bias f4 [128]
0	0xbbb7ccea	-0.0056091445
1	0x3f09bce4	0.5380385
2	0x3c98749f	0.018610297
3	0x3d80a672	0.06281747
4	0x3edfa7ab	0.43682608
5	0x3d2c72d0	0.04210168
6	0x3ab2dcd6	0.0013646137
7	0xba8fa5fc	-0.0010959501
8	0x3b09b392	0.0021011573
9	0xbcff0264	-0.03112907
10	0x3b61eebc	0.0034474572
11	0x3bd7d089	0.0065861386
12	0x39b26a3c	0.00034029956
13	0x3d8dbc18	0.06920642
14	0x3c88afd7	0.01668541
15	0x3bfb5aeb	0.0076707504
16	0xba60edba	-0.0008580346
17	0x3abc6f5f	0.0014376453
18	0xbc82f524	-0.015986033
19	0x3b8310aa	0.0039997892
20	0x3b47e41d	0.0030500956
21	0x3bffbaac	0.0078042354
22	0xbaab20ec	-0.0013056076
23	0xbaa55956	-0.0012615125
24	0x3a8bfa29	0.0010679412
25	0x3d89a971	0.067217715
26	0xbc3af28c	-0.011410367
27	0x3e484de3	0.19560961
28	0xbb8a2493	-0.004215786
29	0xbbbde756	-0.0057953997
30	0x39de22c8	0.00042369054
31	0x3bc7ac1a	0.006093514
32	0x3e90ac0b	0.28256258
33	0xb96e2140	-0.00022709835
34	0x3d9a6f62	0.07540776
35	0x3bf5df75	0.007503445
36	0xbc08bffe	-0.008346556
37	0xbbc9ea97	-0.0061619985
38	0x3a5bc04f	0.0008382843
39	0x3d0340f7	0.032044377
40	0x3b9a9c59	0.004718345
41	0x3b9ce9e2	0.004788623
42	0xbdff2d13	-0.12459769
43	0xbd107d1b	-0.03527556
44	0x3bdc4c0e	0.0067229336
45	0xbc25ceef	-0.010120138
46	0xbbc17825	-0.005904215
47	0x3d205050	0.039139092
48	0x3bded404	0.0068001766
49	0x3df530e6	0.11972217
50	0x3c1b9657	0.009496293
51	0x3ab264b6	0.0013610336
52	0x3b43eb74	0.002989498
53	0xbb53be33	-0.0032309412
54	0x3c9a1f30	0.0188137
55	0x3c87a5e1	0.01655859
56	0x3a92a700	0.0011188686
57	0x3b858151	0.0040742536
58	0x3b354ad2	0.0027663005
59	0x3bc779be	0.006087511
60	0x3ed204d4	0.4101931
61	0x3d97c8b9	0.07411332
62	0x3b081864	0.002076649
63	0x38050e60	3.172306e-05
64	0x3dead6c7	0.11466747
65	0x3c0e0812	0.008668916
66	0x3eae364d	0.34025803
67	0xbc26f4e7	-0.010190225
68	0x3e9649f1	0.29353288
69	0x3d37cfa9	0.044875775
70	0x3b6a8ae6	0.0035788356
71	0x3ac7ac8f	0.0015233922
72	0xbb1d639c	-0.002401567
73	0x3c734bdc	0.014849629
74	0x3d1619ca	0.036645688
75	0x3eaac2c3	0.33351716
76	0xbe795f68	-0.24352801
77	0xbdbc43f1	-0.09192646
78	0xbb4159fc	-0.0029503098
79	0x3dd4b2cd	0.10385666
80	0xbbd02989	-0.0063526076
81	0x3b1f4016	0.0024299673
82	0x3bbf481d	0.005837454
83	0xb9dd16ee	-0.0004216949
84	0xbacbea87	-0.0015557565
85	0x3c81ddb6	0.01585279
86	0x3c05e8af	0.008173152
87	0xbca625c8	-0.020281687
88	0x3a69ea58	0.00089231646
89	0x3baa940f	0.0052056382
90	0x3d4da986	0.0502105
91	0x3cdb0752	0.026736889
92	0x3b058082	0.0020370786
93	0x3c5aa7ce	0.013345672
94	0x3ba4061d	0.0050056116
95	0x3e26d31c	0.1629147
96	0xbb7f1282	-0.0038920944
97	0xbca26921	-0.01982552
98	0x3ccb4b81	0.024816277
99	0x3ca74f17	0.020423455
100	0xba8a794b	-0.0010564713
101	0xbade4804	-0.0016958718
102	0x3e439820	0.19101
103	0xbbbf3f88	-0.005836431
104	0xbd09c7e6	-0.033637904
105	0xb93abd9a	-0.00017808974
106	0xbc8a241f	-0.016862927
107	0x3e950614	0.291062
108	0xbb94dbab	-0.004542788
109	0xbb81940c	-0.003954416
110	0x3c9ec41c	0.019380622
111	0xbac91aee	-0.0015343109
112	0x3b8a1e1d	0.0042150156
113	0x3b670296	0.0035249344
114	0x3c5860fd	0.013206718
115	0x3d6b4e14	0.057447508
116	0x3d5d4a91	0.05402619
117	0x3be5253e	0.006992965
118	0xba7faa48	-0.0009752852
119	0x3b1a6133	0.002355647
120	0x3ba49b8f	0.005023427
121	0xb9baf38e	-0.00035658147
122	0xba1ae33d	-0.0005908495
123	0xbc72e14f	-0.014824226
124	0x3de1414e	0.10998784
125	0x3eb20f91	0.347775
126	0xbdbfd26c	-0.09366307
127	0xbb43a428	-0.0029852483

bn1.running_mean f4 [128]
0	0x3f0b9a01	0.54531866
1	0x41b46833	22.550879
2	0x40ed0ad4	7.407572
3	0x3ef84bb4	0.48495257
4	0x4072863b	3.7894428
5	0x3faeb3c1	1.3648607
6	0x3d95c195	0.073123135
7	0x416872de	14.528044
8	0x40e19d81	7.0504766
9	0x3f01287b	0.50452393
10	0x3eb93c57	0.36178848
11	0x3f0bc8d1	0.54603297
12	0x40534077	3.3008096
13	0x40e5d0a6	7.18172
14	0x3f4c41c6	0.7978786
15	0x3989fb9f	0.0002631815
16	0x404d7b4c	3.2106504
17	0x3ec025e0	0.37528896
18	0x3f7c3e5d	0.9853266
19	0x404a0b27	3.1569307
20	0x40599b61	3.4001086
21	0x3e179b74	0.14805394
22	0x3f45c5bc	0.77254844
23	0x3f682803	0.90686053
24	0x4099373c	4.7879925
25	0x40bf9201	5.9865727
26	0x403b3764	2.9252558
27	0x3fc9b4e6	1.5758331
28	0x3fffe86f	1.9992808
29	0x3f721c5a	0.9457451
30	0x3e21e54a	0.15810123
31	0x3e9735f2	0.29533345
32	0x41a487b6	20.566265
33	0x3fc281fa	1.5195916
34	0x409e50fc	4.947386
35	0x40a2168e	5.0652533
36	0x4053e9ba	3.3111405
37	0x404538b3	3.0815856
38	0x40ac70dd	5.3887773
39	0x40538ba3	3.3053977
40	0x3ee22ef3	0.44176444
41	0x3f0c761e	0.5486773
42	0x41392139	11.570611
43	0x3fba40fb	1.455108
44	0x400e1cf8	2.220518
45	0x3fcb5348	1.588479
46	0x40ce10a6	6.4395323
47	0x3f29f84b	0.6639449
48	0x41192ec0	9.573914
49	0x3f87ffec	1.0624976
50	0x3e90b738	0.28264785
51	0x40aa72df	5.3265224
52	0x3fae8d5f	1.3636893
53	0x3f9b94a1	1.2154733
54	0x414d52d9	12.8327265
55	0x40123815	2.284673
56	0x3f427d2a	0.75972235
57	0x3fcd006c	1.6015754
58	0x4098e726	4.7782164
59	0x4147bacc	12.483105
60	0x423ac231	46.68964
61	0x4055c718	3.3402767
62	0x3f939516	1.1529872
63	0x3f020387	0.5078663
64	0x3ef882ab	0.48537192
65	0x40699bdd	3.6501381
66	0x41ce72e8	25.806107
67	0x3f0e5a4e	0.55606544
68	0x40dfecb2	6.9976435
69	0x3fd69bb7	1.676627
70	0x401da596	2.4632316
71	0x3e01b5fc	0.12667078
72	0x3e913c13	0.28366145
73	0x402b66a5	2.67814
74	0x3fe02e25	1.7514082
75	0x42876860	67.70386
76	0x4222eeea	40.733315
77	0x40141147	2.3135545
78	0x40c047a1	6.008744
79	0x40135318	2.3019466
80	0x00000004	6e-45
81	0x402fd9f8	2.7476788
82	0x3fc8ebb1	1.5696927
83	0x40b85e56	5.7615156
84	0x40e5d656	7.182414
85	0x4145d206	12.363775
86	0x40735786	3.802217
87	0x3ffd4f29	1.9789783
88	0x3f016944	0.5055125
89	0x3f609b58	0.87737036
90	0x40700e2e	3.7508655
91	0x3f340862	0.7032529
92	0x3f2fd1a7	0.6867928
93	0x40408cdd	3.0085976
94	0x3f405c31	0.7514067
95	0x408823b1	4.254357
96	0x409758bb	4.7295814
97	0x40524a1b	3.285773
98	0x3fcf1a08	1.6179819
99	0x4014eb0f	2.3268468
100	0x41049b83	8.287967
101	0x3f98f214	1.1948876
102	0x41326b94	11.151264
103	0x40599a7f	3.4000547
104	0x3f36d475	0.71417934
105	0x3f909ee2	1.1298487
106	0x3ec99eef	0.3937907
107	0x41e76f6a	28.929401
108	0x4150462a	13.01713
109	0x3f4e0c2a	0.8048731
110	0x3ed1f43c	0.4100665
111	0x40f35c76	7.6050367
112	0x3f011670	0.5042486
113	0x3e1d42f6	0.15357575
114	0x3eb68f70	0.3565631
115	0x408b1c94	4.3472385
116	0x3ebaecfc	0.3650893
117	0x408c56ce	4.3855963
118	0x41d1366b	26.151571
119	0x3f1b9640	0.6077614
120	0x401372aa	2.3038735
121	0x3ff5b83e	1.9196851
122	0x40b8adbf	5.7712092
123	0x4183c0fb	16.469229
124	0x4096655c	4.699873
125	0x41def7ca	27.87099
126	0x40df5d5a	6.9801455
127	0x3f96282f	1.1731013

bn1.running_var f4 [128]
0	0x40a4ae6a	5.146291
1	0x4482eec3	1047.4613
2	0x43122eed	146.1833
3	0x4106cf47	8.425605
4	0x41f6a275	30.829325
5	0x41c13c36	24.1544
6	0x3f177afb	0.5917203
7	0x43e42693	456.30136
8	0x431e305e	158.18893
9	0x40a245d3	5.0710235
10	0x406fba71	3.7457545
11	0x40dea624	6.957781
12	0x42652c83	57.29347
13	0x42ea7b2b	117.24056
14	0x40ed4fa9	7.415974
15	0x39debae0	0.00042482372
16	0x422bcac6	42.94802
17	0x409e49e9	4.946522
18	0x4161b839	14.107476
19	0x42a4b53a	82.35396
20	0x4277c62b	61.943523
21	0x3fd74f0d	1.6820999
22	0x4133e54c	11.243481
23	0x413d4ed7	11.831748
24	0x42c0eaf4	96.45889
25	0x42719a3e	60.400627
26	0x423a94a1	46.645145
27	0x4158fa18	13.561058
28	0x41f3c97f	30.473387
29	0x4152013a	13.125299
30	0x3fa888f0	1.316679
31	0x403f2245	2.9864666
32	0x44037987	525.89886
33	0x41d6b4a6	26.838207
34	0x42c93fd4	100.624664
35	0x4308dd60	136.86475
36	0x42baaf00	93.3418
37	0x4253a98d	52.915577
38	0x432e35b7	174.20982
39	0x428aa611	69.32435
40	0x40e805de	7.250716
41	0x40fa83e3	7.8285995
42	0x433f697b	191.41203
43	0x41ac3f33	21.530859
44	0x4238dc0b	46.214886
45	0x4200da81	32.213383
46	0x4333bfd0	179.74927
47	0x40d84b64	6.759203
48	0x43802923	256.32138
49	0x418bf745	17.495737
50	0x40679869	3.6186774
51	0x4302ef19	130.93398
52	0x41dd1f79	27.640368
53	0x41a5d5be	20.729366
54	0x4390ae54	289.36194
55	0x421be062	38.969124
56	0x41507d2b	13.030559
57	0x41d2b46a	26.338093
58	0x42a4fa8e	82.489365
59	0x43cb4487	406.53537
60	0x4539a963	2970.5867
61	0x4245ed2d	49.481617
62	0x4188b69d	17.089167
63	0x40f2bbbe	7.5854177
64	0x40ec8779	7.391537
65	0x42b463c5	90.19486
66	0x448b525e	1114.574
67	0x40e073da	7.014142
68	0x426ca297	59.15878
69	0x41e3cbaf	28.474455
70	0x425106da	52.25669
71	0x3f9c2575	1.2198931
72	0x4076e7b4	3.857892
73	0x42533aea	52.807533
74	0x41cf4109	25.906755
75	0x45d4b939	6807.153
76	0x450d63b2	2262.231
77	0x41ea89ff	29.31738
78	0x434b642b	203.39128
79	0x4179434c	15.57893
80	0x00000004	6e-45
81	0x427332b6	60.799522
82	0x417e74c4	15.903507
83	0x4321b696	161.71323
84	0x436bda04	235.85162
85	0x43b8c26e	369.51898
86	0x4292ae84	73.34085
87	0x41c8567b	25.042227
88	0x4100194c	8.006176
89	0x4122b37a	10.1688175
90	0x42874470	67.63367
91	0x41636bc5	14.213811
92	0x41269327	10.410926
93	0x428622a1	67.067635
94	0x412dd5da	10.86471
95	0x42a2cc2b	81.398766
96	0x42d58a06	106.76958
97	0x41ffca95	31.973917
98	0x418b5b40	17.419556
99	0x424a85b2	50.63056
100	0x43603b58	224.23181
101	0x41a3d0cb	20.47695
102	0x434629b7	198.16295
103	0x42c27295	97.22379
104	0x412fff9d	10.999906
105	0x413a01ef	11.625472
106	0x40a0806d	5.015677
107	0x4472fc1f	971.9394
108	0x43d93a2b	434.45444
109	0x41460ba4	12.377842
110	0x40f98083	7.7969375
111	0x430a963d	138.58687
112	0x40e25bf5	7.073725
113	0x3fa11f3e	1.2587659
114	0x40521417	3.2824762
115	0x427d3eef	63.31146
116	0x40e405ae	7.1256933
117	0x42ea3eb5	117.122475
118	0x4403fac0	527.91797
119	0x4103138c	8.192272
120	0x420fcddf	35.951046
121	0x4218bdb7	38.18527
122	0x42e98adf	116.77123
123	0x437993a1	249.57668
124	0x4245eb9a	49.48008
125	0x445cbbf4	882.93677
126	0x42e26edb	113.216515
127	0x4188e231	17.110445
