checkpoint_Critic.pth (torch_old, 84902 bytes, 9 tensors)

fcs1.weight f4 [128, 28]
0.007909575 0.060875393 -0.02261061 0.18838799 0.08566465 0.12685521 0.032454886 0.2745444
0.11963957 0.031243332 0.11057239 -0.055188436 -0.023138875 0.24359217 0.07082308 -0.0327923
0.18007368 0.15559441 -0.054422345 -0.04098343 -0.044838846 0.22525005 0.008992053 -0.18480712
0.24842407 -0.17040798 0.30431628 -0.2789811 -0.08686266 -0.24359661 0.048169367 0.06946564
-0.1668072 0.08299746 0.093713425 0.017168807 -0.12209927 -0.29164806 0.016352972 0.05782272
-0.1645258 -0.013667234 0.079102986 0.0763762 -0.18175608 -0.05490325 -0.20796694 -0.015214513
-0.110787086 0.051480614 -0.2426018 0.10810994 -0.21673848 0.21176794 0.38211733 -0.31478795
0.11403125 0.14128506 -0.19696082 0.15223922 0.032854173 0.15506448 -0.13894884 0.14491038
-0.008836946 0.073902205 0.041724745 -0.09261595 -0.021575425 0.100485414 0.07564806 -0.13279562
0.17227638 0.115503006 0.19578531 0.07482089 0.027273357 0.0880862 0.10999199 0.08049229
-0.19311735 0.16666332 -0.0669323 0.23803738 0.41689828 -0.08514411 -0.0068391124 -0.032427534
-0.14652802 -0.048458286 -0.09821716 -0.004580866 0.30591178 0.18677393 -0.088350244 0.2559911
-0.26264665 -0.0031412237 -0.010947903 0.25107998 0.15642282 0.121749304 -0.009366672 0.27124524
-0.39403456 -0.18642554 -0.0036532923 0.22265413 -0.08587417 -0.48033082 -0.44019082 -0.0023757627
-0.17714438 -0.20009685 -0.066031955 -0.19576864 -0.008719816 -0.11168162 -0.013099059 -0.18202756
-0.04242487 -0.07532574 -0.17901507 -0.10035265 -0.015317942 -0.17405674 -0.1557484 -0.12291844
-0.23287871 -0.13749702 -0.04716509 0.06870287 0.00015529254 -0.061071597 -0.0023141215 0.16982423
0.26405996 -0.09264622 0.5089285 -0.2150354 0.24865158 0.2234565 -0.0918125 -0.1260122
0.03195654 -0.3578731 -0.06537984 -0.18357924 0.10111802 0.11676598 0.07044005 0.14418675
-0.05798295 -0.2832889 -0.08507157 0.08137398 0.2303443 0.27527866 0.07569636 0.13401024
-0.052694418 -0.19403437 0.063127644 0.18933521 -0.33442324 -0.41603193 -0.042994298 0.36303836
0.12294032 -0.081684776 0.040841393 0.01126449 -0.08355111 -0.33304915 -0.012015941 0.07307145
0.09032094 -0.10714677 0.047627453 0.047213245 -0.09023594 -0.26841602 -0.002557744 0.11356744
0.2004884 -0.0080718305 0.098587416 0.14707491 -0.05623964 -0.40045923 -0.04349433 0.06851743
0.6797037 -0.2530653 0.13635452 -0.080264375 -0.037320293 0.17260665 0.07306065 -0.007921014
-0.0047765574 0.14617549 0.13615093 0.028460434 0.049300198 0.021763409 0.061230067 -0.073813796
-0.068449706 0.074893326 0.16272725 -0.00971201 -0.089321434 0.09382486 0.036279876 0.08198974
-0.07534576 0.1529533 0.011342652 0.072184 -0.06760745 -0.13543501 0.09161109 -0.2116598
0.0016411233 0.1943521 0.13300048 0.14822909 0.021724984 0.17534232 0.08813715 0.048456263
-0.11895722 0.33179104 -0.07785667 0.050425343 -0.024176627 0.1464611 0.0068515665 -0.014082022
-0.139897 0.12288884 -0.1120471 0.053778645 -0.026474018 0.006029208 0.025629781 0.11868661
0.0015256372 -0.20449524 -0.29005545 0.3031848 0.12385564 0.0157051 -0.025175476 -0.20226857
00000000: 2997 013c 7a58 793d e339 b9bc c8e8 403e
00000010: f370 af3d 55e6 013e 6aef 043d 1591 8c3e
00000020: 9705 f53d 04f2 ff3c c773 e23d 450d 62bd
00000030: bd8d bdbc 3a70 793e b10b 913d 3851 06bd
00000040: 3c65 383e 2454 1f3e f7e9 5ebd 3ede 27bd
00000050: f0a8 37bd f3a7 663e 6753 133c 143e 3dbe
00000060: e162 7e3e 6e7f 2ebe 58cf 9b3e 9cd6 8ebe
00000070: 0de5 b1bd 6471 79be 3e4d 453d 0044 8e3d
00000080: 82cf 2abe 93fa a93d d3ec bf3d 99a5 8c3c
00000090: 2f0f fabd e552 95be abf6 853c 84d7 6c3d
000000a0: 7479 28be 89ec 5fbc bf00 a23d 206b 9c3d
000000b0: 441e 3abe 3be2 60bd 49f5 54be 4b46 79bc
000000c0: 57e4 e2bd 56dd 523d 9b6c 78be bf68 dd3d
000000d0: b1f0 5dbe b2d9 583e e2a4 c33e e32b a1be
000000e0: 3789 e93d 08ad 103e 19b0 49be 99e4 1b3e
000000f0: 1992 063d 39c9 1e3e 9b48 0ebe 6363 143e
00000100: d7c8 10bc 0a5a 973d 91e7 2a3d 6ead bdbd
00000110: f2be b0bc 4ccb cd3d 5fed 9a3d 93fb 07be
00000120: 3869 303e d78c ec3d f27b 483e b23b 993d
00000130: 606c df3c 8a66 b43d 7b43 e13d 24d9 a43d
00000140: 8ec0 45be caa9 2a3e cd13 89bd 12c0 733e
00000150: b173 d53e 0960 aebd a21a e0bb bcd2 04bd
00000160: 710b 16be 327c 46bd 1426 c9bd 171b 96bb
00000170: 78a0 9c3e aa41 3f3e f9f0 b4bd 4411 833e
00000180: 9f79 86be fddc 4dbb d55e 33bc 8e8d 803e
00000190: 4e2d 203e b357 f93d ab76 19bc a8e0 8a3e
000001a0: e6be c9be 56e6 3ebe 136c 6fbb 72ff 633e
000001b0: ccde afbd eced f5be b160 e1be afb2 1bbb
000001c0: 5665 35be 30e6 4cbe c33b 87bd 9377 48be
000001d0: 8fdd 0ebc 55b9 e4bd 709d 56bc 6f65 3abe
000001e0: b3c5 2dbd 6244 9abd ba4f 37be b185 cdbd
000001f0: 1bf8 7abc ee3b 32be 827c 1fbe aabc fbbd
00000200: c277 6ebe 05cc 0cbe 2e30 41bd 17b4 8c3d
00000210: 06d6 2239 3626 7abd 84a8 17bb 67e6 2d3e
00000220: de32 873e 4dbd bdbd 2349 023f 3d32 5cbe
00000230: 859e 7e3e c8d1 643e 3108 bcbd 5809 01be
00000240: dce4 023d 253b b7be dee5 85bd 32fc 3bbe
00000250: f716 cf3d 0123 ef3d df42 903d b1a5 133e
00000260: 887f 6dbd 3e0b 91be 013a aebd 67a7 a63d
00000270: 60df 6b3e 53f1 8c3e b106 9b3d fb39 093e
00000280: 1ad6 57bd f2b0 46be 1149 813d 17e1 413e
00000290: 8639 abbe 2302 d5be ca1a 30bd 2ae0 b93e
000002a0: 22c8 fb3d 594a a7bd 4e49 273d b28e 383c
000002b0: d81c abbd 6b85 aabe 82de 44bc 7ca6 953d
000002c0: 2ffa b83d c46f dbbd 0115 433d ad62 413d
000002d0: 9fcd b8bd d36d 89be d39f 27bb 0c96 e83d
000002e0: d54c 4d3e b63f 04bc 33e8 c93d ce9a 163e
000002f0: 895b 66bd fe08 cdbe 1c27 32bd de52 8c3d
00000300: 1001 2e3f c691 81be 85a0 0b3e a661 a4bd
00000310: 2add 18bd ccbf 303e d2a0 953d 24c7 01bc
00000320: ab84 9cbb 07af 153e 266b 0b3e db25 e93c
00000330: 01ef 493d 2d49 b23c 61cc 7a3d b02b 97bd
00000340: 5c2f 8cbd ac61 993d f9a1 263e 1f1f 1fbc
00000350: 28ee b6bd 4027 c03d 359a 143d 3dea a73d
00000360: e14e 9abd ca9f 1c3e 88d6 393c 34d5 933d
00000370: c675 8abd 7aaf 0abe 989e bb3d 59bd 58be
00000380: f61a d73a 3d04 473e 4731 083e 5ec9 173e
00000390: 98f8 b13c f08c 333e 4081 b43d 137a 463d
000003a0: d89f f3bd 84e0 a93e 5173 9fbd ce8a 4e3d
000003b0: 100e c6bc e6f9 153e 1b83 e03b 48b8 66bc
000003c0: 2941 0fbe 25ad fb3d f378 e5bd ff46 5c3d
000003d0: 0ae0 d8bc aa90 c53b 8cf5 d13c f711 f33d
000003e0: e4f7 c73a 3367 51be 2682 94be 0a3b 9b3e
000003f0: 07a8 fd3d fba7 803c cd3c cebc 7e1f 4fbe

fcs1.bias f4 [128]
-0.07553023 0.004506533 -0.10488286 -0.19759786 0.089992434 -0.18083064 -0.5184905 0.11308693
-0.061481766 -0.16083027 0.059918582 -0.045079526 -0.2458413 -0.045883182 -0.32616043 -0.3115443
-0.20968746 -0.34153554 0.023106417 -0.2740547 0.036125936 -0.22647938 0.012019428 -0.15012263
-0.5657004 -0.1758764 0.025736485 -0.1273462 0.26101127 -0.09911592 0.02961935 -0.002579993
-0.25653577 -0.18087038 -0.13430259 0.20013173 0.23516765 -0.29025733 -0.031986643 0.005112425
-0.317729 0.23060684 -0.047950987 0.034493312 -0.19213554 0.026163768 -0.0281151 -0.30730996
-0.06844374 -0.15719011 0.05212597 -0.13591889 -0.15838306 0.1111508 -0.04883083 -0.09524376
-0.14641705 -0.28282794 0.019441249 -0.37257916 0.15021826 -0.22829957 0.18643618 -0.10446094
-0.3414381 0.2537707 0.1987362 -0.44978628 -0.21050452 -0.08427784 -0.11257922 -0.07293489
-0.021171687 0.014554009 0.03969567 -0.10894234 -0.41817567 0.17226964 -0.15385406 -0.19204934
-0.14865522 -0.194738 -0.30067384 -0.002995529 -0.3476319 -0.06514777 -0.18836789 -0.05565549
0.09555937 -0.3099963 -0.13789274 -0.18497148 -0.27169546 -0.49846315 -0.39390177 0.13702497
-0.14754279 0.46137905 0.050913237 -0.32146877 -0.26852718 -0.18228745 -0.17215262 -0.018294392
-0.20548059 -0.094814785 -0.057191953 -0.10973108 -0.043416142 0.021794064 -0.005059769 0.13303533
-0.15108556 -0.20627351 -0.15619627 0.0141818505 0.11786733 -0.035029665 0.22157225 -0.067654274
-0.07942135 -0.32332486 0.025481286 0.08898163 0.17527758 -0.19323386 0.1341971 0.17049195
00000000: 98af 9abd 8aab 933b d3cc d6bd 1857 4abe
00000010: f44d b83d ab2b 39be cbbb 04bf 1f9a e73d
00000020: 4ed4 7bbd b1b0 24be 306d 753d 4fa5 38bd
00000030: d2bd 7bbe 01f0 3bbd 80fe a6be bc82 9fbe
00000040: 4fb8 56be bfdd aebe ab49 bd3c e650 8cbe
00000050: caf8 133d 36ea 67be 23ed 443c bfb9 19be
00000060: bed1 10bf f118 34be 52d5 d23c 0b67 02be
00000070: 45a3 853e 4afd cabd 47a4 f23c 1a15 29bb
00000080: a858 83be 1636 39be 9e86 09be 55ef 4c3e
00000090: cacf 703e 9c9c 94be 6d04 03bd 2186 a73b
000000a0: 60ad a2be 3324 6c3e 4168 44bd dc48 0d3d
000000b0: 2ebf 44be 6655 d63c a351 e6bc bb57 9dbe
000000c0: 3b2c 8cbd 72f6 20be 0b82 553d 522e 0bbe
000000d0: 2b2f 22be 08a3 e33d d602 48bd 290f c3bd
000000e0: 5aee 15be d3ce 90be 4143 9f3c b2c2 bebe
000000f0: d1d2 193e 5dc7 69be 20e9 3e3e 9eef d5bd
00000100: fad0 aebe 3cee 813e 8181 4b3e 634a e6be
00000110: 7f8e 57be dc99 acbd ef8f e6bd e35e 95bd
00000120: 3f70 adbc f073 6e3c ed97 223d 291d dfbd
00000130: 1f1b d6be 7467 303e eb8b 1dbe 95a8 44be
00000140: 1339 18be 6669 47be ecf1 99be a350 44bb
00000150: cffc b1be 326c 85bd 83e3 40be 03f7 63bd
00000160: a2b4 c33d d6b7 9ebe c133 0dbe 2a69 3dbe
00000170: ab1b 8bbe 9036 ffbe 7ead c9be 4650 0c3e
00000180: 7515 17be e039 ec3e 668a 503d 8e97 a4be
00000190: 657c 89be 90a9 3abe c748 30be 1fde 95bc
000001a0: 8169 52be 412e c2bd 1c42 6abd b0ba e0bd
000001b0: 20d5 31bd 7789 b23c 6bcc a5bb 6a3a 083e
000001c0: 2cb6 1abe 5d39 53be eaf1 1fbe fe5a 683c
000001d0: 6d64 f13d 447b 0fbd d6e3 623e 538e 8abd
000001e0: a9a7 a2bd d68a a5be 21be d03c 003c b63d
000001f0: f77b 333e 19df 45be f76a 093e 7195 2e3e

fc2.weight f4 [128, 128]
-0.051209588 -0.23633766 -0.08577424 -0.0046142964 0.08562299 -0.0070754406 0.105102345 -0.08617598
0.04642548 -0.13237926 0.032687858 -0.062354326 -0.121339336 0.012783235 -0.048687026 -0.094595596
0.042231932 -0.20618299 -0.04131469 0.03346702 0.06924972 0.06683173 -0.13802855 0.08684543
0.17244257 -0.034299284 0.102596276 0.10142277 -0.0039743776 0.16994609 -0.029001398 -0.11389651
0.12548298 -0.013618768 0.014812833 -0.059874624 -0.011731504 -0.06014246 0.06591108 -0.11447102
-0.06365022 -0.062470146 0.03729037 0.04733228 -0.07944031 0.058162525 0.07812858 0.034179773
-0.027776798 -0.043252733 -0.042656988 -0.0800585 -0.09979834 0.13724613 -0.0018081103 0.0007613569
-0.089667335 0.058848966 0.048987336 -0.069369085 -0.058420792 0.039199658 -0.03902886 -0.0954323
-0.101570114 -0.008250265 -0.0138864685 0.048986487 -0.08632897 -0.024785023 0.112474486 -0.24021001
-0.09810479 -0.1430262 -0.19841906 -0.04827608 0.07194825 0.017356375 -0.058755547 -0.0549434
-0.04682606 -0.046926126 -0.08080062 -0.054042883 0.13464834 -0.15694034 -0.050843723 0.12300049
-0.053792 -0.12420841 -0.15970053 -0.22300085 0.03166956 0.088102125 -0.14997417 -0.06577177
-0.0543086 -0.049085133 -0.09922413 -0.17407064 -0.037078604 0.008813429 0.020303987 0.03422671
0.07883454 0.090530165 0.049373847 -0.16205493 0.1576608 0.10917045 -0.085299164 0.060708217
0.053595167 -0.08555142 -0.071322605 -0.1693325 0.031876266 -0.07751431 0.020164222 0.051565345
0.02366149 -0.06648134 -0.003750154 -0.014768713 -0.03620166 -0.049374178 -0.019839428 -0.043180376
-0.018291552 -0.19718872 -0.05125085 -0.00269695 0.055838488 0.06334625 -0.06691281 -0.13929863
-0.02566796 -0.08535082 -0.043606225 -0.006336121 0.03502129 -0.04332928 -0.034668528 -0.21735194
0.026580874 -0.2021584 -0.04838002 -0.02383136 -0.103894025 0.005236372 0.029681189 0.033069674
0.0928933 0.06385632 0.07636386 0.01492371 0.11333913 0.36284935 0.011011364 -0.017308857
-0.017362943 0.04504176 -0.0016386681 0.04399773 0.03668247 -0.0712098 0.038635667 -0.02379259
-0.085683815 0.051053263 -0.049761828 0.021733707 0.060055345 0.013793456 0.01977577 0.024751559
-0.03723482 -0.063238166 0.05367121 0.02602759 -0.06004944 -0.009325725 -0.07737511 0.042147964
0.0050975927 -0.00863699 -0.0056342194 -0.02684108 0.046985045 -0.058503244 -0.11095706 -0.06278582
-0.04295595 0.052449856 -0.029096931 0.07764647 0.013651697 -0.021949425 0.036985103 -0.09101907
-0.08152307 -0.12050849 -0.15781213 -0.07032423 0.06580128 0.051599946 0.024399625 -0.024001356
0.07050953 0.013357889 0.01928952 -0.06384532 0.033797726 -0.008373909 -0.07833338 -0.091981046
-0.005034026 0.01650162 0.031316094 0.07090822 0.037049804 0.09700597 -0.061955877 -0.030428475
-0.04607706 -0.04553923 -0.010554579 -0.11953471 -0.025940878 0.07617564 -0.06575161 -0.030392762
0.021967052 -0.097516835 0.11187289 -0.2497602 0.02670931 -0.046890736 -0.06688273 -0.05032366
0.032262355 0.06924274 -0.072088555 0.028893314 0.043937948 -0.12280274 -0.0064595304 0.006963287
-0.02267775 -0.030914588 -0.01981346 -0.03158471 -0.033127133 -0.0009362438 -0.040590618 -0.036679156
00000000: 25c1 51bd 8002 72be 68aa afbd 8633 97bb
00000010: 1b5b af3d 19d9 e7bb e63f d73d 087d b0bd
00000020: a528 3e3d 6e8e 07be b4e3 053d 4067 7fbd
00000030: c280 f8bd c670 513c 0c6c 47bd 56bb c1bd
00000040: 64fb 2c3d a221 53be 9839 29bd b714 093d
00000050: ccd2 8d3d 13df 883d 5b57 0dbe 04dc b13d
00000060: c994 303e 687d 0cbd ff1d d23d beb6 cf3d
00000070: 7f3b 82bb 5906 2e3e 5794 edbc 9342 e9bd
00000080: 9c7e 003e 4121 5fbc 86b1 723c 183f 75bd
00000090: 7f35 40bc f157 76bd 63fc 863d c86f eabd
000000a0: 0c5b 82bd b2e0 7fbd c9bd 183d 7edf 413d
000000b0: 9ab1 a2bd d43b 6e3d e001 a03d 1700 0c3d
000000c0: 2b8c e3bc c729 31bd 18b9 2ebd b6f5 a3bd
000000d0: 1263 ccbd 408a 0c3e 1dfe ecba cc95 473a
000000e0: 82a3 b7bd 9d0b 713d f2a6 483d 6111 8ebd
000000f0: a44a 6fbd d28f 203d badc 1fbd 0272 c3bd
00000100: fe03 d0bd 1f2c 07bc 1284 63bc 0ea6 483d
00000110: 3ecd b0bd f609 cbbc 0659 e63d 9df9 75be
00000120: 2aeb c8bd 7675 12be 5e2e 4bbe 24bd 45bd
00000130: 9b59 933d f52e 8e3c a8a9 70bd 550c 61bd
00000140: afcc 3fbd 9c35 40bd cc7a a5bd 125c 5dbd
00000150: 41e1 093e f8b4 20be 8241 50bd aee7 fb3d
00000160: 0055 5cbd fb60 febd 8988 23be 565a 64be
00000170: f1b7 013d e36e b43d d492 19be 5ab3 86bd
00000180: b272 5ebd 7e0d 49bd 0536 cbbd 933f 32be
00000190: bcdf 17bd 3366 103c 8c54 a63c 4f31 0c3d
000001a0: 0174 a13d e167 b93d 3b3c 4a3d baf1 25be
000001b0: d571 213e c294 df3d 54b1 aebd 2ea9 783d
000001c0: 9b86 5b3d 9535 afbd 9611 92bd 8065 2dbe
000001d0: b090 023d d3bf 9ebd 702f a53c 2f36 533d
000001e0: bed5 c13c 5e27 88bd 25c5 75bb 79f8 71bc
000001f0: 3148 14bd 943c 4abd 4c86 a2bc e8dd 30bd
00000200: 2ad8 95bc d7eb 49be 69ec 51bd 50bf 30bb
00000210: e6b6 643d aebb 813d 9509 89bd 4da4 0ebe
00000220: 9d45 d2bc 69cc aebd 719c 32bd 3c9f cfbb
00000230: 7c72 0f3d 0b7a 31bd 9600 0ebd 8291 5ebe
00000240: 22c0 d93c 9d02 4fbe 212a 46bd fc39 c3bc
00000250: 64c6 d4bd df95 ab3b f725 f33c 1174 073d
00000260: d83e be3d 1ac7 823d a864 9c3d 9482 743c
00000270: 591e e83d 64c7 b93e 0269 343c 4ecb 8dbc
00000280: bb3c 8ebc b57d 383d 94c8 d6ba f736 343d
00000290: 5c40 163d 72d6 91bd 6f40 1e3d ade8 c2bc
000002a0: ff7a afbd 3a1d 513d 0fd3 4bbd e30a b23c
000002b0: 98fc 753d f3fd 613c cc00 a23c c8c3 ca3c
000002c0: 8a83 18bd 0383 81bd 58d6 5b3d d037 d53c
000002d0: 67f6 75bd edca 18bc d776 9ebd 58a3 2c3d
000002e0: b509 a73b 2982 0dbc 429f b8bb d3e1 dbbc
000002f0: 6473 403d 19a1 6fbd 743d e3bd da95 80bd
00000300: 94f2 2fbd a9d5 563d b05c eebc 1d05 9f3d
00000310: 5eab 5f3c 48cf b3bc b17d 173d 3568 babd
00000320: 91f5 a6bd 28cd f6bd 8199 21be 2606 90bd
00000330: d2c2 863d 775a 533d b9e1 c73c 7e9e c4bc
00000340: 4d67 903d 0cdb 5a3c 0e05 9e3c 56c1 82bd
00000350: 7c6f 0a3d b832 09bc 406d a0bd 8f60 bcbd
00000360: 79f4 a4bb 682e 873c 4e45 003d 5438 913d
00000370: 89c1 173d 11ab c63d 72c5 7dbd 2345 f9bc
00000380: 4dbb 3cbd 5887 3abd 1ded 2cbc 9dce f4bd
00000390: f781 d4bc f901 9c3d c8a8 86bd 3efa f8bc
000003a0: 3ff4 b33c e8b6 c7bd 9d1d e53d 23c1 7fbe
000003b0: 7ccd da3c 8010 40bd d0f9 88bd 2f20 4ebd
000003c0: 8825 043d 23cf 8d3d 2aa3 93bd acb1 ec3c
000003d0: 47f8 333d 0180 fbbd 78aa d3bb 492c e43b
000003e0: b0c6 b9bc 9740 fdbc d64f a2bc f85e 01bd
000003f0: 51b0 07bd 426e 75ba 5942 26bd e23c 16bd

fc2.bias f4 [128]
-0.03897343 -0.082175754 -0.1125534 -0.06649406 -0.0063839294 -0.16339377 0.008488281 -0.13505746
-0.05363856 -0.06562762 -0.028731398 -0.18270482 -0.109277315 -0.17125756 -0.029462097 -0.09446887
-0.17049202 -0.09195313 -0.15326203 -0.062165122 -0.23129277 -0.05709351 -0.14316657 -0.16272417
-0.10561771 -0.083959036 -0.062441226 -0.18546583 -0.10222872 -0.050220817 -0.10391575 -0.016819099
-0.053115204 -0.16545343 -0.10921374 -0.103310496 -0.091981836 -0.030570045 -0.1680179 -0.13383383
-0.094313845 -0.1240214 -0.016903693 -0.10071514 -0.15764636 -0.039209284 -0.009829961 -0.14769143
-0.055767212 -0.10545714 0.020776834 -0.14529298 -0.16967253 -0.08368977 -0.09516622 -0.073086604
-0.07968596 -0.20303382 -0.09296085 -0.070205875 -0.08084784 -0.15526216 -0.05164905 -0.17720328
-0.16031319 -0.13464336 -0.08754976 -0.08672353 -0.07837312 -0.047656845 -0.15856114 -0.2209559
-0.12716107 -0.14737895 -0.06338686 -0.096606076 0.020653155 0.0049437564 -0.05159252 -0.14966483
-0.024955662 -0.04360044 -0.032310266 -0.002994337 -0.13109356 -0.13806282 -0.16904956 -0.06157799
-0.13713591 -0.040116563 -0.15205845 -0.24069245 -0.033566717 -0.12723315 -0.12683153 -0.02769759
-0.08819953 -0.15084651 -0.13600154 -0.031363912 -0.09924213 0.024597991 -0.13990776 -0.023045922
-0.13697006 -0.1615728 -0.075552225 -0.14855216 -0.19290692 -0.06618359 -0.026084812 -0.08376541
0.0011101254 0.025600892 -0.09635265 -0.16121638 -0.21664548 0.016467046 -0.06489449 -0.06617985
-0.06410975 -0.06058445 -0.09977027 -0.16652219 -0.12870088 -0.03653425 -0.12949784 -0.17020997
00000000: 9aa2 1fbd c34b a8bd 6682 e6bd 0a2e 88bd
00000010: 4830 d1bb b250 27be 6e12 0b3c 814c 0abe
00000020: 1bb4 5bbd c667 86bd 1c5e ebbc f916 3bbe
00000030: c9cc dfbd 245e 2fbe 7f5a f1bc e578 c1bd
00000040: 7695 2ebe ec51 bcbd b9f0 1cbe dba0 7ebd
00000050: 03d8 6cbe e2da 69bd 429a 12be 2aa1 26be
00000060: 194e d8bd b7f2 abbd 5fc2 7fbd c1ea 3dbe
00000070: 4b5d d1bd 58b4 4dbd c8d1 d4bd 35c8 89bc
00000080: 548f 59bd a06c 29be 74ab dfbd 7494 d3bd
00000090: f960 bcbd 086e fabc e20c 2cbe bc0b 09be
000000a0: 9e27 c1bd effe fdbd 9d79 8abc bd43 cebd
000000b0: 0c6e 21be ea99 20bd d80d 21bc 6c3c 17be
000000c0: 296c 64bd eaf9 d7bd 2e34 aa3c afc7 14be
000000d0: a3be 2dbe 8b65 abbd 82e6 c2bd 6eae 95bd
000000e0: 6532 a3bd 19e8 4fbe 4262 bebd 19c8 8fbd
000000f0: 8d93 a5bd 0bfd 1ebe f48d 53bd c774 35be
00000100: 2429 24be f3df 09be 4a4d b3bd 1b9c b1bd
00000110: 1682 a0bd d333 43bd da5d 22be 4342 62be
00000120: 8336 02be 82ea 16be f8d0 81bd 68d9 c5bd
00000130: ce30 a93c 3cff a13b ae52 53bd bd41 19be
00000140: d16f ccbc 6096 32bd c557 04bd a33c 44bb
00000150: 643d 06be 5760 0dbe 541b 2dbe 3439 7cbd
00000160: 5b6d 0cbe 4451 24bd 36b5 1bbe 1578 76be
00000170: 417d 09bd 6849 02be 20e0 01be 0ee6 e2bc
00000180: f5a1 b4bd 8277 1abe fd43 0bbe 7277 00bd
00000190: 753f cbbd ba81 c93c fb43 0fbe cdca bcbc
000001a0: e141 0cbe 5773 25be 20bb 9abd 0f1e 18be
000001b0: 6489 45be 438b 87bd d1af d5bc 338d abbd
000001c0: a181 913a f6b8 d13c 8a54 c5bd e815 25be
000001d0: 50d8 5dbe e6e5 863c 67e7 84bd 4d89 87bd
000001e0: f94b 83bd 6627 78bd 5b54 ccbd cb84 2abe
000001f0: 2aca 03be f0a4 15bd 159b 04be 864b 2ebe

fc3.weight f4 [1, 128]
-0.012352814 0.0084857885 -0.025039298 0.00044851252 -0.0015421486 0.014755929 -0.0005388494 0.014790809
0.018258056 0.013654585 0.010983306 0.0043067224 0.013188913 -0.0007344716 0.012005458 -0.0020779683
0.00026895915 -0.0027949624 -0.025710357 0.011740373 0.020866413 0.022210782 0.002358589 -0.0014974495
0.008184193 -0.016154055 0.0028248983 -0.019850124 0.030892981 -0.015864415 0.007437385 0.0025930107
0.002204979 -0.028560705 0.031324327 -0.0032030935 0.0025042293 0.010294134 0.0038450009 -0.0005531395
0.0005372144 -0.029064473 0.001573337 0.0026840565 -0.023724498 -0.02372751 -0.008181294 -0.0027928355
0.0011746559 0.00204501 -0.001994384 0.008343316 -0.009454427 -0.0007194052 0.0007676796 0.016624397
0.009560132 0.012595675 0.019821739 -0.011958925 -0.010051908 0.018908096 0.0030319002 0.017482715
0.0045222454 -0.0052711866 -0.005763291 0.021112423 0.022596665 0.0066761556 -0.0026548128 0.0047356817
0.009912422 -0.005709674 -0.0073990254 -0.0054047555 -0.008065263 -0.008947481 0.0074084187 -0.029065643
0.006570136 -0.020803835 -0.0009949032 -0.006064478 0.011316678 0.011427893 0.03541325 0.028336136
-0.0016954577 0.0029075223 -0.002202948 0.03020931 0.0014360885 -0.0012241447 0.0009160776 0.0093744425
-0.027449965 0.010029462 0.002588422 -0.0075814147 0.0028066784 -0.016257862 -0.0006740442 -0.00031695972
0.0089368215 -0.0017978973 0.021638613 0.046426177 0.017248744 -0.0002862753 -0.003652256 0.016760992
0.0037027048 0.0044581164 0.010777292 0.023056531 -0.0003841561 0.0058478275 0.004680443 -0.023198467
-0.002032861 0.00015520498 0.009522984 0.005757595 -0.004710285 -0.0064999326 0.0033567846 -0.0013596524
00000000: 7563 4abc fa07 0b3c 371f cdbc 5526 eb39
00000010: ec21 caba dac2 713c 9241 0dba 2655 723c
00000020: eb91 953c 7bb7 5f3c 53f3 333c 681f 8d3b
00000030: 5016 583c 8e89 40ba 8ab2 443c 862e 08bb
00000040: 1603 8d39 b02b 37bb 879e d2bc b25a 403c
00000050: 0af0 aa3c 63f3 b53c 8f92 1a3b 1146 c4ba
00000060: fe16 063c 8255 84bc ee21 393b ba9c a2bc
00000070: 4713 fd3c 17f6 81bc 4fb5 f33b 80ef 293b
00000080: 6981 103b 24f8 e9bc f04d 003d feea 51bb
00000090: ff1d 243b baa8 283c 69fc 7b3b 9000 11ba
000000a0: d9d3 0c3a 9e18 eebc 6e38 ce3a ffe6 2f3b
000000b0: e159 c2bc 3260 c2bc d60a 06bc 0108 37bb
000000c0: e9f6 993a 9305 063b 36b4 02bb 67b2 083c
000000d0: bee6 1abc 7796 3cba 1b3e 493a e32f 883c
000000e0: 1aa2 1c3c 175e 4e3c 3361 a23c 5eef 43bc
000000f0: c2b0 24bc 27e5 9a3c d8b2 463b e937 8f3c
00000100: 582f 943b ebb9 acbb fdd9 bcbb f6f3 ac3c
00000110: a41c b93c a7c3 da3b 5efc 2dbb c72d 9b3b
00000120: b667 223c 3818 bbbb 8673 f2bb 601a b1bb
00000130: 2a24 04bc 7598 12bc 52c2 f23b 121b eebc
00000140: 4c4a d73b ce6c aabc 6967 82ba 87b8 c6bb
00000150: 9669 393c 0f3c 3b3c 7c0d 113d 2f21 e83c
00000160: 1f3a deba 218c 3e3b 565f 10bb 8479 f73c
00000170: 223b bc3a 7b73 a0ba ed24 703a 4397 193c
00000180: c0de e0bc 9d52 243c 84a2 293b 846d f8bb
00000190: 40f0 373b 352f 85bc 57b2 30ba 9d2d a6b9
000001a0: bf6b 123c 6ca7 ebba 7643 b13c 6029 3e3d
000001b0: 3d4d 8d3c 3817 96b9 b05a 6fbb 594e 893c
000001c0: 14a9 723b 6415 923b 3d93 303c 0de1 bc3c
000001d0: 8f68 c9b9 229f bf3b 675e 993b b60a bebc
000001e0: c039 05bb 85be 2239 4a06 1c3c 35aa bc3b
000001f0: bc58 9abb 63fd d4bb 80fd 5b3b 5d36 b2ba

bn1.weight f4 [128]
0.48069635 -0.017166222 0.15522674 0.4160824 0.6861964 0.20290902 0.10555307 0.001362493
0.118978724 0.42875326 0.74908423 0.122749604 0.7377759 0.12974666 0.30002153 0.030143894
0.6175811 0.080041826 0.2661121 0.31059468 0.4610449 0.4892398 0.68997234 0.22857644
0.85872537 0.55300015 0.2987641 0.17645805 0.04272456 0.23051512 0.6679381 0.4437673
0.8274587 0.649906 0.18728206 0.6417777 0.7426658 0.8079027 0.3572403 0.44861516
0.10525201 0.6123773 0.0747305 0.78724617 0.66100764 0.42405945 0.28974277 0.10234837
0.4537515 1.1881167 0.4473602 0.3458765 0.2676272 0.53947276 0.65963924 0.8009168
0.50457734 0.2371816 0.5774268 0.6862272 0.13792895 0.27791983 0.18357326 0.36527246
0.7900794 0.5490156 0.7592999 0.055073615 0.52493554 0.23335613 0.82447326 0.39671272
0.3194653 0.23645209 0.15893276 0.3017373 0.10454377 0.5710552 0.246549 0.10892182
0.34219337 0.3687362 0.5853794 0.15715463 0.29259378 0.13193607 0.17823818 0.27238595
0.6580934 0.35272262 0.32505828 0.37299034 0.59815675 0.79640156 0.3950567 0.8337357
0.39057356 0.67113197 0.8601769 0.13870713 0.5772541 0.37794217 0.81476 0.35531515
0.107149355 0.8651169 0.16127847 0.015497243 -0.003036478 0.39639437 0.3841127 0.50554115
0.4760647 0.3442469 0.60629994 0.74231714 0.39350685 0.16634952 0.7467394 0.6687976
0.6706046 0.38042384 0.6100179 0.7884483 0.75951815 0.47936934 0.16509624 0.5349538
00000000: d51d f63e 2da0 8cbc c2f3 1e3e c108 d53e
00000010: 91aa 2f3f 62c7 4f3e 352c d83d ae95 b23a
00000020: 1eab f33d 8c85 db3e fcc3 3f3f 2564 fb3d
00000030: e2de 3c3f 4fdc 043e 6c9c 993e 54f0 f63c
00000040: cc19 1e3f f8ec a33d d83f 883e 4406 9f3e
00000050: 140e ec3e a47d fa3e 07a2 303f f10f 6a3e
00000060: 6dd5 5b3f 6b91 0d3f 9cf7 983e 6bb1 343e
00000070: f3ff 2e3d 280c 6c3e fefd 2a3f 7835 e33e
00000080: 55d4 533f 3d60 263f dec6 3f3e 8b4b 243f
00000090: 591f 3e3f b6d2 4e3f 33e8 b63e e3b0 e53e
000000a0: 5e8e d73d c2c4 1c3f 4e0c 993d f788 493f
000000b0: cc37 293f 521e d93e 2a59 943e 069c d13d
000000c0: 1e52 e83e 3514 983f 650c e53e b916 b13e
000000d0: 6f06 893e e31a 0a3f 1ede 283f e208 4d3f
000000e0: fb2b 013f bcdf 723e 3ed2 133f 96ac 2f3f
000000f0: 3f3d 0d3e 824b 8e3e a1fa 3b3e fe04 bb3e
00000100: a542 4a3f 498c 0c3f 7a61 423f df94 613d
00000110: 2d62 063f e9f4 6e3e ae10 533f ee1d cb3e
00000120: f590 a33e 7f20 723e 45bf 223e 507d 9a3e
00000130: 0b1b d63d ac30 123f 5777 7c3e 6712 df3d
00000140: f833 af3e feca bc3e 6ddb 153f 25ed 203e
00000150: dace 953e 401a 073e 1284 363e 2c76 8b3e
00000160: cf78 283f 0f98 b43e 0a6e a63e 97f8 be3e
00000170: cd20 193f f9e0 4b3f df44 ca3e b46f 553f
00000180: 42f9 c73e 4ecf 2b3f 8e34 5c3f 3e09 0e3e
00000190: edc6 133f a381 c13e 1d94 503f deeb b53e
000001a0: 1f71 db3d 4d78 5d3f 2f26 253e 26e8 7d3c
000001b0: a6ff 46bb 34f4 ca3e 6baa c43e 256b 013f
000001c0: c1be f33e 2141 b03e 7936 1b3f 7f08 3e3f
000001d0: bb79 c93e 8757 2a3e 502a 3f3f 5236 2b3f
000001e0: beac 2b3f eac6 c23e 222a 1c3f bfd7 493f
000001f0: c86f 423f e66f f53e fd0e 293e bbf2 083f

bn1.bias f4 [128]
0.07046168 0.32769212 0.15757091 0.13488294 -0.026419712 0.16129202 -0.07746426 0.20278107
0.11506187 0.19692786 0.11828099 0.1008132 -0.12382129 -0.034788705 0.31167626 0.30691257
-0.13196667 0.27588683 -0.06054709 -0.02702371 -0.0068232594 0.27180105 0.1631386 -0.0854976
-0.013432217 0.17690223 -0.12814975 0.020020232 -0.14526072 -0.09421011 0.02519289 0.17088139
0.041731253 -0.026255507 -0.12037749 0.37505898 -0.07865255 0.117461674 -0.15307751 -0.08006623
0.1349776 0.085245356 -0.15019256 0.019858444 0.17608896 -0.13280857 -0.044389643 -0.1291939
0.18567032 0.15024084 -0.057922695 -0.17617863 0.18662503 -0.03098369 -0.12785329 0.07157588
0.13294531 0.026009848 -0.042990375 0.28429088 0.068735436 0.16909823 0.11059659 0.16670895
0.09765951 0.21887086 0.20888078 -0.1538379 0.06266883 0.029591747 -0.006104433 0.15437435
0.16256373 0.21986674 0.33231854 -0.06777155 -0.14533642 -0.089193106 -0.09504725 -0.03525376
-0.09140549 0.15222606 0.2560354 0.20061266 -0.0021803277 0.13744353 0.15163162 -0.027484102
0.15520643 0.21457686 0.054118782 0.07885948 -0.076271676 -0.039594043 0.1683562 -0.0689866
0.18672493 -0.022895347 0.2006859 0.25706112 0.08178789 -0.09407554 0.25330666 -0.020817412
-0.010169039 0.0593249 -0.055946395 0.2577232 -0.15490772 -0.164174 0.27536106 -0.0761257
-0.08049828 0.14217888 0.120419756 0.22002459 0.15238442 0.17002432 0.16040063 -0.065268695
0.12525593 0.12058214 0.17057742 0.22007936 -0.11672999 0.13021018 -0.13326758 0.14433396
00000000: 374e 903d 43c7 a73e 455a 213e c11e 0a3e
00000010: 276e d8bc bc29 253e 95a5 9ebd d7a5 4f3e
00000020: 8fa5 eb3d 75a7 493e 4e3d f23d 2777 ce3d
00000030: 0496 fdbd 9a7e 0ebd 0894 9f3e a523 9d3e
00000040: 4522 07be 0a41 8d3e 3a00 78bd d460 ddbc
00000050: a695 dfbb 8229 8b3e ce0d 273e 5e19 afbd
00000060: cd12 5cbc dc25 353e b039 03be 7801 a43c
00000070: 3abf 14be 3bf1 c0bd 5261 ce3c 88fb 2e3e
00000080: 64ee 2a3d ca15 d7bc 7988 f6bd bb07 c03e
00000090: 9714 a1bd bf8f f03d 5ac0 1cbe c3f9 a3bd
000000a0: 9137 0a3e 1e95 ae3d 14cc 19be 2dae a23c
000000b0: aa50 343e f8fe 07be ead1 35bd 684b 04be
000000c0: 5c20 3e3e bcd8 193e 5940 6dbd 2c68 34be
000000d0: a21a 3f3e 82d1 fdbc f9eb 02be 6096 923d
000000e0: d122 083e 9b12 d53c ad16 30bd 938e 913e
000000f0: 2ac5 8c3d 1628 2d3e 7780 e23d c0b5 2a3e
00000100: b601 c83d af1f 603e d8e4 553e af87 1dbe
00000110: 8458 803d 646a f23c b207 c8bb 4f14 1e3e
00000120: 1b77 263e bf24 613e a825 aa3e cfcb 8abd
00000130: 12d3 14be e0aa b6bd 22a8 c2bd 3f66 10bd
00000140: cd32 bbbd 26e1 1b3e 1217 833e 686d 4d3e
00000150: d4e3 0ebb ffbd 0c3e 5245 1b3e 5726 e1bc
00000160: 6fee 1e3e 09ba 5b3e a8ab 5d3d 1481 a13d
00000170: 5334 9cbd 5d2d 22bd 9165 2c3e d948 8dbd
00000180: d234 3f3e 068f bbbc 9b80 4d3e 849d 833e
00000190: 6980 a73d adaa c0bd 69b1 813e 4789 aabc
000001a0: 0a9c 26bc abfe 723d 0c28 65bd 4cf4 833e
000001b0: 21a0 1ebe 3b1d 28be 20fc 8c3e cae7 9bbd
000001c0: 48dc a4bd 5797 113e a29e f63d 204e 613e
000001d0: a90a 1c3e db1a 2e3e 1040 243e 98ab 85bd
000001e0: 1743 003e c5f3 f63d d9ab 2e3e 7c5c 613e
000001f0: 2210 efbd d155 053e 4c77 08be 48cc 133e

bn1.running_mean f4 [128]
1.6563461 5.5885267 3.016946 0.5985237 3.4143255 0.21550074 0.085050665 3.5955167
3.5856414 2.1793911 2.2846036 3.0187023 0.8573311 0.82097775 1.4343008 0.65863436
2.541907 6.607545 2.0989964 2.7496362 2.0914936 4.291395 3.2630503 0.70289713
2.2929742 0.58936715 3.6182172 3.5060787 2.6452208 0.3222897 2.4989095 0.61836
1.4922904 1.1676937 1.4564158 3.9617846 3.5665712 1.9513135 4.222406 2.0216491
2.8832614 2.5857964 2.4850967 3.2649727 2.1526852 0.46292147 0.31986463 0.90026945
0.7486804 4.134885 2.9115899 2.244146 1.093936 2.3668127 2.6188734 0.61853105
1.8401207 0.67777663 3.1144276 3.435641 3.5580237 0.6649493 2.4998124 0.6121507
0.17851296 2.8248703 3.5984433 0.5776131 2.5578938 0.29174238 3.974328 1.6181883
2.439786 0.8299307 3.5573852 0.34120598 0.23436876 2.9461813 0.58823675 0.79949135
3.2787645 1.1009874 2.3978603 3.6202452 2.4307292 3.119235 3.5333865 2.4984019
1.6862268 1.7538335 0.3970089 1.6456171 1.3752478 1.0373005 2.0754426 1.9335604
1.5287483 2.5186431 2.796565 1.9447026 1.4362342 2.452383 4.8784933 2.3842685
1.5457428 1.8293556 0.7915135 1.4142654 1.5735893 1.7617816 4.1482635 2.3132157
5.46744 1.8712689 2.7926903 1.4116054 4.850488 3.0124876 3.3953054 3.7520013
2.5224824 0.3514912 3.065587 3.473199 3.0654645 0.22256523 3.165307 0.97682416
00000000: 2603 d43f 36d5 b240 a515 4140 d938 193f
00000010: 4f84 5a40 3aac 5c3e 0b2f ae3d f21c 6640
00000020: 267b 6540 257b 0b40 f236 1240 6b32 4140
00000030: 0d7a 5b3f 992b 523f 2b97 b73f 439c 283f
00000040: 9bae 2240 0271 d340 f555 0640 0afa 2f40
00000050: 08db 0540 1c53 8940 d1d5 5040 11f1 333f
00000060: 17c0 1240 c4e0 163f df90 6740 9863 6040
00000070: 4c4b 2940 2803 a53e 22ee 1f40 d74c 1e3f
00000080: 5f03 bf3f fd76 953f d56b ba3f e18d 7d40
00000090: b442 6440 a4c4 f93f f31d 8740 b362 0140
000000a0: 5b87 3840 b07d 2540 d30b 1f40 50f5 5040
000000b0: 98c5 0940 0b04 ed3e 4cc5 a33e 0f78 663f
000000c0: 85a9 3f3f fa50 8440 7d57 3a40 17a0 0f40
000000d0: 1806 8c3f dc79 1740 9f9b 2740 0d58 1e3f
000000e0: 1389 eb3f c582 2d3f c852 4740 8be1 5b40
000000f0: a9b6 6340 1e3a 2a3f edfc 1f40 e9b5 1c3f
00000100: 1acc 363e adca 3440 e54c 6640 74de 133f
00000110: 88b4 2340 425f 953e 645b 7e40 cb20 cf3f
00000120: 7425 1c40 5776 543f 33ac 6340 8db2 ae3e
00000130: 5dfe 6f3e 3c8e 3c40 af96 163f 77ab 4c3f
00000140: 47d7 5140 28ed 8c3f 8b76 1940 19b2 6740
00000150: 1191 1b40 8ca1 4740 0123 6240 d1e5 1f40
00000160: 48d6 d73f 9e7d e03f c044 cb3e 95a3 d23f
00000170: 1f08 b03f 43c6 843f 0dd4 0440 e87e f73f
00000180: 06ae c33f 7331 2140 ecfa 3240 04ec f83f
00000190: 86d6 b73f d8f3 1c40 9e1c 9c40 db97 1840
000001a0: e6da c53f 5328 ea3f a1a0 4a3f a606 b53f
000001b0: 606b c93f 0f82 e13f 93be 8440 ba0b 1440
000001c0: 45f5 ae40 bd85 ef3f 70bb 3240 7caf b43f
000001d0: 3337 9b40 99cc 4040 af4c 5940 ca20 7040
000001e0: 5a70 2140 a8f6 b33e 9432 4440 e448 5e40
000001f0: 9230 4440 24e8 633e 6494 4a40 2611 7a3f

bn1.running_var f4 [128]
6.5638146 47.609955 23.33335 2.426756 17.877504 0.812926 0.22957933 16.211908
13.941103 9.934285 14.361814 15.963716 3.9780846 4.021807 8.622138 2.4898238
13.270769 116.10135 11.464656 17.326578 10.734665 23.94659 13.029987 2.8376098
8.686099 2.3787477 9.443551 15.1803665 11.054274 1.0305868 14.494715 2.8059115
10.122038 7.009803 8.680954 24.497871 11.160646 10.058085 6.6710706 8.962359
16.94423 7.0243616 17.237902 12.136384 13.619478 1.8728323 1.4412016 3.8038568
2.9651072 20.52828 12.704246 12.592614 4.755861 14.592273 13.742803 2.0571404
11.460141 3.0597074 14.7835045 29.404613 15.675222 3.2039857 9.084805 2.4461112
0.37619925 18.397606 22.3117 3.382827 15.31863 1.2088743 7.4138412 8.484415
13.679482 3.7630928 33.76562 1.7033181 0.8642215 12.237708 2.6145155 4.077848
17.44413 6.060457 11.095473 26.663122 6.332507 13.525224 11.5536785 7.0792227
5.7550154 10.419857 1.6443616 10.172872 6.941577 4.5220914 12.581873 10.324368
8.332202 9.580687 3.4613104 14.624287 7.7735476 10.513775 28.096945 10.495184
9.081336 9.10592 2.5021996 7.042161 5.5667787 10.151667 15.881147 10.89835
35.264214 9.086313 16.907852 7.5060596 23.169577 13.783787 20.328222 14.840814
9.769173 1.4116763 12.368201 16.154984 14.709273 0.8111624 14.523764 5.407326
00000000: c50a d240 9870 3e42 b3aa ba41 f84f 1b40
00000010: 2105 8f41 eb1b 503f d816 6b3e fdb1 8141
00000020: c20e 5f41 d5f2 1e41 fdc9 6541 616b 7f41
00000030: f098 7e40 a5b2 8040 47f4 0941 4659 1f40
00000040: 1255 5441 e433 e842 3b6f 3741 d59c 8a41
00000050: 30c1 2b41 9e92 bf41 d47a 5041 669b 3540
00000060: 43fa 0a41 673d 1840 c918 1741 c8e2 7241
00000070: 4ede 3041 45ea 833f 5aea 6741 0e94 3340
00000080: def3 2141 4e50 e040 30e5 0a41 a4fb c341
00000090: 0292 3241 ebed 2041 6979 d540 d365 0f41
000000a0: c88d 8741 92c7 e040 39e7 8941 a12e 4241
000000b0: 62e9 5941 f8b8 ef3f 4b79 b83f 6472 7340
000000c0: 51c4 3d40 eb39 a441 9744 4b41 597b 4941
000000d0: 0330 9840 f379 6941 85e2 5b41 30a8 0340
000000e0: bd5c 3741 3fd2 4340 3c89 6c41 a63c eb41
000000f0: b6cd 7a41 1a0e 4d40 5c5b 1141 168d 1c40
00000100: 309d c03e 4c2e 9341 5d7e b241 3d80 5840
00000110: 1c19 7541 65bc 9a3f 303e ed40 2ac0 0741
00000120: 29df 5a41 83d6 7040 ff0f 0742 5406 da3f
00000130: 9f3d 5d3f a7cd 4341 3954 2740 bb7d 8240
00000140: 948d 8b41 44ef c140 0f87 3141 134e d541
00000150: e6a3 ca40 5167 5841 dedb 3841 fe88 e240
00000160: 1629 b840 bcb7 2641 717a d23f 15c4 2241
00000170: 6621 de40 f9b4 9040 5a4f 4941 9c30 2541
00000180: b350 0541 7e4a 1941 1c86 5d40 14fd 6941
00000190: e7c0 f840 6c38 2841 8bc6 e041 46ec 2741
000001a0: 274d 1141 d9b1 1141 0a24 2040 6259 e140
000001b0: 0d23 b240 3a6d 2241 2e19 7e41 a45f 2e41
000001c0: 8e0e 0d42 8a61 1141 4843 8741 a431 f040
000001d0: 4b5b b941 648a 5c41 33a0 a241 f973 6d41
000001e0: 884e 1c41 cfb1 b43f 27e4 4541 683d 8141
000001f0: 2f59 6b41 57a8 4f3f 5661 6841 d108 ad40
