end_weight_Critic_2.pth (torch_old, 81387 bytes, 5 tensors)

fcs1.weight f4 [128, 24]
00000000: 6e79 373e 7144 713c 89dd f5bd 4f4a 193e
00000010: bb10 4f3d efe8 173d b5e7 1cbe c97d 913e
00000020: d0a6 ad3d 5350 8abd c090 eabd 972a d4bd
00000030: e895 403e e398 4a3e 3772 0f3b 4168 99bd
00000040: 32f1 3c3e 5fb2 5f3d 6c60 223d eef3 54bd
00000050: 67f7 e93d 1451 b63d a09a 413d c5f6 95bd
00000060: 80da e43c 9a19 413f 06b1 1d3d 7a69 913d
00000070: 9004 babd ef61 103e f774 083e a930 3e3e
00000080: 4a78 21be 1af9 093f 7a05 913d 0f2e 03bd
00000090: 9f85 f83c cb06 3e3d 1aa0 5cbc 5406 25bd
000000a0: cfe1 0ebd f646 1e3f 1392 c93d f93f b3bd
000000b0: f985 8ebc 399c 093e 2f6e b93d cdd2 ddbd
000000c0: d3fc 2f3d 2362 41be 7462 d5bd e739 1d3b
000000d0: 29bb 123e b1c1 4ebd 4997 73bd 6f00 91bb
000000e0: f61f 83bd f3fa 3cbe c8f9 febc ffc3 b63d
000000f0: 2f56 9dbd d27f 853e 6e2b 8abd 8df3 973c
00000100: 435f cfbd cdb9 a7bc f67c 203e 9d09 213e
00000110: 358d 80be 7ceb 42be 37d9 fa3d e94c ddbb
00000120: 429b 2c3e c0cd 453e 40ac 87bd e685 ed3c
00000130: 40e1 593e a7af 55be d085 a7bd f073 57bd
00000140: 3ac7 e3bd 84ba 503d 902c 16bd f2c9 05bc
00000150: e992 bebc 5fef 42bd 64f5 ec3c 48fb a7bd
00000160: 9ea8 80bd d85d ccbd 1390 903d 5753 5e3e
00000170: 29bb b5be 63ad 3b3d f92e ad3d 4d31 763e
00000180: 6476 b53d bc3a 2cbe e400 273d 21a4 96bd
00000190: b59c 833d 090f c2be f63d 8c3c 69aa 22bd
000001a0: 84f4 74bc 7663 0abe 4291 f53d e82c 193d
000001b0: 993f 2c3c 8a25 11be b708 5c3d 23cc fe3c
000001c0: 6f52 fa3d 1a14 9ebd 1d6d 993d 8fbd fc3d
000001d0: fe6c 913e b143 d3be 47bf 8f3d 72f4 833d
000001e0: c70f 65bd 7a7b 46bd 43b5 063c a887 523c
000001f0: a8c3 85bc d382 803e 6d46 953d 9a47 6f3d
00000200: 6122 3b3d 412d 4e3d 9ead 72bd 1784 40bd
00000210: 7737 d3bd 912e ff3e b6e6 1e3d 0772 303d
00000220: 293f 113d f927 4bbd ff1a 183d fc55 7fbd
00000230: 9f13 9d3d 6de2 0dbf 6174 183e 9cdb f3bb
00000240: b2a4 ff3d 25ff 0ebd ef20 f9bd 52a1 0c3d
00000250: 7938 98bc d95b 203c 7805 debc 6e15 5dbd
00000260: 3a37 7f3e 1827 eb3c 5671 7fbb 96bb 253d
00000270: 3fbe 3abe 3987 3bbc 6d2e de3c de7f 43bd
00000280: f90c 653e 33cc 913d ce06 103d 3369 843c
00000290: a5ef c3be 9e5e 08bc dc52 c63d 9415 ec3c
000002a0: ee64 343c 4208 db3d 2973 8fbc 36d4 d33d
000002b0: 0887 af3d 0120 713e 4141 dfbd 6960 95bc
000002c0: f09e 903d e66c b93c 1522 31bd 3c7e 793b
000002d0: d7cf 0f3e ee9a 2b3f f2c8 07bd 3a43 d9bc
000002e0: ffa5 fe3d 9b2f fd3d c768 71bd feaa a33d
000002f0: 2285 783c 03e5 dbbe 5423 01bd fbb8 613c
00000300: 81ae 683c a293 64bd 191c dfbd 5a15 933c
00000310: b646 db3c ff87 f1bd 46ce 4a3b 44c9 543c
00000320: 0ddc b2bd c47a 11be 04b3 e0bd c429 733d
00000330: 2ac5 6b3e 4023 87be 4418 f6bd 561e db3c
00000340: 4a08 aa3c e15a ddba a76d f03d 5a0d 9dbd
00000350: fb26 fdbd 11f4 ed3d b14d 923d 5c94 9bbc
00000360: eb10 0e3e 001c be3d 0777 d23b 06b6 18be
00000370: e0a3 8c3d d460 afbc f241 0abe 8c01 eabd
00000380: 31e9 b53e 88ac da3d 2412 cabb c618 85bd
00000390: 0744 38be d0ba 5a3b 12ab 533d a2c2 f9bc
000003a0: b9d7 5e3e 0803 ed3d 9ffa 17be 3a5c 4d3e
000003b0: 742e 90be 9f44 1c3e b98a 0dbe d42b cb3d
000003c0: 591f 773d 495a 0fbd 12cf 0bbe e84a 29bd
000003d0: 7864 13bd f931 cc3d e271 40be f434 2fbc
000003e0: a7dc 693c ea9c 123c 0734 1c3c a3b8 a03d
000003f0: 3a1d ba3d fd71 f3bc 0c36 c2bd be44 9bbb
0.17917415 0.01472579 -0.12005145 0.14969753 0.050553065 0.037087377 -0.15322764 0.2841628
0.084790826 -0.06753602 -0.1145339 -0.10359686 0.18807185 0.19784884 0.0021888146 -0.07490588
0.18451384 0.054613467 0.039642736 -0.051990442 0.114241414 0.08902183 0.047266603 -0.07322458
0.02793622 0.7542969 0.0384989 0.07100196 -0.090829015 0.14099859 0.13325869 0.1857325
-0.15768543 0.53895724 0.07081123 -0.032026347 0.030337153 0.046393197 -0.013465906 -0.040289238
-0.034883317 0.6182703 0.098423146 -0.08752436 -0.017397868 0.134385 0.09054219 -0.10831223
0.04296572 -0.18885092 -0.10419169 0.0023990811 0.14329208 -0.050477687 -0.05947045 -0.0044251005
-0.064025804 -0.18455105 -0.031124964 0.08924102 -0.07682454 0.26074082 -0.06746565 0.018548751
-0.101255916 -0.020474339 0.15672669 0.15726323 -0.25107732 -0.19035143 0.12248462 -0.006753553
0.16856101 0.19316769 -0.06624651 0.028994512 0.21277332 -0.20867787 -0.081798196 -0.0526008
-0.11121984 0.050959125 -0.03666359 -0.008165823 -0.023263412 -0.047591563 0.028925605 -0.08202225
-0.06282161 -0.09978837 0.0705873 0.21711479 -0.35494354 0.04581965 0.08456225 0.24042244
0.08860472 -0.1681928 0.040772334 -0.07355524 0.06426374 -0.37902096 0.017119389 -0.039713297
-0.014950875 -0.13514504 0.11990596 0.03739634 0.01051321 -0.14174476 0.05371925 0.0311032
0.12222754 -0.07718678 0.07491515 0.12340843 0.28403467 -0.41262582 0.07018905 0.064431086
-0.05592325 -0.0484576 0.008221927 0.012849726 -0.016328648 0.2509981 0.07288823 0.058417894
0.045687083 0.050336126 -0.059247606 -0.04700097 -0.103133135 0.49840215 0.03879424 0.043077495
0.035460625 -0.049598668 0.03713512 -0.06233786 0.07669758 -0.55423623 0.14888145 -0.007441951
0.12482585 -0.034911294 -0.12164485 0.034333535 -0.018581616 0.009787523 -0.027102217 -0.053975515
0.24923411 0.028705165 -0.0038977466 0.0404621 -0.18236636 -0.011445814 0.027121747 -0.047729366
0.2236823 0.07119026 0.03516274 0.016163444 -0.38268772 -0.00832334 0.09683773 0.028818883
0.011010392 0.106949344 -0.017510967 0.103432104 0.08570677 0.23547365 -0.10901118 -0.018234449
0.07061565 0.022634935 -0.043245394 0.0038069626 0.14044128 0.6703328 -0.03315062 -0.026521314
0.12434005 0.12362596 -0.058937814 0.079915985 0.01516846 -0.4294816 -0.031527832 0.013777013
0.014201761 -0.055804856 -0.10894031 0.017954517 0.026767116 -0.11793517 0.0030945702 0.012987439
-0.087333776 -0.14206988 -0.109716445 0.059366003 0.23024431 -0.2639408 -0.12016347 0.026747864
0.020755906 -0.0016888046 0.117396645 -0.07668562 -0.123609506 0.116188176 0.07143725 -0.018991642
0.13873641 0.09282684 0.0064228806 -0.14913186 0.06867194 -0.021408476 -0.13501719 -0.11426076
0.35529473 0.10677439 -0.0061667133 -0.06498866 -0.179947 0.003337551 0.051676817 -0.030488316
0.21761979 0.11572844 -0.14841698 0.20054713 -0.2816044 0.15260552 -0.1382245 0.09920469
0.06033263 -0.034998212 -0.1365321 -0.0413312 -0.035984486 0.09970469 -0.18793443 -0.010693777
0.014273799 0.008948544 0.009533889 0.07847717 0.09087606 -0.02971744 -0.09482965 -0.0047384193

fcs1.bias f4 [128]
00000000: c8be 543d 5cc5 3a3e 7109 f8bd a582 babd
00000010: 7a2a 5bbe 1efc dcbd 7755 37be 937d 4fbe
00000020: 0ad6 263e 2b7d 063e c1cb b73d d529 643e
00000030: d85e 26be 1c2c b83e 186f 063e 4895 e8bd
00000040: 3317 7abe cc6d 9a3e 133f 233d 59ad 743e
00000050: ed75 d73d 292c a23e 5696 eebe 1e84 a33d
00000060: 5a94 15bf ce2e 57be 8770 1fbe 902d 573e
00000070: becb 9ebe b61d 37be d32b a23d 043f 9abe
00000080: 1d04 f8bc 0608 04be 5ac5 aebe 9491 813d
00000090: 54b3 03bd 3f23 563e 8bf6 ddbe 9ae8 8bbe
000000a0: 5874 f5bc ddd0 bebe a0ab d13e 5fb8 cbbe
000000b0: 01e8 a5be cc5a 693a 56eb 0d3e 9710 9fbe
000000c0: ec16 dc3d 0f2e 04bf 3070 0c3e 0d98 2f3d
000000d0: 44e2 88bd e512 43be c9df 85bd 4946 4fbe
000000e0: e815 a73e a0ea 9b3c 7cae c3be e3b6 adbc
000000f0: c0fa 0a3e 99ed e7be c51e 2d3e 0410 c43e
00000100: 9a95 603e c4eb b5bd 101a 4bbe 8ca8 eebd
00000110: 278b dabd 9e0d 043e f74b 803e 5b89 593e
00000120: 9c90 09be e01e efbd 4ce5 79be 95c5 213d
00000130: 375a 94be 6bd4 37be fc5d 81be 2999 79bd
00000140: 1809 75be 3729 d1be 5e6b 43bc 59b5 9bbe
00000150: 1c03 453d b9a0 2e3d d3cb fdbe cb15 ddbe
00000160: 0efd 20be 7112 3abe de85 b73c 0458 45be
00000170: bbde 4ebe 6418 693e cf9c 033e de99 033e
00000180: 3af0 8fbe 4a4c 493e d511 19be 715d 91bc
00000190: 48f6 5cbe 9b8a 12bd b000 613e 3be1 45be
000001a0: 04ae dbbd a6cf 813d f9f5 323d cafe 79be
000001b0: 1b2f 7c3c e239 2d3d 61a4 0ebe 876d 23be
000001c0: fdd2 cebd 8f17 1e3e d391 f2be 1b10 c13d
000001d0: 9692 e8bc 74c4 3abb 1446 623e 9448 5d3d
000001e0: 26d6 26bc cd1a cf3e 9d0b eb3c 7cc7 483e
000001f0: b2d1 953d b1c9 ccbc f6e9 913e 8ee7 42bd
0.051939756 0.18239349 -0.12111176 -0.0910695 -0.21402922 -0.10790275 -0.17903696 -0.20262747
0.16292587 0.13133685 0.0897441 0.22281583 -0.16247118 0.35971153 0.13128316 -0.11356598
-0.24422912 0.30161893 0.039855074 0.23894252 0.105205394 0.31674317 -0.46599072 0.07984184
-0.5842949 -0.21013948 -0.1557027 0.21013474 -0.31014818 -0.17882428 0.07918515 -0.30126202
-0.030275399 -0.12893686 -0.34134942 0.06326595 -0.032153443 0.20911883 -0.4335216 -0.27325898
-0.029962704 -0.37268725 0.40951252 -0.397891 -0.32403567 0.00089017744 0.13859305 -0.31067345
0.107465595 -0.5163278 0.13714671 0.042869616 -0.06683782 -0.19050176 -0.06536824 -0.20241655
0.326339 0.019032776 -0.3821906 -0.021205371 0.13572216 -0.4529846 0.16906269 0.3829347
0.21932068 -0.08882859 -0.19834161 -0.116532415 -0.106710725 0.1289582 0.25057957 0.21243803
-0.1343407 -0.11675811 -0.24403876 0.03949507 -0.28975078 -0.17952125 -0.25267017 -0.06093708
-0.2392925 -0.40851757 -0.011927454 -0.30411795 0.04809867 0.042633746 -0.49569568 -0.4318069
-0.15721533 -0.18171097 0.0224027 -0.19271857 -0.20202152 0.2276321 0.12852786 0.12851664
-0.28112966 0.19658008 -0.14948209 -0.017744752 -0.21578324 -0.035776716 0.21972919 -0.193242
-0.1072655 0.06338434 0.04369161 -0.244136 0.01539209 0.04229153 -0.13929893 -0.1595975
-0.100988366 0.15438674 -0.4737688 0.094269 -0.02839021 -0.0028498443 0.22097045 0.054024294
-0.010182893 0.40450135 0.028692061 0.19607347 0.07315387 -0.024998518 0.2849881 -0.04758411

fc2.weight f4 [128, 130]
00000000: 7e4f b93c 5850 203e f489 033e 7d17 00bf
00000010: 5824 b2bd c094 e73c c297 2cc0 dc92 6dbe
00000020: e642 ab3d bd5d 2dbd afd5 263e e1f9 913d
00000030: 15c8 6cbd 816d 6a3d b34e 393d ce0b 2ebe
00000040: 3434 5abf 57f4 aa3e a725 b93d 3a59 d93e
00000050: f94b 673b 80b5 263e b174 01c0 80b2 513d
00000060: 6ba3 d9be 71bf a3bf d3c7 48bd 9555 51be
00000070: 96e8 aebe e46d f1bd 4f4a 38be e25f 2cc1
00000080: 747b 373e 3dec 16be 429f 06c1 a609 ad3e
00000090: c7b7 11bf 1193 d53e 2568 c3be c61a 56be
000000a0: d57d 833d f08b 50bf 4cb8 25bf 0df5 73bf
000000b0: 6951 c0be 60c0 203e ea47 84be 296b febd
000000c0: 5d35 6f3d f574 e4bd 78a3 313e a679 4c3d
000000d0: 5d43 83b9 f1a8 733e af4f 01bf 4d2e 75be
000000e0: 3d15 c93b 7249 d83d bde1 1cbd 368e 92be
000000f0: dffe 773d b997 d4be b406 833e c539 283e
00000100: 46ef 34bd d506 4c3d 47ba b03d 78b0 9fbe
00000110: 6960 003e ea31 47bf 8a31 f73d bfec 9dbd
00000120: 8d9c b0bd 6887 8c3d df51 f33d 3e5b ad3c
00000130: 2d3a fbbe 7f72 66bc fb75 3fbc 3585 9a3d
00000140: f6a0 80c0 ba87 a8be 7d14 653e 6770 17be
00000150: f213 23be 75e4 e9bc ac73 38be 82c4 423e
00000160: 0fa7 c3be 17de c3bc 85a3 06bd 83ca 01be
00000170: 6813 053e aab5 163e 839b 383e 1b9a a43e
00000180: ca76 03bd 86a9 0e3c 500c 20bd da3e 86be
00000190: cdc3 66bd 0742 9cbb 747a 9a3d fc0b 49bf
000001a0: 9a44 f9bd c8b8 753d aaab 8abd 8c58 40be
000001b0: 0ed0 563d 7286 98bf 604a 083e 5538 39bc
000001c0: 9648 973d 3419 3c3e f945 3a3e 32cc 373e
000001d0: d1e6 5fbd 3aca e03d b1eb fbbd 5a36 e3bd
000001e0: ed53 e23b 3b70 ed3d 8f63 8ebd d00f 2dbe
000001f0: 697a f9bd d36a 39bc a4d4 50be 5834 39bd
00000200: 660e 84bf 8c03 8c3d 16f0 2abe 5ccc 713c
00000210: 09ac 533d bdbf a43e 0183 e63d 931d 31be
00000220: d037 11bf 50f3 f3bc d7fa 81bc 6cf3 9dbe
00000230: 9288 34bc eaae 2dbe cf95 9cbd 5510 4b3e
00000240: 4793 89bc f625 f53d 9db2 76bd 2e8b 41bc
00000250: 2e69 193e fdef 2cbe a94e 4cbe 3ec3 c93d
00000260: 3525 b93e 9d8e 01bd 515f cb3e d79a 9abf
00000270: 13ec 70bd a396 8d3d 3c65 e9bf 1b34 063e
00000280: 549b 213c b4ac 0dc0 ece3 0d3e e810 0bbd
00000290: d9d3 c7be 5afe 78be fdfb 323d 19c9 cbbe
000002a0: 7f84 b83b c23f 573e ec75 c6bd fea3 b13e
000002b0: 3704 2b3e 8f19 863e f5e3 333e e48d 0cbe
000002c0: 3b93 d5bf 3647 b8bd fa41 d2bd f77c 2b3e
000002d0: e71b 89bf aada a2bd 2f3c b9be 9e63 d6bd
000002e0: e966 cf3d 75c7 4a3e b1f5 a53d 80be aa3d
000002f0: 7a38 4abe d0ff 203e f667 57be 1058 a33e
00000300: aeff bcbe ec07 32be e564 bcba 2174 ccbe
00000310: 1790 98bc 35bf c43d 1e17 b23d ef30 d2be
00000320: 22c8 0bba a7ed 51be c474 22bf fb63 d8bd
00000330: 4b16 b8bf 52d0 19bf c59d 9dbe 633d 3f3e
00000340: 5336 603d 853d 743c 6376 8fbf 5701 4e3d
00000350: 6168 033d c683 b23e 4b19 b03e 91d9 283d
00000360: 6b71 343c 6b70 403e 07f6 1d3d 09b4 c83d
00000370: 8ef1 94bd f22f 723e 563e 8e3d 4cc2 823d
00000380: 277f abbe 1ea8 8bbe 46aa 80be 6942 08bd
00000390: ac05 ddbe 25a0 84be f35e 573e 9309 653d
000003a0: 4478 c5bd 804f 27c0 04be d13d 63be efbd
000003b0: 0c28 18bf 0c5a e73d f732 b8bd abb6 63bc
000003c0: 5643 3bbf 90e7 913d a4b4 e7bd f3fd 40bd
000003d0: 435b f73d 0cdc be3d 6b4e c93c 8588 f03e
000003e0: c18d 61be 2fd4 a5bd 4fec acb8 95c0 0cbf
000003f0: f9b8 2cbd 7047 c8bd ae57 12bb 1824 b8be
0.022620913 0.15655649 0.12845594 -0.5003584 -0.08698338 0.028269172 -2.6967626 -0.23200554
0.08362369 -0.042325724 0.16292451 0.07127739 -0.057808 0.057233337 0.04524107 -0.1699669
-0.85235906 0.33389542 0.09040385 0.42450887 0.0035293086 0.16280174 -2.0227473 0.05119562
-0.4250749 -1.2792798 -0.049018692 -0.20442803 -0.34161824 -0.11788538 -0.17997096 -10.773409
0.17918187 -0.14738555 -8.413881 0.33796424 -0.56921047 0.41713765 -0.38165393 -0.20908651
0.06420485 -0.8146353 -0.6473434 -0.9529579 -0.3756211 0.15698385 -0.25836116 -0.12422783
0.0584005 -0.1115512 0.17347515 0.0499207 -0.00025036457 0.23794915 -0.5051221 -0.23943444
0.006136565 0.105608836 -0.03830122 -0.28624123 0.0605458 -0.41522005 0.25591052 0.16428287
-0.0441735 0.049811203 0.086292796 -0.31189322 0.12536778 -0.7781054 0.12069996 -0.07711171
-0.0862361 0.06861764 0.1188085 0.021161672 -0.49067822 -0.014065384 -0.011685844 0.075449385
-4.0196486 -0.3291605 0.22371097 -0.14788972 -0.15925577 -0.02855132 -0.18012875 0.19020274
-0.38213393 -0.023909612 -0.032870788 -0.12674908 0.12995684 0.14717737 0.18028073 0.32148823
-0.032095708 0.00870741 -0.039074242 -0.26219827 -0.056339074 -0.0047686133 0.07542887 -0.7853391
-0.12171288 0.059990674 -0.067710236 -0.18783778 0.05244451 -1.191603 0.13309622 -0.0113049345
0.073868915 0.18368989 0.18190755 0.17948988 -0.054663483 0.10976072 -0.12300814 -0.11094351
0.0069069774 0.11593672 -0.06952583 -0.16900563 -0.12181551 -0.011316973 -0.20393616 -0.045215935
-1.0316894 0.06836614 -0.16693148 0.014758196 0.051677737 0.32177535 0.11255456 -0.17296438
-0.5672579 -0.029779106 -0.01586668 -0.3084978 -0.011018889 -0.16961256 -0.07645761 0.19830449
-0.01679386 0.11970131 -0.060228933 -0.011812968 0.14981529 -0.16888423 -0.19951881 0.098516926
0.361612 -0.031630147 0.39721158 -1.2078503 -0.058818888 0.06913497 -1.8234019 0.13105814
0.009863693 -2.213666 0.13856477 -0.03395167 -0.39028814 -0.24315777 0.043697346 -0.39801863
0.005631029 0.21020415 -0.096904606 0.3469543 0.16700827 0.26191375 0.17567427 -0.13726002
-1.6685556 -0.089979574 -0.1026649 0.16746889 -1.071164 -0.07951863 -0.3617873 -0.10468219
0.101270504 0.1980265 0.081035025 0.08337116 -0.19748107 0.15722585 -0.21035752 0.31903124
-0.36913818 -0.17385834 -0.0014373331 -0.3993235 -0.018623395 0.09606782 0.086958155 -0.41052958
-0.00053322513 -0.20500813 -0.6345942 -0.10565945 -1.4381803 -0.60083497 -0.3078443 0.18675761
0.054739308 0.0149072455 -1.1208004 0.050294247 0.032081965 0.3486616 0.34394297 0.041223112
0.011013369 0.18792884 0.038564708 0.09799964 -0.072726354 0.23651102 0.069454834 0.063847154
-0.33495447 -0.272767 -0.25129908 -0.03326646 -0.4316839 -0.2590343 0.21032314 0.055917334
-0.096420795 -2.6142273 0.10241321 -0.11706235 -0.59436107 0.11296472 -0.08994096 -0.013898532
-0.7314962 0.07124245 -0.11313751 -0.047117185 0.12077954 0.09319314 0.024573525 0.46979156
-0.22026731 -0.080971114 -8.245615e-05 -0.54981357 -0.04216859 -0.097792506 -0.0022330093 -0.35965037

fc2.bias f4 [128]
00000000: ed81 7c3e 40ba 47be 6832 c83d 37c0 cfbd
00000010: 0331 de3c 577a 063e 3181 9ebe 52c7 4b3e
00000020: 0327 52be 78a4 88bc 43a6 213d cb0e 483e
00000030: e30b 103e 1c09 cfbd 8416 193e 1526 9dbd
00000040: 5550 243e 6aaf 6d3d eb39 293e 9c71 08bd
00000050: 043c 89be f8c6 72bd bed9 5e3d dbf1 2f3e
00000060: 0da4 cd3d 998c 97bc 8cab cabc 3785 9abd
00000070: cd1a 043e c8ae 823c 8a1a adbd a4a2 82be
00000080: 664a 033d abed 793e cf6d 063c 9f03 033e
00000090: 8b7f 9cbd d77f 2e3e 13df b1be b4df a2bd
000000a0: dcb5 a73d ee3c a63d ed9d 37bd 74da ebbc
000000b0: 5b77 26bc 7619 17be d733 a33c 62a8 923d
000000c0: 50a7 03be 6513 c13b 8331 383d 3cba 90be
000000d0: 8f8a 383d c7a9 3d3d aeae b0bd 1e39 5dbe
000000e0: 8473 11bc 944d 483d 9186 68bd 1659 473e
000000f0: c64a 6f3e 5d59 9e3d 17d5 5c3e dcf9 683c
00000100: bab9 3dbd 5841 b53d fc22 383e f629 b03e
00000110: 4724 c03d c728 053d 1ca5 6f3e 9c7e 89bc
00000120: 6b96 843e 23c3 ea3d 228c 3fbd 7e0a d1bc
00000130: 4ec5 45bc ba96 8cbd 18de ff3d 13b5 95bd
00000140: e1df 043e 964a 8c3d 53b9 843e 678f 1a3d
00000150: c850 6f3e eec5 863d 9fbf 453d 6d1a 593e
00000160: e328 303e d759 f7bd 6d66 e6bd 339a e1bd
00000170: 28a6 b9bd f883 e4bd 6a89 293e c23a 813d
00000180: fb2b 9abd 4bc4 90bc 6050 2cbd 6f5f ea3d
00000190: 8a10 013e 38d1 773d 77c5 20be 0bec 363d
000001a0: 6eca 653e 2888 d53d 56b9 20bd 5b89 363c
000001b0: 29a6 083e 67cd a83b ebb6 7abc 77b5 253d
000001c0: 698a 1abe f4f3 ba3d 9347 903d f882 1fbe
000001d0: df4d 7ebc cd64 993d e644 5c3e eccb 1c3e
000001e0: d37a dbbd 7f62 afbb 92bf 933e ff67 be3d
000001f0: 9b87 8cbe 3bbb c93d d150 053d 0820 163e
0.24658938 -0.19504642 0.09775239 -0.10144084 0.02712298 0.13132606 -0.3095794 0.19900253
-0.20522694 -0.016679987 0.0394652 0.19536893 0.14067034 -0.10109159 0.14949995 -0.07673279
0.16046269 0.058028616 0.16526 -0.03331147 -0.268036 -0.059271783 0.054406874 0.17182104
0.10041056 -0.01849966 -0.024740003 -0.0754494 0.12900849 0.015952483 -0.084523275 -0.2551471
0.032053374 0.2440707 0.008204891 0.1279435 -0.076415144 0.17040955 -0.34740505 -0.07952824
0.08188984 0.0811709 -0.044828344 -0.02879069 -0.0101602925 -0.14755806 0.01992218 0.07161023
-0.12856793 0.0058922046 0.044969093 -0.28267086 0.045054015 0.04630449 -0.086270675 -0.2160382
-0.008877639 0.04890211 -0.056768958 0.19467577 0.23368368 0.077318884 0.21565662 0.014219727
-0.0463197 0.08850354 0.17982095 0.34407014 0.09381919 0.03250959 0.23402828 -0.016784005
0.2589601 0.114630006 -0.0467645 -0.025517698 -0.012070967 -0.06864686 0.12493533 -0.07309928
0.12976028 0.06850164 0.2592264 0.037734415 0.2337066 0.06580721 0.048278447 0.21201487
0.17203097 -0.120776825 -0.11250005 -0.11015739 -0.09064895 -0.111579835 0.16556326 0.06310035
-0.0752792 -0.017671725 -0.04206884 0.11443984 0.12603965 0.06050226 -0.15700327 0.044658702
0.22440502 0.1042636 -0.03923925 0.0111411465 0.13344635 0.005151439 -0.0153024 0.04045626
-0.15091862 0.091285616 0.07044902 -0.15577304 -0.015521496 0.07489929 0.21510658 0.15312165
-0.10716786 -0.005352318 0.28857094 0.092971794 -0.2744721 0.098501645 0.032547776 0.14660656

fc3.weight f4 [1, 128]
00000000: f066 e43f c644 96bf 8eee 963f 98c4 2cbf
00000010: 38fb 0a3f 7eb5 6640 d277 2740 0053 dcbf
00000020: b08c 98bf d9c8 7bc0 a0db 20c0 5558 6e3f
00000030: a213 45c0 daad f3bf ac00 2140 384a 40bf
00000040: 70a7 1940 2e20 1640 c8c6 583f 5bd9 babf
00000050: fbdf 0bc0 13a1 b13f cca3 2ac0 a103 583f
00000060: d6a2 b13f 128f 10c0 1d18 173f e817 0540
00000070: 6e96 7cbf 7dac c13f a3b4 35bf 565f 9bbf
00000080: 296b b93f 0052 d63e 960a e938 fb6a e73f
00000090: 7dc1 fd3f 241e 2b3f 4751 34c0 dac6 a2c0
000000a0: e02f e13f 980a 4740 4df0 24c0 7fb9 1fbb
000000b0: dde7 bdbf b31b dcbf bd70 ef40 0c9a 16c0
000000c0: 586a 6dc0 4e87 4fba 28db c0bf bb5f a6bf
000000d0: 008e ac40 f8ff c43f 9008 333f 6c4d a9bf
000000e0: 6e57 f63f b72e 76c0 f84a 9140 eae4 1c3f
000000f0: 6d34 21c0 a038 e03f 05be a83f 01dd c3bf
00000100: cd59 92bf dd5c f23e bf38 073f cb33 1e3f
00000110: 3cd5 503f 0a8c e8bf 7c93 ed3f 1121 ae3f
00000120: 299f 323f 717d 373f ca42 0c40 2a61 743f
00000130: fe7f 5640 2c0e 843f 2da3 803f 5359 43c0
00000140: a493 603f f8b8 66c0 87aa 9d3f 1da6 3340
00000150: 13b5 a53f 6456 843f 0dc9 d3bf 482a 8140
00000160: de66 92bf 8d84 74c0 dec6 26bf 2d16 2539
00000170: 740f 21c0 fa41 51c0 aeea 783f 5fef 6e3f
00000180: f0e1 f6bf ee9f 5fbf 6bbb c03f e694 36c0
00000190: 9e1b 883f 90ef 8740 9ffa 53c0 cf21 1ebf
000001a0: 65c2 5ac0 4975 553f 1c08 e4bf 8605 da3f
000001b0: e082 93c0 510c 0a40 4c71 fd3f f7a8 023f
000001c0: 4bd1 2dc0 b196 3f3f b68b 45bf 3237 b2bf
000001d0: fe08 42c0 f18c 73c0 ae0c f63e 4086 0640
000001e0: fc10 0fc0 513e 14c0 1e0f f73e eca3 2640
000001f0: 5d0c c2bf 58b8 943f ca14 cabf 7f6c ac3e
1.7843914 -1.1739738 1.1791551 -0.6748748 0.5428958 3.6048274 2.6166883 -1.721283
-1.1917934 -3.9341338 -2.5134048 0.93103534 -3.0793233 -1.903743 2.515666 -0.7511325
2.4008446 2.345714 0.84678316 -1.4597582 -2.1855457 1.3877281 -2.6662474 0.8438054
1.3877819 -2.2587323 0.5902117 2.0795841 -0.9866704 1.5130764 -0.70978755 -1.2138469
1.4485828 0.41859436 0.000111122776 1.8079523 1.9824673 0.66842866 -2.8174608 -5.086774
1.7592735 3.1100216 -2.5771668 -0.002437204 -1.4836384 -1.7195953 7.482512 -2.3531523
-3.7096157 -0.00079165853 -1.5066881 -1.2997965 5.392334 1.5390615 0.6993494 -1.3226752
1.9245431 -3.8466012 4.5404015 0.61286795 -2.5188248 1.751728 1.3182989 -1.530182
-1.1433655 0.47336474 0.5282096 0.6179778 0.8157537 -1.8167737 1.8560634 1.3603841
0.6977411 0.71675783 2.1915765 0.9546076 3.351562 1.0316825 1.0049797 -3.052327
0.8772528 -3.6050396 1.2317666 2.8070138 1.2945884 1.0338864 -1.6545731 4.0364113
-1.1437643 -3.8205903 -0.651472 0.00015743887 -2.5165682 -3.269652 0.9723309 0.93334
-1.9287701 -0.8735341 1.5057195 -2.852838 1.0633428 4.2479935 -3.3121717 -0.6177034
-3.418115 0.8338209 -1.7814975 1.7032936 -4.609726 2.1570017 1.98002 0.5103907
-2.7158992 0.7483931 -0.77166307 -1.3923094 -3.0317988 -3.8054774 0.4805655 2.101944
-2.2354116 -2.3163035 0.4825372 2.603755 -1.5160023 1.1618757 -1.5787594 0.33676526
