end_weight_Critic.pth (torch_old, 82411 bytes, 5 tensors)

fcs1.weight f4 [128, 24]
0.3586242 0.3078055 -0.00427474 0.09377882 0.16196904 -0.12791999 -0.020433394 0.07872343
0.37932 0.40164348 -0.00016278555 0.03633809 -0.0013524214 -0.1929679 -0.03983861 -0.058449574
0.13765211 0.3791359 -0.068339214 0.027291048 -0.052477848 -0.16409957 -0.025007708 -0.04377402
0.15224269 -0.13523448 0.00045777467 -0.0018596854 -0.08645638 0.0021028048 -0.016990537 0.005110268
0.18692248 0.03645088 0.074249364 0.045002908 -0.22160672 0.11367688 -0.083445705 -0.05784369
0.31937903 -0.038566038 0.01054523 -0.031163564 -0.5377874 -0.089107454 -0.05760145 0.03127546
0.22292507 0.19828923 0.022579944 -0.1820584 0.18209161 0.007352181 -0.054873973 -0.08687404
0.28173164 0.268937 -0.04252178 -0.10731284 0.083929166 -0.14092435 -0.006749234 -0.001123413
0.14244466 -0.040599525 -0.020120494 -0.054341324 0.04281818 0.2005197 -0.11079686 -0.15054935
0.15099657 -0.38939625 -0.006394743 0.123458974 0.036123645 -0.016478924 0.02359043 0.030119665
0.05840256 -0.40584555 -0.040451843 0.015797298 0.037090763 -0.17220347 0.05947971 0.117334016
0.094600245 -0.43916592 0.060463395 0.11167316 0.090308964 -0.66238767 0.0066716657 0.14529772
0.034436714 0.052879218 -0.0636637 0.01622756 -0.039811336 -0.26147333 -0.0074890694 -0.09429169
0.115213744 0.009406787 -0.008117589 0.013826423 0.09885435 0.026967945 2.1423926e-05 -0.022168549
0.078741945 0.06814951 0.039890304 0.12736428 0.34799823 -0.15083848 0.0037585488 0.12132823
0.036133308 -0.21237439 -0.07579015 0.035503194 0.15111054 -0.17155626 0.0032667688 0.08593661
-0.091957144 -0.16759521 0.076963365 -0.02126161 0.09612623 -0.24831626 0.083908275 -0.047177605
0.077209145 -0.27616987 -0.038706243 0.024425292 -0.11699382 0.008493824 0.012831281 0.039908145
0.092776746 0.1765816 -0.011039978 0.012471735 -0.012456552 -0.14670977 0.01874592 -0.0007948644
0.0019611395 0.32082796 0.023023473 -0.049129415 -0.13831775 -0.30926546 -0.04922474 0.035670195
0.1501051 0.46794733 0.066450894 0.2170597 -0.17740789 -0.47971022 0.012504223 0.20398024
0.03356682 0.02035698 -0.054578193 -0.12542209 -0.22936419 -0.458332 0.036730953 -0.12071838
-0.025698865 -0.0068967263 0.0076791593 -0.0016635823 -0.04378341 -0.018248044 -0.019274332 0.11679467
0.028139131 0.1236378 0.04529167 0.14393213 0.07358084 0.5263893 -0.036744665 -0.01885203
0.037696347 -0.119726874 0.002001483 0.006098334 -0.1760569 0.4321202 -0.0017879278 0.04206802
0.07975232 -0.09304916 -0.04498686 -0.05348113 -0.02422276 0.5427778 0.053765155 0.014565445
0.04799351 -0.07853795 -0.05681875 -0.09283835 0.291749 -0.623732 0.05583724 0.036307286
0.06512214 0.39337638 -0.008808576 -0.10075157 0.059642535 -0.13291389 -0.09903095 -0.16312778
0.049837854 0.3453651 0.05116296 0.039293636 0.11736918 0.010297525 -0.03367956 0.13359046
0.13414896 0.3399137 -0.057218183 0.0654269 0.040559128 0.34013602 0.09464623 -0.028885359
0.04478634 0.012195807 0.03602073 0.008760428 -0.05283528 -0.05908591 -0.049059477 -0.019915821
0.116929114 0.064797685 0.06444326 0.14488457 -0.09670177 -0.36832753 -0.061009035 0.19254738
00000000: 979d b73e af98 9d3e 1e13 8cbb 1c0f c03d
00000010: 36db 253e 75fd 02be ef63 a7bc c039 a13d
00000020: 3b36 c23e 37a4 cd3e 6ab1 2ab9 40d7 143d
00000030: bb43 b1ba 6199 45be cf2d 23bd d268 6fbd
00000040: adf4 0c3e 1a1e c23e 6ef5 8bbd 7a91 df3c
00000050: 03f3 56bd b809 28be f7dc ccbc 634c 33bd
00000060: 82e5 1b3e e87a 0abe 7a01 f039 b0c0 f3ba
00000070: 0b10 b1bd 36cf 093b bd2f 8bbc 0974 a73b
00000080: 9b68 3f3e 854d 153d 0d10 983d f854 383d
00000090: dfec 62be 6dcf e83d 95e5 aabd 81ed 6cbd
000000a0: a685 a33e 6cf7 1dbd e6c5 2c3c bb4a ffbc
000000b0: 6fac 09bf f87d b6bd 7fef 6bbd b21a 003d
000000c0: 7846 643e 550c 4b3e 93f9 b83c 846d 3abe
000000d0: 3976 3a3e 90ea f03b 88c3 60bd 04eb b1bd
000000e0: 213f 903e 1cb2 893e 512b 2ebd d6c6 dbbd
000000f0: 0ee3 ab3d 794e 10be ae28 ddbb 7c3f 93ba
00000100: 03dd 113e b04b 26bd bcd3 a4bc 0295 5ebd
00000110: 1e62 2f3d 0955 4d3e 77e9 e2bd 9c29 1abe
00000120: d89e 1a3e f25e c7be fe8a d1bb 0fd8 fc3d
00000130: 63f6 133d cffe 86bc b840 c13c 84bd f63c
00000140: 8637 6f3d fdca cfbe d5b0 25bd 5669 813c
00000150: 7cec 173d 1b56 30be ffa0 733d d14c f03d
00000160: c6bd c13d 5bda e0be 77a8 773d e6b4 e43d
00000170: e8f3 b83d 3d92 29bf fd9d da3b edc8 143e
00000180: 830d 0d3d e197 583d 1d62 82bd a9ef 843c
00000190: 3611 23bd d5df 85be de66 f5bb 001c c1bd
000001a0: 2ff5 eb3d ed1e 1a3c a3ff 04bc 3988 623c
000001b0: 2674 ca3d e1eb dc3c 88b7 b337 d19a b5bc
000001c0: 7543 a13d f891 8b3d 0464 233d c86b 023e
000001d0: d32c b23e 6775 1abe fc51 763b ef7a f83d
000001e0: 8500 143d ac78 59be de37 9bbd cc6b 113d
000001f0: b9bc 1a3e 72ac 2fbe 4917 563b 89ff af3d
00000200: 0754 bcbd 149e 2bbe f89e 9d3d d42c aebc
00000210: d4dd c43d 9e46 7ebe 1ad8 ab3d 4e3d 41bd
00000220: d41f 9e3d 2366 8dbe 708a 1ebd 8d17 c83c
00000230: 759a efbd ae29 0b3c 4b3a 523c b976 233d
00000240: bc01 be3d cfd1 343e 06e1 34bc 3f56 4c3c
00000250: 9116 4cbc 163b 16be 0b91 993c 725e 50ba
00000260: 7686 003b 9043 a43e b99b bc3c ed3b 49bd
00000270: 2ba3 0dbe 0b58 9ebe e29f 49bd e91a 123d
00000280: 27b5 193e cb96 ef3e 6817 883d e644 5e3e
00000290: 6aaa 35be 949c f5be 83de 4c3c 32e0 503e
000002a0: 5d7d 093d aec3 a63c 628d 5fbd a66e 00be
000002b0: 72de 6abe 7eaa eabe 3273 163d 333b f7bd
000002c0: 6d86 d2bc effd e1bb 75a1 fb3b 8f0c daba
000002d0: 3c56 33bd ec7c 95bc 34e5 9dbc 0b32 ef3d
000002e0: 0984 e63c d135 fd3d c283 393d f262 133e
000002f0: 8db1 963d 73c1 063f 9381 16bd 936f 9abc
00000300: 7c67 1a3d 5d33 f5bd 502b 033b 89d4 c73b
00000310: 4348 34be dc3e dd3e e758 eaba 844f 2c3d
00000320: 2f55 a33d 8f90 bebd 2444 38bd 080f 5bbd
00000330: cf6e c6bc 7cf3 0a3f da38 5c3d e7a3 6e3c
00000340: d894 443d 81d8 a0bd c7ba 68bd 0822 bebd
00000350: 2060 953e e6ac 1fbf 97b5 643d f3b6 143d
00000360: c25e 853d a168 c93e d851 10bc d756 cebd
00000370: bb4b 743d 941a 08be bdd0 cabd f80a 27be
00000380: c722 4c3d b2d3 b03e 4090 513d 5df2 203d
00000390: 415f f03d f3b6 283c 94f3 09bd f0cb 083e
000003a0: 585e 093e 2b09 ae3e 9d5d 6abd 8afe 853d
000003b0: 5421 263d 4f26 ae3e e2d5 c13d fda0 ecbc
000003c0: e271 373d ecd0 473c 798a 133d e687 0f3c
000003d0: ce69 58bd 1104 72bd 97f2 48bd 8126 a3bc
000003e0: 8878 ef3d a6b4 843d d4fa 833d 9f5c 143e
000003f0: 940b c6bd 6d95 bcbe 9ce4 79bd 242b 453e

fcs1.bias f4 [128]
-0.09476248 -0.24323063 -0.31079638 -0.09770263 -0.33581904 -0.08515064 0.13427874 -0.34894127
0.2105964 -0.08576776 -0.11134964 -0.32007667 -0.09473224 -0.16037194 -0.18467198 -0.097988546
0.21181631 -0.2635678 0.0036034933 -0.2984409 -0.5059569 -0.11391737 -0.043208465 0.3249736
-0.18310031 -0.21156695 -0.28419074 -0.1240956 0.24405831 -0.34553084 -0.12968026 -0.18264516
0.0165362 -0.14296108 -0.014987671 -0.122004986 0.23063022 -0.33462417 0.2600763 -0.20915437
-0.14699705 -0.38168383 -0.35956556 -0.107545204 -0.058533765 -0.28217918 0.14413488 0.10340251
-0.39960697 -0.2452934 0.2076708 0.07631314 -0.4854959 0.05124285 -0.117807195 0.21523032
0.06796663 -0.17403877 0.08688325 -0.21542096 -0.023394607 -0.35829166 0.083101034 -0.14368683
-0.39889058 -0.09964356 0.03744164 -0.07338506 -0.037555404 -0.33785906 -0.22552688 -0.25373593
0.04175133 -0.12252351 -0.099979565 -0.32314223 -0.059568048 -0.08556113 -0.2904797 -0.32136646
-0.3083584 -0.036287382 -0.010497891 -0.20429446 -0.16453712 -0.019783417 -0.3451644 -0.24201885
-0.19593334 -0.18478641 -0.007584105 -0.40784335 0.17950632 -0.3852943 0.1463671 -0.20248924
-0.24137369 -0.0582428 0.10778438 -0.22323298 -0.20818615 0.17396334 0.049238656 -0.14520285
-0.35507464 -0.055282574 -0.2623087 -0.039200738 -0.15492555 0.187514 0.23840266 0.05637795
-0.08683838 -0.10077238 0.056790143 -0.08077804 -0.3463174 0.1179135 -0.24068491 -0.062504
-0.16628967 -0.18855274 0.011842982 -0.132601 0.118130244 -0.015227707 -0.14410521 -0.1099335
00000000: d512 c2bd 7311 79be b420 9fbe 5118 c8bd
00000010: 79f0 abbe 7563 aebd 5e80 093e 6ea8 b2be
00000020: 95a6 573e 02a7 afbd 480b e4bd 17e1 a3be
00000030: fa02 c2bd 8b38 24be a71a 3dbe 38ae c8bd
00000040: 60e6 583e 5cf2 86be 9628 6c3b 3fcd 98be
00000050: 6486 01bf 834d e9bd 5cfb 30bd f162 a63e
00000060: a67e 3bbe 02a5 58be 7381 91be d525 febd
00000070: 6cea 793e 6be9 b0be e7ca 04be 5507 3bbe
00000080: ed76 873c 6464 12be d98e 75bc c0dd f9bd
00000090: 542a 6c3e dc53 abbe b928 853e 902c 56be
000000a0: 6586 16be 106c c3be fa18 b8be a940 dcbd
000000b0: 1ac1 6fbd ca79 90be 1898 133e b2c4 d33d
000000c0: 4999 ccbe 312e 7bbe a7a7 543e 104a 9c3d
000000d0: eb92 f8be 06e4 513d e644 f1bd 5665 5c3e
000000e0: 1732 8b3d 3837 32be d8ef b13d 5097 5cbe
000000f0: 0ca6 bfbc 0172 b7be e030 aa3d a422 13be
00000100: 633b ccbe ec11 ccbd 685c 193d e84a 96bd
00000110: b2d3 19bd ddfb acbe 85f0 66be ade9 81be
00000120: 7103 2b3d 9bed fabd 16c2 ccbd e672 a5be
00000130: a0fd 73bd ac3a afbd c1b9 94be 258a a4be
00000140: 27e1 9dbe 14a2 14bd 59ff 2bbc 9132 51be
00000150: 6b7c 28be d510 a2bc 63b9 b0be cad3 77be
00000160: c0a2 48be a638 3dbe 1584 f8bb d8d0 d0be
00000170: 81d0 373e 4b45 c5be 42e1 153e 5759 4fbe
00000180: aa2a 77be 0190 6ebd 0fbe dc3d 3097 64be
00000190: c02e 55be 7223 323e 79ae 493d 0eb0 14be
000001a0: 58cc b5be fb6f 62bd 534d 86be f490 20bd
000001b0: cea4 1ebe ac03 403e d41f 743e 91ec 663d
000001c0: 52d8 b1bd c061 cebd c89c 683d f56e a5bd
000001d0: 8450 b1be a27c f13d 1b76 76be 1902 80bd
000001e0: d747 2abe f813 41be 1109 423c 8ec8 07be
000001f0: 45ee f13d a27d 79bc 5190 13be d124 e1bd

fc2.weight f4 [128, 132]
-0.03001034 0.010777516 -0.05986295 -0.011086223 -0.047054086 0.056814205 -0.010764297 -0.07021205
-0.13943547 0.047310643 -0.09448367 -0.04350199 0.012227064 -0.0026474658 -0.08694213 -0.12926452
-0.07874177 -0.004050179 -0.018966472 0.033202138 -0.17332532 -0.04265816 -0.02848256 -0.021350535
0.057244137 0.06770859 -0.12762998 -0.13270979 -0.06566915 -0.105160244 -0.06950291 -0.08765208
0.018387316 -0.1781102 -0.007457949 -0.09196977 -0.008344653 -0.15168439 0.010512812 -0.18871696
-0.17054711 -0.040749412 0.047792178 -0.06648058 -0.09977635 -0.04367837 -0.17998564 -0.07997925
-0.044767637 0.06984696 -0.15931581 -0.034548897 0.0488453 0.011025859 -0.10840132 -0.04095051
0.020818787 -0.090097345 0.06299764 0.024469974 -0.013836249 0.05187438 -0.08631768 0.062321477
-0.08059367 -0.033735685 -0.14958042 0.058523446 -0.042906787 -0.06832665 0.07235917 0.03408039
0.01661385 0.024462527 -0.04729086 -0.1409699 0.04909068 -0.044701483 -0.12583558 -0.08353556
-0.1105871 -0.00031780003 -0.03693667 -0.08971301 -0.013237582 -0.003970067 -0.021084026 -0.12122892
-0.07729157 -0.10356426 0.03016314 -0.07488231 0.0812097 0.04404415 -0.12421442 -0.04832978
-0.047852825 -0.0667371 -0.12108099 0.036110874 0.003920059 -0.034330834 0.015387337 -0.008472039
-0.08951467 -0.03932841 -0.06729357 -0.12510486 -0.09575223 -0.009595947 -0.14887741 -0.040886503
0.033006493 -0.025169475 -0.033474628 -0.019434055 -0.15040623 -0.04517457 -0.0416302 -0.16837083
-0.03567184 0.008832444 -0.048248786 -0.034493644 0.07104091 -0.051395945 -0.035109896 -0.079452544
-0.03187022 0.14376009 0.19303483 0.069018416 -0.036462072 0.01368302 0.010517762 -0.004744493
-0.028045675 -0.09421828 -0.17310564 -0.032049786 -0.09542107 -0.018441796 -0.041006286 -0.098803334
-0.0072724107 -0.09823062 0.024705155 -0.09042826 0.07274141 0.0030556885 -0.02952362 -0.13130909
-0.053904153 -0.07213156 -0.018775064 -0.10332739 -0.009062407 -0.005067554 -0.09793112 -0.0994272
-0.018657498 0.03364227 -0.10005104 0.015385131 0.023712872 -0.16608647 -0.069024466 0.053211283
-0.015128378 -0.16228345 -0.106714875 0.045086805 -0.036270138 -0.032793894 -0.046889335 0.046423793
0.037918374 -0.07715922 -0.1414656 -0.1371901 -0.19530493 -0.019621797 -0.00021100187 -0.007296054
-0.001904254 -0.11623268 0.028238695 -0.13827275 0.0054327813 -0.0024696013 -0.113650724 0.0044833855
-0.07285951 -0.04731402 -0.066541724 -0.0634661 -0.016946739 -0.12335866 -0.044289816 -0.07881684
0.053307157 -0.07518244 -0.09932056 -0.0017468814 -0.112979874 0.045068555 0.058918003 -0.0067904624
-0.021237507 -0.06354131 -0.142011 -0.21830028 -0.004642859 0.025245657 -0.02181601 0.0024489157
-0.041524194 -0.11716591 -0.110200554 -0.14723839 -0.11720123 0.024746114 -0.14054519 -0.019845266
-0.057377137 0.018241871 -0.028901732 0.04807361 -0.15223524 -0.18881309 -0.16672832 -0.047738094
-0.031462073 0.0056369654 -0.042088717 -0.20224139 -0.15882266 0.028562076 0.007977995 -0.10636169
-0.10690214 -0.05202751 0.008555319 -0.07292842 -0.09137854 0.020706836 0.08321119 -0.16640416
-0.08393462 -0.12865044 -0.093211986 0.012164773 0.018792178 -0.085059725 -0.051300094 0.06735262
00000000: 3fd8 f5bc 2e94 303c da32 75bd fda2 35bc
00000010: c9bb 40bd 03b6 683d bc5c 30bc 56cb 8fbd
00000020: 2cc8 0ebe cec8 413d a880 c1bd 252f 32bd
00000030: 0654 483c 1b81 2dbb b70e b2bd eb5d 04be
00000040: 5d43 a1bd 5db7 84bb 935f 9bbc f7fe 073d
00000050: 317c 31be 53ba 2ebd 4254 e9bc 51e7 aebc
00000060: d478 6a3d cdaa 8a3d 6fb1 02be 13e5 07be
00000070: 8c7d 86bd 415e d7bd 8b57 8ebd ef82 b3bd
00000080: ffa0 963c 8562 36be d061 f4bb a65a bcbd
00000090: 03b8 08bc 2753 1bbe ee3d 2c3c 053f 41be
000000a0: e7a3 2ebe dbe8 26bd bbc1 433d f826 88bd
000000b0: 8b57 ccbd 17e8 32bd 284e 38be 29cc a3bd
000000c0: 455e 37bd ec0b 8f3d af23 23be 2583 0dbd
000000d0: 0212 483d cea5 343c 8301 debd b9bb 27bd
000000e0: 298c aa3c f584 b8bd e804 813d 4175 c83c
000000f0: 6fb1 62bc 3b7a 543d 53c7 b0bd ce44 7f3d
00000100: 4b0e a5bd 6e2e 0abd 9c2b 19be 48b6 6f3d
00000110: 07bf 2fbd d8ee 8bbd 0b31 943d e197 0b3d
00000120: c519 883c a365 c83c 10b4 41bd 6a5a 10be
00000130: 4f13 493d e718 37bd 0bdb 00be b114 abbd
00000140: 7d7b e2bd 669e a6b9 e84a 17bd 74bb b7bd
00000150: 71e2 58bc 5617 82bb 68b8 acbc de46 f8bd
00000160: 0b4b 9ebd 8019 d4bd b018 f73c e65b 99bd
00000170: 4551 a63d a367 343d 2164 febd 73f5 45bd
00000180: 5301 44bd 76ad 88bd 4ff9 f7bd ffe8 133d
00000190: d773 803b 7d9e 0cbd 2b1b 7c3c 4fce 0abc
000001a0: 7853 b7bd d416 21bd 36d1 89bd 7d1b 00be
000001b0: bf19 c4bd 5238 1dbc 5273 18be 9b78 27bd
000001c0: d131 073d 3730 cebc b11c 09bd 2b34 9fbc
000001d0: 1704 1abe f808 39bd 6e84 2abd 6769 2cbe
000001e0: a31c 12bd f5b5 103c 85a0 45bd 3549 0dbd
000001f0: e67d 913d 8e84 52bd 65cf 0fbd 04b8 a2bd
00000200: 598a 02bd d835 133e ecaa 453e 8759 8d3d
00000210: 4159 15bd bf2e 603c b152 2c3c b177 9bbb
00000220: 0bc0 e5bc 83f5 c0bd 9b42 31be a346 03bd
00000230: 1f6c c3bd 4013 97bc 35f6 27bd 6759 cabd
00000240: 674d eebb 232d c9bd 7762 ca3c 7432 b9bd
00000250: 73f9 943d f241 483b 85db f1bc e475 06be
00000260: 9aca 5cbd b6b9 93bd 2ace 99bc 509d d3bd
00000270: 7d7a 14bc b90d a6bb 1c90 c8bd 7da0 cbbd
00000280: 9cd7 98bc 7acc 093d 8fe7 ccbd eb11 7c3c
00000290: 7f41 c23c 9212 2abe b35c 8dbd 13f4 593d
000002a0: 04dd 77bc a22d 26be 548d dabd f1ac 383d
000002b0: ff8f 14bd e452 06bd 080f 40bd e026 3e3d
000002c0: 4c50 1b3d a705 9ebd 5cdc 10be 907b 0cbe
000002d0: 04fe 47be e4bd a0bc 6240 5db9 bd13 efbb
000002e0: 2998 f9ba 660b eebd d654 e73c 5f97 0dbe
000002f0: 7905 b23b 09d9 21bb b6c1 e8bd 5de9 923b
00000300: 5e37 95bd 59cc 41bd 0747 88bd 84fa 81bd
00000310: e3d3 8abc 77a3 fcbd 3d69 35bd b96a a1bd
00000320: 9b58 5a3d 40f9 99bd 9468 cbbd 9df7 e4ba
00000330: fe61 e7bd ce99 383d 0154 713d 8782 debb
00000340: 48fa adbc f221 82bd 556b 11be 1c8a 5fbe
00000350: 2023 98bb fbcf ce3c 7db7 b2bc fd7d 203b
00000360: 4615 2abd aef4 efbd d4b0 e1bd a9c5 16be
00000370: 3307 f0bd 5db8 ca3c 14eb 0fbe 8a92 a2bc
00000380: 4a04 6bbd fa6f 953c 53c3 ecbc d5e8 443d
00000390: 8ee3 1bbe 3858 41be d4ba 2abe 0589 43bd
000003a0: 60de 00bd 4bb6 b83b 3865 2cbd 5e18 4fbe
000003b0: 68a2 22be 04fb e93c 23b6 023c 28d4 d9bd
000003c0: 82ef dabd cc1a 55bd 9c2b 0c3c 7f5b 95bd
000003d0: ac24 bbbd 62a1 a93c a16a aa3d da65 2abe
000003e0: eae5 abbd f1bc 03be ede5 bebd c24e 473c
000003f0: 0ef2 993c cb33 aebd 0c20 52bd 2cf0 893d

fc2.bias f4 [128]
-0.045056183 -0.23470719 -0.030418152 -0.03340995 -0.04667233 -0.046487376 -0.07492307 0.40372854
-0.15495472 -0.04270553 -0.13854308 -0.06740361 -0.038661603 -0.010762997 0.19544484 -0.091331854
-0.07904837 -0.009362516 -0.14450409 0.23119183 0.20052268 -0.13227516 -0.06430545 0.11180375
-0.020445859 -0.06665585 -0.042682175 -0.11064177 0.023244355 -0.06182852 -0.03821196 -0.14319648
-0.21177953 0.011349343 0.10542245 -0.014483059 -0.08645229 0.008485111 -0.086862005 -0.13141116
-0.20104674 -0.029012084 -0.13653468 -0.018627604 -0.0018387608 0.18890545 0.031313196 -0.047948934
-0.053173635 -0.13886668 0.016959531 -0.1476665 -0.04744032 -0.17276911 0.049498104 -0.09942632
-0.094522096 0.0969063 -0.102495454 -0.0033631062 -0.12456043 -0.18271147 -0.13063283 -0.17404288
-0.07368846 0.1624889 -0.1865346 -0.10596011 -0.09347143 -0.12957202 -0.063407995 0.0119050555
-0.013518629 -0.1106179 -0.018416181 -0.071854144 0.030573642 0.09105187 -0.055093557 0.059673876
-0.084441766 0.047298424 -0.15835772 -0.05679907 -0.10337667 -0.081930555 0.023657624 -0.008278261
-0.049108654 -0.10773078 -0.23094761 -0.07597047 -0.07329224 -0.15212052 -0.16206756 -0.10852975
-0.036527395 -0.1037973 0.04301271 -0.18404095 -0.051874593 0.20273496 0.18394217 -0.0646453
-0.1552457 -0.09611033 -0.028931405 -0.03555543 -0.16800793 -0.12641019 -0.0048700008 -0.14768276
-0.0066402904 0.094243154 -0.0076804026 -0.0024057783 0.04308066 0.25796032 -0.08345503 -0.024700489
0.17380075 -0.14289916 0.15762398 -0.1721049 -0.15980424 -0.07307426 -0.03220293 -0.2282234
00000000: d58c 38bd 1557 70be 7d2f f9bc dfd8 08bd
00000010: 7c2b 3fbd 8c69 3ebd 4471 99bd 82b5 ce3e
00000020: 73ac 1ebe feeb 2ebd 3dde 0dbe e70a 8abd
00000030: a15b 1ebd 4857 30bc b122 483e 320c bbbd
00000040: 1de4 a1bd 3d65 19bc e1f8 13be 8dbd 6c3e
00000050: d155 4d3e 2473 07be 93b2 83bd 5df9 e43d
00000060: 137e a7bc dd82 88bd 81d3 2ebd 2798 e2bd
00000070: f26a be3c e73f 7dbd 2584 1cbd 19a2 12be
00000080: bcdc 58be 98f2 393c bae7 d73d 5a4a 6dbc
00000090: e60d b1bd 2305 0b3c b5e4 b1bd a690 06be
000000a0: 32df 4dbe c0aa edbc bfcf 0bbe eb98 98bc
000000b0: 9302 f1ba 6e70 413e 4442 003d 1a66 44bd
000000c0: 99cc 59bd 1133 0ebe b7ee 8a3c e335 17be
000000d0: c850 42bd 63ea 30be 86be 4a3d 07a0 cbbd
000000e0: cd94 c1bd cf76 c63d 23e9 d1bd 8f67 5cbb
000000f0: 8a19 ffbd b718 3bbe 9dc4 05be 4c38 32be
00000100: fae9 96bd 7d63 263e ed02 3fbe 9d01 d9bd
00000110: f36d bfbd 87ae 04be 0ddc 81bd 6c0d 433c
00000120: 3d7d 5dbc a38b e2bd 88dd 96bc 4428 93bd
00000130: 9375 fa3c 6779 ba3d c8a9 61bd 986c 743d
00000140: ceef acbd febb 413d 8728 22be 24a6 68bd
00000150: 26b7 d3bd 35cb a7bd a2cd c13c 8ba1 07bc
00000160: 2826 49bd f5a1 dcbd 887d 6cbe 6896 9bbd
00000170: 3e1a 96bd 7bc5 1bbe 0af5 25be d844 debd
00000180: c09d 15bd ae93 d4bd 182e 303d 3b75 3cbe
00000190: 747a 54bd c199 4f3e 565b 3c3e c164 84bd
000001a0: bbf8 1ebe 7ed5 c4bd 8e01 edbc 92a2 11bd
000001b0: 450a 2cbe ac71 01be 8794 9fbb 263a 17be
000001c0: cb96 d9bb 8e02 c13d e3ab fbbb 43aa 1dbb
000001d0: 5975 303d 6013 843e 79ea aabd ae58 cabc
000001e0: d3f8 313e 2854 12be 2e68 213e 443c 30be
000001f0: b9a3 23be f5a7 95bd 38e7 03bd 65b3 69be

fc3.weight f4 [1, 128]
-0.0046864906 -0.009405716 -0.016844133 -0.0008804964 0.0018064568 0.0062164855 -0.0046668244 0.046971597
-0.010697087 -0.0041290023 -0.0016188696 0.047081467 -0.005223937 -0.009402638 -0.009275556 -0.014184078
-0.016382486 -0.021048516 0.022644835 -0.0054970453 0.025560478 0.0020101247 0.03932092 0.065052494
0.00813229 -0.0075248242 -0.004474478 -0.019859448 0.053768754 -0.0032258416 -0.0043035727 -0.0038152586
-0.002022184 0.017213462 0.027110655 0.048268918 -0.024745394 0.015037786 0.01274303 -0.023536382
-0.011215928 0.0008000275 -0.010016554 0.013846911 -0.008723407 0.035590217 0.041722428 -0.040485755
0.031552635 -0.0038621512 0.030474897 -0.02955844 0.00025586254 0.016090628 0.0117266495 -0.014029483
0.00040836798 -0.014312398 -0.0041716723 -0.019740611 -0.0399006 -0.00034325724 0.013313939 -0.027117549
-0.00397413 0.030641135 -0.0080044195 0.012699682 -0.008114927 -0.030501558 0.018395277 -0.0035222126
0.017802654 -0.006716007 -0.010732529 -0.008132147 -0.0025426827 -0.01833193 0.0069138748 0.00048502517
0.009513103 0.02045127 0.0091475 -0.023859154 0.017290799 -0.01668056 0.042282782 -0.042379547
0.03112083 0.00075510674 -0.0754698 0.016860647 0.0154716 0.029848207 0.019788034 -0.019956132
0.029965151 -0.008725075 -0.0020912795 0.0061832536 -0.0013902843 0.01972842 -0.0072372183 0.016873203
-0.07130631 -0.023618227 -0.045499753 0.007030031 -0.006712502 0.017924696 -0.0097652795 0.00484996
-0.023161946 0.029486733 0.010483375 0.080509804 0.013764772 -0.009557284 -0.003957285 0.019948004
-0.028030861 0.0096565485 -0.018960739 0.057024233 -0.009328739 -0.005812108 -0.003821053 -0.02089236
00000000: 2291 99bb 6f1a 1abc b5fc 89bc 1dd1 66ba
00000010: a2c6 ec3a a9b3 cb3b 29ec 98bb 4a65 403d
00000020: d642 2fbc 954c 87bb 4030 d4ba 7fd8 403d
00000030: 8f2d abbb 860d 1abc 80f8 17bc 5664 68bc
00000040: 9034 86bc f06d acbc a981 b93c 8f20 b4bb
00000050: 3564 d13c 4cbc 033b f90e 213d 3e3a 853d
00000060: 4c3d 053c cd92 f6bb a49e 92bb 48b0 a2bc
00000070: a03c 5c3d a468 53bb fc04 8dbb 6b09 7abb
00000080: 9e86 04bb 3f03 8d3c 2a17 de3c a1b5 453d
00000090: dab6 cabc 0c61 763c 24c8 503c 5fcf c0bc
000000a0: 03c3 37bc f0b8 513a 791c 24bc 27de 623c
000000b0: 9fec 0ebc 0cc7 113d 23e5 2a3d 64d4 25bd
000000c0: 563d 013d 251c 7dbb 7ea6 f93c 8b24 f2bc
000000d0: 4a25 8639 7ed0 833c 2221 403c ebdb 65bc
000000e0: 391a d639 8c7e 6abc 86b2 88bb 10b7 a1bc
000000f0: d06e 23bd 35f7 b3b9 b522 5a3c 9f25 debc
00000100: 6b39 82bb 1e03 fb3c f824 03bc 5412 503c
00000110: 79f4 04bc 67de f9bc b1b1 963c ecd4 66bb
00000120: dfd6 913c f311 dcbb 7dd7 2fbc b23c 05bc
00000130: 23a3 26bb d82c 96bc c98d e23b fa4a fe39
00000140: d9dc 1b3c 6c89 a73c 65df 153c 4674 c3bc
00000150: 6fa5 8d3c aba5 88bc b630 2d3d 2d96 2dbd
00000160: 1cf1 fe3c 5bf2 453a e98f 9abd 571f 8a3c
00000170: 987c 7d3c 3a84 f43c 841a a23c 0b7b a3bc
00000180: 7a79 f53c 9ef3 0ebc d90d 09bb e49c ca3b
00000190: 333a b6ba 7f9d a13c 3026 edbb ac39 8a3c
000001a0: 0b09 92bd 037b c1bc f35d 3abd 2d5c e63b
000001b0: 8cf4 dbbb d0d6 923c 8dfe 1fbc 6aec 9e3b
000001c0: 1fbe bdbc 298e f13c 76c2 2b3c 53e2 a43d
000001d0: a385 613c 2896 1cbc 1dac 81bb ff69 a33c
000001e0: faa0 e5bc 8036 1e3c 8d53 9bbc 3e92 693d
000001f0: 91d7 18bc 7f73 bebb a26a 7abb 7426 abbc
