end_weight_Actor.pth (torch_old, 83368 bytes, 10 tensors)

fc1.weight f4 [128, 24]
000000 ee 18 f4 bd 68 a0 19 be f1 7c 9a 3d 48 61 16 3d
       -0.119188175 -0.15002596 0.07543362 0.03671387
000010 a8 51 9e bd 5d 77 27 3d dc 74 29 bd 6b fd 5c bd
       -0.077304184 0.040885318 -0.04137121 -0.053952616
000020 92 fe ae 3d d0 2c 87 3c 84 66 02 bd 5d 0d 40 bc
       0.08544649 0.01650086 -0.031836048 -0.011721936
000030 bf bc 91 bd ea ce 55 3d 90 d6 24 bd d5 03 78 bc
       -0.071160786 0.05219928 -0.040243685 -0.015137632
000040 74 cb 51 3d 5f fd e3 3a 4b 82 1e bd cc 49 84 3d
       0.05121942 0.0017394236 -0.038698476 0.06459388
000050 8f e0 7b bd 34 e8 3a be ef 3c 38 bd db 65 4f 3e
       -0.061493453 -0.18252641 -0.044979986 0.20253699
000060 1a dc 07 bd c1 de a8 bd 69 f2 fa bc c2 c5 96 3c
       -0.03316889 -0.08245612 -0.030633168 0.018404845
000070 23 5c 08 be 2f 00 08 be 4a 26 c3 3c 96 48 d4 bc
       -0.13316397 -0.1328132 0.023821969 -0.025913518
000080 03 9b e0 3d 0b 9c 8d bd ae 94 11 bd f1 ba 83 3d
       0.10967066 -0.069145285 -0.035542183 0.064321406
000090 85 c4 9b 3d 58 86 9d bd 32 e1 c4 3c 83 a0 84 bd
       0.076058425 -0.0769164 0.024033163 -0.06475928
0000a0 9d 9d 64 3d 27 8e ae 3d 42 fe a2 3c 1b d4 19 3c
       0.055814374 0.08523207 0.01989663 0.009388949
0000b0 14 13 3e 3d cd 29 5c 3d 60 91 bb bc 12 88 b4 3b
       0.046404913 0.0537508 -0.022896469 0.005509385
0000c0 0f 4a da bd 08 d8 03 3e 9f da b0 3d 31 7f 0e 3d
       -0.10658657 0.12875378 0.08635449 0.034789268
0000d0 95 4a 7a 3c 7f 6e d6 3c db 3b ae bd 2f 23 ef bc
       0.015276571 0.026175736 -0.0850751 -0.029191582
0000e0 5c 19 4b bd 07 8f 56 3e 5d 44 85 ba 5c 9b 7c bc
       -0.04958473 0.20952998 -0.0010167469 -0.0154179
0000f0 d8 1b 62 3d 93 c8 1c be a2 41 11 bc e1 70 bf 3c
       0.055202335 -0.15310888 -0.008865746 0.023369255
000100 f8 07 85 bc 35 8b 22 3e 1b 7f 98 bd da f5 57 bd
       -0.016239151 0.15873416 -0.074461184 -0.052724697
000110 17 65 77 3c aa d0 b0 be 69 2d 7a 3d 3e 41 82 3d
       0.015099785 -0.34534198 0.061078463 0.063601
000120 bb 55 4a 3c ac 2e 90 3d cc f1 04 bd 68 ae fd bc
       0.012349541 0.07040152 -0.032457158 -0.030966952
000130 50 9d 16 bc 51 8a 49 be 9a cf bc 3c e4 f6 38 bd
       -0.00919278 -0.1968167 0.02304821 -0.04515733
000140 f3 48 58 bc ce 5b 31 3d 6e 73 c6 3c 4f 14 3f bd
       -0.013200986 0.043300442 0.024224963 -0.046650227
000150 d1 e7 f7 bd 8c 08 c0 bd 23 52 1a bd e5 09 ef 3c
       -0.12104762 -0.0937663 -0.037675988 0.029179523
000160 76 a3 01 3e dd ca a4 3d 0f 75 3d 3d 5f b3 4e 3c
       0.12660012 0.080465056 0.046254214 0.012616008
000170 b4 94 46 be c3 f4 04 3e d7 c1 55 bd 82 64 9c 3c
       -0.19392663 0.12983994 -0.052186813 0.019090895
000180 3d e2 d6 bd ed 9a 8b 3d ba b1 b8 bc e7 d9 40 bd
       -0.1049237 0.06816659 -0.022545684 -0.047082808
000190 82 3c 3f bd 6c e4 d7 bd b4 71 4b 3c cc 86 65 3c
       -0.046688564 -0.10541615 0.012417246 0.014009189
0001a0 a6 55 a8 bd c7 f4 eb 3b 81 be 24 bd 5a b3 25 bd
       -0.08219461 0.0072008106 -0.04022074 -0.040454246
0001b0 7a 1b b3 3d d0 15 92 bc 2f bf 56 3d 80 80 57 3d
       0.08745475 -0.017832667 0.05242842 0.05261278
0001c0 62 9b 65 bd 4d b5 0a 3e af 1d 92 3c e0 97 54 3c
       -0.056056388 0.13545723 0.01783642 0.012975663
0001d0 44 11 0e 3e 3a f2 8f bc 5f 0d aa bd 48 f8 89 3c
       0.13873774 -0.017571557 -0.083033316 0.016842023
0001e0 7e 46 92 3c c0 3e 2f 3e 2e 9e 8e bb 1c ac 8a 3d
       0.017855879 0.17113781 -0.0043523526 0.067711085
0001f0 c3 bc 4b bc 8a 41 1f be dc 19 31 3d 72 18 07 3d
       -0.012435141 -0.15552345 0.043237552 0.032982297
000200 8a a4 cd 3c b0 2d 4e 3e d1 3c 5c 3c dc 75 b5 bd
       0.025102872 0.20134616 0.013442234 -0.088603705
000210 19 6e c3 3d fe fa 1c be a5 54 b3 bc 28 46 44 3d
       0.09542484 -0.15330121 -0.021890948 0.04791847
000220 74 af 1d 3e 16 5e 04 3e 4c 9c 21 3d 62 24 0e bd
       0.15398961 0.12926516 0.039455697 -0.034702666
000230 0b 58 13 3d 31 d6 a1 be 0b 3a a0 3b 33 bb 15 3d
       0.035972636 -0.31608728 0.0048897318 0.03655548
000240 b3 5f 2b be 84 3b 51 bd 43 a3 d5 bc 85 f8 14 3d
       -0.16735725 -0.05108215 -0.026078826 0.03636982
000250 9f 15 cb 3c 83 f2 04 bb 17 2b 8f 3c 44 20 67 3c
       0.024790583 -0.002028615 0.017476602 0.014106814
000260 9e c5 1a be f8 f0 12 be a1 c0 f6 3b 17 d3 82 3d
       -0.15114447 -0.14349735 0.0075302874 0.063879184
000270 f9 d6 3b bc 7d 3d b0 3d 65 6d c6 3c 43 47 b8 3c
       -0.011464828 0.08605478 0.024222085 0.022494918
000280 12 57 00 be 58 2e 46 bd e8 b2 21 3b f7 67 a6 bc
       -0.12533215 -0.04838404 0.0024673287 -0.020313246
000290 fb 60 93 bd bc 97 51 be db 14 07 3d b4 92 ba bd
       -0.07196232 -0.20468038 0.032978874 -0.09110013
0002a0 bb 83 de 3c 15 5b ca bd 52 6a 0c bd 02 4e 5f bd
       0.027162423 -0.09880654 -0.034281082 -0.054517753
0002b0 f9 b7 57 bd bf 30 8e bd 42 f5 c7 3c c6 08 1d be
       -0.052665684 -0.06942891 0.02440894 -0.15335378
0002c0 81 17 cf 3d 47 e3 24 be a6 d9 ca bc de ee e0 bd
       0.10111905 -0.16102324 -0.024761986 -0.1098306
0002d0 09 4a 71 bd 4b 50 5d 3d c2 13 3f 3d 1e de 2e be
       -0.058908496 0.05403165 0.046649702 -0.17076918
0002e0 37 97 52 3d e7 8a da bc d1 3f 25 3d ab 7e cf bd
       0.05141374 -0.026677562 0.040344063 -0.10131582
0002f0 e8 ae 6c bc cb 81 85 39 af 47 8b bd de 49 89 bd
       -0.014445998 0.0002546444 -0.06800782 -0.06703542
000300 f7 04 a4 bc 48 e9 83 bd b4 5d b0 3c 14 5e d4 3c
       -0.020021899 -0.06440979 0.021529056 0.025923766
000310 f6 61 85 be 66 7b c1 bd 68 d6 eb bc 3f 76 c0 bd
       -0.260513 -0.094473645 -0.02878876 -0.09397554
000320 ce d3 f1 bc eb 93 86 bd d3 74 e3 3a 9a 48 8b 3d
       -0.029519942 -0.06571182 0.0017353542 0.06800957
000330 ee 9e a4 bd 21 3f a5 bd 80 e3 be bc a5 cb 60 3d
       -0.08038126 -0.080686815 -0.02330184 0.05488171
000340 c3 79 c6 bc d1 98 bb 3c ed d7 49 bd de bc 80 3c
       -0.024227982 0.022900017 -0.04927819 0.015715059
000350 9b d0 b5 bd cf e1 04 be a1 91 5b bd e9 d6 a7 3d
       -0.08877679 -0.12976764 -0.05360568 0.08195288
000360 01 06 2f be 6d 23 f2 bd 71 44 55 3d 40 6c 05 bd
       -0.17092134 -0.11823163 0.052067224 -0.03257394
000370 e8 e9 2f bc fd 64 ed 3d 25 61 ad 3c 24 fe ae bd
       -0.01073692 0.115915276 0.021164486 -0.08544567
000380 1d 41 f9 bd 5f 64 f0 3b 6d 85 41 3d 25 fa 7a 3d
       -0.121706225 0.007336184 0.047246385 0.061273713
000390 0e aa d7 bc 04 03 76 bd cd 7f 5d 3c 37 1d 39 bd
       -0.026326206 -0.06006147 0.01351924 -0.045193877
0003a0 15 4a 77 3c 86 29 84 bc ad fa 83 bd 65 b6 fe bc
       0.015093346 -0.016133081 -0.06444297 -0.031092832
0003b0 ca b5 44 bc 52 51 89 be cd a2 a2 3d f7 4f 23 3d
       -0.0120062325 -0.26819855 0.07941208 0.039871182
0003c0 7c f2 a5 bd 8b 42 b1 bd 6f 5e 4b bb d4 11 8b 3c
       -0.08102891 -0.0865527 -0.0031031629 0.016976275
0003d0 c8 9e 44 3d 74 6c 81 3e 68 48 3a 3d de 9e 8b bd
       0.048002988 0.25278056 0.04547921 -0.06817411
0003e0 4a 91 a7 bd e5 66 f6 bd 2e bd a5 bc 98 45 00 bd
       -0.081820086 -0.12031344 -0.02023181 -0.03131637
0003f0 da 3d db bb 55 1e f2 bd 82 b1 5f 3b 33 c6 dc bc
       -0.006690723 -0.118221916 0.0034132903 -0.026949978

fc1.bias f4 [128]
000000 3d e7 14 3e 92 5b b7 be 27 34 0a be 21 7b ed bd
       0.14541335 -0.3581205 -0.13496457 -0.115957506
000010 4e 6d 09 be ce c1 ab 3d f9 85 82 3d 82 23 6a 3c
       -0.13420603 0.08386575 0.063732095 0.014290692
000020 63 b0 8e 3d 21 92 5d 3e df 77 52 bd 9b 36 3b bd
       0.06967237 0.21637775 -0.05138385 -0.045706373
000030 3a d0 d6 3d cd 28 40 be 18 f2 ae 3d d6 7d 18 3e
       0.10488935 -0.18765564 0.085422695 0.14891753
000040 0e d1 2e 3d 50 20 56 be c6 5e 2d be 00 65 83 3d
       0.04267984 -0.20910764 -0.16930684 0.064157486
000050 1d 19 af bd f6 7e de 3d f1 d1 27 3e d7 94 b3 3c
       -0.08549712 0.108640596 0.1638868 0.021921558
000060 82 c5 f8 3d b2 b3 d3 be 85 d5 c5 be bf c9 d4 bb
       0.121470466 -0.41348034 -0.38639465 -0.0064937766
000070 3d 48 5a bd b0 37 a8 be 3c c3 d5 bd e0 77 41 3d
       -0.053291548 -0.32854986 -0.104376286 0.047233462
000080 71 2e 24 be e7 2a bf 3c cf e5 90 3d 3e 26 0e be
       -0.16033341 0.023335887 0.070750825 -0.13881776
000090 0e dd 13 3e a6 94 82 3d 32 77 44 be 60 71 59 bd
       0.14439794 0.06376009 -0.19186094 -0.05308664
0000a0 55 91 54 3c e1 33 0c be 0c 65 29 3d 8f 79 16 be
       0.012974103 -0.13691665 0.04135613 -0.14694808
0000b0 c1 0e 85 be 41 dc 9b bd a8 89 70 3d 7c cb 9b bd
       -0.2598782 -0.076103695 0.05872503 -0.07607171
0000c0 56 a5 82 be c2 5f 80 bd 47 e8 74 be fe ad 28 3d
       -0.25516766 -0.06268264 -0.23916732 0.041181557
0000d0 3c 59 70 bd fb 5e 21 be f7 a9 95 be 0e 11 41 be
       -0.05867885 -0.15758888 -0.29231235 -0.18854162
0000e0 67 cd 8a 3d 1c b3 6f 3e 1f 7f bd bd eb 27 34 be
       0.06777459 0.23408169 -0.09252762 -0.17593352
0000f0 a9 3d 85 bd 67 b1 1c 3e 84 6d 40 3d be 73 5c 3b
       -0.06505901 0.15302049 0.046979442 0.0033638324
000100 50 35 94 bd f1 1e da bd 60 d1 93 3d 70 b2 52 bd
       -0.07236731 -0.10650433 0.072176695 -0.051439703
000110 bb 14 f6 3c 40 9e bb bc 02 a7 ae 3d ac b0 c9 3c
       0.030039182 -0.022902608 0.08527948 0.024620377
000120 19 f3 3d be d7 de 90 be 87 15 06 be 5c a4 99 be
       -0.18549766 -0.28295013 -0.1309415 -0.3000821
000130 9a c3 91 bd 2b 1a 91 be f5 58 d0 3c 26 a4 7f bd
       -0.07117386 -0.28340277 0.025433043 -0.062412404
000140 3f 79 bb bd 5d 79 76 bc 97 b3 34 38 eb e1 48 3e
       -0.09153985 -0.015043584 4.30826e-05 0.19617431
000150 65 60 4f 3d 63 59 46 bd a5 bf 6c bd 9b 1d 2a be
       0.05062904 -0.04842509 -0.057799954 -0.16612856
000160 15 1a ad bc 8c 9b d1 bd 7f 3b 68 3e 0f f1 51 3d
       -0.021130601 -0.10234746 0.22678946 0.051255282
000170 92 9b 2e be 71 35 95 bd 93 8c 61 3e fb 04 62 bd
       -0.17051533 -0.07285584 0.22026281 -0.05518053
000180 03 56 02 be f7 fd 0c be 86 7c 44 be 28 13 89 bd
       -0.12728123 -0.13768755 -0.19188127 -0.06693107
000190 f3 00 35 be 44 41 88 3c c1 a3 21 be c3 98 e8 3c
       -0.17676143 0.016632684 -0.15785123 0.028393155
0001a0 2f ac a5 be 02 db 9b 3d 6d 8f 24 3d b0 1d 02 3e
       -0.32357928 0.07610132 0.040175844 0.12706637
0001b0 ac 2a e6 bd a4 44 64 be a1 14 c4 bd 67 4a ca be
       -0.11238608 -0.2229181 -0.09574247 -0.3950989
0001c0 ea b9 b2 3d 7f 6a 49 be 73 4b e6 bd bf 8a fc 3d
       0.087268665 -0.19669531 -0.112448595 0.12331151
0001d0 d6 a6 3a be 2a 3a f8 bd df e5 38 be 0f e0 86 3e
       -0.18227705 -0.12120469 -0.18056439 0.26342818
0001e0 1d 7e 9c bc 8f a6 5f be 39 d4 a2 be 7c 8f 1f 3e
       -0.019103104 -0.21840881 -0.31802538 0.15582079
0001f0 7f c8 2b be 8a e9 27 3d 54 6b 1a 3d fc be ce bd
       -0.16775702 0.040994205 0.037700012 -0.10095021

fc2.weight f4 [128, 128]
000000 b4 76 b3 3d ef 4a 3d 3e 52 32 ec 3d 71 4b b5 bd
       0.08762875 0.18485616 0.11533035 -0.0885228
000010 1b e1 e0 bc 39 3d 78 3b 5a 6c 33 bd 29 e9 9d 3c
       -0.027451089 0.0037878288 -0.043804504 0.019276218
000020 fb 72 a6 3d f2 ca 1b 3e dd 02 d3 3d 84 62 ac 3a
       0.081273995 0.15214136 0.103032805 0.0013151919
000030 2f d3 f7 3d 5d 18 ce ba 06 0b 3f 3e 09 15 d8 3c
       0.12100827 -0.0015723814 0.18656549 0.026377218
000040 37 d9 a3 3d e9 aa c8 bc 9d 80 7d bd 6b a6 44 3c
       0.08000415 -0.024495559 -0.061890233 0.012002568
000050 03 98 82 3c e6 2e fe bd 09 04 d0 3a 66 0e 3c be
       0.015941625 -0.12411289 0.0015870343 -0.18364868
000060 7d c7 d0 bd 7f 54 80 bc 95 25 a4 3d 1a 3e ac 3d
       -0.10194299 -0.01566529 0.08014981 0.084102824
000070 dd ec 7b 3c 2f b6 95 bc d8 bf 25 be 9b 43 1c 3c
       0.015376297 -0.018275348 -0.16186464 0.009537603
000080 27 b2 1b 3d 1a 01 aa bd 45 c1 a3 3c 63 9b 12 be
       0.038011696 -0.08300991 0.019989619 -0.14317088
000090 c5 9d a7 3c 50 ee b8 3b d2 39 c4 3d 08 e3 9c bb
       0.020460973 0.0056436434 0.09581341 -0.0047878064
0000a0 c1 c7 19 3e ba 3c 99 3d 1c 88 d1 bc a2 69 93 be
       0.15017606 0.07482286 -0.025577597 -0.2879153
0000b0 87 99 04 3e f8 47 b3 3d e4 78 03 be b0 b0 95 bb
       0.12949191 0.08753961 -0.12839085 -0.004568182
0000c0 ef 19 fc bc f4 43 ae bd 98 16 0f 3e 68 46 9c 3d
       -0.030774085 -0.08509055 0.13973463 0.076306164
0000d0 63 be e9 bd 5e 29 7e 3d 48 68 79 bc 92 3a e4 3d
       -0.114132665 0.06205117 -0.0152226165 0.11143984
0000e0 c1 7b a8 3d cf 44 91 bd 8b 20 3d be 8f d4 67 bd
       0.08226729 -0.07093202 -0.18469445 -0.056599196
0000f0 ed 30 c4 3d 22 ef eb bc 7d 8a 0d be d0 b8 d1 3d
       0.09579644 -0.02880055 -0.1382236 0.10240328
000100 41 2c 33 3d 4f d9 4d 3d a3 ba aa 3d 19 0c 74 be
       0.043743376 0.05025607 0.083363794 -0.2383274
000110 e7 71 19 3e 19 62 9c bc 11 85 70 3d 37 68 a6 bb
       0.14984857 -0.019089745 0.058720652 -0.0050783413
000120 e5 22 77 bd 57 31 b1 3c 5d c9 5a 3d 5d 6d 30 3e
       -0.060336012 0.021629972 0.05341469 0.17229219
000130 53 c9 88 3d 0f a8 9e bb 4f d1 18 3c 09 ff 4a 3e
       0.066790245 -0.0048418115 0.009327247 0.1982385
000140 36 ce 45 3e 4d 41 00 3d c3 3c f6 bd a3 69 4d be
       0.19316944 0.031312276 -0.12023308 -0.20059828
000150 9d f8 67 be 34 29 b9 bc 2a c8 f4 3c 26 bf be 3d
       -0.22653432 -0.022602655 0.029880602 0.093138024
000160 e1 a1 6a 3c 42 ee 4a be b4 c6 87 3d ca 7b aa 3d
       0.0143208215 -0.1981745 0.066296965 0.08324392
000170 55 86 1c 3e 89 15 4c 3c db 32 34 3e 23 2b 53 bd
       0.15285619 0.012456306 0.17597525 -0.05155481
000180 06 0b 2e 3e 33 38 b8 3d 56 23 e7 bd ad ae 04 be
       0.16996393 0.08995094 -0.11286037 -0.12957259
000190 38 71 df 3c 44 b6 12 be 1e 86 27 be ff fc b1 3c
       0.027275667 -0.14327341 -0.16359755 0.021727083
0001a0 a1 10 a0 bd 28 f5 c8 bd bd c8 d6 bd a0 a1 58 bd
       -0.07815672 -0.09812385 -0.104875065 -0.052888513
0001b0 5d 0b 12 3e 9b a9 4f 3d ec f4 8a bd bc b9 56 bc
       0.14262147 0.050698858 -0.067849964 -0.013105806
0001c0 b7 04 8e bd ec 65 d7 bb 45 e0 90 bd 0b 76 d8 3d
       -0.06934493 -0.0065734293 -0.07074026 0.1056939
0001d0 4d 9f 81 3d 6c 18 29 be b4 99 13 be ef a6 eb bc
       0.06329212 -0.16513222 -0.14414102 -0.028766124
0001e0 09 51 36 3e 4c ff 11 bd 9c 7a bd 3d e6 be c3 3d
       0.1780435 -0.03564386 0.092519015 0.09557895
0001f0 25 a0 f8 3c d7 26 3c 3d 78 51 8d bc e8 13 9f 3c
       0.0303498 0.045935478 -0.017250761 0.019418672
000200 c0 9d 6d 3e 4a 09 86 bd e4 46 bf be ef 6d 2a be
       0.23204708 -0.065447405 -0.37358773 -0.16643499
000210 ca 74 e6 bd e5 b1 80 bd 32 d9 59 bd d2 34 35 be
       -0.112527445 -0.06283931 -0.05318565 -0.1769593
000220 a1 a3 67 bd 3f 88 c2 bd c7 f8 1b bd 0a a4 bd 3c
       -0.056552533 -0.09498643 -0.03807905 0.023149509
000230 38 84 36 3c f8 4c ba bc c3 4d 92 bb 61 a6 66 3d
       0.011139922 -0.02274178 -0.0044648363 0.056311015
000240 51 3e 04 be 19 15 8e bb 79 71 9b 3d 27 59 d7 3c
       -0.12914397 -0.004336011 0.075900026 0.026287628
000250 80 d4 6f 3d 1c 80 02 bd d1 6c 3d 3d 96 5d 20 bd
       0.058552265 -0.031860456 0.046246354 -0.03915175
000260 b3 d5 5a 3c 9c 5d f7 3d 29 3e 11 3d 0d a7 1d be
       0.013356614 0.120784014 0.03545967 -0.15395756
000270 7d 36 41 3e 38 a1 4f bd d4 98 36 3d 90 46 6c bd
       0.18868442 -0.05069086 0.044579342 -0.05768448
000280 d9 f4 dd 3c f2 8b 61 3e 0b 04 69 3d 39 86 6e 3d
       0.027094292 0.22026041 0.05688862 0.058233473
000290 f4 82 d6 bd 06 ea cd 3d 1c 3b 27 3e 13 84 4d bc
       -0.10474196 0.10054402 0.16331142 -0.012543696
0002a0 70 b4 3b bd c6 84 f5 3c 38 9d 3f 3c ef d1 b0 3d
       -0.045826375 0.029970538 0.011695199 0.08633792
0002b0 02 b9 c0 3d 77 01 2b be 5b b4 2e 3c 95 eb 47 3d
       0.094102874 -0.16699778 0.010663117 0.048808653
0002c0 42 ff f3 bd 40 fd 8b be a3 be 20 3d 0c 1c 3a bd
       -0.11913921 -0.27341652 0.039244305 -0.045436904
0002d0 38 19 c3 3d a1 b2 10 bd 59 6b cd 3b 04 68 f3 bc
       0.095262945 -0.035326604 0.0062689004 -0.029712684
0002e0 ea df 29 3d 57 87 19 bd b1 cc 38 3e b8 f9 a9 bd
       0.041473307 -0.037482586 0.18046834 -0.08299583
0002f0 b9 44 ab bd 47 1b a8 bd 06 1a b9 bd de 82 1d 3c
       -0.08362717 -0.08208328 -0.09038167 0.009613721
000300 30 36 c2 bd cc 39 03 3d 5e d3 8d 3d e2 ed 34 3e
       -0.09482992 0.03203754 0.06925081 0.1766887
000310 62 21 24 be fb 1c e2 bd 87 de 01 bd 3a a0 5f bc
       -0.1602836 -0.11040684 -0.03170636 -0.013649041
000320 56 32 1c 3e 1c 5a 10 be 2b ea 9e 3d b3 77 60 bd
       0.15253577 -0.14096874 0.07759508 -0.054801654
000330 dd f8 56 3c 37 fb 56 3d f8 ca 01 be 13 16 6d 3d
       0.013120857 0.05248567 -0.12675083 0.05788238
000340 a5 8e bc 3d c6 ca 7a bd 82 7e fe bd 90 12 61 3e
       0.09206895 -0.061228536 -0.12426473 0.21979737
000350 9d 70 8d 3d 68 75 0e 3d 9f 62 6c 3d 40 d6 2d bb
       0.06906245 0.034779936 0.05771124 -0.0026525408
000360 d7 6e fd 3d c7 58 7f bb c9 12 32 3e 16 91 90 3e
       0.12374657 -0.0038962828 0.17389978 0.28235692
000370 89 61 8d be 3e 81 14 be e5 d5 d5 3c f2 3b 43 3d
       -0.27613476 -0.14502427 0.02610297 0.04766459
000380 33 51 71 be 78 f7 e7 3c e4 2a 13 bd 5d b0 20 3e
       -0.23566131 0.028316244 -0.035929576 0.15692277
000390 9a a9 83 be 49 5d da 3d 40 dd 6c 3d 50 d5 13 be
       -0.25715333 0.10662324 0.057828188 -0.14436841
0003a0 4b b3 93 3e 31 8d 71 3e e6 e5 84 3d 4f 7b 05 3c
       0.28847727 0.23589016 0.06489162 0.008147075
0003b0 ac 82 1d be 5e b9 78 be b9 88 db bc 96 78 5f 3d
       -0.15381879 -0.24289462 -0.026798593 0.05455836
0003c0 13 44 63 3d 9f 01 9a 3c 57 62 71 bc ca 20 e7 bd
       0.055484843 0.018799601 -0.014732919 -0.11285551
0003d0 88 e5 7a bd 73 85 c8 bd a3 59 f6 bd 44 b5 d4 bc
       -0.061254054 -0.097910784 -0.120288156 -0.02596534
0003e0 ed a6 52 bd 18 8b d0 3d 28 1e 8a be 18 e8 3b bd
       -0.051428724 0.1018278 -0.26976132 -0.04587564
0003f0 8e 62 be 3d 61 80 f8 3d 5d bb 11 3e 69 97 22 bd
       0.092961416 0.12133861 0.1423163 -0.039695177

fc2.bias f4 [128]
000000 68 e1 83 3d 00 5d a1 3d e9 d1 58 bb 03 60 1e 3e
       0.06439477 0.078790665 -0.00330841 0.15466313
000010 02 44 14 be af c3 96 bc f6 c1 4c bc f2 6e e6 3d
       -0.14479068 -0.018403856 -0.012497416 0.1125163
000020 d0 24 30 3e d3 fc 53 3e c3 ce c7 3d d5 56 33 bd
       0.17201543 0.20701914 0.097562335 -0.04378398
000030 70 e3 9a 3d 99 44 fc 3c a6 6b be 3d bc 08 d0 3a
       0.075629115 0.030794429 0.09297876 0.0015871744
000040 6a 43 87 3e 2f 0d 41 3a ba 90 fd bb 02 3a f6 3d
       0.2641862 0.000736433 -0.0077382 0.12022783
000050 02 f3 57 3c 84 eb 35 3e bd b4 ec 3d 84 4e 62 3e
       0.013180496 0.17765623 0.115579106 0.22100264
000060 c9 60 90 3c cc 79 74 3d e9 23 24 39 92 3f 9f 3d
       0.017624276 0.059686467 0.00015653636 0.07775797
000070 fa 40 23 bb df c6 bc 3d 17 58 07 3e 01 48 99 3c
       -0.0024910555 0.09217619 0.13217197 0.018711092
000080 b9 b3 03 3d 27 30 35 3d 8d e1 e8 3c 59 eb ce 3b
       0.03215382 0.044235375 0.028427863 0.0063146767
000090 78 4f 51 3d f9 ea e3 ba 65 72 52 3d d1 dd 1e 3e
       0.051101178 -0.0017388753 0.051378626 0.15514304
0000a0 3a 80 d4 3d 44 34 73 3e 0f e7 c5 3d a1 f3 d3 3d
       0.1037602 0.23750407 0.096632116 0.10349203
0000b0 85 61 b2 3d e3 5b 96 3d 1b 9a 4a 3d 61 c9 79 3d
       0.087100066 0.07341745 0.049463373 0.060983066
0000c0 e4 7d d8 bd 1f 80 61 3e 3e ac 63 3e 31 56 89 3e
       -0.10570887 0.2202153 0.22233674 0.2682357
0000d0 d1 39 d5 3c 88 1b 99 bc e9 48 00 3e eb e7 e2 3d
       0.026028546 -0.018689886 0.12527813 0.11079391
0000e0 ee 39 22 3d 14 40 2e 3e d0 aa 8a 3e 74 bb 2d be
       0.039606027 0.17016631 0.27083445 -0.16966039
0000f0 a3 ce 17 3d 83 16 b6 3d 85 80 cb 3c 13 45 63 bd
       0.0370623 0.088910125 0.024841556 -0.055485796
000100 e7 97 d7 3d 3f 4c 4d bd 5d 28 58 3e 91 d3 28 3d
       0.1052702 -0.050121542 0.21109147 0.04121739
000110 17 f3 ff bc 3a 74 5d bd b9 6a 62 bd 02 6b 02 bc
       -0.031243844 -0.05406592 -0.05527756 -0.007960083
000120 65 ec 01 3e b3 29 87 3d b7 fa 96 3d 1d 10 5a bd
       0.12687834 0.0659975 0.07372039 -0.053238023
000130 53 e5 47 3e 65 fd c8 3d f6 a0 36 3e 7e 25 95 b5
       0.19521074 0.09813956 0.17834839 -1.1112277e-06
000140 f4 34 21 3e 1e a3 71 bd d2 42 57 3d cb 41 41 bc
       0.15742856 -0.05899345 0.05255396 -0.011795471
000150 c4 c6 b0 3d 3f 5e 3b bd cd d7 20 bd 9f de 34 bb
       0.086316615 -0.045744177 -0.039268304 -0.0027598513
000160 0c bd d4 3d b0 c0 ca 3c 07 f5 2c 3e cf 6a fa 3c
       0.1038762 0.024750084 0.16890346 0.030568508
000170 3b a3 0b 3e 01 d9 89 3d b1 1c 69 bc 34 80 09 bb
       0.13636486 0.06730843 -0.014228032 -0.0020980956
000180 b2 78 3f 3d 82 c7 1d 3e 3c cf 66 3d 93 b5 27 3d
       0.046745963 0.15408137 0.056349978 0.040944647
000190 45 39 02 3e 0c 85 53 bd 5f a7 8f 3d 2a fd df 3d
       0.12717159 -0.051640555 0.070143454 0.10936959
0001a0 a8 78 88 3d 68 e0 99 bc ac 1a 76 bb c5 59 04 3e
       0.06663638 -0.018783763 -0.0037552519 0.1292487
0001b0 31 1c 43 3c 74 ce 23 3e f6 dc aa 3c 3e 45 19 3e
       0.011908577 0.15996724 0.020857316 0.1496782
0001c0 0d 85 a5 3d 94 aa 71 3d 9f cc c6 3d 2c 8c a4 3d
       0.08082018 0.059000567 0.09706997 0.08034548
0001d0 42 bd 72 3e c4 5e 7b bd 17 f8 8c 3d cb ed 22 3e
       0.23705009 -0.061369672 0.06883257 0.15911023
0001e0 fa dc b3 3d 53 94 98 3b df 0c 34 bd e3 8b 3f 3e
       0.08782382 0.0046563535 -0.043957587 0.18705706
0001f0 f7 a5 7b 3e 90 db 39 bd e6 b5 b6 3d b6 bd d6 b9
       0.2457503 -0.045375407 0.08921413 -0.00040958606

fc3.weight f4 [2, 128]
000000 d2 58 58 3e 29 38 7c be 0a a8 a7 be 12 d3 22 be
       0.21127632 -0.24630798 -0.3274539 -0.1590083
000010 06 f9 3f be 2b 03 17 3e a4 55 8c 3e 00 68 15 3e
       -0.18747339 0.14747302 0.2740909 0.14590454
000020 db ae ea bd a8 b0 7b be 9f 8f b7 3c 17 3f 1f 3f
       -0.11459132 -0.24579108 0.022407351 0.6220564
000030 ee 95 85 be 39 8a 76 be 25 b0 9a 3d 14 cb b5 3e
       -0.2609095 -0.24076165 0.07553128 0.355065
000040 2f 93 08 be a8 73 05 3e 78 95 ef 3e 16 14 99 3e
       -0.13337396 0.130324 0.46793723 0.29898137
000050 ef 6f 88 bc b9 e2 59 3e 52 e7 56 3e f1 ae 0e bd
       -0.016654937 0.21277894 0.20986679 -0.034834806
000060 0d 9d 1b 3f ce 1d 3e 3e 62 eb f3 3e 27 f6 77 3e
       0.60786515 0.18566057 0.4764052 0.24214993
000070 be 20 82 be 76 cb 70 be 55 bc 9c bd be f5 1d be
       -0.25415605 -0.23515114 -0.07653109 -0.15425774
000080 04 13 f6 bc 4c b8 eb 3e 46 9c 5c 3e f1 ad 70 3d
       -0.030038364 0.46039045 0.21543989 0.058759633
000090 02 65 88 be fe 76 69 be 09 1d 8a 3e 5c 87 5c be
       -0.26639563 -0.22799298 0.26975277 -0.2153601
0000a0 10 d6 81 be 83 9b cd bd ff c9 08 be a0 ce 9a be
       -0.2535863 -0.10039427 -0.13358305 -0.30235767
0000b0 43 66 90 be 86 52 83 be 3c 34 7c 3e 2a 6d 6d 3e
       -0.2820302 -0.25648898 0.24629301 0.23186174
0000c0 58 3b 18 3f 33 c4 cc 3c a6 f5 2d bd 59 4d 05 be
       0.5946555 0.024995899 -0.042470597 -0.13017787
0000d0 d1 2c 60 3e 5f 93 93 3e a7 21 ce 3e 9b ac 5c 3e
       0.21892096 0.28823373 0.4026005 0.21550219
0000e0 4c 47 63 be 09 74 07 3d f7 ac a1 bb 63 62 de 3e
       -0.22195166 0.033069644 -0.004933949 0.43434438
0000f0 70 2f 0a be 36 c6 6f be 72 b4 98 3e 76 47 e3 3e
       -0.13494658 -0.23415455 0.2982517 0.44390458
000100 e9 c1 4c 3e b5 f8 c2 3e 74 ec 83 be 0a 18 99 3e
       0.19995846 0.38080373 -0.25766337 0.29901153
000110 49 13 d2 3e 3e f1 88 be 89 2a 20 3f 70 9a 11 3e
       0.41030338 -0.26746553 0.62564903 0.1421907
000120 0a 74 b2 3d e5 4f 90 3e 1c 5c cc 3e 1b 81 81 be
       0.08713539 0.28185955 0.39914024 -0.25293812
000130 55 cf 51 be e0 24 43 3d 72 e5 3b be 67 05 80 3e
       -0.20489247 0.04764259 -0.18349245 0.25004122
000140 10 7e a5 3e df 11 c3 3e 5f 72 c6 3e 33 05 23 be
       0.3232274 0.38099572 0.38759133 -0.15919952
000150 f0 e5 79 3e 3a ef aa 3e 9d 9c 85 3e 7a 46 b4 3e
       0.2440412 0.3338564 0.2609605 0.3521002
000160 a2 ef 84 3e a0 f8 a0 3e f9 68 90 be 06 75 c4 3e
       0.25964075 0.31439686 -0.28205088 0.38370532
000170 22 28 14 be c6 a3 04 3f fb fd d6 3d 31 17 cb 3e
       -0.14468434 0.518124 0.10497662 0.3966613
000180 8d 49 85 be 6d fd 9e 3e de d9 4c be 96 22 1b 3e
       -0.26032677 0.31052724 -0.20004985 0.15149912
000190 73 38 52 bd 6e 9e 1e 3f 5e 9e a1 3e ac c6 54 be
       -0.051323365 0.61960495 0.31566137 -0.20778912
0001a0 17 2d 8a be a2 15 e0 3e b0 89 97 3e 22 d3 6f be
       -0.26987526 0.43766505 0.29597235 -0.23420385
0001b0 6b b1 a0 3e 2b bd 3e 3e 84 62 7d 3e 8e 46 25 be
       0.3138536 0.1862685 0.24744612 -0.16140196
0001c0 b9 98 4e be df 63 29 be ee d8 7d be 18 f3 19 3e
       -0.20175447 -0.16542004 -0.24789783 0.15034139
0001d0 c4 fd 82 bc de ab dd 3e 8e 5b a3 3e af 68 21 be
       -0.015990146 0.43295187 0.31905788 -0.1576259
0001e0 af 45 08 bd 6e 60 1f 3f 98 fc 02 3f ee 95 f7 bd
       -0.03326958 0.62256515 0.5116668 -0.12089144
0001f0 0b 19 9d 3e 33 96 a0 3e 3a 19 3b 3e 32 6d ab 3e
       0.3068317 0.31364593 0.18271342 0.33481747
000200 95 6b 24 bd 06 25 66 bd 32 24 cc 3b 45 f4 12 be
       -0.04014166 -0.056187652 0.0062299008 -0.14350994
000210 65 c7 7c 3e 1b 0d 89 be c8 11 06 be 24 1d 3f 3e
       0.24685438 -0.2676781 -0.1309272 0.1866346
000220 52 62 af be 77 98 66 be e1 9e c2 be 59 9b 6c 3d
       -0.342547 -0.22519098 -0.3801184 0.05776534
000230 ef 30 eb bc 45 0d 36 3e 9c 5c fa 3e a9 3a 14 3d
       -0.028709857 0.177785 0.4889878 0.036188755
000240 b4 66 23 3f 1a 34 1f be c3 68 ce be 7c aa f9 be
       0.6382859 -0.15547219 -0.40314302 -0.48762882
000250 72 4f 00 3f 43 d7 ae 3e 82 e0 0c bf d8 0f 41 bf
       0.50121224 0.34148607 -0.5503007 -0.754148
000260 fa 68 3e be 57 dc 13 3f 47 b5 ba 3e 79 51 27 be
       -0.18594733 0.57758087 0.3646643 -0.16339673
000270 aa 27 1d 3e 87 66 d9 bd 50 a3 05 bf a1 73 96 bd
       0.15347162 -0.10615259 -0.5220232 -0.07346273
000280 41 90 31 3f 98 f3 ae bc 86 2f de be 74 39 0f 3f
       0.6936074 -0.021356389 -0.43395633 0.5594704
000290 8f 6f 93 3c 59 7a 4b 3d b7 60 dd be 30 34 9f 3e
       0.017997531 0.049677227 -0.4323785 0.31094503
0002a0 00 13 f8 bd 45 54 1f 3f d7 20 06 be 8f 96 17 be
       -0.12112999 0.6223796 -0.13098465 -0.14803527
0002b0 74 77 1f be 6d a1 9b bd ab 51 c2 3d 65 06 e8 be
       -0.15572912 -0.07599149 0.09488233 -0.4531738
0002c0 24 35 47 be b8 d7 16 bf 2e a8 20 bf a7 2c ab be
       -0.19453865 -0.5892291 -0.6275662 -0.33432505
0002d0 12 52 11 bf ec de 3e 3e 2d 92 84 be 7f 1b de 3e
       -0.56765854 0.18639725 -0.25892773 0.43380353
0002e0 c1 ac 8b 3d 6f f4 30 bf 01 0a 29 3f 31 c3 13 3f
       0.068200596 -0.69122976 0.6603089 0.57719713
0002f0 8e 76 65 3d 43 ce 49 bd e1 1c 8d bd 41 c1 e0 bd
       0.056021266 -0.049268972 -0.06890274 -0.1097436
000300 69 0b 22 be 08 b7 b3 3d ff c6 2e bd ef 27 05 bf
       -0.15824665 0.08775145 -0.042670246 -0.5201406
000310 fb 1e ae 3e af e7 b6 3d 99 19 3b 3d c3 73 34 3f
       0.3400801 0.08930909 0.04567871 0.7048914
000320 75 74 05 3f b4 81 d7 bd 4d e9 90 be d1 90 13 3e
       0.52130824 -0.10522786 -0.28302994 0.14410712
000330 05 5e c3 bd 65 71 24 bf 66 3e 17 be 5f 57 0d bd
       -0.09539417 -0.64235526 -0.14769897 -0.03450715
000340 c5 1c 86 3e 2b 17 18 3d e9 b8 6d be 8c c5 0b 3e
       0.26193824 0.03713147 -0.23215069 0.13649577
000350 80 87 b4 3e 5e f7 7e 3e 07 2d da 3d 52 80 c0 be
       0.35259628 0.2489905 0.106531195 -0.375979
000360 6d e2 29 3e eb 3f 7f 3e 14 dd 72 be 2d 5f c3 be
       0.16590281 0.24926727 -0.23717147 -0.3815855
000370 a1 56 02 3e c0 91 39 3e 2a d8 2b 3f 49 a0 42 be
       0.12728359 0.18122005 0.67126715 -0.19006456
000380 92 78 c4 3d 15 47 dd bc 4c 05 39 bd ee ea 17 3e
       0.095933095 -0.027011434 -0.045171067 0.14835712
000390 6b a8 3c bf 40 a7 cd bc 47 5a 16 3f 5a 93 27 3d
       -0.73694485 -0.025104165 0.587315 0.04091201
0003a0 d5 46 4a 3e d4 06 96 bc 2f df 8f 3e ea ab f0 bc
       0.19753583 -0.018313803 0.28099963 -0.02937885
0003b0 8c 39 ab 3e 64 60 84 be ed d5 84 3e 3e d7 c1 bd
       0.33442342 -0.2585479 0.25944462 -0.09464882
0003c0 9f e5 9c bd 6b 87 6f be 8c 62 84 bd eb ed 1a 3f
       -0.07660984 -0.23391502 -0.06464109 0.60519284
0003d0 4c c2 f6 3e 7b 58 3c be f9 0c 02 3c 53 1a d8 bd
       0.48195112 -0.18393128 0.007937663 -0.10551896
0003e0 ba f9 16 3f ef 56 ca 3d 78 fc 31 3e b3 78 07 bf
       0.589748 0.098798625 0.17381465 -0.5291855
0003f0 d2 60 9f 3d 8f 36 dd 3e 9b 30 c8 bb f3 48 84 3e
       0.07782139 0.43205687 -0.00610931 0.25836906

fc3.bias f4 [2]
000000 8e 38 f3 bd 0f 64 c1 3b
       -0.11876021 0.0059018205

bn1.weight f4 [128]
000000 2a 8c 4b be 10 52 80 3f c6 c1 69 3f 9a dc 6c 3f
       -0.19877687 1.0025043 0.913113 0.9252411
000010 8a 94 c0 3e cf 3d 18 3f 94 f8 8c 3f dc 3b 5c 3e
       0.37613326 0.5946931 1.101336 0.2150721
000020 80 a4 50 3f 8c 15 17 3f 88 33 5c 3f f3 df 84 3f
       0.8150101 0.5901725 0.8601613 1.0380844
000030 34 71 b5 3e 4c 59 aa 3e 4c 7d ba 3e 9e 34 5b 3f
       0.3543793 0.33271253 0.3642372 0.8562716
000040 54 e6 52 3e 01 58 df 3e e7 7a 59 3f e4 ba 29 3f
       0.20595676 0.4362183 0.8495316 0.663008
000050 f1 34 2c 3f 9b e6 d2 3e b7 37 95 3f 50 d2 70 3f
       0.6726828 0.41191563 1.1657628 0.9407091
000060 05 30 17 3f ba e7 ef 3e e0 05 6c 3f fc 37 60 3f
       0.59057647 0.4685648 0.92196465 0.87585425
000070 a0 87 dc 3e 3c 97 10 3f 18 44 76 3f 82 b5 6b 3f
       0.43072224 0.56480765 0.9619765 0.92073834
000080 15 18 81 3f c1 99 8a 3e 13 2a 92 3e 18 ec 7e 3f
       1.0085474 0.2707043 0.28547725 0.99579
000090 8f 37 5a 3e b5 15 65 3f b1 f2 b0 3e ef b0 3f 3f
       0.21310256 0.8948625 0.3456016 0.74879354
0000a0 65 fd 49 3f 97 9b 2e 3f 91 ed 13 3e 36 61 94 3f
       0.78902274 0.6820616 0.14446093 1.1592166
0000b0 48 90 e0 3e e8 9f 1b 3f 54 e8 80 3f 5c 59 a3 3e
       0.43860078 0.6079087 1.0070901 0.31904113
0000c0 06 25 8a 3f cb 4d 46 3f 91 d2 91 3f 1f 45 71 3f
       1.0792549 0.7746245 1.1392385 0.94246095
0000d0 76 91 72 3f bc 61 2a 3f 69 19 8d 3f eb 6e e2 3e
       0.94753206 0.6655538 1.102338 0.4422525
0000e0 2a dd aa 3e 91 7b 5a 3f 70 cd 90 3f 70 42 cf 3e
       0.3337186 0.853448 1.1312695 0.40480375
0000f0 f6 e5 82 3f 39 8f 5c 3f e4 f2 c5 3e e1 c5 93 3f
       1.0226429 0.8615604 0.38661873 1.1544763
000100 22 8b dd 3e 5e d7 7e 3f f4 a0 7c 3f df b5 0b 3f
       0.43270212 0.99547374 0.98683095 0.5457439
000110 35 2a 88 3e 0d 48 93 3e 14 7d e8 3e f8 6e 50 3f
       0.265947 0.28765908 0.45407927 0.81419325
000120 7a 22 16 3f 13 c3 14 3f 43 5d 43 3f 7c 6f 15 3f
       0.5864636 0.5811016 0.7631418 0.58373237
000130 b6 37 64 3f 62 f7 46 3f 1b e3 98 3f 5a e5 82 3f
       0.8914751 0.77721226 1.1944307 1.0226243
000140 31 5f ee 3e 6e 53 3b 3f 11 37 e1 3e 48 5e 0f 3f
       0.46557 0.7317418 0.43987325 0.56003237
000150 0f dd 8a 3f 4e 6d 24 3f 21 7e 43 3f ae 0b 47 3f
       1.0848712 0.64229286 0.7636433 0.77752197
000160 49 63 0c 3f 0c 7b 28 3f 8a 30 35 3f 73 11 6c 3e
       0.54839 0.65812755 0.7077719 0.23053531
000170 f4 26 1e 3f c0 74 a2 3f 9f 76 54 3f 51 f6 c4 3e
       0.6177819 1.2691879 0.829935 0.38469175
000180 89 99 1f 3f 24 1d d4 3e 2d bb 02 3f cb 22 89 3f
       0.6234365 0.41428483 0.5106686 1.0713743
000190 8d 8e 10 3f a9 45 61 3f ab ef 35 3f 77 05 ab 3e
       0.56467515 0.8799692 0.7106883 0.33402607
0001a0 bb 46 b7 3e 4a 58 4c 3f 3d 26 73 3f 9f fc 0e 3f
       0.3579615 0.7982222 0.9498022 0.5585422
0001b0 06 ce 1d 3f 96 53 17 3f 0c 8c 6d 3f 62 0c d6 3e
       0.6164249 0.59111917 0.9279182 0.41806322
0001c0 60 1e 6c 3f 7d 8d f4 3e 15 8f 8e 3e 04 b9 32 3f
       0.9223385 0.47764197 0.27843538 0.6981356
0001d0 27 32 33 3f b5 6d db 3e 2e 3f 8b 3e c3 ab ed 3e
       0.699984 0.42857137 0.2719664 0.46420106
0001e0 83 00 e3 3e ca 2f 1e 3f 83 1a 2a 3f 03 90 1a 3f
       0.44336328 0.6179167 0.66446704 0.60375994
0001f0 45 b3 74 3f 9a a7 73 3f 69 35 0f 3f 3c 04 8d 3e
       0.95586044 0.95177615 0.5594087 0.27542293

bn1.bias f4 [128]
000000 b3 11 25 3e 42 ec f6 bd 96 cb d3 bd 44 63 c6 bc
       0.16120033 -0.12056781 -0.10341565 -0.024217255
000010 77 2d 4a be 73 4b b6 bc 10 d9 48 bd af fc 33 be
       -0.19743906 -0.022252774 -0.049035132 -0.1757686
000020 2a dd d5 3b 23 a1 2b 3d 5b 0e c6 3d 82 3e 09 be
       0.006526609 0.04190172 0.09670707 -0.13402751
000030 83 c8 25 bd db 03 15 3b 05 1c 1f be 50 42 d5 bc
       -0.040474426 0.0022737894 -0.15538032 -0.026032597
000040 cc 02 0a be 4b a3 0e bd e9 9e eb 3b 45 6a e0 3c
       -0.1347763 -0.034823697 0.0071905744 0.027394423
000050 8b 3f b6 bd 55 c6 1e be b9 8e 46 bd ae 22 b0 bd
       -0.088988386 -0.15505345 -0.048475955 -0.086003646
000060 bc 82 cd bd dc 97 8b bd 47 c2 32 bd 13 22 51 bc
       -0.10034701 -0.06816074 -0.04364231 -0.012764472
000070 28 63 09 3e d9 45 aa bd 19 29 2a bc d8 3a 2e bb
       0.13416731 -0.08314104 -0.010385775 -0.0026585367
000080 55 99 28 3d 7d 59 ed 3d b3 59 17 3b e7 9c 4a 3d
       0.041161854 0.11589334 0.0023094236 0.04946604
000090 ca e1 3d be 29 2b 8e 3d 0e 0f 14 3e 1b 22 f6 bc
       -0.18543163 0.06941826 0.14458868 -0.03004556
0000a0 3a 97 ed 3c 81 a5 6a 3c 8d 4f 56 bd 69 a8 43 bc
       0.029002775 0.014321686 -0.05232196 -0.011942008
0000b0 42 50 f5 3d e9 68 e2 bd 65 23 06 3e 5e ca 86 3c
       0.119781986 -0.11055166 0.1309944 0.016453918
0000c0 eb 14 c1 bd df 15 8f bd 4d a1 b1 bc bf 97 a1 3d
       -0.09427818 -0.069865935 -0.02168336 0.078902714
0000d0 a7 d3 83 bd 95 be 90 3d c8 fa 7a bc c4 2a ed bd
       -0.06436854 0.07067601 -0.01531858 -0.115804225
0000e0 a7 6e 6c bc c0 ee f5 bd 92 e6 67 bd 4b e5 89 bd
       -0.014430678 -0.120084286 -0.056616373 -0.06733187
0000f0 60 74 8a bd 53 c3 26 bd 5a 5d 9c bd e5 26 f4 bd
       -0.06760478 -0.04071362 -0.07634993 -0.11921481
000100 91 70 68 3d f6 77 09 bd 9e c4 b6 bd 5e c0 b7 3a
       0.056747977 -0.03356167 -0.089242205 0.0014019122
000110 f3 fa 32 bc a0 28 36 3d c3 cf 9a 3b 85 fb bf bd
       -0.010924089 0.044472337 0.004724474 -0.093741454
000120 e8 97 8e bd 65 ef 1d be e5 11 50 3d f8 bd 84 bd
       -0.069625676 -0.15423353 0.050798316 -0.06481546
000130 a7 9e 14 bd b2 a5 e7 bc 67 0e 2f 3d 96 77 80 bc
       -0.036284115 -0.028277252 0.042738345 -0.015682023
000140 9d 37 14 bc f0 a8 0a be 48 24 ed bd 93 f4 24 3d
       -0.009046462 -0.13541007 -0.11579186 0.040272307
000150 20 b9 c6 bd ad ed 34 bd f1 ed 00 bd 68 ad f6 3c
       -0.097032785 -0.044171978 -0.03147692 0.030111983
000160 6f 60 0f 3d 0f ab 1b bd 00 5a d5 3d 45 b5 6d 3e
       0.035004076 -0.03800493 0.10417557 0.2321368
000170 c8 8b ef 3c 83 95 d0 bc 2b 21 02 bc 30 0e e9 bd
       0.029241458 -0.025461918 -0.007942478 -0.11379659
000180 d6 e0 32 bd ad f8 ff bd 1f 3a 9a be c0 44 47 bd
       -0.04367145 -0.12498603 -0.30122468 -0.04864955
000190 bf 86 ea bd 09 d1 5f bd b1 5c dc bd bb fc 1a be
       -0.11451482 -0.05464271 -0.10759867 -0.15135472
0001a0 4a 4c 0d 3d f8 d9 e0 3c 8c 22 75 bd 9d 16 c7 3d
       0.034496583 0.027447686 -0.0598474 0.0972111
0001b0 d2 b1 1a bd f4 87 90 bd df ee 8e 3d 62 c0 3f bd
       -0.03776724 -0.07057181 0.06979155 -0.04681433
0001c0 da ca c6 bd e2 85 bf bd 2f 45 c5 bc d8 44 ad bd
       -0.097066596 -0.09351708 -0.02408084 -0.084603965
0001d0 6c ca 50 3c 32 25 8c bc 7e 2d af 3d 7b ca 8b bd
       0.012743574 -0.01710758 0.08553599 -0.068257295
0001e0 5f c4 6c be 84 ee 1e bd 04 2f 5f be dc a6 18 bd
       -0.23121785 -0.038801685 -0.21795279 -0.037268505
0001f0 3c 07 1a bd e5 2d 44 3d fb ec 8b bb 6e 89 1f bd
       -0.037604555 0.04789533 -0.0042701936 -0.038949423

bn1.running_mean f4 [128]
000000 2e 34 31 3f 04 00 00 00 ac 1a 9f 3d 53 18 2e 3e
       0.69220245 6e-45 0.07768759 0.17001466
000010 d2 43 6b 3f 2d 4d cd 3d 31 c9 34 40 85 fc 1a 3f
       0.9190036 0.10024486 2.8247797 0.60541564
000020 84 87 58 3f 65 1c 1f 40 c5 ca ac 3f de 52 cf 3f
       0.8458178 2.486108 1.349938 1.6197164
000030 49 55 a6 3f 20 aa 2e 3d 69 97 4d 3f bb 57 4c 40
       1.2994777 0.042642713 0.8030916 3.1928546
000040 99 43 ea 3f 23 10 8c 3e 05 45 e8 3c 0e 1a 1d 3f
       1.8301879 0.2735606 0.028353224 0.6136788
000050 b3 d1 f3 3e 3e e5 72 3f 5d 68 19 40 de 0e 24 40
       0.47620925 0.94881046 2.3969948 2.5634074
000060 05 a0 b1 3e 70 26 0f 3e 21 f2 26 3f 4d 28 03 3f
       0.34692398 0.13979506 0.6521321 0.5123337
000070 a2 b9 85 40 22 7e f2 3d 72 49 d2 3d 45 65 22 3e
       4.1789103 0.11840464 0.10267915 0.15858944
000080 f4 b8 4f 3d 8e 19 6c 3e bd 56 12 3f 04 00 00 00
       0.050713494 0.23056623 0.571636 6e-45
000090 5d 98 29 40 d6 07 c7 3f 6b ae 24 40 aa 86 1c 3e
       2.6499245 1.5549266 2.5731456 0.15285745
0000a0 b4 e1 27 3c d8 83 5f 3f 9a 6d 89 40 e6 dd 14 3f
       0.010246683 0.8731055 4.294629 0.5815109
0000b0 dc 7f 37 38 3f 8e 20 40 be fe 2c 3f 00 38 c1 3e
       4.374968e-05 2.508682 0.67576206 0.37738037
0000c0 88 af c2 3d 1c 83 cf 3c 0a e5 65 3e ae 15 00 3c
       0.09506136 0.025331073 0.22450653 0.007817669
0000d0 03 fc 68 3e ce 98 6c 3e f2 b0 ac 3e 27 2f 1f 3f
       0.22752385 0.23105165 0.3372875 0.62181324
0000e0 bc cc 43 40 fc 17 1c 40 84 05 f1 3e 8e ff 34 3f
       3.059371 2.438964 0.4707452 0.70702446
0000f0 0b dd 13 3f d0 83 36 3f ce 2c ff 3e bb c5 af 3f
       0.5775916 0.7129488 0.4983887 1.3732218
000100 a0 94 3d 3f 99 49 6b 3d f1 de 95 3f 19 a4 92 3f
       0.7405491 0.057443235 1.1708661 1.1456329
000110 94 51 ce 3f 98 da 27 3f 02 e9 d2 3f 39 6c 34 40
       1.6118646 0.6556792 1.6477358 2.8191054
000120 db c2 5c 3e 15 b5 d1 3f b9 a8 31 40 68 c2 5d 3f
       0.21558706 1.6383387 2.775923 0.86624765
000130 46 1c bb 3f 0d bf 2b 40 9b 12 a4 3c 9a ac ca 3d
       1.4618003 2.6835358 0.020028403 0.098962024
000140 4e d2 94 3f ba 29 16 3b 91 6a 0c 3f 05 a8 a1 3e
       1.162668 0.0022913055 0.5485011 0.315735
000150 33 4b f2 3f 88 4f 54 39 c1 3d a7 3f ce bc 21 3d
       1.8929199 0.00020247523 1.3065721 0.0394867
000160 5e 1c 58 40 56 d0 da 3e 39 24 ac 3f 18 b6 39 3f
       3.3767314 0.42737073 1.3448554 0.7254348
000170 32 91 a9 3e 5b d6 02 3f 9d b1 52 3d 38 2e d6 3d
       0.33118588 0.5110833 0.051438916 0.10458034
000180 3e e3 60 3d 3d 2e 19 3e 9d f6 b4 3a 9c e4 e0 3f
       0.054904215 0.14959045 0.0013806407 1.7569766
000190 9b eb 70 3b a2 3b eb 3e b4 6c 00 40 14 5c 4a 3f
       0.0036761526 0.45943934 2.0066347 0.7904675
0001a0 d6 a1 c3 3c a2 42 91 3d 8d e8 50 3f ed 9c 64 40
       0.02388088 0.07092787 0.81604844 3.572078
0001b0 e4 93 bd 3f 48 59 37 3e ac f3 1b 3d 1a af 2e 3e
       1.4810758 0.17905152 0.03807418 0.17058983
0001c0 b2 dd 07 40 be 0d 96 3d 9c c1 91 3e 36 c9 5e 3f
       2.1229062 0.0732684 0.28468025 0.87025774
0001d0 d6 6f 31 3f b2 19 2a 3e a6 26 df 3d 3d bd 18 40
       0.69311273 0.16611364 0.108960435 2.3865502
0001e0 01 2b 45 3b 2b 39 95 3e d1 c2 d0 3b a8 87 08 40
       0.0030085447 0.29145178 0.00637088 2.1332798
0001f0 95 0c b4 3f 60 04 de 3f e8 32 cc 3e b1 2f 42 3f
       1.406634 1.7345085 0.39882588 0.7585402

bn1.running_var f4 [128]
000000 86 9f e4 3f 04 00 00 00 da 0e 93 3d 3c 11 26 3e
       1.7861183 6e-45 0.07180567 0.16217512
000010 06 3b c2 3f eb d0 ef 3d a8 60 5f 40 c8 2e bc 3f
       1.5174263 0.1170977 3.4902744 1.4701777
000020 ee 2c 27 40 e8 bc 1a 40 94 83 aa 3f c9 c9 37 40
       2.6121173 2.41778 1.3321404 2.871691
000030 f2 3b 2a 40 57 c5 8e 3d c1 d5 c3 3f 9f 23 3a 41
       2.6599088 0.06971233 1.5299608 11.633697
000040 fa ee a2 40 72 52 04 3f e7 ae af 3c b5 50 ae 3f
       5.091672 0.516883 0.021445705 1.361838
000050 93 03 bc 3f 2d ac 11 40 be 01 bc 40 1d d3 9a 40
       1.4688591 2.2761338 5.8752127 4.8382707
000060 4b 91 89 3f 01 92 c2 3d 63 0f 65 3f 81 35 b6 3f
       1.0747465 0.09500504 0.89476603 1.4235078
000070 fd dd 58 41 f0 3f 4c 3e 7f 71 e0 3d 6c 89 00 3e
       13.554196 0.19946265 0.10959148 0.12552422
000080 85 f8 0c 3d a2 92 b5 3e 98 c1 7b 3f 04 00 00 00
       0.034416694 0.35463434 0.98342276 6e-45
000090 4d 1b 8a 40 e4 fd 94 40 ac c4 08 41 05 e4 89 3e
       4.3158326 4.6559925 8.548016 0.26931778
0000a0 87 f4 e9 3b 42 4c a4 3f 6f f9 3b 41 ab 0e c0 3e
       0.0071397456 1.2835772 11.748397 0.3751119
0000b0 55 cd 41 37 7e 37 24 41 97 3b 2e 3f 0c fd 62 3f
       1.1551504e-05 10.263548 0.68059677 0.8866737
0000c0 ef 73 00 3e 73 97 e1 3c 90 9f 48 3e 1a ce cb 3b
       0.12544225 0.027538037 0.19592118 0.0062196376
0000d0 6b 24 68 3e 09 50 04 3f c0 ac e1 3e 52 70 6f 3f
       0.22670142 0.51684624 0.4407711 0.9353076
0000e0 db 55 9a 40 85 69 86 3f 23 c6 1d 3f ac 9c b4 3f
       4.8229804 1.0500952 0.6163046 1.4110312
0000f0 68 6e 48 3f 53 05 2d 40 70 0d 93 3f b7 d8 21 40
       0.78293467 2.70345 1.1488476 2.5288522
000100 af d0 00 40 36 26 54 3d 72 93 f0 3f ae c7 6a 40
       2.012737 0.051794253 1.8794997 3.6684375
000110 1e 69 98 40 d5 57 eb 3f dd 73 8c 40 d0 95 5c 41
       4.7628317 1.8386179 4.3891435 13.786575
000120 8e 2f 93 3e 17 c2 b6 40 a2 e4 18 41 10 7a d2 3f
       0.2874722 5.7111926 9.555819 1.64435
000130 c8 f2 75 40 85 b3 44 40 31 0e 6d 3c a0 06 28 3e
       3.8429432 3.073457 0.0144687155 0.16408777
000140 b8 56 f8 3f 15 23 3d 3b 69 60 ae 3f ff 99 10 3f
       1.9401464 0.0028860022 1.3623172 0.5648498
000150 57 e2 65 40 a0 db b3 38 05 e9 54 40 28 28 f9 3c
       3.5919397 8.5762935e-05 3.3267224 0.030414656
000160 49 21 bc 40 09 97 d4 3e c2 96 b5 3f 32 87 fe 3f
       5.879063 0.4152148 1.4186633 1.9885008
000170 04 d6 f5 3d 13 61 2e 3f c7 b5 32 3d ed 9d f2 3d
       0.12003711 0.68116874 0.043630388 0.11846528
000180 7b 32 60 3d ef 76 8c 3e f3 54 c7 39 4a 96 0e 40
       0.054735642 0.2743449 0.0003801953 2.227923
000190 54 4f ab 3b 91 9d 41 3f ed ce b0 3f 39 a9 b2 3f
       0.0052279625 0.7563105 1.3813149 1.3957893
0001a0 a1 75 4b 3c 3d 88 84 3d 90 85 9a 3f d6 37 73 41
       0.012418182 0.06471298 1.207201 15.201132
0001b0 1a 66 d7 40 d8 b6 a9 3e 09 c1 4f 3d e6 5e a8 3e
       6.7312136 0.3314731 0.050721202 0.32884902
0001c0 bb 3f c9 40 ee f1 0c 3e ed c3 51 3f d5 11 1a 40
       6.2890296 0.13764164 0.81939584 2.4073384
0001d0 21 31 b4 3f 8e 39 9d 3e ba 2c 43 3e 7e 6c ae 40
       1.4077493 0.30707973 0.1906003 5.4507437
0001e0 fa fa da 3a 2c 20 02 3f f4 c3 bc 3b 16 c3 99 40
       0.0016706877 0.5083034 0.005760664 4.805064
0001f0 1e 7d 52 40 ca 59 95 40 0f 5a 2b 3f 1d 5f ae 3f
       3.2888865 4.6672106 0.66934294 1.3622776
