end_weight_Actor_1.pth (torch_old, 80877 bytes, 6 tensors)

fc1.weight f4 [128, 24]
0.043225124 0.0050101713 -0.005887165 0.2572284 0.12943111 -0.34359708 -0.019119618 0.17302379
0.07058382 0.17135246 0.1526949 0.44814855 0.0070126187 -0.30512816 0.025003668 0.45191425
-0.1480719 0.13683467 -0.015888456 0.5234495 -0.09479983 -0.11365379 0.051672947 0.53686345
-0.012086471 0.023423744 -0.018810077 0.0074039227 0.03555841 0.013365008 0.06374771 -0.0040323134
-0.044372916 0.060839035 -0.03169317 -0.043656044 0.048273638 -0.043470714 -0.13285297 -0.04946305
-0.11405199 0.09411625 -0.00039658256 0.07275626 0.0153376255 -0.019431774 -0.13444567 -0.03259185
0.017279068 0.0848531 0.04017415 -0.010686978 -0.10801188 0.14782462 -0.002018524 -0.09461559
0.0018942972 0.07643759 -0.0068696686 -0.24807379 -0.09953448 -0.19110537 -0.07186134 -0.27642676
-0.0879759 -0.014374999 -0.042066924 -0.08319658 0.10895573 -0.45792323 0.029682446 -0.0073740818
-0.09337439 0.09116357 -0.009699388 -0.016784154 0.12732856 -0.37354675 -0.17440651 -0.065212235
0.0057293833 -0.027977247 -0.008628312 -0.09603036 0.09211888 -0.21887247 0.024490016 0.06510196
-0.04009115 -0.06706165 0.0893574 -0.08022675 0.027096048 -0.010482475 0.10753191 -0.0046033724
0.045965996 0.24888706 0.114081345 0.015425404 -0.042450402 0.11311809 -0.052874215 -0.07380056
0.040791005 0.20117241 0.098845884 -0.17980416 0.021582484 0.105609305 0.11045052 -0.22312771
0.07923265 0.077188395 0.08323232 -0.28537697 -0.09882135 0.10643865 0.11385641 -0.2096338
0.06710716 0.45128417 0.093690656 0.13059838 -0.026216177 0.15915655 0.017686306 0.24574976
-0.039001245 0.36888337 -0.13663462 -0.03748868 0.0888052 0.0033770471 -0.0021758121 -0.048315156
-0.058774564 0.2790528 0.017062714 0.11744734 0.1600637 0.058239885 0.045755588 0.16099577
-0.022219144 -0.20469211 0.026532294 -0.099866 -0.04557937 -0.3804751 0.005297356 -0.023826167
0.020895876 -0.19746147 0.0142464675 0.09858296 0.031325467 0.037022542 0.1289758 0.016700374
-0.026687462 -0.10222858 0.020462362 0.068370216 0.023622729 0.022528918 0.012199116 0.077499725
0.022337368 -0.051886365 -0.07666344 0.026436623 0.16253522 0.1840577 -0.09745101 0.003553959
-0.073790036 -0.05523805 -0.07752792 0.08751737 -0.040881336 -0.044502303 -0.08434989 0.0036701842
-0.04414506 -0.1211503 -0.04871934 0.23049301 -0.11901004 -0.3436299 -0.11941144 0.19376221
0.13751698 0.041090243 0.019266976 -0.34703815 -0.09807333 -0.10112764 -0.14475106 -0.27735454
0.13036269 0.0036825656 -0.031413034 -0.07887178 -0.1518523 -0.10462593 -0.11300845 -0.22196274
0.2015449 0.03745883 -0.018283134 0.114785105 -0.24737959 0.18687513 -0.092150226 0.17578138
-0.022676188 -0.06926945 -0.02245991 0.13052772 0.16398226 0.26560292 0.0008390879 0.25642675
-0.009252404 -0.027780302 -0.019926721 -0.11285587 -0.07777685 -0.1137526 0.013914621 -0.23654585
0.046804093 0.048748516 0.07117131 -0.07955241 -0.14143038 -0.5318716 0.06487875 0.011013946
0.13639814 -0.048111122 0.24373876 -0.07649905 -0.263523 -0.18132405 0.18476279 -0.16562158
0.102389805 -0.053182058 -0.011738812 -0.013099312 -0.17065324 -0.05135323 0.033830326 0.036105923
00000000: d40c 313d 5d2c a43b 1fe9 c0bb 71b3 833e
00000010: 9789 043e f5eb afbe bfa0 9cbc 262d 313e
00000020: 408e 903d 0577 2f3e 0d5c 1c3e ba73 e53e
00000030: 1cca e53b c239 9cbe 7ed4 cc3c 4e61 e73e
00000040: 29a0 17be 631e 0c3e 8228 82bc c900 063f
00000050: 6a26 c2bd 51c3 e8bd 03a7 533d e26f 093f
00000060: 5506 46bc 27e3 bf3c 9717 9abc 9b9c f23b
00000070: b2a5 113d e8f8 5a3c 298e 823d 7f21 84bb
00000080: 60c0 35bd 5a32 793d b3d0 01bd aed0 32bd
00000090: 94ba 453d 590e 32bd 9c0a 08be c499 4abd
000000a0: 1794 e9bd 05c0 c03d 69ec cfb9 3c01 953d
000000b0: aa4a 7b3c 622f 9fbc 20ac 09be 087f 05bd
000000c0: d58c 8d3c 76c7 ad3d a68d 243d 6f18 2fbc
000000d0: 5535 ddbd 565f 173e 3749 04bb d2c5 c1bd
000000e0: 114a f83a 508b 9c3d f51a e1bb 0e07 7ebe
000000f0: bcd8 cbbd 20b1 43be 0a2c 93bd cf87 8dbe
00000100: b52c b4bd 1e85 6bbc 5e4e 2cbd f862 aabd
00000110: 2f24 df3d ea74 eabe 9a28 f33c 48a2 f1bb
00000120: 123b bfbd f7b3 ba3d 2fea 1ebc ec7e 89bc
00000130: 6b62 023e 8541 bfbe 9f97 32be fe8d 85bd
00000140: 8dbd bb3b 8a30 e5bc c35d 0dbc 91ab c4bd
00000150: d3a8 bc3d 1b20 60be 499f c83c 2d54 853d
00000160: 9e36 24bd 9e57 89bd 0301 b73d ec4d a4bd
00000170: 88f8 dd3c b0be 2bbc b139 dc3d e3d7 96bb
00000180: d746 3c3d 40dc 7e3e 7ba3 e93d d5ba 7c3c
00000190: 79e0 2dbd 75aa e73d a292 58bd bf24 97bd
000001a0: 7814 273d 2400 4e3e b66f ca3d 951e 38be
000001b0: c0cd b03c b149 d83d e233 e23d 977b 64be
000001c0: ba44 a23d f314 9e3d b575 aa3d ee1c 92be
000001d0: d962 cabd 82fc d93d 8d2d e93d 3eaa 56be
000001e0: 7b6f 893d b80e e73e e3e0 bf3d 95bb 053e
000001f0: 4fc3 d6bc eff9 223e dfe2 903c d3a5 7b3e
00000200: c5bf 1fbd 48de bc3e f2e9 0bbe bb8d 19bd
00000210: 80df b53d 7351 5d3b 1298 0ebb 1de6 45bd
00000220: 99bd 70bd 02e0 8e3e 1bc7 8b3c 3b88 f03d
00000230: bde7 233e f28c 6e3d 366a 3b3d 13dc 243e
00000240: ec04 b6bc cf9a 51be 415a d93c 8c86 ccbd
00000250: 6fb1 3abd a2cd c2be 7195 ad3b 182f c3bc
00000260: d42d ab3c 5733 4abe 046a 693c dde5 c93d
00000270: 224f 003d f3a4 173d 3b12 043e 39cf 883c
00000280: aa9f dabc 385d d1bd afa0 a73c af05 8c3d
00000290: 7484 c13c 918e b83c cdde 473c 2db8 9e3d
000002a0: dbfc b63c cc86 54bd b901 9dbd 9e91 d83c
000002b0: a26f 263e 9f79 3c3e 6594 c7bd 8ae9 683b
000002c0: 3b1f 97bd 4b41 62bd f5c6 9ebd 4f3c b33d
000002d0: 3073 27bd 0c48 36bd a3bf acbd 7987 703b
000002e0: 73d1 34bd a61d f8bd ee8d 47bd 5c06 6c3e
000002f0: 89bb f3bd 42f0 afbe fc8d f4bd 9a69 463e
00000300: 40d1 0c3e 3e4e 283d c7d5 9d3c fcae b1be
00000310: acda c8bd 021c cfbd 9f39 14be 6a01 8ebe
00000320: cc7d 053e 3357 713b f4aa 00bd 8787 a1bd
00000330: 2b7f 1bbe 1f46 d6bd f970 e7bd 334a 63be
00000340: c961 4e3e 6e6e 193d 83c6 95bc 7414 eb3d
00000350: 1351 7dbe 325c 3f3e 42b9 bcbd 0900 343e
00000360: 6ac3 b9bc 24dd 8dbd d8fd b7bc 0fa9 053e
00000370: f7ea 273e 1bfd 873e 3cf6 5b3a 5e4a 833e
00000380: 6597 17bc 8493 e3bc 5d3d a3bc fa20 e7bd
00000390: 7849 9fbd 20f7 e8bd 27fa 633c 1339 72be
000003a0: a6b5 3f3d 86ac 473d 44c2 913d 60ec a2bd
000003b0: 20d3 10be bd28 08bf 26df 843d d673 343c
000003c0: f4ab 0b3e 2b10 45bd a796 793e 89ab 9cbd
000003d0: 7dec 86be 03ad 39be 7532 3d3e b498 29be
000003e0: bfb1 d13d 6ed5 59bd 2554 40bc 7f9e 56bc
000003f0: b9bf 2ebe c457 52bd ab91 0a3d cee3 133d

fc1.bias f4 [128]
0.20578502 0.17233445 -0.15358126 -0.074081115 0.10630982 -0.45952448 0.2652262 0.15589245
0.031732265 0.13590182 -0.07641007 0.05748071 -0.05506729 0.007863817 0.15059403 0.022130016
-0.22292568 0.290087 -0.063192226 0.17924254 0.13891932 0.11658772 -0.24189019 0.041538425
-0.14670123 0.047575757 0.013061193 0.07271748 0.075608894 0.13575906 0.18760341 -0.098732404
0.033454116 -0.01902877 -0.11891649 0.12014876 -0.09248527 -0.038053527 -0.27394688 0.028589826
-0.0111399535 -0.31624028 0.11860259 -0.47693378 0.06786511 -0.031708118 0.08549581 -0.101044446
0.2956916 -0.23128617 -0.12605987 -0.22144037 0.23466024 -0.064523965 0.014699199 -0.1155526
0.036221087 -0.023511004 -0.29154932 0.06959784 -0.16492552 -0.2920322 -0.06484023 0.25251192
0.05381147 0.08575085 -0.014792814 0.023316288 -0.10047246 0.13431509 0.32752421 0.17806365
-0.09733033 -0.3862723 -0.027265312 0.107833385 0.043547414 -0.063234024 -0.03742351 0.07503838
-0.21358144 -0.24025708 -0.027509307 0.0640719 0.17445996 0.10732094 -0.14798391 -0.38155097
0.16835122 0.008888949 -0.13752621 0.058299113 0.036137164 0.08135566 -0.033007003 0.011425008
-0.38423502 0.23838224 -0.19340555 0.013834211 0.0047188643 -0.12860334 0.042874616 -0.12666526
0.16257292 0.14421639 0.18476042 -0.17173387 0.02889626 0.08088182 -0.30682424 0.1262565
0.07448239 0.15720075 -0.056755092 -0.10711649 0.014394477 -0.04737138 -0.073051535 -0.12857008
-0.11177378 0.2040838 0.072876394 0.16778785 0.20629185 -0.028899733 -0.21196075 -0.13614531
00000000: 4fb9 523e 7178 303e 6844 1dbe d7b7 97bd
00000010: f7b8 d93d cb46 ebbe bacb 873e 45a2 1f3e
00000020: b1f9 013d d929 0b3e e27c 9cbd e570 6b3d
00000030: 3d8e 61bd 3dd7 003c 5235 1a3e 024a b53c
00000040: a146 64be 4986 943e ed6a 81bd 5b8b 373e
00000050: de40 0e3e 8bc5 ee3d 10b2 77be 3224 2a3d
00000060: d938 16be ccde 423d 9dfe 553c e7ec 943d
00000070: d6d8 9a3d 6c04 0b3e 1c1b 403e 3734 cabd
00000080: 2f07 093d 39e2 9bbc 7d8a f3bd 8e10 f63d
00000090: eb68 bdbd 04de 1bbd c442 8cbe 3635 ea3c
000000a0: 5a84 36bc 3fea a1be eae5 f23d aa30 f4be
000000b0: ddfc 8a3d 5fe0 01bd 6d18 af3d 64f0 cebd
000000c0: e464 973e 48d6 6cbe d715 01be 44c1 62be
000000d0: c64a 703e 2425 84bd e9d4 703c d7a6 ecbd
000000e0: 905c 143d 269a c0bc f445 95be 5089 8e3d
000000f0: 3ce2 28be 3f85 95be f4ca 84bd 3e49 813e
00000100: 6a69 5c3d 249e af3d 8f5d 72bc cd01 bf3c
00000110: 81c4 cdbd e589 093e 41b1 a73e 5156 363e
00000120: 2055 c7bd 7cc5 c5be 815b dfbc c0d7 dc3d
00000130: c65e 323d d780 81bd 6549 19bd b9ad 993d
00000140: 18b5 5abe f405 76be 335b e1bc 2138 833d
00000150: a2a5 323e 15cb db3d 1889 17be a65a c3be
00000160: 4364 2c3e f4a2 113c acd3 0cbe 0dcb 6e3d
00000170: 9004 143d cc9d a63d 5a32 07bd f52f 3b3c
00000180: 74ba c4be 791a 743e 1b0c 46be e3a8 623c
00000190: b4a0 9a3b 98b0 03be 4b9d 2f3d 8ab4 01be
000001a0: 8479 263e 76ad 133e d631 3d3e 01db 2fbe
000001b0: d9b7 ec3c 5ea5 a53d 1118 9dbe 6249 013e
000001c0: 398a 983d 3cf9 203e 0778 68bd e45f dbbd
000001d0: d0d6 6b3c 7e08 42bd 0b9c 95bd e0a7 03be
000001e0: a7e9 e4bd 58fb 503e 3840 953d 94d0 2b3e
000001f0: 2c3e 533e 22bf ecbc 3d0c 59be ad69 0bbe

fc2.weight f4 [128, 128]
0.17547272 0.07833077 -0.14056684 0.07626655 0.14308104 0.2807785 -0.11497824 -0.12521592
-0.38355258 0.031946953 -0.043040525 -0.2608218 -0.021925714 0.16466567 0.37816086 0.11733043
-0.051699977 -0.06675262 0.059861295 -0.19096717 0.13167422 -0.13839483 0.17348503 0.15967913
-0.06681334 0.13281108 -0.53180516 0.18370889 0.28927803 -0.21874723 -0.08667901 0.11962177
-0.2498842 0.0781795 0.093178615 -0.52636737 0.021068785 -0.4993989 0.039666574 0.03317462
0.0612364 -0.35714972 -0.11142342 0.06734594 0.24405678 -0.11057563 0.0011768672 -0.093792625
0.049280737 0.17655958 0.14151996 -0.19876951 -0.07966614 0.068854764 -0.27930936 0.068506256
-0.0006253941 -0.05027416 0.0767865 -0.031503312 0.0027269062 0.12388947 -0.69817066 -1.745535
0.041198976 -0.16360967 0.31405714 0.010879783 0.12305103 0.19072081 0.38603842 0.007821691
-0.2024108 -0.04097507 -0.1697855 0.12376603 -0.28487143 0.1613483 -0.3268034 0.04524053
0.1292888 0.049091335 0.19386333 -0.06408312 0.13645725 -0.05926847 -0.67644554 0.14833122
-0.033113535 -0.21244858 0.08381634 -0.22098128 -0.05092006 0.1256184 0.20803803 -0.006079325
-0.11497167 -0.18027344 0.045846157 0.06376485 0.051548768 0.30007088 0.12233889 -0.10042143
-0.5291261 -0.008507181 0.031638827 -0.07030503 -0.6900923 0.01693892 -0.3050828 0.025395662
-0.007087132 0.104619436 -0.2672751 0.30683073 0.11816285 0.0071495655 -0.17007074 0.05720332
-0.08774513 -0.13608094 0.0804258 0.05987308 -0.1697446 0.1437878 -0.012805689 0.09534466
-0.123161346 0.09887193 0.084291086 0.005370795 -0.12594591 0.13367373 -0.027592529 0.04331196
-0.94541043 0.095673606 0.021033503 -0.002741606 -0.03695642 -0.07249369 -0.27240407 0.18575391
0.0763119 0.044906713 -0.034140818 0.04597325 0.12558097 0.030781401 0.09640007 0.010449827
-0.06006858 0.059698448 -0.013550329 -0.0724543 0.14090526 -0.1379226 -0.050572433 0.08216029
-0.04555069 -0.17311496 -0.052567087 -0.07466539 -0.01872057 0.07622008 -0.12289644 0.07012647
-0.038705185 -0.37556663 0.15119155 -0.07374619 0.22369134 -0.07284315 -0.22940168 -0.0854724
0.090474084 0.07087694 0.06840631 0.16053346 -0.014107814 -0.011003606 -0.024077907 0.13620952
-0.0022582924 -0.009133991 -0.065818354 0.03492621 -0.024324717 -0.045270897 -0.5330199 -0.4077389
-0.04045442 0.07949989 0.022513935 -0.11728438 -0.097958304 0.045889057 0.0750275 0.037408553
0.11524416 0.121364094 0.07125488 -0.029665831 -0.09549664 0.083280295 -0.03604022 0.012840528
0.042476173 -0.03225623 0.016415006 0.03375229 -0.037960432 0.062722094 -0.5536144 0.19287315
-0.010500619 -0.0559372 0.015178632 -0.02900775 -0.065096535 0.14171919 0.19785772 0.0038677896
-0.12713885 0.07905562 -0.005371317 -0.049027234 0.028479327 -0.027995989 -0.11174891 -0.04827643
-0.05331791 0.13524774 -0.038734015 0.1073262 0.1218649 -0.025220115 0.12484316 0.0024622553
-0.056376144 0.1387252 0.12799385 0.028623253 -0.039363064 0.06369168 -0.198334 0.010484386
-0.1402486 0.010415823 0.11598221 -0.11008352 -0.009979155 -0.022102317 -0.030847954 -0.008864181
00000000: 1faf 333e e26b a03d c1f0 0fbe a331 9c3d
00000010: d683 123e 33c2 8f3e b679 ebbd 9a38 00be
00000020: 0161 c4be cfda 023d 434b 30bd 6f8a 85be
00000030: 8e9d b3bc 1e9e 283e 4d9e c13e f04a f03d
00000040: 5bc3 53bd 99b5 88bd 1e31 753d e68c 43be
00000050: 9bd5 063e 60b7 0dbe 0fa6 313e ed82 233e
00000060: 6fd5 88bd a1ff 073e 6224 08bf 2f1e 3c3e
00000070: 401c 943e 46ff 5fbe c484 b1bd 42fc f43d
00000080: a5e1 7fbe 931c a03d 6ed4 be3d 03c0 06bf
00000090: 7298 ac3c 36b1 ffbe 6b79 223d 1ce2 073d
000000a0: 05d3 7a3d 54dc b6be f631 e4bd abec 893d
000000b0: 05ea 793e 7a75 e2bd 1c41 9a3a 5916 c0bd
000000c0: 99da 493d 09cc 343e 9cea 103e 3c8a 4bbe
000000d0: 0028 a3bd ba03 8d3d a301 8fbe 024d 8c3d
000000e0: 7df1 23ba 47ec 4dbd 3e42 9d3d 9e09 01bd
000000f0: e5b5 323b c3b9 fd3d 50bb 32bf b16d dfbf
00000100: 42c0 283d 4b89 27be 19cc a03e 1e41 323c
00000110: 2e02 fc3d 514c 433e d4a6 c53e 8d26 003c
00000120: c744 4fbe 7ad5 27bd 40dc 2dbe 0b79 fd3d
00000130: abda 91be 7d38 253e c652 a7be 224e 393d
00000140: 4864 043e ff13 493d 1c84 463e 033e 83bd
00000150: 73bb 0b3e 7fc3 72bd 892b 2dbf 24e4 173e
00000160: 0fa2 07bd 1f8c 59be e7a7 ab3d eb48 62be
00000170: 8e91 50bd 1ca2 003e ec07 553e 1335 c7bb
00000180: 4476 ebbd 9a99 38be 2ec9 3b3d 2597 823d
00000190: cd24 533d e4a2 993e d08c fa3d c0a9 cdbd
000001a0: cf74 07bf b461 0bbc b797 013d 15fc 8fbd
000001b0: e4a9 30bf 7dc3 8a3c d033 9cbe 900a d03c
000001c0: 2c3b e8bb b742 d63d 48d8 88be eb18 9d3e
000001d0: 5dff f13d e746 ea3b 0627 2ebe 074e 6a3d
000001e0: b8b3 b3bd cd58 0bbe 48b6 a43d 7a3d 753d
000001f0: 87d1 2dbe 1c3d 133e f4ce 51bc 1044 c33d
00000200: 043c fcbd 5e7d ca3d cea0 ac3d 7efd af3b
00000210: f7f7 00be c4e1 083e ba09 e2bc e267 313d
00000220: 6b06 72bf 86f0 c33d 744e ac3c 84ac 33bb
00000230: 9d5f 17bd 9277 94bd 8c78 8bbe 4636 3e3e
00000240: 6a49 9c3d 1af0 373d 3ed7 0bbd 724e 3c3d
00000250: 4c98 003e 4729 fc3c 666d c53d c035 2b3c
00000260: 790a 76bd 5c86 743d 3302 5ebc ec62 94bd
00000270: 7849 103e 953b 0dbe 0a25 4fbd a743 a83d
00000280: 5c93 3abd 0c45 31be 9650 57bd 2bea 98bd
00000290: e15b 99bc 4619 9c3d 21b1 fbbd 779e 8f3d
000002a0: 5489 1ebd 454a c0be f5d1 1a3e 3e08 97bd
000002b0: 580f 653e ca2e 95bd 46e8 6abe 270c afbd
000002c0: 7a4a b93d ee27 913d 9c18 8c3d e262 243e
000002d0: 7624 67bc 7848 34bc 083f c5bc 827a 0b3e
000002e0: dcff 13bb bca6 15bc c6cb 86bd c90e 0f3d
000002f0: a144 c7bc fa6d 39bd fe73 08bf 27c3 d0be
00000300: 89b3 25bd d7d0 a23d 256f b83c cb32 f0bd
00000310: 5d9e c8bd 2af6 3b3d 05a8 993d b639 193d
00000320: 2105 ec3d bd8d f83d 14ee 913d c205 f3bc
00000330: be93 c3bd dc8e aa3d e99e 13bd 1461 523c
00000340: 7ffb 2d3d 1c1f 04bd c378 863c d73f 0a3d
00000350: 667c 1bbd 7174 803d acb9 0dbf 8a80 453e
00000360: ca0a 2cbc 681e 65bd ccaf 783c a9a1 edbc
00000370: 5551 85bd d61e 113e 379b 4a3e be7a 7d3b
00000380: b030 02be eae7 a13d df01 b0bb c8d0 48bd
00000390: 7a4d e93c d857 e5bc 9ddc e4bd 82bd 45bd
000003a0: e163 5abd 627e 0a3e 8fa7 1ebd d7cd db3d
000003b0: 4e94 f93d 6a9a cebc c5ad ff3d ca5d 213b
000003c0: acea 66bd fb0d 0e3e d210 033e 507b ea3c
000003d0: 2a3b 21bd c970 823d 1118 4bbe b4c6 2b3c
000003e0: 549d 0fbe 21a7 2a3c 1588 ed3d 7873 e1bd
000003f0: 9c7f 23bc eb0f b5bc d9b4 fcbc 123b 11bc

fc2.bias f4 [128]
-0.08022183 0.0054253666 0.12989183 -0.020074151 0.14327984 -0.06627565 0.02606163 -0.18784505
-0.077361554 -0.023163687 -0.08514834 -0.32760277 -0.06258353 -0.16912277 0.02795537 -0.06368859
-0.0882235 -0.049909353 -0.2528198 -0.09198374 0.0017439534 0.058539387 -0.049457103 0.06445473
-0.26246667 0.07944448 -0.041157633 -0.09155902 0.044709098 0.009802403 0.03680808 -0.12845038
0.13891037 -0.011216134 -0.1901043 0.04975099 -0.09520849 0.14488982 0.034385774 0.019563917
-0.047923233 0.04641459 -0.07890728 -0.11966551 -0.1649571 0.018912999 0.0950028 -0.23387557
-0.08546267 -0.10444804 -0.13229547 0.11645908 -0.075293444 -0.02751343 0.10186802 0.10057351
-0.057384834 0.11188263 0.03733126 0.071218655 -0.050211202 -0.00798632 -0.022475325 0.042716034
-0.07423273 0.056507587 0.01143132 -0.07581611 0.0302173 0.08731277 -0.13598782 0.1525908
-0.030269174 0.055729687 -0.08317497 0.032935057 -0.057238054 0.076369904 -0.08441832 0.033793584
-0.07575518 -0.06183355 0.023707675 0.018044505 -0.19732092 0.047608826 -0.18170956 -0.038302958
0.08160351 0.20447856 -0.010436217 0.036803786 0.076832645 -0.07680659 -0.06713988 0.017819528
0.057646334 -0.044236343 0.04954802 0.113313116 0.029332059 -0.027156373 0.017466065 0.02669813
0.022246575 -0.040908016 0.054317866 0.11573284 -0.058964215 -0.1953976 -0.107589334 0.0094567435
-0.053427152 -0.042202592 -0.13196464 -0.04169041 -0.049436554 -0.16252531 0.068565734 -0.117894225
-0.07298277 -0.05212515 0.01794486 0.10503129 -0.1258729 0.016941508 -0.11107723 0.028816734
00000000: 584b a4bd 46c7 b13b 5d02 053e 8c72 a4bc
00000010: f3b7 123e 87bb 87bd 337f d53c 745a 40be
00000020: bc6f 9ebd c6c1 bdbc 4162 aebd 8dbb a7be
00000030: cb2b 80bd 852e 2dbe a902 e53c 2a6f 82bd
00000040: 86ae b4bd c06d 4cbd 9971 81be f961 bcbd
00000050: 5e95 e43a ffc6 6f3d 8893 4abd d700 843d
00000060: 0862 86be cab3 a23d e894 28bd 4c83 bbbd
00000070: e320 373d 429a 203c 12c4 163d 7f88 03be
00000080: 853e 0e3e e0c3 37bc b4aa 42be b2c7 4b3d
00000090: abfc c2bd ff5d 143e 19d8 0c3d 8244 a03c
000000a0: 274b 44bd 3a1d 3e3d 249a a1bd 3113 f5bd
000000b0: 84ea 28be 6fef 9a3c d490 c23d 147d 6fbe
000000c0: 0d07 afbd dbe8 d5bd 7778 07be 1982 ee3d
000000d0: 7333 9abd d863 e1bc 2ea0 d03d 7cf9 cd3d
000000e0: 5c0c 6bbd b822 e53d aae8 183d 16db 913d
000000f0: 43aa 4dbd 0ed9 02bc 2c1e b8bc 02f7 2e3d
00000100: 5407 98bd 8074 673d 6e4a 3b3c 7a45 9bbd
00000110: 458a f73c 0ad1 b23d 6440 0bbe c340 1c3e
00000120: 0ff7 f7bc d044 643d a357 aabd e9e6 063d
00000130: 7372 6abd d367 9c3d 83e3 acbd 246b 0a3d
00000140: 8825 9bbd 2d45 7dbd 9936 c23c 12d2 933c
00000150: 7f0e 4abe 7901 433d 1212 3abe 90e3 1cbd
00000160: be1f a73d d462 513e abfc 2abc 91bf 163d
00000170: 6f5a 9d3d c64c 9dbd a280 89bd 42fa 913c
00000180: 901e 6c3d 2b31 35bd ddf2 4a3d b510 e83d
00000190: c949 f03c 0b77 debc fe14 8f3c 09b6 da3c
000001a0: 733e b63c 2a8f 27bd 697c 5e3d 5705 ed3d
000001b0: 7684 71bd 4f16 48be cc57 dcbd 75f0 1a3c
000001c0: 6ed6 5abd a0dc 2cbd bd21 07be 90c3 2abd
000001d0: fc7d 4abd 096d 26be 316c 8c3d 8772 f1bd
000001e0: fe77 95bd 2e81 55bd 1901 933c a51a d73d
000001f0: d3e4 00be ebc8 8a3c 757c e3bd 1211 ec3c

fc3.weight f4 [2, 128]
0.086090244 0.086098485 -0.14985284 0.042492233 -0.17703505 -0.10641495 -0.007513781 -1.2015169
0.36962184 0.29167515 -0.6977958 0.37380296 1.566365 0.4397219 -0.6808472 0.09518186
0.13424413 0.08177584 -0.17353186 0.0077894293 0.47828245 -0.1323957 0.05990965 -0.23064537
-0.91815215 -0.7334564 0.013200229 -0.060268823 0.05757148 -0.19740479 1.0302267 -1.2609605
-0.13851266 -0.042827893 -0.18790863 -0.016768167 -0.13418435 0.0047975727 0.072738945 0.0022017912
-0.6885964 0.13225111 0.056485586 -0.35573024 0.31551024 -0.09719463 -0.065286405 -0.40985057
-0.21768026 -0.0054805567 0.04202996 -0.38951683 -0.46242893 0.606573 0.009328456 -0.46431914
0.080290906 -0.13116723 0.030009942 -0.13579573 0.055292137 -0.47207648 -0.5259522 0.0728276
-0.4140112 -0.0867883 -0.08826874 -0.9431098 -0.12828952 -0.1437249 -0.023631442 0.043723952
-1.1264625 -0.066842765 0.08002091 -0.18277034 0.09543296 -0.20516923 -0.22788434 -0.197138
-0.5512975 0.13187815 0.100940585 -0.053659365 -0.31672147 0.028699992 -0.77655524 0.0040394296
-0.13931338 -0.34563866 -0.1550702 0.048505712 -0.16329354 0.13823138 -0.42612088 0.07624912
-0.16145392 -0.3571213 -0.15154223 -0.23419565 0.017971044 -0.13786615 -0.49576864 -0.228688
-0.3676206 -0.15351892 -0.16539961 -0.20603718 0.0109879505 0.28119346 0.05395996 -0.40375218
0.1370445 0.07320892 0.0074773724 -0.20380981 0.082950525 -0.121472985 0.28000128 0.17137103
-0.4273864 -0.0119702 -0.043644167 -0.05826037 -1.2361817 -0.1288081 -0.17621006 0.14047809
0.35239306 -0.007106141 -6.4084353 -0.15414204 -0.05775083 -0.17223355 -0.22766902 -0.38190156
0.23339666 -0.31278032 -0.63469046 -0.356757 0.45590767 0.519852 -2.007684 0.078528136
0.07052485 -0.19605541 0.81949806 0.017365 -0.3394068 -0.14249209 -0.28514674 0.061352413
0.31506264 -0.024420865 -0.015657742 -0.19810367 -0.012677072 0.2394574 -2.5660665 -0.4833384
-0.44460392 -0.5245628 1.269239 0.26581493 0.42573178 -0.22579283 0.22193035 -0.0040927352
-0.48718232 -0.09111508 -0.31671557 -0.13860264 0.42651567 0.08664268 0.11471548 -0.79178184
0.07380763 -0.41765288 0.13596003 0.5684168 0.31071723 0.1844403 -0.87034017 -0.023394164
0.086449124 0.3425171 -0.01263884 -0.0975207 -0.40751752 -0.043835208 -0.35885745 0.48674703
0.59852695 0.099549174 -0.2628326 0.22583432 -0.10228147 -0.14005888 -1.0342994 -0.16500361
0.47247618 -0.16098028 0.13444434 -0.08094037 -0.034135316 0.1298742 0.59423804 -0.075807355
-0.35415328 -0.034786787 -0.003620952 -0.5869987 0.35746688 0.061670713 -0.7072164 0.024342634
-0.13332453 -0.2723399 0.036379278 0.16309455 0.2960105 0.31351855 0.8660206 -0.03979567
0.30362207 -0.67638415 0.117939785 -0.0113270935 -0.17440258 -0.19806209 -0.40780672 -0.0058555263
0.09271763 0.06466188 -0.060039017 -0.019604418 0.029618235 -0.10755537 0.035937298 0.76780206
0.3109901 0.23772433 0.021227295 0.33069295 0.012119772 0.688593 -0.25983673 0.1591624
1.3375521 0.11889079 -0.5258956 0.36969873 -1.1035818 -0.59167457 0.50172853 -0.13486063
00000000: 1550 b03d 6754 b03d 0673 19be 560c 2e3d
00000010: ad48 35be 15f0 d9bd 2a36 f6bb 4ecb 99bf
00000020: 133f bd3e 7256 953e bfa2 32bf 1a63 bf3e
00000030: a67e c83f 3b23 e13e 014c 2ebf b5ee c23d
00000040: 4b77 093e 177a a73d 56b2 31be 783e ff3b
00000050: 70e1 f43e bd92 07be d263 753d 4d2e 6cbe
00000060: 050c 6bbf ccc3 3bbf c645 583c 71dc 76bd
00000070: 12d0 6b3d 7b24 4abe 78de 833f 2767 a1bf
00000080: 43d6 0dbe 4d6c 2fbd 1f6b 40be 655d 89bc
00000090: 9f67 09be f534 9d3b 28f8 943d ed4b 103b
000000a0: db47 30bf d66c 073e 6e5d 673d 4622 b6be
000000b0: 8f8a a13e fa0d c7bd e1b4 85bd efd7 d1be
000000c0: 93e7 5ebe 3e96 b3bb 9b27 2c3d c06e c7be
000000d0: 7cc3 ecbe 5e48 1b3f 61d6 183c 3dbb edbe
000000e0: 8f6f a43d b450 06be 69d7 f53c 090e 0bbe
000000f0: 027a 623d 02b4 f1be cea4 06bf a326 953d
00000100: 47f9 d3be 10be b1bd 3ec6 b4bd a56f 71bf
00000110: 545e 03be 9f2c 13be ba96 c1bc e317 333d
00000120: ec2f 90bf dce4 88bd 01e2 a33d 2628 3bbe
00000130: 5b72 c33d e217 52be 835a 69be 8bde 49be
00000140: d521 0dbf 110b 073e f0b9 ce3d ecc9 5bbd
00000150: 5129 a2be 3f1c eb3c 53cc 46bf 315d 843b
00000160: 2ba8 0ebe 8df7 b0be b9ca 1ebe edad 463d
00000170: 6c36 27be 878c 0d3e 842c dabe 8028 9c3d
00000180: 2d54 25be 9ad8 b6be e32d 1bbe fcd0 6fbe
00000190: 0338 933c c92c 0dbe 63d5 fdbe 302d 6abe
000001a0: c438 bcbe 1034 1dbe 845e 29be 69fb 52be
000001b0: ce06 343c 97f8 8f3e 1e05 5d3d 9bb8 cebe
000001c0: 6555 0c3e 8fee 953d bf04 f53b 85b3 50be
000001d0: f7e1 a93d d4c6 f8bd 545c 8f3e e37b 2f3e
000001e0: 64d2 dabe a81e 44bc 3ac4 32bd 6da2 6ebd
000001f0: 343b 9ebf 45e6 03be 6970 34be 7dd9 0f3e
00000200: dd6c b43e a2da e8bb e711 cdc0 69d7 1dbe
00000210: 228c 6cbd fe5d 30be 1122 69be 9a88 c3be
00000220: 89ff 6e3e be24 a0be 137b 22bf daa8 b6be
00000230: bb6c e93e 0515 053f e57d 00c0 5cd3 a03d
00000240: 556f 903d c0c2 48be a0ca 513f 0b41 8e3c
00000250: bac6 adbe 72e9 11be c1fe 91be ab4c 7b3d
00000260: e44f a13e 440e c8bc aa44 80bc b0db 4abe
00000270: 7eb3 4fbc 5234 753e 6f3a 24c0 2178 f7be
00000280: 20a3 e3be bf49 06bf 6c76 a23f e518 883e
00000290: 84f9 d93e 3c36 67be b641 633e 5a1c 86bb
000002a0: f66f f9be 8b9a babd 8b28 a2be daed 0dbe
000002b0: 4360 da3e b871 b13d f3ef ea3d 37b2 4abf
000002c0: 7428 973d 99d6 d5be 1b39 0b3e c383 113f
000002d0: 5416 9f3e ebdd 3c3e 9dce 5ebf 1ea5 bfbc
000002e0: 3d0c b13d 675e af3e 2313 4fbc efb8 c7bd
000002f0: 23a6 d0be 8c8c 33bd 2abc b7be e836 f93e
00000300: 1039 193f 70e0 cb3d ff91 86be 1d41 673e
00000310: f378 d1bd 986b 0fbe ec63 84bf b5f6 28be
00000320: 66e8 f13e 04d8 24be c7ab 093e 11c4 a5bd
00000330: 79d1 0bbd befd 043e fc1f 183f e340 9bbd
00000340: 9453 b5be 977c 0ebd 7e4d 6dbb 8c45 16bf
00000350: e605 b73e 6e9a 7c3d 220c 35bf 346a c73c
00000360: 3a86 08be 2370 8bbe 7002 153d 4202 273e
00000370: b08e 973e 8185 a03e 87b3 5d3f c900 23bd
00000380: 5a74 9b3e 8327 2dbf 6a8a f13d 4695 39bc
00000390: 9796 32be cad0 4abe 0bcc d0be b7df bfbb
000003a0: bee2 bd3d 736d 843d 79eb 75bd 7299 a0bc
000003b0: f1a1 f23c fd45 dcbd fd32 133d ad8e 443f
000003c0: 183a 9f3e 026e 733e dde4 ad3c 9650 a93e
000003d0: 0292 463c a147 303f 5209 85be 78fb 223e
000003e0: e834 ab3f 047d f33d 18a1 06bf 2749 bd3e
000003f0: 2b42 8dbf fc77 17bf 4871 003f e818 0abe

fc3.bias f4 [2]
0.05052081 -0.039523464
00000000: e9ee 4e3d 5be3 21bd
