end_weight_Actor.pth (torch_old, 80877 bytes, 6 tensors)

fc1.weight f4 [128, 24]
0.011988469 -0.024016688 0.06756625 -0.059710994 -0.020782392 0.1628053 -0.037817057 -0.09528049
-0.042040188 -0.028004799 0.0021847133 -0.052757725 0.13499282 0.0036003978 0.0263353 -0.0830737
-0.065157056 0.08280618 0.071755305 0.007999641 0.27637795 0.064201385 0.030509021 -0.008376244
-0.030242933 -0.016275749 0.05566094 0.020601356 0.10657684 0.07569251 -0.059220776 -0.09362524
0.08282244 -0.15597422 0.020153027 -0.09086584 0.089390665 0.12381949 -0.0140313385 -0.15700303
-0.15453191 -0.2653716 -0.09606693 -0.093983516 -0.08582162 0.1767391 0.04893508 -0.20180425
-0.120027535 -0.085768834 0.005837299 -0.021535607 -0.08343543 0.014895916 0.04219797 -0.016003901
0.024686059 -0.13487205 -0.0009044213 -0.036343463 0.021713784 0.07385188 -0.05786877 0.018009234
-0.09202741 -0.19734965 0.061011907 0.07726613 0.15403882 0.008846845 -0.022621403 -0.021575116
-0.004857297 -0.0386854 0.08561234 0.06495488 -0.04947904 0.0796439 0.0039226436 0.04734461
-0.017885366 -0.10907381 0.044520516 -0.010135708 0.06948365 0.08349681 -0.015532309 0.07535912
-0.04399767 -0.1290398 0.04859662 -0.014095783 0.059557877 0.2058515 -0.051165678 -0.04775255
-0.073198855 0.20766206 -0.055670142 0.038033012 0.11480006 0.01630653 0.03783354 0.11590279
-0.09316686 0.20772845 -0.036576785 0.013894818 0.21231097 0.066499434 -0.009325059 -0.044153206
0.05959536 0.011592995 -0.041478455 -0.07511293 0.28620532 0.076925054 0.006686253 0.060283076
0.035898134 -0.21548629 0.057970744 -0.050800458 -0.11048058 0.10360013 0.037026767 -0.0865937
0.051393263 -0.18775022 0.03881522 -0.0176884 -0.025967376 0.131477 -0.03961229 -0.048886422
-0.13639148 -0.23356499 0.020944953 0.08647713 0.020672433 0.057799503 -0.04433902 0.084943086
-0.060998734 -0.15135328 0.047664303 -0.041941155 0.09266095 0.11201973 0.047852155 -0.09975335
0.070447944 -0.156427 0.015970422 0.062061314 0.101583734 0.05662871 -0.054700803 0.09560804
0.0443776 -0.19519778 -0.007070581 0.05735057 0.039448764 0.2981995 -0.053641893 0.07257752
0.0032710617 0.032442413 0.03574722 -0.11572207 -0.11047509 0.12528066 -0.058370445 -0.11288124
0.07906812 -0.09166232 0.04525708 -0.040020317 -0.03838494 0.16434371 0.023636702 0.056795716
0.00040838507 0.033583857 -0.026788963 -0.015821405 -0.13939312 0.01826885 0.10369918 0.127733
-0.07811171 -0.11708178 -0.012127873 -0.035906356 0.072888374 -0.024060206 -0.03606325 -0.0015563823
0.03199268 -0.11599884 0.048353594 -0.014748343 0.016220877 0.07295799 -0.020705462 -0.10607829
-0.0974503 -0.13664922 -0.028084505 -0.088428244 0.0930773 0.05728573 0.042798117 -0.019761084
-0.060119815 0.107471496 -0.00790465 0.044012133 0.02939582 -0.17421849 0.001240556 0.033360317
0.06564383 0.067036174 0.043673653 0.117003284 0.102522254 -0.22217995 -0.08611087 0.03226218
0.048812106 0.12274109 0.017174492 0.043734264 0.15914378 -0.17621186 0.124932386 0.06593879
0.08318093 0.16589189 0.06330303 0.024719454 -0.056900058 0.07911577 0.051179387 -0.028047267
0.040718492 0.025480697 -0.003602782 0.06210416 -0.018766193 -0.041383952 0.11828813 -0.0367123
00000000: 496b 443c a5be c4bc 2d60 8a3d 8493 74bd
00000010: d63f aabc 6fb6 263e 0fe6 1abd 6b22 c3bd
00000020: 5532 2cbd 526a e5bc 682d 0f3b 7c18 58bd
00000030: 8f3b 0a3e a7f4 6b3b 21bd d73c 8b22 aabd
00000040: 1071 85bd 4996 a93d 72f4 923d ed10 033c
00000050: 6981 8d3e 047c 833d 0eee f93c 843c 09bc
00000060: 07c0 f7bc b854 85bc bafc 633d 2dc4 a83c
00000070: f544 da3d ad04 9b3d 7c91 72bd 97be bfbd
00000080: d09e a93d b5b7 1fbe f617 a53c df17 babd
00000090: 7412 b73d 1395 fd3d b3e3 65bc 67c5 20be
000000a0: 9d3d 1ebe c9de 87be bdbe c4bd 6e7a c0bd
000000b0: 3fc3 afbd 18fb 343e 2770 483d c6a5 4ebe
000000c0: ffd0 f5bd 92a7 afbd d046 bf3b 716b b0bc
000000d0: 32e0 aabd 000e 743c c7d7 2c3d 9d1a 83bc
000000e0: 6b3a ca3c e61b 0abe b016 6dba e2dc 14bd
000000f0: 1be1 b13c a83f 973d ce07 6dbd 1a88 933c
00000100: de78 bcbd 0716 4abe 9fe7 793d b43d 9e3d
00000110: 5abc 1d3e 5bf2 103c 8550 b9bc 4cbe b0bc
00000120: f629 9fbb 9574 1ebd 8655 af3d 1007 853d
00000130: 89aa 4abd 571c a33d 8589 803b 6cec 413d
00000140: 5584 92bc 1762 dfbd 255b 363d 3e10 26bc
00000150: 724d 8e3d 6000 ab3d 3a7b 7ebc e255 9a3d
00000160: e736 34bd 0223 04be 400d 473d 00f2 66bc
00000170: f6f2 733d bcca 523e 1a93 51bd 2e98 43bd
00000180: 48e9 95bd 5da5 543e 6006 64bd 81c8 1b3d
00000190: 4b1c eb3d 4695 853c 58f7 1a3d 715e ed3d
000001a0: 44ce bebd c4b6 543e 8ad1 15bd 17a7 633c
000001b0: 0c68 593e db30 883d 22c8 18bc fed9 34bd
000001c0: 441a 743d 8cf0 3d3c 50e5 29bd cfd4 99bd
000001d0: 8189 923e e28a 9d3d 5b18 db3b 63eb 763d
000001e0: ec09 133d 70a8 5cbe bb72 6d3d 2414 50bd
000001f0: a443 e2bd 4e2c d43d 61a9 173d 0a58 b1bd
00000200: be81 523d 9841 40be b5fc 1e3d 43e7 90bc
00000210: 89b9 d4bc e8a1 063e 7f40 22bd 213d 48bd
00000220: 35aa 0bbe a92b 6fbe c094 ab3c ec1a b13d
00000230: 3c59 a93c 2cbf 6c3d d59c 35bd a4f6 ad3d
00000240: cfd9 79bd 5bfc 1abe a53b 433d 7dca 2bbd
00000250: 06c5 bd3d 9a6a e53d 9f00 443d 7c4b ccbd
00000260: 0347 903d 662e 20be 67d4 823c 0134 7e3d
00000270: 220b d03d 82f3 673d f30d 60bd 26ce c33d
00000280: 49c5 353d ede1 47be 55b0 e7bb 6ee8 6a3d
00000290: 0795 213d 9bad 983e 9ab7 5bbd 86a3 943d
000002a0: 4f5f 563b 56e2 043d ad6b 123d b1ff ecbd
000002b0: c440 e2bd 9349 003e d915 6fbd 482e e7bd
000002c0: 77ee a13d 74b9 bbbd 7d5f 393d 58ec 23bd
000002d0: 8739 1dbd b849 283e c2a1 c13c a0a2 683d
000002e0: 841c d639 3a8f 093d 8774 dbbc e49b 81bc
000002f0: 12bd 0ebe 8ea8 953c 3c60 d43d 71cc 023e
00000300: 08f9 9fbd 93c8 efbd fcb3 46bc 8b12 13bd
00000310: 8046 953d e919 c5bc 0fb7 13bd 86ff cbba
00000320: c20a 033d cd90 edbd 6b0e 463d 09a3 71bc
00000330: a5e1 843c 006b 953d 809e a9bc 933f d9bd
00000340: 0694 c7bd c6ed 0bbe 7a11 e6bc de19 b5bd
00000350: 509f be3d 71a4 6a3d 144d 2f3d ffe1 a1bc
00000360: 3240 76bd 041a dc3d 8182 01bc 1146 343d
00000370: 81cf f03c 5566 32be 279a a23a d4a4 083d
00000380: 4670 863d 434a 893d 25e3 323d 6b9f ef3d
00000390: 30f7 d13d 2483 63be e55a b0bd 5925 043d
000003a0: 34ef 473d ae5f fb3d 85b1 8c3c b322 333d
000003b0: 96f6 223e e270 34be 8ddc ff3d eb0a 873d
000003c0: c35a aa3d 90df 293e 05a5 813d 7480 ca3c
000003d0: 0910 69bd 7307 a23d 7aa1 513d 62c3 e5bc
000003e0: 6fc8 263d e5bc d03c a71c 6cbb ef60 7e3d
000003f0: 8fbb 99bc 3882 29bd 0c41 f23d a35f 16bd

fc1.bias f4 [128]
0.077954315 -0.07070926 -0.079607785 -0.096676916 -0.14682722 -0.0056749983 0.14819086 -0.14845514
0.13004251 0.21312307 -0.14141922 0.21725307 0.028511567 -0.018334387 -0.10921068 0.13200973
-0.06309783 -0.12077947 -0.16627866 -0.08971123 -0.20018278 0.013200146 -0.10090318 0.11878512
0.09087284 0.11933734 -0.11345728 -0.036841527 0.17501788 -0.016527563 -0.12782499 -0.09647224
0.05500092 0.02843574 0.10074692 0.06264569 0.16834825 0.17156695 0.06496634 0.015286622
0.091880515 -0.14953536 -0.13575856 0.23562469 0.014127901 -0.105795346 0.17856324 0.0851088
-0.12454484 -0.05036862 0.03596651 0.2186582 -0.12565853 -0.038438927 0.030543659 0.24997377
0.048947476 0.00913294 0.2253165 0.1686682 0.22172372 -0.18398285 -0.00077261135 0.0859181
0.019649465 0.19513857 0.22910725 -0.18517488 0.0906043 -0.0012997732 -0.12960224 -0.010150954
0.015439728 0.13931334 -0.045072343 -0.15657078 0.08822662 0.040447846 -0.07259202 -0.044882204
-0.12096064 0.037722226 0.22049588 -0.046757698 -0.0010614941 -0.0026170898 -0.11525588 -0.0032504203
-0.10415056 0.03165648 0.20912053 -0.03377698 0.15321249 -0.16935617 0.24392098 -0.030073723
-0.011658351 0.1879742 0.16789834 0.13125832 -0.1763601 0.22743674 -0.0025818108 -0.18362993
-0.1447229 -0.043018688 -0.034653455 -0.007089176 -0.17066711 0.10642196 0.18846434 0.048844695
0.21952385 0.13234666 -0.07412209 -0.11748462 -0.22560312 0.12635252 -0.15931986 0.06623148
-0.0855872 -0.08196499 0.14253443 -0.086643845 0.042686168 0.25082907 -0.06011461 0.086560845
00000000: 83a6 9f3d 04d0 90bd 6809 a3bd 8cfe c5bd
00000010: e059 16be 56f5 b9bb 58bf 173e a004 18be
00000020: dd29 053e ef3c 5a3e 33d0 10be 9777 5e3e
00000030: 1791 e93c ff31 96bc d9a9 dfbd 8f2d 073e
00000040: 6f39 81bd 3a5b f7bd f444 2abe 85ba b7bd
00000050: b7fc 4cbe 6d45 583c 54a6 cebd 9d45 f33d
00000060: 8a1b ba3d 2367 f43d 4a5c e8bd 24e7 16bd
00000070: e337 333e d064 87bc 8ee4 02be 3d93 c5bd
00000080: a548 613d 12f2 e83c 6754 ce3d 624c 803d
00000090: 7c63 2c3e 3faf 2f3e 130d 853d bd74 7a3c
000000a0: da2b bc3d cc1f 19be 4b04 0bbe 9947 713e
000000b0: b678 673c 3bab d8bd 48d9 363e 864d ae3d
000000c0: 5d11 ffbd 534f 4ebd 9f51 133d efe7 5f3e
000000d0: a1ac 00be 2372 1dbd b236 fa3c 20f9 7f3e
000000e0: 267d 483d 54a2 153c 5eb9 663e 5bb7 2c3e
000000f0: 8b0b 633e 0066 3cbe 1289 4aba d4f5 af3d
00000100: eaf7 a03c 68d2 473e 179b 6a3e 7c9e 3dbe
00000110: bf8e b93d 275d aaba 73b6 04be 3050 26bc
00000120: eaf6 7c3c 28a8 0e3e c79d 38bd 1754 20be
00000130: 28b0 b43d a4ac 253d 20ab 94bd 67d6 37bd
00000140: 36ba f7bd 9f82 1a3d acc9 613e 0085 3fbd
00000150: d521 8bba 7b83 2bbb 460b ecbd 0105 55bb
00000160: e44c d5bd 3aaa 013d b123 563e bb59 0abd
00000170: bce3 1c3e b46b 2dbe 6cc6 793e 2b5d f6bc
00000180: ab02 3fbc 4f7c 403e 8bed 2b3e 9568 063e
00000190: be97 34be 2de5 683e 9933 29bb 7c09 3cbe
000001a0: 3d32 14be 5d34 30bd c8f0 0dbd 524c e8bb
000001b0: 5cc3 2ebe c2f3 d93d ccfc 403e 6011 483d
000001c0: dcca 603e e285 073e 53cd 97bd c79b f0bd
000001d0: 8104 67be 8e62 013e bf24 23be 5fa4 873d
000001e0: 5848 afbd 43dd a7bd 8cf4 113e 5472 b1bd
000001f0: b1d7 2e3d ab6c 803e bd3a 76bd d046 b13d

fc2.weight f4 [128, 128]
-0.1047485 0.07771083 -0.100552805 0.011928973 -0.07272712 -0.0043744636 0.09527321 -0.0028918388
-0.06636012 -0.010032551 -0.016356228 -0.0049206745 -0.06714752 -0.009196947 0.094237186 0.12621482
0.10475585 -0.011622483 0.018831003 -0.019193614 0.0060554207 -0.03745693 -0.06629134 0.15199655
0.14086355 0.0984289 -0.025410114 -4.4188633e-05 -0.00030125864 0.03161967 0.06063186 0.01587883
0.028433643 0.06279935 -0.03495763 0.07847526 0.04780329 0.069775656 -8.086487e-05 0.053841144
-0.00621183 -0.048813406 0.060665134 0.061661158 0.18809274 -0.020671865 -0.016189517 -0.016500806
-0.045756944 0.007621271 0.031961713 -0.13611767 0.16179585 0.08903672 -0.006330084 0.0895081
-0.02562049 -0.06992763 -0.02965082 -0.055483017 -0.02237196 -0.033285577 -0.031235538 0.098727666
0.005776277 -0.010919784 0.023578681 -0.059761193 -0.10099298 0.031852532 -0.010352217 -0.103878334
-0.035556465 0.057269726 -0.028021863 -0.03185154 0.07611316 -0.009849255 0.060036764 0.084555656
-0.063091666 -0.06979826 0.16722208 0.024159601 0.04637522 -0.009536602 0.014162809 0.038043138
-0.07781627 -0.01883633 0.009899965 0.07094251 0.07062777 -0.005975058 -0.034724846 0.05083059
0.015917204 0.04532327 -0.07266033 0.026643598 0.09726221 0.017850561 0.022178784 -0.008650135
0.10663575 0.11998683 0.070052445 -0.0353548 0.20563011 0.07238737 0.10529257 -0.14188983
0.12159574 0.11318144 0.017515566 -0.016852906 -0.24374738 0.0420127 -0.037783545 0.028307633
-0.11306031 0.085825294 0.020384317 -0.017519547 0.09589453 0.082352914 0.057216275 0.11193435
-0.001391941 -0.01935516 0.07284011 -0.05858798 0.12558149 -0.055572968 -0.022654906 0.11173511
0.088427335 0.043137126 0.13260603 0.11179963 0.0076669934 0.035968058 0.048296303 -0.040731877
-0.066272944 -0.0049387678 0.04874795 0.097156376 0.007841301 -0.011520928 0.07402492 -0.097089484
-0.09121133 0.019119412 0.11519691 -0.0060807336 -0.010205497 -0.04505603 0.09340876 -0.012021672
0.09711659 -0.010405661 0.09035049 -0.017300785 -0.027763091 0.11576247 0.058603413 0.039974056
0.09437684 -0.044495367 -0.02989802 0.020957062 -0.030497374 -0.06916561 -0.065944806 -0.009116137
0.057583295 0.09448197 0.03787414 0.22465831 -0.12786144 0.11030164 -0.005872151 0.020417498
8.291257e-05 0.12022403 0.0029151936 0.09742429 0.09947133 -0.014852993 0.1090369 -0.07108799
0.0151115935 0.034526013 -0.09961089 0.08402464 0.11054938 0.062458012 -0.03997122 0.042298995
-0.06448015 0.08583674 -0.030961066 -0.003122626 0.032588016 0.13312702 0.045484453 -0.050512765
0.051030867 -0.033010617 -0.029905165 0.12737255 -0.08044352 -0.0055957376 0.0074010873 0.06292039
0.23673774 0.11413387 0.07108114 -0.10277291 -0.02376846 0.1291516 0.11113286 -0.2033198
0.1696506 0.008823548 0.035959475 0.06541689 0.1294958 0.0095439 -0.02692814 0.038132016
-0.0030393067 -0.04234024 0.00790564 0.11639504 -0.10571071 0.009776057 0.0983695 0.05178446
-0.076327786 -0.06907689 0.0117367925 0.0112760365 0.11857997 0.04562782 0.099156976 0.027161874
0.09624519 0.03402189 0.0015205968 0.026589746 0.06491757 -0.05326342 0.08687313 0.042727437
00000000: 6286 d6bd db26 9f3d a1ee cdbd bd71 433c
00000010: f5f1 94bd a957 8fbb 9a1e c33d 0185 3dbb
00000020: d1e7 87bd 925f 24bc 7ffd 85bc 9c3d a1bb
00000030: a484 89bd cbae 16bc 6dff c03d 753e 013e
00000040: 3c8a d63d 3a6c 3ebc 7a43 9a3c ed3b 9dbc
00000050: 8d6c c63b 706c 19bd c1c3 87bd fca4 1b3e
00000060: 893e 103e 1795 c93d df28 d0bc 2f57 39b8
00000070: 40f2 9db9 a183 013d 1d59 783d 5214 823c
00000080: aced e83c f29c 803d bb2f 0fbd a3b7 a03d
00000090: 62cd 433d 8ae6 8e3d ff95 a9b8 8888 5c3d
000000a0: 9b8c cbbb 91f0 47bd 017c 783d 6990 7c3d
000000b0: 629b 403e 0b58 a9bc e19f 84bc b32c 87bc
000000c0: a26b 3bbd dbbb f93b 49ea 023d 6e62 0bbe
000000d0: d0ad 253e e258 b63d 986c cfbb 0650 b73d
000000e0: 10e2 d1bc 3836 8fbd 47e6 f2bc 2942 63bd
000000f0: 6745 b7bc 7556 08bd ace1 ffbc bb31 ca3d
00000100: ec46 bd3b e5e8 32bc 1428 c13c 27c8 74bd
00000110: 68d5 cebd cd77 023d 589c 29bc 2abe d4bd
00000120: a8a3 11bd a993 6a3d 1b8e e5bc c376 02bd
00000130: 37e1 9b3d c55e 21bc 1ce9 753d 842b ad3d
00000140: 3436 81bd 64f2 8ebd 443c 2b3e 5bea c53c
00000150: f1f3 3d3d 683f 1cbc 200b 683c 1fd3 1b3d
00000160: 235e 9fbd a64e 9abc 7633 223c 4f4a 913d
00000170: 4ba5 903d 6bca c3bb a43b 0ebd bd33 503d
00000180: cc64 823c e5a4 393d f0ce 94bd ad43 da3c
00000190: 6931 c73d 573b 923c 48b0 b53c 4cb9 0dbc
000001a0: d863 da3d a8bb f53d a877 8f3d 32d0 10bd
000001b0: b390 523e d43f 943d a2a3 d73d 914b 11be
000001c0: 3007 f93d accb e73d ce7c 8f3c 1b0f 8abc
000001d0: ea98 79be 8215 2c3d ebc2 1abd 69e5 e73c
000001e0: 2a8c e7bd 2cc5 af3d 03fd a63c 2785 8fbc
000001f0: 5a64 c43d a5a8 a83d 9d5b 6a3d d63d e53d
00000200: ca71 b6ba b68e 9ebc 322d 953d f3f9 6fbd
00000210: 6f98 003e 7ba0 63bd c896 b9bc 61d5 e43d
00000220: 6419 b53d 8eb0 303d e0c9 073e 34f7 e43d
00000230: 673b fb3b 3e53 133d 58d2 453d 78d6 26bd
00000240: 1cba 87bd 63d5 a1bb eeab 473d ecf9 c63d
00000250: cd78 003c 46c2 3cbc 619a 973d dad6 c6bd
00000260: 01cd babd 50a0 9c3c 5cec eb3d e440 c7bb
00000270: f534 27bc ac8c 38bd 184d bf3d 8cf6 44bc
00000280: 10e5 c63d 817c 2abc ad09 b93d 60ba 8dbc
00000290: 6c6f e3bc e014 ed3d 220a 703d d6bb 233d
000002a0: a548 c13d c640 36bd b1ec f4bc 25ae ab3c
000002b0: a1d5 f9bc b3a6 8dbd 120e 87bd da5b 15bc
000002c0: 76dc 6b3d c37f c13d ea21 1b3d d40c 663e
000002d0: 1cee 02be d4e5 e13d 2c6b c0bb 9942 a73c
000002e0: 59e1 ad38 0438 f63d d50c 3f3b 6386 c73d
000002f0: a0b7 cb3d f859 73bc bd4e df3d 9596 91bd
00000300: 9e96 773c 266b 0d3d cb00 ccbd 1c15 ac3d
00000310: b767 e23d f9d3 7f3d ddb8 23bd b641 2d3d
00000320: 2b0e 84bd 2ccb af3d 10a2 fdbc f9a4 4cbb
00000330: 037b 053d 7352 083e e84d 3a3d 79e6 4ebd
00000340: be05 513d 2436 07bd adfb f4bc f36d 023e
00000350: 92bf a4bd 735c b7bb d284 f23b 68dc 803d
00000360: 616b 723e 05bf e93d fd92 913d 9a7a d2bd
00000370: 13b6 c2bc 5140 043e a099 e33d 1133 50be
00000380: e3b8 2d3e a590 103c 3e4a 133d 4af9 853d
00000390: 8c9a 043e 055e 1c3c 6798 dcbc 5130 1c3d
000003a0: 1b2f 47bb f66c 2dbd a886 013c 8660 ee3d
000003b0: db7e d8bd c12b 203c f375 c93d f11b 543d
000003c0: be51 9cbd 2f78 8dbd ad4b 403c 20bf 383c
000003d0: 0eda f23d 3de4 3a3d d012 cb3d 9482 de3c
000003e0: 331c c53d 8a5a 0b3d c34e c73a bdd2 d93c
000003f0: 81f3 843d be2a 5abd 8aea b13d f702 2f3d

fc2.bias f4 [128]
0.025003333 -0.008388232 0.12917517 0.06891524 0.013798753 0.071514465 -0.040838383 -0.07076074
0.015915759 0.030414687 -0.05994895 -0.01868873 0.014195489 0.021019842 0.08968638 0.08601054
0.15134768 -0.028362643 0.039037384 0.080795705 0.049966224 -0.008829235 -0.00456372 -0.03405905
0.011436985 -0.070553504 0.07352878 -0.031235889 0.016365169 0.04260885 -0.05956323 0.09434647
0.06823725 -0.08523646 -0.061818045 -0.05428671 -0.06830479 0.10980004 0.005413778 -0.023762802
-0.105550654 -0.021977914 -0.0246087 0.042291038 0.13699257 -0.025077181 0.086763166 0.037596174
0.015604074 0.032057825 -0.08547321 0.03893692 0.06506075 0.089593984 -0.004479229 -0.090344764
-0.03762246 -0.01944378 0.01848599 0.02679751 0.09742344 -0.04238286 -0.049459778 0.010515349
0.053438436 0.07410738 0.016654264 -0.022418365 0.07103173 -0.05439239 -0.06604834 0.11314429
0.03320671 0.10388136 0.086371355 -0.052706268 -0.05135997 -0.0052217427 0.0042000413 -0.008659783
-0.011125743 0.08475214 -0.037476316 -0.106183805 0.06854641 -0.066875316 -0.03766648 0.00484505
0.04082275 0.018617716 0.032751117 0.13025247 0.043205407 0.019924581 0.03274356 0.014099141
0.071491934 0.015529922 -0.1058305 0.055518623 -0.008563142 -0.08121487 0.06143295 0.02203223
-0.030597277 -0.0727305 0.015801027 0.091998436 -0.06625675 -0.033030428 0.052914534 -0.08318907
0.0034269644 -0.07391925 -0.11858302 0.04908418 0.06347619 -0.099525884 -0.07705571 -0.017229196
-0.0059008477 -0.002390083 0.03986994 -0.056500517 0.046102088 0.0067563704 -0.04672739 0.015987111
00000000: cad3 cc3c cc6e 09bc 7f46 043e 6f23 8d3d
00000010: 2a14 623c 2d76 923d 2646 27bd 02eb 90bd
00000020: c461 823c 3928 f93c 088d 75bd 1c19 99bc
00000030: 3294 683c ce31 ac3c 7ead b73d 4b26 b03d
00000040: e3fa 1a3e c658 e8bc aae5 1f3d 3878 a53d
00000050: 62a9 4c3d 7fa8 10bc 428b 95bb 8181 0bbd
00000060: 3162 3b3c 5b7e 90bd 4296 963d 68e2 ffbc
00000070: 3f10 863c 9e86 2e3d 93f8 73bd b938 c13d
00000080: f9bf 8b3d 7490 aebd eb34 7dbd be5b 5ebd
00000090: 62e3 8bbd d8de e03d 1066 b13b 35aa c2bc
000000a0: f12a d8bd 070b b4bc 2f98 c9bc 5e39 2d3d
000000b0: c847 0c3e a96e cdbc e3b0 b13d 72fe 193d
000000c0: 3ba8 7f3c 114f 033d 940c afbd 527c 1f3d
000000d0: 923e 853d 0d7d b73d 7fc6 92bb ad06 b9bd
000000e0: 021a 1abd 9048 9fbc ee6f 973c 7486 db3c
000000f0: f185 c73d a699 2dbd 5696 4abd 9248 2c3c
00000100: 43e2 5a3d 9cc5 973d 866e 883c b8a6 b7bc
00000110: 1579 913d 8eca 5ebd 5a44 87bd 32b8 e73d
00000120: c203 083d c0bf d43d 77e3 b03d 87e2 57bd
00000130: d55e 52bd 271b abbb 80a0 893b c3e1 0dbc
00000140: c048 36bc 8892 ad3d c480 19bd e576 d9bd
00000150: 0f62 8c3d edf5 88bd 2b48 1abd 3ac3 9e3b
00000160: c235 273d 2e84 983c 0926 063d e760 053e
00000170: 27f8 303d e038 a33c 1c1e 063d 1500 673c
00000180: 5d6a 923d 3771 7e3c a9bd d8bd 7f67 633d
00000190: 6c4c 0cbc fb53 a6bd 1ea1 7b3d ef7c b43c
000001a0: 24a7 fabc baf3 94bd 2871 813c ad69 bc3d
000001b0: 9eb1 87bd ea4a 07bd e9bc 583d 085f aabd
000001c0: ec96 603b fa62 97bd a8db f2bd 7e0c 493d
000001d0: ceff 813d 3ad4 cbbd 62cf 9dbd 3e24 8dbc
000001e0: e65b c1bb f0a2 1cbb aa4e 233d 166d 67bd
000001f0: 8bd5 3c3d 8b64 dd3b 3865 3fbd 67f7 823c

fc3.weight f4 [2, 128]
0.043627623 -0.037500296 0.04505148 0.03064316 -0.08963711 -0.022914495 0.045335677 -0.0757858
-0.02657399 -0.016847743 -0.07744148 -0.050192907 -0.02685836 -0.04286667 -0.06220515 -0.048443586
0.046072025 0.040535294 0.08635935 -0.043244004 0.001672653 -0.069303006 -0.045000244 0.055797927
-0.026740512 0.09534739 -0.019229602 -0.013370116 0.12536597 -0.030540176 0.07363831 -0.073876895
0.025097346 -0.041638963 -0.034597922 -0.009265624 -0.033938088 0.07909133 -0.009215436 0.048177134
-0.02891641 -0.07024457 0.07076943 -0.03751073 -0.0909941 -0.0550827 -0.090435304 -0.101005964
0.100490585 0.010657448 -0.051031344 -0.09324089 0.07170412 -0.057026897 -0.1502716 -0.054436173
0.059058648 -0.038557716 0.07439661 -0.0979243 -0.09677929 -0.07610984 -0.10277688 -0.105965495
-0.0066335597 0.09046039 -0.044438463 -0.01664616 -0.04712009 -0.005031333 -0.019783545 0.018022833
-0.05413314 -0.09567386 0.06023311 -0.0041869814 -0.030315405 -0.10522315 0.02838781 -0.107923865
0.062133435 -0.014354256 -0.024864808 -0.075783774 0.03575556 0.06499553 0.062417533 0.05743021
-0.11742864 -0.024120932 -0.032239433 0.019812737 0.03688127 0.0005649956 0.07106837 -0.04948373
0.07986749 0.036345698 -0.051875535 0.03119119 0.08031653 0.09376688 -0.035816777 -0.08552027
-0.039185327 -0.04656073 0.03777596 -0.023687879 -0.024338953 -0.068247795 0.024458008 -0.114014745
-0.07445287 -0.052316554 0.033170514 -0.0042971303 -0.09749359 -0.053813178 -0.031664956 -0.07128881
0.034368597 -0.04220191 -0.078167275 -0.007492501 0.059841793 0.10921999 -0.05612514 -0.11867032
0.06471287 0.049066853 0.010598797 0.08345119 0.10240055 -0.025416236 0.022555284 0.05189944
0.027108839 -0.019634012 0.03273456 0.04751265 0.05231002 0.022384906 0.073276035 0.029251948
0.0076668146 0.0132329725 0.09841158 0.08020101 0.0016617822 0.05646286 0.044221625 0.028834486
0.061413083 0.037181992 -0.039162997 0.057430744 0.051546205 0.013614893 0.08877702 -0.027545609
0.021070745 -0.009475342 0.038122542 -0.0535382 0.071093276 0.0173452 -0.03586385 0.057732876
0.096062414 0.025497237 0.045451615 0.06665407 0.01975407 0.09562606 0.03829364 0.017091649
0.055364244 -0.01129597 0.050646957 0.029662943 0.011219849 0.058822114 0.062326733 0.03533255
0.036852922 0.054666284 -0.004183956 0.014903321 0.015981209 -0.006894026 0.041625187 0.007880624
-0.008580524 0.021769661 0.039040547 0.072494075 0.042692803 -0.057936754 0.09336859 0.0775914
0.102015845 0.03737452 0.016182166 -0.0359243 0.08122162 0.017273778 -0.020989325 0.0425465
0.041563418 -0.007205585 0.013083487 0.06983614 0.08280612 0.068769984 0.110895574 -0.019741924
0.16996008 -0.051676624 -0.02539319 -0.054740317 -0.01791016 0.0014029194 0.03383357 0.043804903
0.08333392 0.10025359 0.035353974 -0.021999257 0.059299137 0.040201087 0.026480198 0.056512292
0.050770987 0.06736207 -0.008931168 -0.002926629 -0.0009994882 0.01988116 -0.0018909422 0.04422858
0.017530015 0.09215011 0.059754357 0.09950336 0.052146066 0.06233174 0.05283711 0.078410245
0.11705296 0.034177314 0.07834009 -0.039373517 0.016578536 0.06832386 0.040282328 0.019452605
00000000: e1b2 323d e999 19bd e787 383d 5d07 fb3c
00000010: a993 b7bd 2eb7 bbbc e7b1 393d 9635 9bbd
00000020: b2b1 d9bc 4704 8abc a399 9ebd 1497 4dbd
00000030: 1006 dcbc f694 2fbd d4ca 7ebd c86c 46bd
00000040: 05b6 3c3d 5608 263d 2cdd b03d a020 31bd
00000050: ec3c db3a bcee 8dbd 2d52 38bd 5e8c 643d
00000060: eb0e dbbc 7e45 c33d 6687 9dbc 550e 5bbc
00000070: f05f 003e 642f fabc afcf 963d c54c 97bd
00000080: f398 cd3c 9e8d 2abd 8db6 0dbd d8ce 17bc
00000090: aa02 0bbd a3fa a13d 57fc 16bc 6355 453d
000000a0: 1be2 ecbc 63dc 8fbd 90ef 903d daa4 19bd
000000b0: 1d5b babd 669e 61bd 2536 b9bd 37dc cebd
000000c0: 02ce cd3d 949c 2e3c 3e06 51bd 14f5 bebd
000000d0: 9cd9 923d 0995 69bd cce0 19be 77f8 5ebd
000000e0: 7be7 713d b2ee 1dbd 405d 983d 898c c8bd
000000f0: 3834 c6bd 7adf 9bbd af7c d2bd 7004 d9bd
00000100: 555e d9bb 4c43 b93d 1b05 36bd 875d 88bc
00000110: ff00 41bd e1dd a4bb 1a11 a2bc 9fa4 933c
00000120: b6ba 5dbd a8f0 c3bd feb6 763d f232 89bb
00000130: 0358 f8bc 3c7f d7bd 8d8d e83c 3007 ddbd
00000140: a17f 7e3d 1d2e 6bbc 48b1 cbbc 8634 9bbd
00000150: 6c74 123d 601c 853d 87a9 7f3d f13b 6b3d
00000160: 6d7e f0bd 4399 c5bc 7f0d 04bd 524e a23c
00000170: d110 173d 361c 143a 4b8c 913d 74af 4abd
00000180: 9191 a33d 3adf 143d 717b 54bd ab84 ff3c
00000190: fe7c a43d da08 c03d 9db4 12bd 4025 afbd
000001a0: cb80 20bd 77b6 3ebd f7ba 1a3d 150d c2bc
000001b0: 7c62 c7bc 80c5 8bbd 295c c83c 9080 e9bd
000001c0: bf7a 98bd e249 56bd cedd 073d f1ce 8cbb
000001d0: b8aa c7bd 356b 5cbd 1db3 01bd deff 91bd
000001e0: 16c6 0c3d e9db 2cbd 2a16 a0bd a783 f5bb
000001f0: ab1c 753d bbae df3d 7ae3 65bd 6d09 f3bd
00000200: 2e88 843d 53fa 483d 94a6 2d3c 75e8 aa3d
00000210: 61b7 d13d b635 d0bc dcc5 b83c 8294 543d
00000220: 5b13 de3c 82d7 a0bc ad14 063d a09c 423d
00000230: 0843 563d 8d60 b73c bf11 963d c8a1 ef3c
00000240: e739 fb3b 1ccf 583c 038c c93d 6d40 a43d
00000250: 28d0 d93a 9a45 673d bc21 353d 4d36 ec3c
00000260: 498c 7b3d 254c 183d 6169 20bd 803c 6b3d
00000270: 1d22 533d 0011 5f3c bad0 b53d 54a7 e1bc
00000280: 8e9c ac3c 773e 1bbc 6226 1c3d df4a 5bbd
00000290: 5a99 913d 8517 8e3c f9e5 12bd 4f79 6c3d
000002a0: 5fbc c43d 95df d03c 792b 3a3d ee81 883d
000002b0: 4ad3 a13c 99d7 c33d cbd9 1c3d c903 8c3c
000002c0: 9ec5 623d bb12 39bc 2f73 4f3d b3ff f23c
000002d0: 75d3 373c 75ef 703d 514a 7f3d ddb8 103d
000002e0: 17f3 163d c1e9 5f3d 9119 89bb 0f2d 743c
000002f0: 06eb 823c 48e7 e1bb 2c7f 2a3d bc1d 013c
00000300: 5395 0cbc 4a56 b23c fbe8 1f3d c677 943d
00000310: a6de 2e3d 174f 6dbd 0838 bf3d 3de8 9e3d
00000320: afed d03d 0616 193d 7690 843c 5c25 13bd
00000330: 8557 a63d bd81 8d3c cef1 abbc 3d45 2e3d
00000340: 673e 2a3d d41c ecbb 1f5c 563c 4006 8f3d
00000350: 4196 a93d 47d7 8c3d 381d e33d d1b9 a1bc
00000360: 040a 2e3e deaa 53bd 6105 d0bc 6237 60bd
00000370: 54b8 92bc 2ae2 b73a 1295 0a3d c56c 333d
00000380: f9aa aa3d c151 cd3d 54cf 103d c937 b4bc
00000390: a7e3 723d e5a9 243d 00ed d83c 6f79 673d
000003a0: 3df5 4f3d 20f5 893d 0954 12bc b0cc 3fbb
000003b0: 4201 83ba d1dd a23c 7ed9 f7ba 0729 353d
000003c0: 1b9b 8f3c 32b9 bc3d fcc0 743d 6bc8 cb3d
000003d0: 1d97 553d 914f 7f3d ba6b 583d 8d95 a03d
000003e0: 76b9 ef3d 83fd 0b3d c570 a03d 2046 21bd
000003f0: b6cf 873c 61ed 8b3d 15ff 243d 125b 9f3c

fc3.bias f4 [2]
0.10435014 0.031394523
00000000: 87b5 d53d 8b97 003d
