end_weight_Actor_2.pth (torch_old, 80877 bytes, 6 tensors)

fc1.weight f4 [128, 24]
000000 0d 2c 2f bd b4 ca 24 bd 45 a3 fc 3d 29 a3 b3 3d
       -0.04276662 -0.040232375 0.12335829 0.08771355
000010 cc b5 6d 3d 6b 82 36 bc 5a 89 e1 3d 6b 43 66 3b
       0.058034703 -0.0111394925 0.11012526 0.00351354
000020 db 92 1a bd bb bf a4 3c ee 84 53 3e 41 c7 54 3e
       -0.03773771 0.020110955 0.20656177 0.20779134
000030 8c 02 48 3d 9f 34 ab bc 9d 8a a1 3d 35 a2 58 3e
       0.048830554 -0.020899115 0.078877665 0.21155627
000040 78 4a 28 be 5d 42 f4 bc e7 01 f4 3d 05 eb bf bc
       -0.16434658 -0.0298168 0.11914425 -0.023427496
000050 70 a8 f3 3d 23 b5 81 3d c8 2e 3f 3e 7d 19 24 bc
       0.11897361 0.06333377 0.1867019 -0.0100158425
000060 80 fc f0 bc e5 68 20 bd 32 31 8c be 31 8a 46 be
       -0.029417276 -0.039162535 -0.27381283 -0.19388653
000070 c9 d4 38 bb d0 3a af bd 76 d9 43 be 79 40 52 be
       -0.0028203002 -0.085561395 -0.19125924 -0.20532407
000080 9e 68 30 bd 1a f9 09 bc c7 7f 11 bd 40 71 82 bd
       -0.04306852 -0.008421207 -0.03552225 -0.06369257
000090 0f 0f 4b 3c f4 71 1a be ff f6 0b be 2a 56 8e bd
       0.012393727 -0.15082532 -0.1366844 -0.06950028
0000a0 f9 7f 79 bd 72 fe 19 3d 3c 6e b8 3d db c0 9e 3d
       -0.06091306 0.037596174 0.090054005 0.07751628
0000b0 89 b6 a8 bd cb dc 34 3d 61 2f 34 bd 60 f8 e3 bc
       -0.08237941 0.044155877 -0.043990497 -0.027828395
0000c0 62 0a 35 3e e0 aa 52 3e be b7 dd 3d 3e 6e 69 be
       0.17679742 0.20572996 0.10826062 -0.2279596
0000d0 91 7f 25 be 9c ff 87 be 2c 50 87 3d d6 ae 9f be
       -0.16161944 -0.26562202 0.066070884 -0.31188077
0000e0 f6 fe be 3d 90 36 fa 3d c1 9c e1 3d 83 6f cb bd
       0.09325974 0.12217438 0.110162266 -0.099333785
0000f0 04 6f 5f be 34 88 81 bd 99 06 39 3d 81 c1 02 be
       -0.21819693 -0.06324807 0.045172308 -0.12769128
000100 dd 94 d0 3d f6 b9 cf 3d f1 ae 73 3d 88 9f c6 3b
       0.101846434 0.10142891 0.05949301 0.006061498
000110 06 d1 ee bd 18 23 ab 3e a6 64 06 3e 35 b2 a7 3d
       -0.11660962 0.33425212 0.13124332 0.08188287
000120 ec 0d bb 3d 02 d5 4f 3d 77 e3 b3 bd 45 d4 95 bd
       0.09133515 0.05074025 -0.0878362 -0.07315878
000130 3b e8 07 be a9 d1 95 bd 4b 4e 81 be 9f 03 f9 bd
       -0.13272183 -0.0731538 -0.25255045 -0.12158894
000140 b1 3e 18 3e ed 7f e2 bc ad 19 a5 bd 55 1b dd 3d
       0.14867665 -0.02764889 -0.08061538 0.10796229
000150 9e 49 12 be 77 c4 5e b9 c9 8f 42 bd ad c6 89 3e
       -0.14285895 -0.00021244759 -0.047500405 0.2690939
000160 2b 53 41 3e f7 27 82 bd 09 87 73 3e 7b c2 1a be
       0.18879382 -0.06355279 0.2378198 -0.15113251
000170 3e 81 38 be 76 af ca bd 76 11 83 3e ff a5 9a bd
       -0.18018052 -0.09896748 0.2559926 -0.075511925
000180 a0 72 33 3e c8 a4 0a 3e 0e 99 c1 3c cf 61 d2 bc
       0.17524195 0.13539422 0.023632552 -0.025681404
000190 3a 44 29 be b0 e3 84 bd 33 c0 12 be 3d 56 eb bd
       -0.16529933 -0.064887404 -0.1433113 -0.11491058
0001a0 9f d7 2c 3e 3b 54 ee 3d 1d 4a 3f bd 61 6a a4 bd
       0.16879128 0.116371594 -0.04670154 -0.08028103
0001b0 7d 7f 3d be 39 49 e3 bd 47 bf 0f bd af 22 fd bd
       -0.18505664 -0.110979505 -0.035094526 -0.12360131
0001c0 cd 59 50 3e 75 55 33 3c 7f bc 32 bd 0d 50 55 bd
       0.20346756 0.0109456675 -0.043636795 -0.052078295
0001d0 31 ce 59 be d3 9a 89 3d e8 30 55 bc 0a d2 c1 3c
       -0.21270062 0.067189835 -0.013012148 0.023659725
0001e0 9f f2 a5 3d 9c 4e 97 3d 10 34 10 3d f7 da fb bd
       0.08102917 0.073880404 0.0352059 -0.122976236
0001f0 ff c2 a9 bb 9f cf ff 3d 04 1a 27 bd 96 06 00 bc
       -0.005180716 0.124907725 -0.040796295 -0.00781407
000200 4b 22 5c bd 32 36 95 3b be 32 e1 bd 30 5e ba 3a
       -0.05374364 0.0045535797 -0.109960064 0.0014218744
000210 fd 9e 8c 3d c6 cf d3 3c 74 af c8 3c 0b 17 1a bc
       0.06866262 0.02585591 0.024497725 -0.009404908
000220 f0 3f 53 bd a2 f7 61 bd a0 65 10 3d d2 24 17 3e
       -0.051574647 -0.0551678 0.035253167 0.1476014
000230 38 3e b2 bd ee 33 9c bd 22 f6 82 3d c2 bc 43 3e
       -0.087032735 -0.07627092 0.06394602 0.19114974
000240 43 02 91 bc 3a ea e1 bc 90 fb a1 3c 0f fa e2 bd
       -0.017701274 -0.027577508 0.019773275 -0.11082851
000250 8f b7 1e be d1 8d 02 bf dd a8 bf ba a0 7d 0e bd
       -0.1549971 -0.50997645 -0.0014622469 -0.034787774
000260 3a 91 87 3d de 7e bd 3b ee 90 a8 bd de d3 30 3e
       0.06619497 0.005782946 -0.08230768 0.17268321
000270 06 25 27 3d 97 37 82 be 61 cf 04 3d c4 f4 b9 3d
       0.040806793 -0.25433037 0.032424334 0.090798885
000280 56 6c 0a bc d9 e3 14 3d e9 d3 b6 3c 3e d7 d7 bd
       -0.008448681 0.036350105 0.022317844 -0.10539101
000290 f8 ee 91 3d c6 dd 01 bf e0 41 66 3c 90 24 c5 bd
       0.07125658 -0.50729024 0.014053792 -0.09626114
0002a0 ec 20 ec 3d 13 ca f2 3e d5 49 35 3e c2 77 e4 3d
       0.11529717 0.47419795 0.17703946 0.111556545
0002b0 07 3e e1 3d c2 b8 e2 bd bd 00 20 3e 5a 98 b5 3d
       0.10998159 -0.11070396 0.15625282 0.088669494
0002c0 23 14 8d bd e8 d9 67 3e 2c e9 26 bd 17 48 f0 3c
       -0.068886064 0.22641718 -0.040749714 0.02933125
0002d0 92 57 87 bc 3c 7a 9c 3d 04 e0 42 bd f9 46 5f bd
       -0.016521249 0.07640502 -0.04757692 -0.054511044
0002e0 dd 27 12 bd d3 8b 05 3e 45 bb 04 be 93 36 9b be
       -0.035682548 0.1304162 -0.12962063 -0.30315074
0002f0 aa 2f 1f be d1 ec dc bb fd 1c 4d be 6d 03 ae be
       -0.15545526 -0.006742098 -0.2003059 -0.3398699
000300 83 f0 b9 3d 99 e8 b9 bd 2e a5 29 3e ab 9c 0a 3e
       0.09079077 -0.090775676 0.16566917 0.13536327
000310 26 a4 e2 bd 03 ab 38 be 4d 15 d9 3a f1 f5 51 3e
       -0.11066465 -0.18033986 0.0016562134 0.20503975
000320 d0 86 b1 3d 12 07 0d be 60 4c 45 3d 54 dc 79 bd
       0.086682916 -0.13772228 0.04816854 -0.061001137
000330 2f b2 9f bd a8 a2 32 be 52 e9 08 bd 28 00 51 be
       -0.07797658 -0.17444861 -0.033425637 -0.20410216
000340 61 51 b2 3d 86 6e ce bd 6f aa 49 bb 1a 13 7e 3d
       0.08706928 -0.100796744 -0.0030771752 0.062029935
000350 7a a4 f8 bd b7 05 9c bd 3a 92 9d bd a9 f7 fb 3d
       -0.121407464 -0.076182775 -0.07693906 0.12303097
000360 36 32 21 bc ba b1 31 3d 35 2f d8 bd a9 24 24 3e
       -0.009838631 0.043382384 -0.10555879 0.1602961
000370 02 a0 bc 3d bf e2 05 3e 2f 79 a8 bd c7 85 92 3e
       0.092102066 0.13074778 -0.08226239 0.2861769
000380 7f 08 75 bd 20 bb 27 3c 46 b1 25 bb d7 12 41 3e
       -0.059822556 0.010237485 -0.0025282665 0.18854843
000390 01 f5 b6 bd b8 40 37 3e 7b 3f 00 3d bd d2 84 3d
       -0.089334495 0.17895782 0.03131054 0.06485508
0003a0 fc bf 3a bd f7 04 44 3d c8 12 19 bd b0 cb ad bc
       -0.045593247 0.047856297 -0.037371427 -0.02121529
0003b0 07 d0 b5 bd 99 80 c5 3d 1e da 32 bd ec 05 8e 3d
       -0.08877569 0.09643669 -0.043665044 0.06934723
0003c0 e3 df 0c bc 9e e3 2a 3c be 56 0c 3e 12 10 39 be
       -0.008598301 0.010430245 0.13704965 -0.18072537
0003d0 5a 1a 11 3c b1 90 2d be 4a e4 9f 3d 7b 28 8a be
       0.00885638 -0.16949727 0.078072146 -0.2698401
0003e0 cf c9 80 bd 89 e2 83 bd 03 ca 1c bd e4 3b 01 be
       -0.06288492 -0.064396925 -0.03827859 -0.12620503
0003f0 a8 14 0f 3e f1 21 6b 3d a4 e2 ee 3b f5 ae 9d bd
       0.13972723 0.057405416 0.0072902013 -0.07699386

fc1.bias f4 [128]
000000 c0 fd 79 3e ec 67 79 3d 40 1a 89 be a4 ce e7 bd
       0.24413204 0.060890123 -0.2677784 -0.113187104
000010 73 0f c7 3d cf ab 31 be 29 26 0c bd 61 12 2d be
       0.097197436 -0.17350696 -0.03421608 -0.16901542
000020 87 b9 7f 3d 30 ec 11 3e ae 01 16 3d 44 65 1b 3d
       0.062432792 0.14250255 0.036622696 0.03793837
000030 d3 44 61 be 6a f2 02 3e 7a a1 03 3e 5c 90 a7 be
       -0.2199891 0.12787786 0.12854567 -0.32727325
000040 f5 fc 0f be 1a 79 0a 3e c1 4f ea be aa b5 4a 3e
       -0.14061339 0.13522759 -0.45763972 0.19795862
000050 8b e4 92 3e 01 3e 53 bd 65 79 8d be b5 e8 14 3e
       0.2868999 -0.051572803 -0.2763168 0.14541896
000060 e8 e1 fd bd 29 d8 a8 3d 10 8f 15 bd df b1 d7 bc
       -0.12396604 0.08244354 -0.03651339 -0.026329933
000070 ec fd 72 be 43 b1 59 bd 98 77 d3 3d 46 d2 ff bd
       -0.23729676 -0.053147566 0.10325545 -0.12491278
000080 97 3d 1b 3d 3c 80 b9 be a8 c0 72 be d7 4a 2e 3e
       0.037900534 -0.36230648 -0.23706305 0.17020737
000090 a7 77 fc 3c 36 dc b2 bd 7b 1f 22 3d bd cf fc bd
       0.030818773 -0.08733408 0.039580803 -0.123443104
0000a0 2e 50 dd bd 26 45 62 3d 12 c2 9a 3d e6 6f 9f bd
       -0.10806309 0.055241726 0.07556547 -0.07785015
0000b0 a1 6c cd bd 88 ca 51 bd c6 93 1e bd c3 3b 1f be
       -0.10030485 -0.05121854 -0.038715146 -0.15550141
0000c0 13 9d 69 3e 44 a0 c3 bd f6 5b 0c be ac fe 70 be
       0.22813825 -0.095520526 -0.13706955 -0.2353465
0000d0 c4 ce 8a 3d ce 49 ef be ea 8f 53 3e 9c f2 96 be
       0.06777719 -0.46735996 0.20660368 -0.2948197
0000e0 dc f5 91 3e db f0 84 3d 7b 81 82 be e9 05 88 bb
       0.28507888 0.06491252 -0.2548941 -0.004151095
0000f0 8e 96 0b 3d f4 fd 5b be 38 f9 db 3d fb d5 54 3e
       0.034079127 -0.21483594 0.10740894 0.20784752
000100 52 c9 20 3c eb d1 28 3c c4 2a bc 3c 08 6e 30 3e
       0.0098136235 0.010303955 0.022969611 0.17229474
000110 7c c5 23 be cd b1 6f 3e da 72 01 3d 5c 13 69 be
       -0.15993303 0.2340767 0.03160367 -0.22761291
000120 0c b3 3c bc d4 d1 44 be 88 b2 49 be 4e 0c 80 3e
       -0.0115172975 -0.19220668 -0.1969701 0.25009388
000130 ca 0c 02 bf 3a 40 f7 bd f4 fd 11 be 7b 10 fd bd
       -0.50800765 -0.12072797 -0.14257032 -0.12356659
000140 ff 35 1a bd 9a 4b f4 bd f9 02 b7 3d 03 7c 90 bd
       -0.03764915 -0.11928482 0.08936114 -0.07054903
000150 d3 4d 7b 3e 47 d2 9c ba 99 8e f2 be 2d 32 66 be
       0.24541406 -0.0011964523 -0.47374418 -0.22480078
000160 e0 bc f1 3d 1f b9 3c be 62 d5 35 be 1e 0f 3b bc
       0.11803603 -0.18429993 -0.1775718 -0.011417178
000170 62 d4 ad bd 18 3e e2 3d f3 7b e9 3d f0 66 e8 bd
       -0.084877744 0.11047 0.114005946 -0.11347759
000180 ad 00 9e be e2 7c 3b 3e 52 5e b1 be fa df 8e bd
       -0.3085989 0.18309358 -0.34642273 -0.06976314
000190 e2 4d 18 3e 4c 80 3d be 5b 06 9f 3d 0b 6d 8d be
       0.1487346 -0.18505973 0.07764884 -0.27622256
0001a0 45 05 2c 3e 58 67 e4 bc 41 c1 34 be dc f9 ab be
       0.16798885 -0.02788131 -0.17651846 -0.33589065
0001b0 93 36 c0 bc f5 c6 15 bc 82 fd 8a bd 4e 26 85 3c
       -0.023463523 -0.009141673 -0.06786634 0.016253617
0001c0 a2 b0 33 be a5 32 e2 3c a4 4b 6d 3d 70 60 0a bd
       -0.17547849 0.02761204 0.057933465 -0.033783376
0001d0 99 98 92 bd 6e 9a 0a be 2f ce b1 3d 3c 53 be be
       -0.07158012 -0.13535473 0.086819045 -0.37172878
0001e0 bc 39 fa 3d 98 a0 94 bb c4 b4 33 bd 7a fd 0b bd
       0.12218043 -0.004535746 -0.043873563 -0.03417728
0001f0 f5 6f f5 3c 4f e6 e9 3d e9 fa 75 bc 8b 9c 5a be
       0.029960612 0.11420881 -0.015013435 -0.21348779

fc2.weight f4 [128, 128]
000000 6e 0e 30 bd 9a 2b d1 3d 50 47 1b bf ea 63 75 bf
       -0.04298251 0.102133945 -0.6065569 -0.9585558
000010 ad f3 21 be 1b e7 e2 bd 6e 63 22 be 0d 01 f6 3d
       -0.15815611 -0.11079236 -0.15858242 0.12011919
000020 9c f4 04 3e 65 1a c9 3c 56 01 f2 3d 59 c8 fc 3b
       0.12983936 0.024548719 0.11816661 0.007714313
000030 98 29 a5 3c 0f 2f 39 bc c9 a6 be 3d 0f 88 de 3d
       0.020161435 -0.011302724 0.093091555 0.10865795
000040 99 d1 89 3b 74 ad 28 3c d3 ef da 3d e4 03 0b bd
       0.004205894 0.010295261 0.10690274 -0.033939257
000050 8d 97 b3 3d 80 e9 9a 3d 7f 7e dc bb 70 7e d8 3d
       0.087691404 0.07564068 -0.0067289467 0.10570991
000060 2f 4f c6 bf 4f 69 97 3d e0 f4 8f 3d 6a 62 9a be
       -1.5492915 0.07393133 0.07029128 -0.3015321
000070 72 43 9c 3e e6 4c 8e bd 97 f7 14 3e db af 3d 3d
       0.30520207 -0.06948261 0.14547573 0.046310287
000080 7c 64 a9 be 3e 7f 43 bd be bf 31 be 5d 6c d8 be
       -0.33084476 -0.04772877 -0.173583 -0.42270175
000090 05 68 a9 bd 51 a6 64 3d 9d 49 36 3e f9 f9 cd bd
       -0.08271793 0.055822674 0.17801519 -0.10057444
0000a0 f0 5d a5 3c 14 aa b3 3c 63 7c 92 3c 7d 20 c0 bc
       0.020186394 0.021931686 0.017881578 -0.023452992
0000b0 e9 70 59 be f3 e4 d8 bd fa 51 0a 3d a8 e3 80 be
       -0.21234478 -0.105905436 0.033769585 -0.25173688
0000c0 70 23 11 3e b8 b5 99 bd 18 9e 18 be f2 b8 fd 3d
       0.14173675 -0.07505363 -0.14904058 0.12388791
0000d0 74 46 a6 bc ff 8e 1b be bf 41 ca bd 60 44 31 bf
       -0.020297267 -0.15191267 -0.09875821 -0.69244957
0000e0 81 31 bb bd 70 8d 22 bf e9 74 0c bf a6 c3 bb bd
       -0.091403015 -0.63497066 -0.5486589 -0.09168176
0000f0 37 2f c1 3d a4 01 95 bd c1 3d c3 3c 14 5f 9e 3d
       0.09432834 -0.072757035 0.023833157 0.077329785
000100 8b 0e 16 be 7c bf 50 be e0 f6 34 3e 99 f2 84 bc
       -0.14653985 -0.20385545 0.176723 -0.01622896
000110 a5 8c 98 bb e0 0b 3f 3d df 73 01 be 05 4b 63 3d
       -0.004655438 0.046642184 -0.12641858 0.055491466
000120 63 53 f1 bd 44 05 4e be 8b 2e 51 3c 07 d1 cd 3d
       -0.11783483 -0.20119196 0.012767444 0.100496344
000130 15 8f 18 be 91 bb 00 be 97 a3 bb bf 4f 43 82 3d
       -0.14898331 -0.12571551 -1.4659299 0.06360494
000140 bc a6 c7 3d df 99 71 3d 2e 4d 22 3e 7a 71 fa 3c
       0.09748599 0.058984634 0.15849754 0.030571688
000150 a6 57 d9 3d e8 1a 50 3f c0 74 c1 bd e4 d1 d0 3d
       0.10612421 0.81291056 -0.094460964 0.101962835
000160 0e a2 0c bd 38 d4 a0 bd 4d 0a 04 3e a5 03 b3 bb
       -0.034334235 -0.078529775 0.12894554 -0.005463081
000170 5c 74 67 3d 91 a0 1b 3e 50 29 13 bc 48 48 86 bc
       0.056507453 0.1519797 -0.008982018 -0.016391888
000180 b0 7b cd be bf fb a8 3d 2c 88 65 be 85 c2 0d 3e
       -0.4013343 0.08251142 -0.22415227 0.13843735
000190 6e 8e 62 3d 3b 51 1c 3e 78 5c 83 be 8c 94 81 be
       0.055311613 0.15265362 -0.25656486 -0.25308645
0001a0 85 4f 65 bd 51 e6 bd bd c6 29 ba 3d e5 e7 bb be
       -0.05598404 -0.09272445 0.09089999 -0.3670036
0001b0 20 eb 74 bd 04 0c 8e 3c 0e c4 bc 3d 38 a7 00 3e
       -0.059794545 0.017339714 0.09217082 0.12563789
0001c0 3a 71 43 3b 78 58 e3 3b 1c 14 85 be 60 62 06 be
       0.0029822127 0.0069380365 -0.25991905 -0.13123465
0001d0 ae 20 8b bd 59 7f 2a 3e 00 b4 9a be 20 4b a8 3d
       -0.067933425 0.16650142 -0.30215454 0.08217454
0001e0 c3 aa fb bc 7f 07 51 be cf 7b 08 3d 57 89 9f be
       -0.030721074 -0.20413016 0.033321198 -0.3115947
0001f0 af 3b 9b bd c7 96 18 3e 02 57 39 be 19 e1 54 3d
       -0.07579743 0.14901267 -0.18099597 0.051972482
000200 72 37 10 bb 5b 64 25 3e d3 d2 bc bd b0 04 14 be
       -0.0022005704 0.16151564 -0.09219899 -0.14454913
000210 80 57 0c bf 75 4b ae 3d 1e f5 fb bd 7e 83 dd bd
       -0.54821014 0.08510486 -0.12302612 -0.10816096
000220 9f d4 04 bb 84 f2 9a 3c ad 1b de 3c 13 2a 0a be
       -0.0020268334 0.018914469 0.027112806 -0.13492613
000230 f4 c5 2f be 0b 4e 8b bd 6a ea 77 3d fa c6 14 bf
       -0.17165357 -0.06801995 0.06052629 -0.58116114
000240 46 25 a4 3d ad 1b 62 3e 1e 2a 20 bf 92 a3 94 bd
       0.08014922 0.2208087 -0.62564266 -0.07257761
000250 bf 21 f0 bc 29 63 cd bd 30 d6 bc 3d 36 45 11 3d
       -0.029312966 -0.10028679 0.092205405 0.035466395
000260 43 b2 3f bf 9e 71 24 bb 72 ee 30 3e 56 2b 44 3d
       -0.7488138 -0.0025092135 0.1727846 0.04789289
000270 f0 df e7 3d 07 fe 74 bd c7 f0 2c bd ed 3c 37 be
       0.113220096 -0.05981257 -0.04222181 -0.17894335
000280 6b 6d b4 bd c0 f9 ee bd 28 69 8f bc 15 bc 2c be
       -0.08809932 -0.1166873 -0.017506197 -0.16868623
000290 37 bb 01 3d d5 1b a6 3d 2b 70 b8 bd a3 c6 5f bd
       0.031672683 0.08110777 -0.09005769 -0.054632794
0002a0 ea 5e fb 3d de f5 32 bd cd e5 19 bb ee 81 1c 3d
       0.12273963 -0.04369151 -0.002348292 0.038209848
0002b0 65 76 5b 3d c4 fe b9 bc 1d 38 fa 3d 98 19 ae bd
       0.053579707 -0.02270449 0.12217734 -0.08500975
0002c0 35 c9 45 3e 97 60 95 3d 4e 14 0e bc fc 5c be 3b
       0.19315036 0.07293814 -0.008671833 0.0058094244
0002d0 46 47 83 bd a5 e9 19 be 42 e9 4b bb e8 b5 33 bc
       -0.06410079 -0.15030535 -0.0031114374 -0.010968663
0002e0 d4 92 11 bc 18 9f 60 be 0f f5 fc be dd 9d de bd
       -0.008885104 -0.2193569 -0.49405715 -0.10869954
0002f0 95 ff 90 3c ea 09 4e 3e 4c af a1 3d 22 41 17 bc
       0.017699996 0.2012097 0.07894763 -0.0092318375
000300 60 45 30 be a5 33 1a bd 42 29 10 3d f4 7a 3f 3e
       -0.17213964 -0.03764691 0.035195597 0.18699247
000310 ee 12 10 bf b7 1f f6 3d 6e 1f 58 be 18 c3 8e 3d
       -0.56278884 0.12017768 -0.2110574 0.06970805
000320 57 81 71 3e a1 fc ed be 1c b8 eb bd db 48 97 3d
       0.23584495 -0.46481803 -0.115097255 0.07386943
000330 56 50 72 3d 15 8c f4 bd 8d 0b b9 3e d0 e9 7b bd
       0.059158646 -0.11940781 0.36141625 -0.061502278
000340 fe bb 37 be 7d 13 c6 3d a2 e9 34 3c 67 3c d1 3d
       -0.17942807 0.09671686 0.0110420305 0.10216599
000350 c1 2b af bd 45 86 09 3e c2 73 46 c0 05 fe c0 be
       -0.08553267 0.13430126 -3.1008153 -0.37693802
000360 54 ff 2b 3d 06 9f 50 be b9 2b 1d 3e 40 e2 c0 be
       0.041991547 -0.20373163 0.1534871 -0.37672615
000370 4c 57 7d 3d 34 c9 6e 3e ec 50 84 3d 90 75 81 bc
       0.06185083 0.2331894 0.06460747 -0.015803128
000380 04 e3 c0 bd 0e a7 1a 3e ec ee f7 be 76 29 24 bc
       -0.094183 0.15102789 -0.4842447 -0.010019651
000390 90 3e 8a 3d 0d d3 83 be f7 42 e8 3d 0e b5 53 be
       0.06750214 -0.25746956 0.113408975 -0.20674536
0003a0 ff 8e 1a 3e 1d 0e 00 3d 7a 8d aa 3d 14 fa f0 bd
       0.15093611 0.03126346 0.08327766 -0.117664486
0003b0 51 54 b1 3d af 08 ae bd 94 df 0f 3e 09 b4 80 bc
       0.0865866 -0.0849775 0.14050132 -0.015710847
0003c0 7f c4 d3 bc 23 7e b3 3d f5 6d 90 3e a9 93 1d bd
       -0.025850533 0.08764293 0.2820889 -0.038470898
0003d0 41 fe 70 3b 88 01 57 be b7 df 23 be 41 87 b7 be
       0.003677264 -0.20996678 -0.16003309 -0.35845378
0003e0 9c 13 8e be 19 52 9f be dc 7e 42 bc 52 2e ce be
       -0.27749336 -0.31117323 -0.011871066 -0.40269715
0003f0 56 9e b1 bd e5 b0 c2 3d 45 49 5d 3d ad df 7e be
       -0.08672778 0.09506396 0.054024953 -0.24890013

fc2.bias f4 [128]
000000 78 42 f0 3d 23 96 0a 3e 8d 7b 93 3d 72 10 83 bc
       0.11731428 0.13533835 0.072013 -0.015999053
000010 2a 0b 30 3d 81 19 a7 bd fd 84 e2 bd bf 04 3a bc
       0.042979397 -0.08159161 -0.11060522 -0.011353671
000020 cf 82 d8 3d 8d fc b0 bd e1 65 b3 3d 5e e8 e5 bd
       0.10571825 -0.0864192 0.08759666 -0.11225961
000030 df a4 ed 3d f5 1d 0c be 5e 1f cc 3c 91 7b c3 bc
       0.11603712 -0.13683303 0.0249173 -0.023862632
000040 03 a0 e8 bd 85 70 a8 bd 8b 6b 20 be 11 4d 92 bc
       -0.11358645 -0.082245864 -0.15666024 -0.017859014
000050 87 08 21 bd 2d d8 f1 bc d4 1a a5 b9 1a 55 07 be
       -0.039314773 -0.029522026 -0.0003149124 -0.13216057
000060 a9 97 94 bd a2 29 b7 3a 94 43 94 3b bb f4 0d bd
       -0.072554894 0.00139742 0.0045246575 -0.03465722
000070 60 3c 96 3d 6d 11 91 bc c0 ea b1 bd ed 1d 28 bd
       0.07335734 -0.017708505 -0.08687353 -0.041044164
000080 08 12 21 3d 0b a0 5a 3b 24 19 5e bc cf 18 29 bb
       0.039323837 0.0033359553 -0.013555799 -0.002580214
000090 2a 5b 78 3d 59 d9 26 be 96 c2 80 3d d2 2d 48 3d
       0.060633816 -0.16293849 0.06287114 0.048871823
0000a0 52 53 6d bc 64 b8 08 be 27 ce 6a bd 6d 10 22 bd
       -0.014485197 -0.1335159 -0.05732551 -0.039566446
0000b0 44 11 3b be 3a c6 b0 bd 9b a6 b6 bd 4a 31 26 bd
       -0.18268305 -0.08631559 -0.08918496 -0.04057435
0000c0 97 e2 85 bd d2 d6 4d 3b f8 f2 fc bd 3f 58 aa 3d
       -0.06537359 0.003140856 -0.1235103 0.08317613
0000d0 26 87 a9 bd 4a 08 08 bc 2f ac 8a 3c bc d8 a6 3d
       -0.08277731 -0.0083027575 0.016927807 0.081468076
0000e0 ca 7c ec bd a3 0e 09 3d 6b 2a b1 3d 7a e5 62 3d
       -0.11547239 0.033461224 0.08650669 0.055394627
0000f0 f1 56 92 bb 15 72 c8 3d 45 bd 04 bd aa cd a6 bb
       -0.0044659306 0.097873844 -0.032407064 -0.005090435
000100 3b 38 1d bd 5d 41 94 3d 69 90 2b bc 74 2c 86 bd
       -0.038383704 0.072390296 -0.010471442 -0.065514475
000110 f4 42 26 3d f0 b4 27 be 43 e0 4b be 0e cd d1 3d
       0.040591195 -0.16377616 -0.19909768 0.10244189
000120 73 86 37 3e 87 38 3e bd 79 69 a1 3d 9b ca 8d 3c
       0.17922382 -0.046440627 0.078814454 0.017308524
000130 ac 43 ac bd 4e 87 d7 bb 2a 1e ce bd 20 31 ef bd
       -0.08411345 -0.006577409 -0.10064347 -0.11679292
000140 15 8d 91 3d e9 eb 9f bd c6 45 de 3c 28 91 62 bd
       0.071069874 -0.07808668 0.02713288 -0.055314213
000150 60 3e cf 3d 5e f3 3b bc f5 85 80 bd a7 55 30 bc
       0.10119319 -0.0114715975 -0.0627555 -0.010762609
000160 a6 23 36 3d ac 8e 56 3d 07 76 e8 bc 3f 5f 1c 3e
       0.04446759 0.052382156 -0.028376592 0.15270709
000170 34 87 de 3d 6b da f2 3d 72 e5 c6 bd bb 0e 9d ba
       0.10865632 0.11858066 -0.09711732 -0.001198254
000180 8a eb d9 bd 24 df 0c 3d 11 9c 93 bc a9 b1 e0 3d
       -0.10640629 0.03439249 -0.018018754 0.10971386
000190 00 e4 52 3d a9 1d b8 bc 2d 0a c7 3d bd b1 88 3c
       0.05148697 -0.02247508 0.09718738 0.016686315
0001a0 02 14 8c 3c d9 81 cb 3d 60 0b 91 3c f3 3d 98 3d
       0.017099384 0.09936876 0.01770562 0.07433691
0001b0 84 a7 22 bd 5d 05 e8 bc 38 8a 0e 3c e7 da b5 bd
       -0.039710537 -0.02832287 0.008699946 -0.08879643
0001c0 38 7a 41 bc 70 c6 b0 bd ac e6 aa bc ef 3f 34 3d
       -0.011808924 -0.08631599 -0.020861946 0.044006284
0001d0 6f ca f6 3b 86 40 8d bd ef 5d ed 3d 02 fe d7 bd
       0.007531456 -0.068970725 0.11590182 -0.10546495
0001e0 bb a7 83 bc f9 44 07 3d 11 4f af 3c 6e ff 06 3e
       -0.016071191 0.03302476 0.021400006 0.13183376
0001f0 86 f1 86 3b 67 e3 02 3e 29 09 d0 3d 67 d4 af bc
       0.0041181473 0.1278206 0.10157997 -0.021463586

fc3.weight f4 [2, 128]
000000 11 61 67 3e be 9d 06 be 5a a1 c6 bd cc e7 24 3b
       0.22595622 -0.13146111 -0.09698744 0.0025162576
000010 49 97 63 3e fb 4f fd 3e 07 a7 67 3e de 34 15 3e
       0.2222568 0.49475083 0.2262231 0.14570948
000020 d3 0d af 3d 32 ce 1c be 4d a9 3a be 0a 7c cb 3e
       0.08547559 -0.15313032 -0.18228646 0.39743072
000030 ca b5 1b 3e b3 2b b8 bc 23 ec d3 3f ac 50 80 3d
       0.15206066 -0.022481775 1.6556438 0.06265387
000040 65 d3 26 be c1 a4 4e 3f 78 4a fb 3e 86 2a 99 be
       -0.16291578 0.80720145 0.49080253 -0.29915255
000050 de c1 d6 bc a7 3a 9d ba 75 f3 70 bd 4d fa ab bf
       -0.02621549 -0.0011995629 -0.05882593 -1.3435761
000060 57 c2 c9 bd 2c 3b 58 be a1 cc c6 bd a5 6d 7e 3e
       -0.098515205 -0.21116322 -0.097069986 0.24846514
000070 f1 bb e0 3d 07 ab 69 3e 52 6c 8f 3f 74 2b 51 3e
       0.10973347 0.22819148 1.1204932 0.20426732
000080 35 72 24 3f a9 92 5b bf 98 57 8b 3f ec cb 02 3f
       0.64236766 -0.8577066 1.0886106 0.5109241
000090 b0 d7 71 bd 08 ee 14 bf 89 ad 5c bc 8a 89 d0 3d
       -0.059043586 -0.58175707 -0.013469108 0.101824835
0000a0 5d af e2 bf 4f 2a 82 bd 56 9a 56 be 86 96 6b bd
       -1.7709767 -0.06355726 -0.20957312 -0.057516597
0000b0 7c 40 68 3e 17 ea 65 3e dc 90 8d be 64 a4 63 bd
       0.22680849 0.2245258 -0.2764958 -0.055576697
0000c0 1b a8 54 3e fa f1 ec 3d f0 bc 99 3e 93 72 65 3e
       0.20767252 0.11569591 0.3002696 0.22406988
0000d0 17 49 25 3f 00 6e f8 bd 50 e9 78 b9 57 74 c1 3e
       0.6456465 -0.12130356 -0.00023738039 0.37784073
0000e0 16 40 93 bc 54 ae 3b bd 40 f7 cf 3d 58 40 a1 bd
       -0.017974894 -0.04582055 0.10154581 -0.07873601
0000f0 83 24 27 bd c1 cf 85 3e f0 33 93 bf 3a 28 90 3e
       -0.040806305 0.26135066 -1.1500225 0.2815569
000100 0a 44 28 3d c2 28 4a be 38 46 8a bc fd b9 e6 3e
       0.041080512 -0.1974211 -0.016879186 0.45063773
000110 9c 17 66 bd 3f 91 9f 3d b3 0a c4 be 2f 91 cf bd
       -0.05617486 0.07791375 -0.38289413 -0.101351134
000120 7b 15 41 3f a2 2f f3 bd 99 ff 41 bd 37 cc 88 3f
       0.754234 -0.118743196 -0.047362898 1.0687321
000130 1c 85 d7 bd 9f 55 64 3e 0e 48 24 be b1 06 9b 3e
       -0.105234355 0.22298287 -0.16043112 0.30278543
000140 d3 5d 45 3d f0 63 30 be 57 42 bd bd bf 4b e7 3e
       0.04818518 -0.17225623 -0.09241169 0.45174977
000150 7a c7 b5 3d 5f 1e c3 3d 88 fe 8f 3e d5 77 19 be
       0.08875938 0.09527277 0.2812388 -0.14987119
000160 66 42 af 3e 30 01 18 bf 04 10 3e 3e 74 25 1c 3e
       0.34230345 -0.5937681 0.18560797 0.15248662
000170 20 d2 92 3e f1 aa b6 3e 8a f0 8d be ae d2 8a be
       0.28675938 0.35677293 -0.2772258 -0.2711386
000180 ef f1 12 c0 a1 fe e7 3e df 61 a2 3e 3b 61 b0 bd
       -2.2960165 0.45311454 0.31715295 -0.08612295
000190 46 55 0c bd 1f a2 06 3d df 5f e7 bd 1e 0f 86 be
       -0.03426101 0.032869454 -0.11297583 -0.26183408
0001a0 7b f1 40 3f 93 c4 d0 bc 7b 7d ae 3e 40 4b b8 bd
       0.7536847 -0.025484359 0.3408011 -0.08998728
0001b0 85 f6 ea 3d f2 ff d3 3e 73 55 f8 3d 69 22 8d 3e
       0.11472801 0.41406208 0.12125673 0.27565315
0001c0 5b c6 ed 3e 11 7f 6d 3e 62 33 e3 be c4 ae d8 3d
       0.46440396 0.23193003 -0.4437514 0.10580209
0001d0 d3 73 72 3e 27 d8 7e bf 40 e6 70 3e c9 1f c5 bd
       0.23676996 -0.9954857 0.23525333 -0.09625203
0001e0 62 d0 37 bf db a1 25 3d 73 9e ee 3e 2b 12 2a be
       -0.7180234 0.04043756 0.46605262 -0.16608493
0001f0 52 e4 1e 3e d4 91 3b be a9 8a 44 3d 82 6b e2 bd
       0.15516785 -0.18317348 0.0479838 -0.11055662
000200 f7 19 6c bd e1 ed 23 bf b2 05 d4 bd c0 0e 89 3e
       -0.05764195 -0.6403485 -0.10352649 0.26769066
000210 ac b7 82 3e 52 dd b9 3f 6e 04 ab 3e 30 62 b3 bd
       0.25530756 1.4520667 0.33401817 -0.08758962
000220 ee ea 00 be a7 d4 a0 3e 83 be 28 bd bc 43 50 3e
       -0.12589619 0.3141224 -0.04119731 0.20338339
000230 47 83 2f 3f 15 db 6d bf 54 5e dd be f4 61 9f be
       0.6855969 -0.9291242 -0.4323603 -0.3112942
000240 fc 3a c9 bf f4 9c 6f 3f ad b4 1a bf 0f e8 19 bf
       -1.5721126 0.93598866 -0.6043194 -0.6011972
000250 3b 22 6a bf 3e 1b dc bd 2b 38 65 be fd 9e 8d 3f
       -0.9145848 -0.107473835 -0.22384708 1.1064144
000260 99 72 95 3e cf 96 09 bf 1f 03 96 be e6 6b 66 bf
       0.29188994 -0.5374574 -0.29299256 -0.9000839
000270 5d 91 5c 3a 14 1f 27 bd 20 78 6e 3f b1 70 1e 3f
       0.0008413995 -0.040801123 0.93152046 0.61890703
000280 bc 1a 36 3f 7f f5 dc be ad 77 7c 3f f8 98 bb 3e
       0.71134543 -0.4315605 0.9862011 0.36640143
000290 50 e8 a4 be 40 82 32 be c5 88 ad 3e 74 42 07 bf
       -0.3220849 -0.17432499 0.3389341 -0.52835774
0002a0 7c 07 60 3f 3f e0 9f bf 1c cb 37 3e 40 f7 b5 3e
       0.8751142 -1.249031 0.17948574 0.355402
0002b0 9f 25 40 3f 7f 1a 0c 3e ad 1d 51 bf 7a 74 2a be
       0.75057405 0.13681982 -0.81685907 -0.16645995
0002c0 42 92 82 3e 61 68 36 3d cd c6 8e 3e ca ae 42 bf
       0.2550221 0.044533137 0.27886048 -0.76047957
0002d0 51 1e 7d 3f 89 7d a3 be 3f 1f 18 3a 1e da e7 be
       0.98874384 -0.31931713 0.0005802996 -0.45283598
0002e0 e3 5e 79 bf 4f 6d 32 3e 47 8a f3 be e4 8b 7a be
       -0.9741041 0.1742451 -0.47566435 -0.24467427
0002f0 c8 34 c0 be 8c 9c 35 c0 12 ff a8 be 3a d8 11 3d
       -0.3754027 -2.8376799 -0.33007103 0.0356066
000300 f8 10 e9 be 71 6c 86 3e 13 f5 f1 bd 7c 05 19 3f
       -0.4552076 0.2625461 -0.11814322 0.59773993
000310 81 5f 0b 3f 62 1d 69 bf c3 fe 0b 3e d0 45 fb 3d
       0.544426 -0.9106046 0.13671403 0.12269175
000320 cb 30 3e 3f 97 7e 9d 3e 7a 89 8d be 00 8c 9c c0
       0.742932 0.30760643 -0.2764395 -4.89209
000330 33 cd 68 be 5d b9 53 3e 72 01 c1 3d 9f b4 03 be
       -0.22734527 0.20676179 0.09424104 -0.1286187
000340 aa 82 5a 3f 76 f5 54 be 36 56 d1 3b d8 f4 f8 3e
       0.8535563 -0.20796761 0.006388451 0.486243
000350 b4 b7 06 3f 69 4d 17 bf 7a 86 e3 be 99 6f ac be
       0.5262406 -0.59102494 -0.44438535 -0.33678892
000360 df 08 12 3f 86 9c 8f be 10 ea f8 3d 85 e7 07 bf
       0.57044786 -0.28049105 0.12154019 -0.53087646
000370 38 5d 84 3f 90 d6 3f 3e d6 71 9c 3e 3c 15 e9 3e
       1.0340948 0.18734193 0.305556 0.45524013
000380 da 7a cc bf 83 cf 69 bc a0 c5 20 3d 29 17 ad bd
       -1.5974991 -0.014270666 0.03925097 -0.08451683
000390 a4 ec be be 41 bf 25 bf bf 50 89 3c a7 50 1c 3e
       -0.37289917 -0.64744955 0.016762136 0.15265141
0003a0 2d 80 63 3e 30 7f f8 3e 85 66 d2 3e 36 e9 14 3d
       0.22216864 0.48534536 0.4109384 0.03635522
0003b0 b8 e1 95 bf 32 23 23 3f 3a 71 86 3e 3f 02 32 3e
       -1.1709509 0.6372558 0.2625826 0.1738367
0003c0 3f 1c 85 3e 16 2d 44 3f 91 77 18 bf c1 f9 e7 3e
       0.25998113 0.76631296 -0.59557444 0.45307735
0003d0 12 45 90 be b9 28 3f 3f a1 fd 47 be 44 d9 b8 bd
       -0.28177696 0.7467151 -0.19530345 -0.09025815
0003e0 f6 19 31 bf 9b 9a 4f bf 5a 3b b8 be c3 64 b1 be
       -0.6918024 -0.81095284 -0.35982782 -0.34647188
0003f0 be 9c f5 3c 21 bd b4 bd d1 20 01 3e 0c 91 96 3c
       0.029981967 -0.08825136 0.12610175 0.01837971

fc3.bias f4 [2]
000000 14 47 8d 3c 06 2d c2 3d
       0.017245807 0.09481244
