end_weight_Critic_1.pth (torch_old, 81387 bytes, 5 tensors)

fcs1.weight f4 [128, 24]
0.20846988 -0.0023887511 0.0127893435 -0.06732311 -0.18143184 0.0038769192 -0.020385263 0.06713276
0.24293584 0.0069371127 -0.04775672 -0.021008885 -0.22015643 0.00078960124 0.068967134 0.0076834327
0.3795416 0.027482742 0.01255689 0.01039906 -0.40413743 -0.012136033 0.020179722 -0.01083437
-0.096487656 0.61536145 -0.07130469 0.09726164 0.03565976 0.76588 0.023453329 0.21198651
-0.19838934 0.5985708 -0.012886115 0.16395748 0.033019204 0.25060484 -0.09716324 0.1556946
-0.06384947 0.6631319 -0.0016825917 -0.14541455 -0.21294142 -0.24475068 -0.009564712 -0.16620265
-0.19983426 -0.17357673 0.014681177 -0.0064738425 0.20085426 -0.037353218 0.05940425 -0.01329754
-0.25456133 -0.1427628 -0.22988306 0.01380899 0.18812867 0.02494586 -0.26622662 -0.056886375
-0.29162112 -0.058345284 0.05502135 0.05384894 0.37087104 0.002577312 0.020778349 -0.11016997
0.10222181 0.35648775 -0.026722422 0.011249801 0.36154115 0.01310686 -0.04227177 -0.070349604
-0.10229022 0.23032644 0.02540092 -0.2825064 0.07896387 -1.0509906 0.09099104 -0.3563612
0.24606457 -0.17287695 0.069495626 -0.40139714 -0.8154595 0.5069894 0.08346986 -0.37809828
-0.22971182 0.14178288 0.052380614 0.16669519 0.3786798 0.59349376 0.028727764 0.20054062
-0.3406174 0.1845869 0.08660781 0.17505129 0.25501102 -0.28964868 0.020423386 0.16875769
-0.22103442 0.24845073 0.037190143 0.3403562 0.264256 -2.1675322 0.03246327 0.28137842
0.039092667 0.0771578 -0.032939717 0.0032161102 -0.092234984 0.3846577 0.031723723 0.048783496
0.13812865 0.22232638 -0.032033704 0.4304768 -0.23102184 0.10168825 0.06600683 0.5205355
0.114982486 0.13380814 -0.010149836 0.32438058 -0.21934547 -0.45775098 0.10159975 0.3792761
0.054102305 -0.093816094 -0.064735904 0.13302386 -0.13848963 -0.28123122 0.029808449 0.04471637
0.29300836 0.06538448 -0.07835254 0.00250769 -0.31053954 -0.03952174 -0.047334373 -0.08568805
0.5731346 0.22564061 -0.05062314 -0.03825774 -0.51450926 0.07897663 0.011051772 -0.025602335
-0.023924924 0.28631175 -0.08121082 0.114193186 0.42527843 0.58117735 -0.17271303 -0.007473818
0.046675723 0.19422175 -0.47981876 -0.19936864 0.31013805 0.030112503 -0.46972537 -0.22969316
0.20701537 0.24603374 -0.07009901 -0.25877708 -0.47007614 -0.43438068 -0.04268798 -0.324925
0.007496817 0.017759474 -0.054967813 0.0014444741 -0.05162968 -2.6735916 0.057071865 -0.003521496
-0.039288476 -0.04726789 -0.0051041967 0.00685844 0.06390369 -2.550294 -0.015552146 -0.025759215
0.021347344 0.03530082 0.04879918 -0.01470646 0.04385619 -2.6412067 0.0028391033 0.042982932
0.16176444 0.050737068 0.016205175 -0.01150787 -0.010347864 -0.3379664 -0.12523635 0.023362532
0.33419016 0.08125744 0.048116144 0.18727905 -0.19015123 -0.04170085 0.10596046 0.22178
0.09519209 -0.24317148 -0.06861832 0.14723763 -0.34350315 0.70465964 -0.058427647 0.04589927
0.045906093 -0.020315088 -0.060042523 -0.0012361971 -0.041227225 -0.18558283 -0.111444905 0.029398702
-0.027999546 0.019428842 -0.008954196 -0.02659709 0.1702902 -0.6155901 -0.11331799 -0.109813035
00000000: 2179 553e 988c 1cbb 658a 513c b3e0 89bd
00000010: 45c9 39be e913 7e3b fffe a6bc e77c 893d
00000020: 2cc4 783e b850 e33b 8d9c 43bd d31a acbc
00000030: b070 61be 3efd 4e3a a43e 8d3d 4ec5 fb3b
00000040: 4753 c23e 7d23 e13c 6abb 4d3c d260 2a3c
00000050: 1aeb cebe 36d6 46bc f24f a53c a482 31bc
00000060: 529b c5bd 5488 1d3f 3108 92bd 1c31 c73d
00000070: f80f 123d b610 443f 3221 c03c fe12 593e
00000080: 9326 4bbe f03b 193f 4920 53bc 78e4 273e
00000090: 253f 073d 474f 803e 85fd c6bd 686e 1f3e
000000a0: 83c3 82bd 03c3 293f 698a dcba 8de7 14be
000000b0: 510d 5abe ec9f 7abe 4fb5 1cbc 0731 2abe
000000c0: 5aa1 4cbe 19be 31be 5289 703c 8722 d4bb
000000d0: bdac 4d3e b0ff 18bd df51 733d eddd 59bc
000000e0: dd55 82be 6930 12be 7766 6bbe 1a3f 623c
000000f0: cda4 403e 435b cc3c db4e 88be b001 69bd
00000100: 5d4f 95be 77fb 6ebd 115e 613d b590 5c3d
00000110: cfe2 bd3e 1fe8 283b 5b37 aa3c cba0 e1bd
00000120: ab59 d13d 9085 b63e fbe8 dabc 1651 383c
00000130: ec1b b93e 28be 563c 2a25 2dbd 7413 90bd
00000140: 897d d1bd b2da 6b3e 9715 d03c aea4 90be
00000150: cfb7 a13d dc86 86bf 8359 ba3d fa74 b6be
00000160: 5af8 7b3e a806 31be b953 8e3d ed83 cdbe
00000170: f4c1 50bf 0fca 013f 3ff2 aa3d 1996 c1be
00000180: 9339 6bbe 882f 113e 0e8d 563d 25b2 2a3e
00000190: 52e2 c13e 35ef 173f 7d56 eb3c 855a 4d3e
000001a0: 6765 aebe 5904 3d3e 6f5f b13d a540 333e
000001b0: ce90 823e d54c 94be f24e a73c d1ce 2c3e
000001c0: d956 62be de69 7e3e b154 183d 2b43 ae3e
000001d0: 904c 873e d9b8 0ac0 35f8 043d d510 903e
000001e0: a21f 203d e904 9e3d cceb 06bd 60c5 523b
000001f0: b2e5 bcbd dbf1 c43e bcf0 013d 34d1 473d
00000200: 9971 0d3e 87a9 633e c635 03bd 7567 dc3e
00000210: fd90 6cbe ee41 d03d 972e 873d d141 053f
00000220: f07b eb3d 0005 093e 7f4b 26bc 3615 a63e
00000230: 199c 60be 565e eabe 8813 d03d 7a30 c23e
00000240: 619a 5d3d a722 c0bd 4294 84bd 6837 083e
00000250: 3ad0 0dbe 8afd 8fbe d930 f43c 8328 373d
00000260: 3105 963e 4ce8 853d 4c77 a0bd 0f58 243b
00000270: 0aff 9ebe 8ce1 21bd b0e1 41bd 377d afbd
00000280: f3b8 123f 550e 673e 365a 4fbd 26b4 1cbd
00000290: e1b6 03bf 80be a13d 7e12 353c fdbb d1bc
000002a0: 34fe c3bc 7497 923e dc51 a6bd 1ede e93d
000002b0: 18be d93e 0ac8 143f afdb 30be eee6 f4bb
000002c0: 0b2f 3f3d 11e2 463e ceaa f5be 4b27 4cbe
000002d0: 6aca 9e3e 7fae f63c d87f f0be af34 6bbe
000002e0: d6fb 533e 45f0 7b3e 1290 8fbd 6e7e 84be
000002f0: d2ad f0be 2567 debe 97d9 2ebd 925c a6be
00000300: dca7 f53b 517c 913c ee25 61bd 8254 bd3a
00000310: a579 53bd 201c 2bc0 30c4 693d e6c8 66bb
00000320: f4ec 20bd fa9b 41bd 1b41 a7bb c4bc e03b
00000330: f0df 823d 0438 23c0 6ece 7ebc fd04 d3bc
00000340: a0e0 ae3c 9897 103d a6e1 473d 5df3 70bc
00000350: 8ca2 333d 8809 29c0 4010 3a3b df0e 303d
00000360: 94a5 253e acd1 4f3d b7c0 843c 818b 3cbc
00000370: 168a 29bc ef09 adbe f53d 00be c862 bf3c
00000380: f91a ab3e 4d6a a63d 6f15 453d 14c6 3f3e
00000390: 01b7 42be 83ce 2abd cc01 d93d 4c1a 633e
000003a0: 12f4 c23d f201 79be c387 8cbd 76c5 163e
000003b0: a5df afbe 9364 343f d451 6fbd df00 3c3d
000003c0: 0708 3c3d d46b a6bc 26ef 75bd e407 a2ba
000003d0: e1dd 28bd 6d09 3ebe 3a3d e4bd 8cd5 f03c
000003e0: 4e5f e5bc 3c29 9f3c 9fb4 12bc 24e2 d9bc
000003f0: 8e60 2e3e 5097 1dbf 4313 e8bd a8e5 e0bd

fcs1.bias f4 [128]
-0.35114884 0.6969151 -0.03182001 0.27278104 0.026771523 -0.2525351 -0.0046523577 -0.107365124
-0.1563356 0.38834846 0.41199735 0.10414118 -0.28302824 0.37675375 0.25038874 -0.22733468
0.06268972 0.2871117 0.084504135 0.3488515 0.14008115 0.46668935 -0.49555993 0.29883
-0.5927851 -0.19466963 -0.68835074 0.13529858 -0.5140636 -0.4855781 0.2962833 -0.47415677
0.67198336 0.060356166 -0.22284374 0.22741465 -0.14959307 0.5029445 -0.57409734 -0.8175914
-0.017323453 -0.55435854 -0.010903777 0.073804036 -0.47270116 0.36437124 -0.34671602 -0.113879554
0.081378385 -1.2933693 0.4523198 -0.57467234 0.0065730666 0.03001514 0.25602102 -0.65399706
0.49888888 -0.62210876 -0.15099916 -0.51677775 -0.20253597 -0.6157502 0.26180658 0.5050943
0.0958806 0.48477316 -0.44913015 -0.8718515 -0.06650649 0.39527002 0.4101989 0.2394357
-0.0917863 0.3746846 -0.05105764 0.30282903 -0.050206684 -0.21448156 0.1422131 -0.08655167
-0.25598606 -0.8210324 -0.21731076 0.004272686 0.4002157 0.0970776 -0.34693652 -0.07763661
-0.13639782 -0.008622689 0.37026095 0.099154726 -0.37923703 0.58875066 0.23441418 0.23189387
-0.2009125 0.2519922 0.06772272 -0.031168807 -0.055716094 -0.16546018 0.1586453 -0.24549712
-0.13939054 0.21753784 0.1938433 0.065111086 0.0984731 0.018516596 -0.3150602 0.007655495
0.14450851 0.29222742 0.27148372 0.18953069 0.042462293 -0.08354902 0.6667657 -0.5990948
-0.3994472 0.30150908 -0.32915384 0.11206054 0.50972074 0.17975275 -0.12235694 0.2577629
00000000: c8c9 b3be 0769 323f b355 02bd f5a9 8b3e
00000010: f44f db3c 484c 81be ce72 98bb 3fe2 dbbd
00000020: 7116 20be 9cd5 c63e 51f1 d23e f947 d53d
00000030: 14e9 90be dee5 c03e f432 803e 6cca 68be
00000040: 7863 803d 4e00 933e 8110 ad3d aa9c b23e
00000050: 6f71 0f3e e8f1 ee3e 08ba fdbe 3f00 993e
00000060: c4c0 17bf 7a57 47be c137 30bf b68b 0a3e
00000070: ac99 03bf b19d f8be 72b2 973e adc4 f2be
00000080: 1a07 2c3f 0738 773d 2631 64be 63df 683e
00000090: ed2e 19be f9c0 003f 0bf8 12bf ac4d 51bf
000000a0: eae9 8dbc 71ea 0dbf c1a5 32bc 9226 973d
000000b0: e305 f2be de8e ba3e c384 b1be af39 e9bd
000000c0: b6a9 a63d 208d a5bf 7696 e73e ba1d 13bf
000000d0: e162 d73b 50e2 f53c 3015 833e 5a6c 27bf
000000e0: 5d6e ff3e 8542 1fbf 869f 1abe 8c4b 04bf
000000f0: 9765 4fbe cea1 1dbf 830b 863e dc4d 013f
00000100: 0c5d c43d 3034 f83e 63f4 e5be a931 5fbf
00000110: 8e34 88bd d560 ca3e 9705 d23e a22e 753e
00000120: 75fa bbbd a9d6 bf3e d121 51bd 680c 9b3e
00000130: 86a5 4dbd 0ea1 5bbe 50a0 113e 0142 b1bd
00000140: 9b10 83be 2e2f 52bf b686 5ebe e301 8c3b
00000150: 12e9 cc3e 9fd0 c63d aaa1 b1be f1ff 9ebd
00000160: dfab 0bbe 2e46 0dbc d892 bd3e a211 cb3d
00000170: 5b2b c2be 5db8 163f 450a 703e 9675 6d3e
00000180: 02bc 4dbe 1f05 813e 36b2 8a3d ba55 ffbc
00000190: 8f36 64bd 656e 29be ea73 223e 9963 7bbe
000001a0: 65bc 0ebe 3dc2 5e3e dc7e 463e f658 853d
000001b0: 44ac c93d 1eb0 973c 924f a1be f2da fa3b
000001c0: 0afa 133e d59e 953e eaff 8a3e 5514 423e
000001d0: f1ec 2d3d c01b abbd 28b1 2a3f 475e 19bf
000001e0: 5884 ccbe 665f 9a3e da86 a8be ff7f e53d
000001f0: 0f7d 023f 1b11 383e 4696 fabd 80f9 833e

fc2.weight f4 [128, 130]
-1.0720483 0.25444758 0.022095012 0.31312707 0.07889607 -0.25845483 0.5556174 -0.44994798
-0.7765668 0.26438618 0.109378785 0.04268987 -0.3065013 -0.0026109833 0.10200135 0.002109358
0.08032272 0.36984473 0.23961405 0.24385765 -0.35329753 0.32022914 -0.058482792 0.042838063
0.16714069 -0.20036703 0.32899275 -0.26992074 -0.8051728 0.009468411 0.2846594 -1.5232705
0.26003805 0.22006804 0.10148023 0.569391 -0.6955596 0.050267864 -0.6102282 -0.4155024
-0.34981108 -0.18413271 -0.2923638 -0.1520265 -0.27469286 0.2553584 -0.17247812 0.41963196
-0.1294474 -0.35142902 0.09678599 -0.8812463 -0.080057435 0.08370962 -0.0039724363 -1.8741853
0.47888973 -0.010152933 -0.22693704 -0.6720034 0.21504293 -0.9878507 0.020675719 0.24377215
0.060811967 0.2575691 0.19747198 -0.08311761 0.23572184 0.28918186 0.10696027 0.06454902
0.2915026 0.38783503 -0.38942364 -0.19462918 0.28784996 -0.18696426 0.33566454 0.11029523
-0.15028241 -0.3125499 0.21261409 -0.04221608 0.056549583 0.19877581 0.12073348 0.24973871
-0.4774526 0.06008993 0.0071491883 0.16682833 0.18413591 0.29319888 0.17469719 0.2550833
0.056651533 -0.022722442 0.117493935 0.09053747 0.17961438 0.14753886 0.08314907 -0.5070309
0.06338388 -0.6097199 0.37998036 -0.7869663 0.51540256 -0.030977184 0.13211797 0.021696571
0.30734393 -0.016406668 0.31922826 0.18852657 0.07323677 0.36164597 0.13228814 -0.40167034
-0.88388836 0.23452772 -0.075396165 0.324139 0.1453612 -0.08201365 -0.08931236 0.026494429
1.3708584 1.055445 -0.41747534 0.22178109 0.018760996 -0.9513606 0.07206735 -0.1277135
-0.6772462 0.05438834 -0.71097326 0.09715706 -0.12737423 0.25309807 -0.20956847 -0.030494926
-0.063284084 0.018290365 -0.013864658 0.16264851 0.33193505 -0.43022946 0.7469846 0.22966374
-0.11833039 -0.19676562 0.18016954 0.0006128143 0.093665615 0.046789844 -0.42115188 0.07373828
-0.4169255 -0.122792006 -0.12984799 0.14653784 0.3850296 -0.538004 0.5103604 -0.018213667
0.5335882 0.036803167 0.007964045 0.6629391 0.3106897 -0.057721138 0.13516772 -0.19131131
-0.1637711 -0.30160603 -0.090011306 0.057354584 0.14789735 -0.622375 0.44677776 -1.4146985
0.0047726794 1.0070131 -0.09389373 -0.030211136 -0.9604231 0.31703454 0.029993702 -0.86004245
-0.08325359 -0.22601065 -1.9973005 -0.83358747 0.08075605 -0.028514491 0.05150005 -1.338137
0.09942367 0.023005007 -0.009035653 -0.13147074 0.11120508 -0.9846766 -0.4232128 0.47161883
0.19067441 -0.020366622 -0.12903687 0.34971744 0.1349194 0.07906198 -0.0128984125 -0.24189712
-0.12816398 -0.26977172 -0.36083815 0.034609143 0.012366925 -0.70611286 -0.100014046 -0.23735216
-0.10799177 0.049653627 -0.046544485 0.21030368 -0.19072503 -0.03775467 0.6524898 0.40734184
0.03029463 0.057885766 0.080957234 0.33395576 -0.2533257 -0.01995631 -0.09309158 0.023624578
-0.060773153 0.10647299 -0.12398352 -0.7738333 0.20499854 0.028706035 -0.027857473 0.13279696
0.7235546 -0.079611056 -0.36223602 -0.16319811 -0.08087715 0.24260147 0.06675901 0.12796044
00000000: e138 89bf f446 823e 9900 b53c 3152 a03e
00000010: 4394 a13d 3154 84be f13c 0e3f 955f e6be
00000020: 15cd 46bf a05d 873e fc01 e03d 93db 2e3d
00000030: bded 9cbe 081d 2bbb 15e6 d03d 283d 0a3b
00000040: 3d80 a43d 4a5c bd3e 635d 753e d2b5 793e
00000050: 6ae3 b4be 13f5 a33e a78b 6fbd f776 2f3d
00000060: ee26 2b3e 042d 4dbe bd71 a83e 0d33 8abe
00000070: ce1f 4ebf 6521 1b3c e0be 913e 87fa c2bf
00000080: b523 853e 8459 613e ded4 cf3d 9cc3 113f
00000090: 3210 32bf ade5 4d3d ea37 1cbf bbbc d4be
000000a0: 701a b3be 498d 3cbe b5b0 95be d6ac 1bbe
000000b0: 8ba4 8cbe 56be 823e 1b9e 30be 00da d63e
000000c0: dc8d 04be 81ee b3be bc37 c63d 5c99 61bf
000000d0: 27f5 a3bd f36f ab3d 362b 82bb 4ee5 efbf
000000e0: 0931 f53e 7d58 26bc 2f62 68be 6a08 2cbf
000000f0: 3734 5c3e c9e3 7cbf 2060 a93c 689f 793e
00000100: f815 793d 19e0 833e 1836 4a3e 9139 aabd
00000110: 1161 713e a50f 943e fc0d db3d 4732 843d
00000120: d43f 953e 5092 c63e 8962 c7be df4c 47be
00000130: 1261 933e 8f73 3fbe 39dc ab3e 77e2 e13d
00000140: a2e3 19be 8a06 a0be 82b7 593e c5ea 2cbd
00000150: 89a0 673d e38b 4b3e 1d43 f73d 81bb 7f3e
00000160: ab74 f4be dc20 763d bd43 ea3b 0cd5 2a3e
00000170: 208e 3c3e 2a1e 963e d2e3 323e 479a 823e
00000180: 700b 683d 6a24 babc a9a0 f03d b66b b93d
00000190: d5ec 373e 6d14 173e 0f4a aa3d c7cc 01bf
000001a0: 68cf 813d 9a16 1cbf c98c c23e a076 49bf
000001b0: 6cf1 033f ddc3 fdbc ef49 073e 02bd b13c
000001c0: 2f5c 9d3e 4767 86bc e371 a33e 1c0d 413e
000001d0: 29fd 953d a929 b93e 8b76 073e bca7 cdbe
000001e0: 8246 62bf 0928 703e 4e69 9abd 8cf5 a53e
000001f0: 91d9 143e c6f6 a7bd 66e9 b6bd d80a d93c
00000200: 4a78 af3f d218 873f 54bf d5be 951a 633e
00000210: a9b0 993c 5e8c 73bf 0c98 933d 54c7 02be
00000220: 0260 2dbf 4fc6 5e3d 5802 36bf 48fa c63d
00000230: 646e 02be 1296 813e 1e99 56be 7fd0 f9bc
00000240: 169b 81bd add5 953c 9728 63bc 558d 263e
00000250: 64f3 a93e 0947 dcbe 623a 3f3f f92c 6b3e
00000260: 3457 f2bd ed7c 49be 5d7e 383e 46a5 203a
00000270: c2d3 bf3d b5a6 3f3d 38a1 d7be 1804 973d
00000280: 4277 d5be 607a fbbd dff6 04be 040e 163e
00000290: 9a22 c53e a1ba 09bf fba6 023f d434 95bc
000002a0: 3c99 083f ebbe 163d a07b 023c 60b6 293f
000002b0: b812 9f3e 006d 6cbd 6869 0a3e 1de7 43be
000002c0: 9cb3 27be 1b6c 9abe d957 b8bd a4ec 6a3d
000002d0: 6772 173e f853 1fbf 0ec0 e43e d714 b5bf
000002e0: 2364 9c3b cee5 803f 5b4b c0bd 587d f7bc
000002f0: 4ade 75bf 5a52 a23e 5ab5 f53c be2b 5cbf
00000300: dc80 aabd 566f 67be 8ba7 ffbf fd65 55bf
00000310: 6e63 a53d 3997 e9bc b7f1 523d 1348 abbf
00000320: a39e cb3d ff74 bc3c 470a 14bc 44a0 06be
00000330: 7dbf e33d c413 7cbf 59af d8be 0678 f13e
00000340: 2740 433e e7d7 a6bc 3e22 04be 2a0e b33e
00000350: 5028 0a3e 3feb a13d dd53 53bc e1b3 77be
00000360: 6b3d 03be 851f 8abe c7bf b8be 51c2 0d3d
00000370: a59e 4a3c d0c3 34bf 2ad4 ccbd 720c 73be
00000380: ca2a ddbd 9a61 4b3d 6ea5 3ebd d959 573e
00000390: 6c4d 43be a4a4 1abd 9209 273f 1c8f d03e
000003a0: 722c f83c a019 6d3d e8cc a53d 40fc aa3e
000003b0: e8b3 81be 6a7b a3bc cca6 bebd 5588 c13c
000003c0: 45ed 78bd 830e da3d 12eb fdbd f019 46bf
000003d0: 23eb 513e eb28 eb3c 5b35 e4bc edfb 073e
000003e0: e03a 393f 1f0b a3bd 0077 b9be 681d 27be
000003f0: eba2 a5bd 856c 783e f3b8 883d 1008 033e

fc2.bias f4 [128]
0.49489212 -0.061678164 -0.15159947 -0.15123802 0.2279833 0.36289006 -0.24972454 0.023471862
-0.058382284 0.4876507 0.040639374 0.24032964 -0.17041034 -0.10678753 -0.0213788 -0.2451093
0.11655458 0.19081587 0.004216655 0.19900645 0.19689813 0.04435494 0.05683349 -0.18876879
0.48994392 0.28577414 -0.033789434 0.040254876 0.046945978 0.04607421 -0.042391475 -0.12381771
0.054889236 0.17391667 -0.22966447 -0.48745358 0.6882522 0.29162437 -0.17427103 0.263839
0.05406468 0.31024334 0.21788839 -0.5342135 -0.2485668 -0.30652067 -0.015064114 -0.035835158
-0.15481643 -0.058055975 -0.3419583 -0.18073246 0.06874563 0.07919031 -0.0058318316 -0.22400887
0.08042136 0.30730745 0.07312459 0.118357815 -0.13099562 0.20848484 -0.15396833 -0.016853455
0.12422628 0.105710894 0.14029533 0.14016889 -0.15782039 -0.20043613 0.012824615 0.014507212
0.040967815 0.10544742 -0.058704384 -0.07679998 0.14173447 -0.0034107806 -0.062164843 0.023247633
0.020784713 0.32350665 0.29793122 -0.01327784 -0.62185526 0.014783195 0.2533474 0.26380512
0.2460738 -0.6884448 -0.2982419 -0.7717837 0.008381733 -0.09259241 0.02806691 -0.43674985
0.08448747 -0.17051436 0.18000095 0.12678903 0.368176 0.031523764 -0.07437714 0.3527661
0.29778337 0.33043888 -0.32585633 -0.004878305 0.09412367 -0.018479988 0.45478696 -0.026287232
0.011718965 0.26045895 -0.012403754 -0.018701728 0.37550464 0.15544145 0.26861724 -0.4052141
-0.1200538 -0.13438511 0.28158954 0.12654027 0.2789634 -0.26815656 0.063915566 0.4214366
00000000: 8062 fd3e 3ea2 7cbd e43c 1bbe 24de 1abe
00000010: 7474 693e bacc b93e cab7 7fbe 1048 c03c
00000020: 4322 6fbd 5aad f93e 7975 263d f918 763e
00000030: 0c80 2ebe 6cb3 dabd 9822 afbc effd 7abe
00000040: 2bb4 ee3d 3c65 433e de2b 8a3b 59c8 4b3e
00000050: aa9f 493e 87ad 353d 3cca 683d 9b4c 41be
00000060: eed9 fa3e fd50 923e ca66 0abd 4ce2 243d
00000070: 6d4a 403d 50b8 3c3d afa2 2dbd 2494 fdbd
00000080: 89d3 603d 3617 323e 2a2d 6bbe 8493 f9be
00000090: 4c31 303f ca4f 953e 1b74 32be e815 873e
000000a0: ed72 5d3d 37d8 9e3e 221e 5f3e 37c2 08bf
000000b0: 4c88 7ebe 47f0 9cbe 79cf 76bc e3c7 12bd
000000c0: 3388 1ebe 1acc 6dbd 2915 afbe ee11 39be
000000d0: 82ca 8c3d 872e a23d f318 bfbb 9562 65be
000000e0: f4b3 a43d 6757 9d3e 58c2 953d 9565 f23d
000000f0: b723 06be 0d7d 553e e0a9 1dbe 4210 8abc
00000100: 596a fe3d f47e d83d 94a9 0f3e 6f88 0f3e
00000110: ab9b 21be 213f 4dbe 561e 523c a8af 6d3c
00000120: decd 273d d1f4 d73d 0274 70bd 4f49 9dbd
00000130: d722 113e 6787 5fbb 90a0 7ebd d271 be3c
00000140: b444 aa3c aaa2 a53e 718a 983e 4c8b 59bc
00000150: e831 1fbf 3735 723c c0b6 813e 7711 873e
00000160: c5fa 7b3e eb3d 30bf 2ab3 98be 9e93 45bf
00000170: 8953 093c 17a1 bdbd 94ec e53c ad9d dfbe
00000180: c407 ad3d 519b 2ebe 2b52 383e fcd4 013e
00000190: 9181 bc3e 101f 013d 0b53 98bd c29d b43e
000001a0: 1077 983e 492f a93e a4d6 a6be 30da 9fbb
000001b0: e9c3 c03d 5863 97bc d6d9 e83e 5258 d7bc
000001c0: e700 403c e05a 853e 1d39 4bbc 5e34 99bc
000001d0: 2542 c03e 0b2c 1f3e 3388 893e 3978 cfbe
000001e0: c4de f5bd 409c 09be 812c 903e c693 013e
000001f0: 4ad4 8e3e d14b 89be 2ae6 823d 8ac6 d73e

fc3.weight f4 [1, 128]
1.144028 -4.487611 1.6021245 -2.2032707 3.3484366 0.6801622 3.4439034 -2.939704
-2.07182 0.39487362 -3.3077838 2.1552622 -2.1526248 1.9818475 -4.9685593 3.0180178
2.4499798 1.4793864 -4.2014036 -4.549876 2.4189541 1.4089594 0.8425734 -2.1178722
2.884288 0.62529105 1.5468149 4.036253 -2.6219394 -2.725011 -1.9513859 -1.9578961
5.9795523 1.0986192 -1.7947602 -2.5244663 2.9871159 1.944646 -1.5411347 0.5962767
0.8700096 1.81016 -3.1405125 -3.8076794 -4.399049 -2.3740592 2.3661377 -3.2512918
-3.0946786 4.6427 -1.9314241 -2.2355866 3.2402716 13.054738 1.5662413 2.630769
-1.8290523 2.9296613 4.651769 -3.2883961 -2.4755485 3.5032954 4.107691 -1.6521355
0.97674745 13.699432 4.24092 -1.2095933 1.9422351 -5.545657 6.633337 2.6877222
-2.9135005 1.8610932 2.1219985 1.8753324 6.9613123 -2.3987598 3.0457854 -2.977448
3.2402866 -6.182145 2.970666 4.698529 -4.718357 2.066766 -3.535602 1.3302954
-5.784873 -5.9452085 -2.5781553 -5.804332 -6.5624924 -2.997812 1.8883225 -3.0904553
1.1465106 -4.217054 5.416152 1.3171551 0.6618248 -2.4401073 -4.985385 -6.3745637
3.5443368 -6.2927585 -1.3379713 -2.197693 10.518196 3.8976984 -5.5879188 2.715859
-3.4116096 3.3559494 -4.6428947 2.657957 -7.5982428 3.4116058 0.42166284 -3.595871
-2.5643005 5.812422 0.4847443 -6.372111 -4.553868 -2.7294343 0.7341789 0.8025947
00000000: 826f 923f 829a 8fc0 6a12 cd3f 6302 0dc0
00000010: c94c 5640 1c1f 2e3f ea68 5c40 1c24 3cc0
00000020: b398 04c0 e02c ca3e bbb2 53c0 d1ef 0940
00000030: 9bc4 09c0 2ead fd3f 70fe 9ec0 3427 4140
00000040: 78cc 1c40 895c bd3f e671 86c0 9698 91c0
00000050: 25d0 1a40 c858 b43f e4b2 573f 388b 07c0
00000060: 2d98 3840 1313 203f 08fe c53f fc28 8140
00000070: dbcd 27c0 9566 2ec0 03c7 f9bf 579c fabf
00000080: 7e58 bf40 8e9f 8c3f b4ba e5bf db90 21c0
00000090: e82c 3f40 29ea f83f e743 c5bf 97a5 183f
000000a0: f3b8 5e3f 53b3 e73f 28fe 48c0 05b1 73c0
000000b0: 02c5 8cc0 96f0 17c0 cd6e 1740 2a15 50c0
000000c0: 370f 46c0 0091 9440 e838 f7bf da13 0fc0
000000d0: 9c60 4f40 35e0 5041 987a c83f 855e 2840
000000e0: 631e eabf 927f 3b40 4bdb 9440 1575 52c0
000000f0: 636f 1ec0 fe35 6040 3472 8340 2d79 d3bf
00000100: 1f0c 7a3f e030 5b41 9eb5 8740 f4d3 9abf
00000110: 299b f83f 0676 b1c0 4c44 d440 a403 2c40
00000120: cb76 3ac0 4d38 ee3f d3ce 0740 e40a f03f
00000130: 12c3 de40 4885 19c0 26ee 4240 828e 3ec0
00000140: db60 4f40 22d4 c5c0 641f 3e40 595a 9640
00000150: c8fc 96c0 e545 0440 4e47 62c0 1f47 aa3f
00000160: ae1d b9c0 263f bec0 7f00 25c0 16bd b9c0
00000170: f0ff d1c0 27dc 3fc0 8db4 f13f 05ca 45c0
00000180: dcc0 923f 1bf2 86c0 1e51 ad40 8a98 a83f
00000190: 5a6d 293f b82a 1cc0 4688 9fc0 6dfc cbc0
000001a0: 6ad6 6240 475e c9c0 a542 abbf 01a7 0cc0
000001b0: 884a 2841 e473 7940 3bd0 b2c0 a2d0 2d40
000001c0: d057 5ac0 e0c7 5640 9892 94c0 f81b 2a40
000001d0: ce24 f3c0 c057 5a40 31e4 d73e c022 66c0
000001e0: 801d 24c0 5cff b940 6830 f83e 55e8 cbc0
000001f0: 49b9 91c0 0daf 2ec0 26f3 3b3f d976 4d3f
