end_weight_Critic.pth (torch_old, 84902 bytes, 9 tensors)

fcs1.weight f4 [128, 28]
3.187439 1.4550227 -0.31318945 -0.11319403 0.4081866 -2.109204 -0.25812474 -0.027033709
3.8452873 1.5270433 -0.4205952 -0.7408213 -0.3455265 -1.6672419 -0.46034834 -0.71842563
4.324259 2.0177941 -0.16316612 0.885548 -1.422734 -0.63650525 -0.09975272 0.74172103
-0.77233773 -1.132941 0.33143038 3.9016445 -2.6927536 0.028429754 0.0069291545 -0.38108137
-0.5242987 2.5856967 0.052470334 -0.43338242 -1.4197145 3.0254393 -0.11202813 0.018475825
-1.1297045 -4.582667 -0.049278427 0.037029874 -1.2897229 4.893701 -0.28590715 -0.22728208
0.32686442 -1.5625721 -0.32053685 -0.10395091 -18.975447 5.0523057 -0.10072071 -2.8784242
4.8715506 4.6888657 -0.061776444 -0.023061983 0.45430017 0.20229189 -0.0037656976 -0.030390345
4.492983 4.9737806 -0.3785386 0.3467192 0.36548203 0.2786692 -0.34460765 0.30653954
4.901035 5.3381624 -0.3825798 0.9784771 0.18482465 1.262177 -0.46837008 0.984149
-3.8746119 4.824448 -2.4601622 -3.451897 3.169913 0.9159917 -0.24021937 -0.38718265
1.100425 -3.8672128 -0.33160028 -0.35933685 3.661768 1.0886346 -0.36464736 -0.049557764
0.14907713 -4.4448285 -0.2872465 -0.054468427 4.000553 1.4301567 -0.060870487 0.99392915
-1.3146976 -1.8247465 -0.05515696 0.9453385 3.6182108 -0.5149493 1.5382526 -0.7516011
0.1866891 1.2496388 0.44861528 -1.2384943 0.09131556 -1.0309653 0.5015472 -1.2247511
1.3022625 0.63318086 1.2675434 -2.9094045 -0.0765648 0.7935618 1.2908124 -2.93197
1.9161277 0.47781524 -1.3162029 -0.5900833 -0.3476893 1.390829 -1.2713537 -0.4889596
-2.2512906 -0.45610672 -0.13431613 -2.8057795 3.3182676 1.1195165 -0.48815542 1.8124893
0.74814475 -5.97048 -0.46172306 1.7549238 3.220511 1.4958787 -0.6477955 1.9348853
0.5429962 -3.499434 -0.8033099 1.872069 3.3144543 1.2345356 -0.30109918 1.4520003
0.33029836 -0.7662327 -0.3136682 1.5073217 -0.24552423 -1.6925557 2.6700058 -3.2750382
1.9073551 1.3089074 -0.69824296 -3.2198417 -1.6206936 -4.8035793 -0.7510999 -3.158035
1.8346858 -0.052312702 -0.48730874 -2.4136574 -1.080159 -2.8304617 -0.53749126 -2.3473055
1.7795475 -0.9111913 -0.51478124 -0.03170425 -0.1702548 -2.1104784 -0.6568681 -0.1102598
-3.021769 -2.379678 0.40467477 0.39289737 0.574419 2.1245167 0.0052799718 1.9873236
1.6619914 -3.7391107 0.06836834 2.0237021 -0.50975573 1.720599 -0.81686294 0.36505017
0.43766895 -4.5353384 -0.71536636 0.42915055 -0.9723307 0.7891368 0.06557027 1.668056
0.74982476 -12.573024 0.04063203 1.6582518 -12.541501 2.3557668 -4.189204 -4.9783425
4.418745 1.6033047 -0.13451976 0.9971129 0.104088575 -0.12153603 -0.1793855 0.8973418
4.5559044 1.4321414 -0.27311513 0.29320696 -0.3368235 0.75098234 -0.18840472 0.22870368
4.0188475 1.585364 -0.1528059 -0.31412783 -0.4121122 0.53992254 -0.015127019 -0.24921991
-1.5284513 0.39549136 -2.161697 -1.2112374 1.2963927 -1.5525736 0.041215573 0.47788373
00000000: 00ff 4b40 2f3e ba3f 5e5a a0be 46d2 e7bd
00000010: d6fd d03e 33fd 06c0 ed28 84be cc75 ddbc
00000020: 3019 7640 2876 c33f 4158 d7be 77a6 3dbf
00000030: d9e8 b0be 2f68 d5bf c7b2 ebbe beea 37bf
00000040: 5460 8a40 8a23 0140 0515 27be 46b3 623f
00000050: 261c b6bf 02f2 22bf 274b ccbd 6ee1 3d3f
00000060: edb7 45bf 3604 91bf 3eb1 a93e 8bb4 7940
00000070: 1356 2cc0 84e5 e83c f60d e33b 191d c3be
00000080: 7138 06bf 0e7c 2540 22eb 563d 4de4 ddbe
00000090: 34b9 b5bf cca0 4140 016f e5bd 9d5a 973c
000000a0: 289a 90bf 35a5 92c0 2dd8 49bd a3ac 173d
000000b0: a415 a5bf 3399 9c40 6c62 92be a2bc 68be
000000c0: c65a a73e 5d02 c8bf 681d a4be 37e4 d4bd
000000d0: b7cd 97c1 7dac a140 a946 cebd 1a38 38c0
000000e0: bee3 9b40 300b 9640 4c09 7dbd 7cec bcbc
000000f0: 089a e83e 9b25 4f3e ecc9 76bb 2cf5 f8bc
00000100: 84c6 8f40 3629 9f40 d0cf c1be 2e85 b13e
00000110: 7620 bb3e bbad 8e3e 6a70 b0be c0f2 9c3e
00000120: 47d5 9c40 3ad2 aa40 80e1 c3be 7a7d 7a3f
00000130: ac42 3d3e 048f a13f 34ce efbe 30f1 7b3f
00000140: a4f9 77c0 e161 9a40 4c73 1dc0 e1eb 5cc0
00000150: dbdf 4a40 6f7e 6a3f 11fc 75be ce3c c6be
00000160: bada 8c3f 6a80 77c0 83c7 a9be 00fb b7be
00000170: 685a 6a40 6158 8b3f 0fb3 babe 15fd 4abd
00000180: ada7 183e 093c 8ec0 f911 93be 491a 5fbd
00000190: 8804 8040 600f b73f 5553 79bd 2472 7e3f
000001a0: 0348 a8bf 4b91 e9bf 44ec 61bd b401 723f
000001b0: c490 6740 b8d3 03bf 76e5 c43f ee68 40bf
000001c0: 6d2b 3f3e 2af4 9f3f e7b0 e53e fb86 9ebf
000001d0: a703 bb3d acf6 83bf 6665 003f a5c4 9cbf
000001e0: 8ab0 a63f 2418 223f dd3e a23f af33 3ac0
000001f0: 02ce 9cbd de26 4b3f 5739 a53f 65a5 3bc0
00000200: ac43 f53f 33a4 f43e 5679 a8bf b30f 17bf
00000210: 5504 b2be af06 b23f b8bb a2bf ea58 fabe
00000220: 2515 10c0 d286 e9be 2b8a 09be e491 33c0
00000230: 7f5e 5440 514c 8f3f 82ef f9be a6ff e73f
00000240: 6a86 3f3f 2c0e bfc0 f766 ecbe 58a1 e03f
00000250: da1c 4e40 f478 bf3f edd5 25bf 52aa f73f
00000260: cd01 0b3f baf6 5fc0 b8a5 4dbf f59f ef3f
00000270: 0520 5440 4305 9e3f ac29 9abe 25db b93f
00000280: de1c a93e d427 44bf 1e99 a0be ebef c03f
00000290: b46a 7bbe aaa5 d8bf 60e1 2a40 3a9a 51c0
000002a0: 3624 f43f 478a a73f 0dc0 32bf e311 4ec0
000002b0: e372 cfbf ecb6 99c0 1548 40bf 3f1d 4ac0
000002c0: fcd6 ea3f d845 56bd 8880 f9be 5d79 1ac0
000002d0: a642 8abf 4926 35c0 0799 09bf 413a 16c0
000002e0: 36c8 e33f d543 69bf b4c8 03bf 51dc 01bd
000002f0: 4657 2ebe 1412 07c0 8228 28bf e4cf e1bd
00000300: aa64 41c0 a54c 18c0 8831 cf3e d829 c93e
00000310: 200d 133f 15f8 0740 9d03 ad3b 9f60 fe3f
00000320: 22bc d43f 974d 6fc0 b304 8c3d 5684 0140
00000330: 5a7f 02bf 973c dc3f ee1d 51bf dbe7 ba3e
00000340: 2516 e03e 7e21 91c0 4022 37bf 9fb9 db3e
00000350: aaea 78bf df04 4a3f b549 863d dc82 d53f
00000360: 84f4 3f3f 1b2b 49c1 c66d 263d 9841 d43f
00000370: fda9 48c1 e2c4 1640 f60d 86c0 954e 9fc0
00000380: 5c66 8d40 1739 cd3f 8cbf 09be ca42 7f3f
00000390: 642c d53d e2e7 f8bd d5b0 37be 31b8 653f
000003a0: f8c9 9140 6950 b73f bfd5 8bbe 391f 963e
000003b0: 2174 acbe 6140 403f 2bed 40be 4c31 6a3e
000003c0: 669a 8040 35ed ca3f 2679 1cbe 5dd5 a0be
000003d0: 5f00 d3be 5d38 0a3f 51d7 77bc 8133 7fbe
000003e0: 4ba4 c3bf d87d ca3e 3e59 0ac0 d409 9bbf
000003f0: 32f0 a53f bbba c6bf a9d1 283d 2dad f43e

fcs1.bias f4 [128]
-4.0652537 -7.1088176 -4.557638 -3.362182 -2.3766181 -4.400995 -3.5017169 -5.245781
-3.4993765 7.974023 -3.7696307 -3.8728507 -2.9123566 -2.6023357 -5.298777 -3.1398575
-0.66814584 -4.4456663 -1.1575998 -3.97835 -3.964332 -3.101739 -9.78265 -2.2105358
-7.349856 -2.9666395 -12.522321 -1.9553097 -1.9614054 1.1602066 -9.53665 -3.2031565
-0.2972022 -3.0479677 -3.820419 -2.0711918 -0.33317617 -8.254821 -4.5449853 -9.148592
-8.502313 -4.148814 -3.3771882 -2.0294209 -10.612312 -5.435003 -3.9270868 -3.4984572
-3.4904108 -1.5806086 -3.5062072 -2.1529543 7.9260263 -1.9818182 -0.628814 -2.2781737
-0.55368066 -3.4866948 -3.244671 -2.52424 -2.6692467 -9.15547 -2.3826365 -0.6861618
-4.23203 -3.2073863 -2.4152024 -2.401328 -9.573345 -1.6213027 -2.2737424 -2.8572757
-0.15045312 -4.143588 -2.6821775 -6.1276917 -8.944543 -8.9238205 -2.4235163 -1.490328
-2.87657 -3.389939 -3.7486334 -7.340672 -7.3078804 5.0798388 -2.853372 -2.2984524
-0.8293671 -4.265115 -1.5464032 1.2885109 -2.986539 -2.3622146 -10.415989 -7.5123134
1.2106794 -2.6209724 -3.2291412 -2.9231284 -18.459448 -1.8131667 -1.4160233 -2.4523942
-2.4848983 -4.625993 -4.3166504 -0.39440256 -3.8927739 -2.7857566 -1.9454031 -2.4271166
-1.6948988 -8.537826 -3.0333526 -1.6256181 -7.465348 -3.556705 -3.2643647 -3.2999625
-3.227361 -8.776282 -10.31327 -1.0558624 -2.1144946 -4.182656 -3.5131836 0.054798655
00000000: 8f16 82c0 6f7b e3c0 2cd8 91c0 fd2d 57c0
00000010: 831a 18c0 f3d4 8cc0 211c 60c0 70dd a7c0
00000020: c9f5 5fc0 322b ff40 a141 71c0 c9dc 77c0
00000030: 0d64 3ac0 ab8c 26c0 958f a9c0 6df3 48c0
00000040: 9b0b 2bbf e642 8ec0 3b2c 94bf 499d 7ec0
00000050: 9eb7 7dc0 e482 46c0 bc85 1cc1 6b79 0dc0
00000060: 0532 ebc0 6cdd 3dc0 6d5b 48c1 9747 fabf
00000070: 550f fbbf a681 943f 1e96 18c1 8400 4dc0
00000080: e32a 98be e711 43c0 bf81 74c0 688e 04c0
00000090: 1196 aabe bf13 04c1 8570 91c0 a260 12c1
000000a0: 7909 08c1 16c3 84c0 da23 58c0 08e2 01c0
000000b0: 08cc 29c1 8beb adc0 6455 7bc0 b9e6 5fc0
000000c0: e462 5fc0 6251 cabf b365 60c0 01ca 09c0
000000d0: 02a2 fd40 38ac fdbf f4f9 20bf 99cd 11c0
000000e0: 04be 0dbf 0226 5fc0 b1a8 4fc0 268d 21c0
000000f0: f0d4 2ac0 ce7c 12c1 1e7d 18c0 4da8 2fbf
00000100: ca6c 87c0 d145 4dc0 ad92 1ac0 5caf 19c0
00000110: 6c2c 19c1 d986 cfbf ff84 11c0 9bdd 36c0
00000120: 6210 1abe 4698 84c0 cca8 2bc0 0d16 c4c0
00000130: d91c 0fc1 f8c7 0ec1 e41a 1bc0 11c3 bebf
00000140: b919 38c0 c3f4 58c0 9ce9 6fc0 c9e6 eac0
00000150: 28da e9c0 0a8e a240 a69d 36c0 d819 13c0
00000160: 6751 54bf d27b 88c0 8af0 c5bf eded a43f
00000170: 7423 3fc0 862e 17c0 e4a7 26c1 df64 f0c0
00000180: 8bf7 9a3f 03be 27c0 40aa 4ec0 8914 3bc0
00000190: f3ac 93c1 d915 e8bf 4040 b5bf 07f4 1cc0
000001a0: 9308 1fc0 2208 94c0 0022 8ac0 22ef c9be
000001b0: 3523 79c0 d649 32c0 f802 f9bf e155 1bc0
000001c0: 72f2 d8bf ef9a 08c1 7322 42c0 4114 d0bf
000001d0: 21e4 eec0 0ea1 63c0 5aeb 50c0 9632 53c0
000001e0: 158d 4ec0 a76b 0cc1 2703 25c1 8026 87bf
000001f0: e153 07c0 51d8 85c0 00d8 60c0 8e74 603d

fc2.weight f4 [128, 128]
-0.08866865 -1.772523 -0.13156386 -0.25207126 -0.2001815 -0.2341011 0.37150922 -0.6127031
0.20228279 0.22918807 -0.37272868 -0.33033067 0.38188493 -0.09023171 -0.34626314 -1.9202408
0.6215733 0.3174674 -0.02583658 0.2889122 -0.292183 -0.46705583 -0.029572168 0.22551505
-0.002287811 -0.26472527 0.596693 0.049215455 0.03286639 0.43523026 0.20937037 0.06682176
-0.2405212 -0.21951386 -0.025250958 -0.09560027 0.26869473 0.23078345 -0.59789944 -0.53875816
-0.55052596 -0.01008931 0.27110967 -0.2562014 -0.5722273 0.13922001 -0.07944057 0.14180724
-0.39159662 -0.04237333 0.20950454 -0.1990656 -0.2034821 0.081612036 -0.13943517 -1.0366303
-0.44426548 0.09572934 -0.13157615 0.22825877 -0.3560193 -0.35005933 0.049014393 0.54023474
0.48713845 0.11204109 -0.09288054 0.16170456 0.43582535 -0.0060118367 -0.24898586 0.16683266
-1.0105733 -0.19215097 -0.7260771 0.31536976 0.17172925 0.0500533 0.20287478 -0.9132142
0.12770568 0.17183848 -0.597676 -0.6340872 1.3448443 0.52645004 -0.12304673 -0.25691956
0.22678702 0.04910887 -0.5365834 -0.25624004 0.37791213 0.5524444 -0.6539262 0.33656794
-0.2920861 -0.21868978 0.04822778 -0.18058884 0.5934977 0.020111367 -0.14847139 0.0773903
-1.7438902 -0.20813665 0.10315803 -1.7594426 0.276472 0.062193844 -0.18762563 0.031360485
-0.10249984 0.401023 0.21587807 -0.08243968 -0.41979995 -0.77347016 0.1408053 -0.12698695
0.13119677 -0.2849895 0.26209846 -0.14997967 -0.0012629648 0.052051287 -0.028982302 0.34479865
0.18216269 -1.0030129 0.08656062 -0.64048594 -0.22633548 -0.025241328 -0.04134896 -0.4506609
-0.24312773 -0.15326157 -0.26863918 -0.19764009 0.35878664 -0.00054745685 -0.2859668 -0.88653857
-0.08104713 0.22020996 0.0865678 0.086398445 -0.38182643 -0.3842539 0.096362166 -0.18323867
0.4869332 -0.18484218 0.5319528 0.17546673 0.07378268 0.23865512 0.14663461 0.074632674
-0.40043733 0.3204207 -0.09156766 -0.29704824 0.10421524 0.06625657 -0.07157197 -0.13533373
-0.42646366 -0.04194416 -0.20925122 0.29674426 0.19914252 -0.2919099 -0.022006433 0.24334782
-0.5359011 0.08288877 -0.12577023 -0.23529065 -0.27901354 0.28740627 0.40628752 -1.0494878
-0.01213911 0.47178274 0.006090969 0.087158166 -0.15777199 -0.46739054 -0.46707928 0.18580352
0.05100784 -0.024590584 -0.3514962 -0.25638974 -0.045333736 0.14789328 -0.026984463 -0.38309872
-0.2863074 -0.101427205 0.17314646 -0.28761277 -0.39032847 0.20989984 0.3029644 -0.15368018
0.0599954 -0.2150288 -0.14297767 -0.49397138 0.24755457 -0.12251334 -0.29799455 0.35438117
-0.23195085 -0.51863056 -0.035654116 -0.39760637 -0.11671558 -0.07216347 -0.0156198675 -0.23825638
-0.26699752 0.08329502 0.3361753 -0.17891136 0.27528515 0.2113434 -0.55142915 -0.31259158
-0.9493206 -0.24599625 0.44707364 -1.3387008 0.20987087 -0.19698691 0.16707325 -0.32433385
0.20310524 0.29478037 0.057410363 0.038013227 -0.051979378 -0.24040547 -0.21209279 0.35423088
0.25912756 0.21949969 -0.18596318 -0.28390634 -0.028067099 -0.07663937 0.3183471 -0.16533275
00000000: e997 b5bd 09e2 e2bf adb8 06be 7c0f 81be
00000010: 61fc 4cbe 33b8 6fbe 7536 be3e 1cda 1cbf
00000020: 3823 4f3e 47b0 6a3e 4bd6 bebe 1a21 a9be
00000030: 6c86 c33e 67cb b8bd 6749 b1be 73ca f5bf
00000040: 6e1f 1f3f 168b a23e 3ca7 d3bc 4dec 933e
00000050: 0399 95be f121 efbe 5541 f2bc 6bed 663e
00000060: 19ef 15bb 128a 87be dfc0 183f 2596 493d
00000070: e89e 063d 80d6 de3e 3065 563e d9d9 883d
00000080: 304b 76be 3ec8 60be 19db cebc 13ca c3bd
00000090: 5b92 893e 7f52 6c3e f00f 19bf 0eec 09bf
000000a0: 45ef 0cbf a24d 25bc e3ce 8a3e d42c 83be
000000b0: 7d7d 12bf b18f 0e3e bdb1 a2bd eb35 113e
000000c0: 5a7f c8be a88f 2dbd 5c88 563e dad7 4bbe
000000d0: 9d5d 50be 3624 a73d 18c8 0ebe 4db0 84bf
000000e0: c476 e3be bf0d c43d e6bb 06be abbc 693e
000000f0: 2948 b6be fa3a b3be 51c3 483d d34c 0a3f
00000100: 366a f93e cd75 e53d 2738 bebd e195 253e
00000110: 8024 df3e f1fe c4bb 26f6 7ebe 2ed6 2a3e
00000120: 775a 81bf 39c3 44be 30e0 39bf 2578 a13e
00000130: cbd9 2f3e b004 4d3d 68be 4f3e 68c8 69bf
00000140: 47c5 023e 6df6 2f3e 4b01 19bf 8a53 22bf
00000150: dc23 ac3f 6ec5 063f edff fbbd f68a 83be
00000160: db3a 683e 6226 493d 885d 09bf e531 83be
00000170: b37d c13e ff6c 0d3f b567 27bf a252 ac3e
00000180: 4f8c 95be 37f0 5fbe 7e8a 453d 48ec 38be
00000190: 77ef 173f 98c0 a43c e208 18be ce7e 9e3d
000001a0: cb37 dfbf c621 55be 8444 d33d 6a35 e1bf
000001b0: bd8d 8d3e f9be 7e3d ef20 40be da73 003d
000001c0: 70eb d1bd e352 cd3e 240f 5d3e 23d6 a8bd
000001d0: 05f0 d6be 2402 46bf 442f 103e de08 02be
000001e0: 7258 063e 25ea 91be c531 863e 4594 19be
000001f0: 118a a5ba bb33 553d 4b6c edbc 7389 b03e
00000200: db88 3a3e ba62 80bf b246 b13d e3f6 23bf
00000210: 7dc4 67be e7c6 cebc 875d 29bd 07bd e6be
00000220: 7af6 78be 9af0 1cbe 138b 89be 2a62 4abe
00000230: e2b2 b73e 3583 0fba 3e6a 92be 31f4 62bf
00000240: 0afc a5bd b87e 613e 754a b13d abf1 b03d
00000250: c17e c3be edbc c4be 8759 c53d eba2 3bbe
00000260: 4f4f f93e 4547 3dbe 0f2e 083f 8dad 333e
00000270: 601b 973d 0262 743e 6227 163e 04d9 983d
00000280: 1f06 cdbe 2f0e a43e d387 bbbd b516 98be
00000290: cd6e d53d 86b1 873d 5394 92bd ed94 0abe
000002a0: 7259 dabe a4cd 2bbd f445 56be ddee 973e
000002b0: 04ec 4b3e 3775 95be d646 b4bc 2c30 793e
000002c0: d130 09bf 96c1 a93d e9c9 00be 08f0 70be
000002d0: ddda 8ebe ea26 933e eb04 d03e 9e55 86bf
000002e0: 1ee3 46bc 828d f13e c096 c73b fb7f b23d
000002f0: fb8e 21be d04d efbe 0425 efbe 4743 3e3e
00000300: 99ed 503d 3172 c9bc 4ff7 b3be 8445 83be
00000310: deaf 39bd 5671 173e 850e ddbc 8425 c4be
00000320: e296 92be 11b9 cfbd 4e4d 313e fb41 93be
00000330: 22d9 c7be fcef 563e 261e 9b3e 565e 1dbe
00000340: bdbd 753d 8230 5cbe bd68 12be d1e9 fcbe
00000350: f27e 7d3e 46e8 fabd be92 98be 7371 b53e
00000360: 8684 6dbe f9c4 04bf 0d0a 12bd 1093 cbbe
00000370: 9408 efbd 71ca 93bd 79ea 7fbc 7bf9 73be
00000380: e6b3 88be 9496 aa3d 2b1f ac3e 8a34 37be
00000390: 2df2 8c3e 676a 583e 762a 0dbf 010c a0be
000003a0: ad06 73bf 71e6 7bbe d6e6 e43e 8c5a abbf
000003b0: 64e8 563e f0b6 49be 4015 2b3e 160f a6be
000003c0: d2fa 4f3e 74ed 963e 2127 6b3d c2b3 1b3d
000003d0: 54e8 54bd da2c 76be da2e 59be c05d b53e
000003e0: 5eac 843e 87c4 603e 226d 3ebe 2c5c 91be
000003f0: f9ec e5bc 1af5 9cbd 64fe a23e fd4c 29be

fc2.bias f4 [128]
-2.1337445 -1.2813097 -1.8942081 -1.3165162 -1.9955589 -1.8054998 -2.3361666 -2.478817
-1.37204 -2.5084658 -1.5675292 -2.1739602 -1.9964569 -1.76521 -0.96910244 -2.4883285
-1.475212 -1.6375154 -1.8013685 -1.3757255 -2.4467747 -1.8579539 -1.8133533 -1.5847751
-0.7465891 -2.1522954 -1.6512339 -1.3557751 -1.289906 -1.2169236 -2.5251713 -2.2321482
-1.4770368 -2.0135937 -1.8607489 -1.4805632 -1.8143202 -1.7337269 -0.9672482 -0.9438908
-2.9730315 -1.7894436 -1.8478261 -2.1815023 -1.2912421 -1.7968388 -1.7462626 -1.7949294
-1.4020497 -1.3095509 -2.4462936 -2.1707902 -1.5361958 -1.9236614 -2.5223308 -1.5188559
-1.3247908 -1.2424989 -3.4532776 -1.8300556 -2.709195 -1.8883866 -2.2378027 -2.4418082
-1.8741796 -1.587321 -2.6669865 -1.5654978 -1.5254608 -1.7297758 -1.7207165 -2.1172845
-1.0453585 -0.94597375 -1.7096739 -1.90902 -1.9763076 -2.0630612 -1.1535108 -0.9450439
-1.4815471 -1.7716857 -2.910462 -1.05121 -1.6340063 -1.7497569 -1.4172899 -1.5042628
-2.0041258 -0.7148384 -1.4343503 -1.1060961 -0.61018133 -2.0596948 -1.8403906 -1.9940284
-0.931978 -1.3283507 -1.5895276 -1.8429551 -1.5117317 -0.44972694 -2.1305099 -1.5013059
-1.4750061 -1.7656081 -1.727255 -1.7627976 -1.6598794 -1.7281605 -0.505101 -2.5247247
-2.3598526 -1.6881734 -2.156236 -1.9725066 -2.3913891 -2.014546 -0.2603423 -1.6406329
-1.4814701 -1.7336223 -2.8473556 -2.4015663 -2.0294824 -1.730179 -1.366138 -2.7322478
00000000: 458f 08c0 f501 a4bf 6975 f2bf 9a83 a8bf
00000010: 796e ffbf 9e1a e7bf c183 15c0 f0a4 1ec0
00000020: 029f afbf b48a 20c0 cca4 c8bf 2a22 0bc0
00000030: e68b ffbf 67f2 e1bf 1917 78bf c640 1fc0
00000040: bfd3 bcbf 1b9a d1bf 3e93 e6bf c617 b0bf
00000050: f597 1cc0 6fd1 edbf f61b e8bf e9d9 cabf
00000060: 7720 3fbf 35bf 09c0 a25b d3bf 0a8a adbf
00000070: a41b a5bf 27c4 9bbf 689c 21c0 84db 0ec0
00000080: 8b0f bdbf b8de 00c0 052d eebf 1883 bdbf
00000090: a53b e8bf c3ea ddbf 949d 77bf d4a2 71bf
000000a0: 2646 3ec0 7d0c e5bf 9185 ecbf bc9d 0bc0
000000b0: 6c47 a5bf d0fe e5bf 8885 dfbf 3fc0 e5bf
000000c0: 5d76 b3bf 5d9f a7bf 1390 1cc0 3aee 0ac0
000000d0: 10a2 c4bf 893a f6bf de6d 21c0 df69 c2bf
000000e0: bf92 a9bf 340a 9fbf 8002 5dc0 433f eabf
000000f0: 7363 2dc0 a7b6 f1bf 2938 0fc0 9646 1cc0
00000100: 1ee5 efbf 562d cbbf e8af 2ac0 3b62 c8bf
00000110: 4d42 c3bf 4b69 ddbf 7040 dcbf 9781 07c0
00000120: 4fce 85bf 562b 72bf 98d6 dabf c45a f4bf
00000130: a6f7 fcbf 3209 04c0 3ea6 93bf 66ee 71bf
00000140: 56a3 bdbf 99c6 e2bf 0245 3ac0 0d8e 86bf
00000150: 1e27 d1bf 09f8 dfbf c169 b5bf af8b c0bf
00000160: 9943 00c0 a6ff 36bf ca98 b7bf 8f94 8dbf
00000170: d834 1cbf 0ad2 03c0 eb91 ebbf 533c ffbf
00000180: 1c96 6ebf 6507 aabf a475 cbbf f4e5 ebbf
00000190: 6d80 c1bf 9c42 e6be 465a 08c0 cb2a c0bf
000001a0: 00cd bcbf 72ff e1bf b116 ddbf 5aa3 e1bf
000001b0: ee76 d4bf 5d34 ddbf 4d4e 01bf 1795 21c0
000001c0: d307 17c0 1116 d8bf c5ff 09c0 197b fcbf
000001d0: 850c 19c0 52ee 00c0 964b 85be 4200 d2bf
000001e0: d0a0 bdbf 56e7 ddbf 133b 36c0 43b3 19c0
000001f0: 0ae3 01c0 8176 ddbf 9cdd aebf 26dd 2ec0

fc3.weight f4 [1, 128]
0.11507108 0.08904959 -0.12170847 -0.030389503 -0.10521792 -0.14583635 -0.04864862 -0.031600688
0.07050686 0.048867695 -0.0066263927 0.046267156 -0.038499735 0.003847087 0.077783376 0.12843768
0.124732785 0.013254933 0.13335489 0.08947473 0.03008315 -0.05830178 0.01054286 0.12101244
-0.014283238 0.040784225 0.049955744 -0.14490922 0.10240112 -0.16152948 0.067699924 -0.14860535
0.15022494 0.05149635 -0.02903844 -0.09264337 -0.15210667 -0.06967938 0.010397881 -0.122350246
-0.0061612786 0.08419268 0.094304144 -0.02135204 -0.015648304 0.11980096 -0.122076824 -0.12353085
0.11176879 -0.0073983353 0.14513883 -0.02353398 -0.014845743 0.13337445 -0.06132667 -0.07636109
0.042076163 0.048187546 -0.009687698 0.025794594 0.04798741 0.14520739 0.1343548 -0.114611134
0.038799502 -0.11938509 0.03102499 0.043020643 0.022119973 -0.045472857 0.10305767 0.0123440735
0.09012283 0.08264401 0.009893775 -0.046134803 0.09616041 -0.04754882 -0.0022605802 0.11733186
0.08729399 -0.054359965 -0.14201689 0.056891367 0.14485495 -0.06697404 0.045083433 0.12858956
-0.074558556 -0.059339542 0.0065336265 0.033532735 -0.05255398 0.072474204 -0.12444627 0.06988016
-0.06915952 -0.10853698 0.07560566 0.055342324 0.005674631 -0.058090437 -0.11249792 -0.045709282
-0.0869244 0.018395206 -0.12152004 -0.04689636 0.053132568 0.021259865 0.037952833 -0.15407833
-0.115459405 -0.036913153 -0.091370806 -0.09744398 -0.045528203 0.08337206 0.042097796 -0.053753264
-0.08410049 -0.0038463909 -0.14836332 0.051073667 0.00231262 -0.06657731 -0.13021389 -0.055620134
00000000: 63aa eb3d a25f b63d 4a42 f9bd 68f3 f8bc
00000010: 7e7c d7bd 2056 15be c643 47bd b96f 01bd
00000020: e765 903d 7e29 483d 3622 d9bb a182 3d3d
00000030: e6b1 1dbd 691f 7c3b e44c 9f3d 2b85 033e
00000040: e773 ff3d 382b 593c 2f8e 083e 873e b73d
00000050: f070 f63c d9cd 6ebd f6bb 2c3c 5fd5 f73d
00000060: 3e04 6abc 5c0d 273d 659e 4c3d 1563 14be
00000070: aeb7 d13d fc67 25be 42a6 8a3d 002c 18be
00000080: 91d4 193e d6ed 523d 06e2 edbc cfbb bdbd
00000090: dac1 1bbe 10b4 8ebd e05b 2a3c c492 fabd
000000a0: 8de4 c9bb 366d ac3d 8822 c13d 79ea aebc
000000b0: df30 80bc 355a f53d 6a03 fabd befd fcbd
000000c0: 09e7 e43d bc6d f2bb 469f 143e 55ca c0bc
000000d0: 8f3b 73bc 5093 083e ad31 7bbd 3463 9cbd
000000e0: 0e58 2c3d 4e60 453d 27b9 1ebc 2f4f d33c
000000f0: 728e 443d 3fb1 143e 4e94 093e 3eb9 eabd
00000100: 3aec 1e3d 2c80 f4bd 1f28 fe3c 6a36 303d
00000110: f234 b53c bf41 3abd e60f d33d cc3e 4a3c
00000120: 5192 b83d 4341 a93d 8019 223c d9f7 3cbd
00000130: c0ef c43d 8dc2 42bd 3e26 14bb b04b f03d
00000140: 31c7 b23d 8ea8 5ebd e06c 11be ec06 693d
00000150: db54 143e af29 89bd 68a9 383d fbac 033e
00000160: 28b2 98bd 050e 73bd 0818 d63b 9f59 093d
00000170: d842 57bd 5b6d 943d b0dd febd 541d 8f3d
00000180: 82a3 8dbd a348 debd 24d7 9a3d a2ae 623d
00000190: 41f2 b93b 3df0 6dbd 4f65 e6bd a839 3bbd
000001a0: 6b05 b2bd 8bb1 963c 80df f8bd 6616 40bd
000001b0: 89a1 593d 2b29 ae3c 6e74 1b3d b6c6 1dbe
000001c0: fb75 ecbd 3f32 17bd 9e20 bbbd b690 c7bd
000001d0: c87b 3abd f8be aa3d bd6e 2c3d 622c 5cbd
000001e0: e13c acbd bb13 7cbb 8eec 17be 9f32 513d
000001f0: 538f 173b af59 88bd ca56 05be f0d1 63bd

bn1.weight f4 [128]
-0.04889303 -0.29723668 -0.034707956 0.10419537 0.016182672 0.14001685 -0.017852414 0.10428389
-0.46812055 0.14734943 0.0037891364 0.034841027 -0.020395469 0.04621988 -0.024813611 0.03430458
0.09147164 0.07580958 0.020201562 0.12301275 -0.18751422 -0.23291528 0.19360368 -0.2776631
0.44543552 0.008004168 0.34871346 -0.12310107 -0.0072977296 0.2959133 0.6437662 0.020979231
-0.1729419 -0.00029167312 -0.0011433521 0.09813449 0.3849896 1.7711715 -0.09404334 -0.30868968
0.09201944 0.1022243 0.1488175 0.024506876 -0.23934053 0.1512056 0.06068664 -0.10553851
0.1627016 -0.022507196 -0.052595627 0.003155774 0.7745275 0.36758408 0.37613127 0.45305732
0.14174381 0.030436207 0.21206953 0.36810082 -0.07355204 -0.024093922 0.0038422255 0.1958297
0.02837168 -0.025746284 0.08325426 -0.0070462376 0.19439517 0.08022871 -0.52158576 -0.06440694
0.037723225 0.089349166 -0.01061976 1.8967371 0.9120757 0.82576656 -0.0042409343 -0.2617746
0.00079252454 0.3890473 -0.12667042 -0.1299036 -0.112563744 0.16922438 0.04024256 0.0027903947
0.17492193 0.009559241 0.0043379734 0.15023059 0.060094696 0.3217681 0.1992522 0.23386964
0.23993003 0.0048670173 0.010689491 0.013835093 0.17510054 0.29597917 1.3834014 -0.005402852
0.21118245 -0.05039559 0.5269126 0.63640755 -0.06431027 -0.0059234845 -0.08825407 -0.0007137037
-0.28804836 0.29917464 -0.13451807 0.031185752 -0.019141177 -0.016377598 0.2342699 0.0455508
0.0007591938 -0.00403518 0.16972205 0.9326663 0.03000432 1.0439678 -0.63669527 -0.115819976
00000000: 0f44 48bd 682f 98be ee29 0ebd 6264 d53d
00000010: 8691 843c 9460 0f3e 3a3f 92bc cb92 d53d
00000020: 7fad efbe c5e2 163e 2953 783b 77b5 0e3d
00000030: 6614 a7bc 0f51 3d3d ea45 cbbc f682 0c3d
00000040: 7c55 bb3d 0e42 9b3d bf7d a53c 1cee fb3d
00000050: ba03 40be 5881 6ebe 0b40 463e dc29 8ebe
00000060: 2010 e43e ea23 033c 928a b23e 6a1c fcbd
00000070: cb21 efbb f381 973e ddcd 243f a3dc ab3c
00000080: ae17 31be b4eb 98b9 88dc 95ba bcfa c83d
00000090: 5b1d c53e bfb5 e23f cb99 c0bd 930c 9ebe
000000a0: b074 bc3d f95a d13d 9d63 183e a5c2 c83c
000000b0: af15 75be a4d5 1a3e 8e92 783d 9324 d8bd
000000c0: 409b 263e 0361 b8bc 836e 57bd 1ad1 4e3b
000000d0: 6f47 463f fb33 bc3e 4794 c03e 21f7 e73e
000000e0: 4a25 113e 5a55 f93c c128 593e b677 bc3e
000000f0: 74a2 96bd 9e60 c5bc d9cd 7b3b 9587 483e
00000100: ba6b e83c dfe9 d2bc 3681 aa3d 20e4 e6bb
00000110: 870f 473e f34e a43d a586 05bf c9e7 83bd
00000120: ab83 1a3d b2fc b63d 80fe 2dbc 48c8 f23f
00000130: cb7d 693f 7065 533f 89f7 8abb 5207 86be
00000140: 6cc1 4f3a 3531 c73e e4b5 01be 7305 05be
00000150: d287 e6bd 2849 2d3e 62d5 243d 0edf 363b
00000160: bc1e 333e 5d9e 1c3c 8f25 8e3b 0cd6 193e
00000170: db25 763d cabe a43e c508 4c3e 867b 6f3e
00000180: 38b0 753e 807b 9f3b fa22 2f3c 96ac 623c
00000190: 8e4d 333e 958a 973e 4c13 b13f 680a b1bb
000001a0: 3640 583e 9b6b 4ebd bfe3 063f 9beb 223f
000001b0: 1ab5 83bd ca19 c2bb 8dbe b4bd d817 3bba
000001c0: 137b 93be 6b2d 993e 1bbf 09be 4379 ff3c
000001d0: f5cd 9cbc 502a 86bc 73e4 6f3e 7a93 3a3d
000001e0: a204 473a 8b39 84bb 9ecb 2d3e 38c3 6e3f
000001f0: 9fcb f53c bda0 853f 76fe 22bf 0633 edbd

bn1.bias f4 [128]
0.008050308 0.54311013 0.014049519 0.02176848 0.0066513917 0.016889278 0.012278108 -0.004466559
0.0014714191 -0.055512454 -0.007883504 0.008259446 0.005294464 0.0040754294 0.075430356 0.17654003
-0.14848585 0.020290354 -0.016963657 -0.017878585 -0.005392523 0.0048405584 -0.12252737 -0.015266926
-0.38811773 -0.00012300361 0.040845037 -0.035025764 -0.006918302 -0.23468822 0.03470559 0.0005630954
0.07952465 -0.0074445405 -0.0028145765 -0.008728886 -0.13396777 0.63157976 0.06305174 -0.032456055
0.010183008 -0.011896025 -0.001640942 -0.018784733 -0.026406584 0.023095435 0.015162799 0.0028948127
-0.0011113785 0.0029488392 -0.0012647384 0.012476465 -0.13065824 0.10322437 -0.16784602 0.30763504
-0.026860015 -0.010766289 -0.11242779 0.010195902 0.005683548 -0.016616283 -0.0052588508 -0.078028016
-0.011821094 -0.0024611994 0.011602634 -0.00398095 -0.11865054 0.015568513 -0.0037974995 0.018368416
0.020773556 -0.008991337 0.00815366 0.40729097 -0.16229105 0.22897229 0.01250987 0.09400591
-0.010920393 0.0119347405 0.28758028 0.016840963 -0.056432463 -0.05317543 0.019201793 -0.002788899
-0.033105914 0.0014350743 0.0037247203 0.121102944 -0.027190581 0.1196186 0.070137255 -0.06487875
-0.082967244 -0.001659547 0.009836312 0.009512157 0.010119343 0.057250667 0.20781599 0.009809349
0.19454429 -0.0006528138 0.00805268 1.009935 -0.016715216 -0.0059599653 -0.010405108 -0.018228771
0.18207903 0.06434943 0.017977247 -0.01923034 -0.004575276 0.027998742 0.03264448 -0.01653896
0.002430474 -0.0055110333 -0.017303336 -0.29591355 0.009742954 0.36998168 -0.0041276356 0.015406353
00000000: 70e5 033c 4409 0b3f f42f 663c d053 b23c
00000010: ebf3 d93b 625b 8a3c 1e2a 493c 365c 92bb
00000020: a2dc c03a 0761 63bd d029 01bc a152 073c
00000030: 2f7d ad3b 2e8b 853b 3b7b 9a3d e9c6 343e
00000040: ad0c 18be f537 a63c 5ef7 8abc 1c76 92bc
00000050: c3b3 b0bb 8c9d 9e3b a1ef fabd 2122 7abc
00000060: 5eb7 c6be 88fa 00b9 204d 273d 2d77 0fbd
00000070: ecb2 e2bb 1c52 70be 7327 0e3d b19c 133a
00000080: d2dd a23d 55f1 f3bb c274 38bb 9a03 0fbc
00000090: d92e 09be 36af 213f 4521 813d a4f0 04bd
000000a0: a2d6 263c 8ce7 42bc e014 d7ba 71e2 99bc
000000b0: 9f52 d8bc a332 bd3c 636d 783c e6b6 3d3b
000000c0: adab 91ba 5041 413b 94c5 a5ba 166a 4c3c
000000d0: 46cb 05be 4c67 d33d d4df 2bbe 5782 9d3e
000000e0: 8909 dcbc 1765 30bc 8b40 e6bd b60c 273c
000000f0: 0e3d ba3b df1e 88bc 7052 acbb 27cd 9fbd
00000100: 43ad 41bc 134c 21bb f918 3e3c a172 82bb
00000110: 0eff f2bd 1413 7f3c 78df 78bb 5c79 963c
00000120: 4e2d aa3c 6750 13bc ee96 053c 7188 d03e
00000130: a02f 26be b677 6a3e 33f6 4c3c 2c86 c03d
00000140: 73eb 32bc ee89 433c b93d 933e 0ff6 893c
00000150: ba25 67bd 7bce 59bd 144d 9d3c f6c5 36bb
00000160: 119a 07bd 1a19 bc3a 701a 743b d204 f83d
00000170: c8be debc 99fa f43d 1fa4 8f3d 26df 84bd
00000180: bbea a9bd 2885 d9ba 7c28 213c e1d8 1b3c
00000190: 9acb 253c ad7f 6a3d b7cd 543e 64b7 203c
000001a0: 9e36 473e 9821 2bba 63ef 033c 8d45 813f
000001b0: 59ee 88bc d04b c3bb 307a 2abc 8154 95bc
000001c0: ed72 3a3e a2c9 833d 0545 933c f288 9dbc
000001d0: 32ec 95bb 9e5d e53c 38b6 053d b77c 87bc
000001e0: 9648 1f3b e695 b4bb babf 8dbc fb81 97be
000001f0: e9a0 1f3c 3d6e bd3e 1e41 87bb ee6a 7c3c

bn1.running_mean f4 [128]
6e-45 15.57073 0.09481295 6e-45 24.568682 0.7656126 3.1363416 2.5644095
6e-45 2.6998134 14.907493 1.1538714e-09 3.6223977 1.1060519 0.07685016 6e-45
3.2707503 6e-45 6.670186 6e-45 3.4249682 5.2463694 4.6867833 6e-45
47.2684 1.8038932 8.528687 2.9808226 2.1789556 6.261209 4.896744 0.022498392
20.676004 1.0352957 6.6459484 6e-45 6.9241567 66.75157 0.050558828 7.086665
2.1599882 0.6482049 6e-45 6e-45 7.226924 0.44806632 0.46150878 0.37410378
6e-45 1.6508434 0.5343148 1.0738331 20.334362 25.59409 8.098964 1.431876
1.2233386 1.1041236 2.8288472 2.5223386 6e-45 0.73880553 12.817784 0.3213379
0.098455995 5.1524053 5.470612 22.706772 2.9906979 6e-45 6e-45 0.77484673
1.0963634 7.895023 27.071121 114.89031 10.683763 13.117789 13.541241 1.6842071
0.18985492 6e-45 0.6105536 20.242281 0.4395791 0.81008357 1.8936362 3.3448956
1.4258945 4.8430947e-26 3.7299879 0.22300516 0.0056610527 14.199341 4.8319187 1.3170719
0.8046631 6.6063848 0.73349506 3.6277652 2.3200948 2.9055314 0.40258625 6.5242496
16.033926 8.491874 6e-45 16.154129 6e-45 6e-45 6e-45 14.128503
11.227804 18.197603 6e-45 25.978157 5.4981318 1.4394302 9.015257 1.2139688
65.2119 1.6327019 16.309025 14.844538 24.405575 9.179221 6e-45 5.0422406
00000000: 0400 0000 b621 7941 4b2d c23d 0400 0000
00000010: a98c c441 30ff 433f d2b9 4840 491f 2440
00000020: 0400 0000 bec9 2c40 1785 6e41 3e96 9e30
00000030: 5dd5 6740 1c93 8d3f 9e63 9d3d 0400 0000
00000040: f953 5140 0400 0000 2a72 d540 0400 0000
00000050: ae32 5b40 42e2 a740 21fa 9540 0400 0000
00000060: d712 3d42 f9e5 e63f 8075 0841 ccc5 3e40
00000070: 0274 0b40 d35b c840 20b2 9c40 8c4e b83c
00000080: 7568 a541 9284 843f 9cab d440 0400 0000
00000090: b192 dd40 ce80 8542 c616 4f3d f6c5 e240
000000a0: 3f3d 0a40 c2f0 253f 0400 0000 0400 0000
000000b0: f642 e740 f368 e53e e14a ec3e 888a bf3e
000000c0: 0400 0000 d64e d33f dbc8 083f 5d73 893f
000000d0: c6ac a241 b2c0 cc41 5b95 0141 b647 b73f
000000e0: 5c96 9c3f ec53 8d3f d50b 3540 ff6d 2140
000000f0: 0400 0000 5c22 3d3f a515 4d41 6786 a43e
00000100: 4ca3 c93d 81e0 a440 410f af40 78a7 b541
00000110: 9867 3f40 0400 0000 0400 0000 5b5c 463f
00000120: a355 8c3f 07a4 fc40 a891 d841 d7c7 e542
00000130: b1f0 2a41 77e2 5141 eca8 5841 1994 d73f
00000140: 5469 423e 0400 0000 3e4d 1c3f 31f0 a141
00000150: 8310 e13e a361 4f3f ac62 f23f c512 5640
00000160: b683 b63f 85d1 6f15 1fb8 6e40 775b 643e
00000170: 5a80 b93b 8030 6341 149f 9a40 d095 a83f
00000180: 67fe 4d3f 8167 d340 55c6 3b3f 4e2d 6840
00000190: 6f7c 1440 3af4 3940 c91f ce3e a7c6 d040
000001a0: 7b45 8041 b7de 0741 0400 0000 a83b 8141
000001b0: 0400 0000 0400 0000 0400 0000 590e 6241
000001c0: 16a5 3341 b194 9141 0400 0000 44d3 cf41
000001d0: b2f0 af40 403f b83f 7e3e 1041 5463 9b3f
000001e0: 7e6c 8242 60fc d03f e278 8241 3a83 6d41
000001f0: 9e3e c341 17de 1241 0400 0000 095a a140

bn1.running_var f4 [128]
6e-45 309.93774 1.0466754 6e-45 2170.4885 30.939537 153.96953 122.08788
6e-45 92.097534 1419.666 4.2990456e-09 98.6187 35.60518 1.6086868 6e-45
102.51337 6e-45 491.26562 6e-45 131.93823 336.92963 153.12482 6e-45
2170.7373 81.61006 120.74993 62.986065 85.138306 109.672966 91.14842 0.2738819
1806.7416 37.57926 284.93176 6e-45 133.16173 8922.105 0.9481562 272.18674
108.80096 14.143499 6e-45 6e-45 179.95834 9.336088 14.2033205 10.302063
6e-45 64.12332 22.193626 42.38946 101.19356 913.3873 266.87543 47.668232
44.08128 40.461895 113.688354 78.19282 6e-45 16.37967 612.9656 9.13026
1.6384685 298.8602 288.13898 1530.7451 124.17023 6e-45 6e-45 19.947922
32.025352 468.54797 3636.8174 24569.59 118.70867 519.95886 1168.1713 31.56987
4.6257133 6e-45 15.738916 678.2702 10.458916 13.620914 106.964485 72.313446
78.0727 2.261324e-25 129.84409 9.944855 0.025844526 627.7633 131.4719 41.041225
21.28021 488.45233 27.609747 179.11765 59.49495 140.6638 11.897133 423.92145
575.46454 369.31384 6e-45 963.20306 6e-45 6e-45 6e-45 1423.475
371.07336 388.70502 6e-45 3536.9192 304.9854 45.30176 496.51913 40.42132
5132.1006 62.072113 555.96796 608.6593 1404.9358 144.54788 6e-45 257.3631
00000000: 0400 0000 08f8 9a43 76f9 853f 0400 0000
00000010: d1a7 0745 2c84 f741 33f8 1943 ff2c f442
00000020: 0400 0000 f031 b842 5075 b144 ceb6 9331
00000030: c63c c542 b46b 0e42 73e9 cd3f 0400 0000
00000040: d806 cd42 0400 0000 00a2 f543 0400 0000
00000050: 30f0 0343 fe76 a843 f41f 1943 0400 0000
00000060: ccab 0745 5a38 a342 f77f f142 bbf1 7b42
00000070: d046 aa42 8f58 db42 fe4b b642 403a 8c3e
00000080: bbd7 e144 2a51 1642 4477 8e43 0400 0000
00000090: 6729 0543 6c68 0b46 5dba 723f e717 8843
000000a0: 179a d942 c64b 6241 0400 0000 0400 0000
000000b0: 56f5 3343 9e60 1541 cd40 6341 40d5 2441
000000c0: 0400 0000 243f 8042 8c8c b141 cf8e 2942
000000d0: 1a63 ca42 ca58 6444 0e70 8543 45ac 3e42
000000e0: 3b53 3042 fbd8 2142 7060 e342 b962 9c42
000000f0: 0400 0000 9009 8341 cc3d 1944 8c15 1241
00000100: 56b9 d13f 1b6e 9543 ca11 9043 d857 bf44
00000110: 2857 f842 0400 0000 0400 0000 5895 9f41
00000120: f619 0042 2446 ea43 144d 6345 2ef3 bf46
00000130: d76a ed42 5efd 0144 7b05 9244 188f fc41
00000140: d805 9440 0400 0000 9ad2 7b41 4b91 2944
00000150: b857 2741 44ef 5941 d1ed d542 7ca0 9042
00000160: 3925 9c42 1cf8 8b16 16d8 0143 201e 1f41
00000170: e6b7 d33c daf0 1c44 ce78 0343 372a 2442
00000180: df3d aa41 e639 f443 c3e0 dc41 1e1e 3343
00000190: d4fa 6d42 efa9 0c43 a85a 3e41 f2f5 d343
000001a0: bbdd 0f44 2ca8 b843 0400 0000 ffcc 7044
000001b0: 0400 0000 0400 0000 0400 0000 33ef b144
000001c0: 6489 b943 3e5a c243 0400 0000 b50e 5d45
000001d0: 227e 9843 0135 3542 7342 f843 6faf 2142
000001e0: ce60 a045 d849 7842 f3fd 0a44 322a 1844
000001f0: f29d af44 428c 1043 0400 0000 7aae 8043
