Weights/checkpoint_Critic.pth (torch_old, 84902 bytes, 9 tensors)

fcs1.weight f4 [128, 28]
00000000: 8818 883d aae4 0d3f b65a b13d 4106 233e
00000010: 5a3e e63e 8da9 2c3e 7310 113e 9b3f 7b3e
00000020: 23a3 113e cbe7 203f 4e2f be3d a969 03be
00000030: 347b bb3d 4765 af3d 718e 593d 44f5 d8bd
00000040: 5cf6 743e c266 4c3f dc07 0d3c 0ffa fc3b
00000050: 48a1 24be ff93 18be 5d80 933d b45e 0bbe
00000060: c0a1 333f cc4e 5a3f 83ab 9c3e cab0 7c3e
00000070: f1f1 8f3e 3240 d23d c914 60be e27a d03e
00000080: a294 c33d ce9e 6e3c ad71 31be 3cb4 b53e
00000090: 5e3b 6c3e c92b d23d 8c1f 07be 1a20 15be
000000a0: f37b 783d d27c 49be 10bc 8dbd 7220 02be
000000b0: f63c 213e f764 8f3e 3d08 91bd 2af6 173e
000000c0: 72fb cc3d 6aa5 1cbe f1f6 d7bd 981f 8b3e
000000d0: ebdc 49bf 31e5 65be cf4a a5be 0580 fdbe
000000e0: 6486 fb3d 1688 b9bd b48c b63d 4d56 cf3d
000000f0: 5b7d 85b9 1573 143e d1ad 163e e753 c03d
00000100: 41d8 0cbc 2224 f1bd e440 513c d780 a7bd
00000110: 5bcd d0bd 021e 65bd 5a43 3f3d 9cca f9bd
00000120: e965 003e d09c 0cbe faca 3b3c 921a 3e3e
00000130: 89c1 9ebd 67ff 98bd 0c3b 98bd 4ee9 433e
00000140: 5ec2 403e f279 0cbe 7d72 883e 237a 063c
00000150: 5871 293e 09af 19be 31e8 8f3d c590 6dbe
00000160: a9bf 393d 1613 38bd b4f0 acbc f30c 51be
00000170: 1595 4d3e f448 b7bd dc76 403d d488 d93b
00000180: 831a 6bbd ff43 8bba 93c0 fe3d 216a e23a
00000190: 1215 303c 1bbe 06be a190 f6bd 6871 653e
000001a0: 3693 e1bd 21ac 18be 30dd eabd 86af 333e
000001b0: 9961 cc3e 63fe 56bd 6389 03be 8f45 a0be
000001c0: 45cb 323d 3971 f3be 38e8 78bd 0d59 66be
000001d0: 0f28 62bd 1930 913e fb5f 00bc f146 58be
000001e0: 8b1d fa3d df59 a0be e334 cbbd 976c 153d
000001f0: aabd 35bc ffdf 8a3e 6b8e 9bbd f1fa 633c
00000200: b1d0 0a3d a7b2 aebe f05c 683c 1916 72bc
00000210: 2613 bb3d 1470 a53e fecc 713d efd5 b03d
00000220: 9e46 9e3e 348e d1be dca3 393e f4d8 9bbe
00000230: 090f 8c3d 3a85 29be 8e74 07be 8ceb 91bc
00000240: 4f2e e63d 0273 263e cec6 d8bd 9f60 9abd
00000250: 71c4 c7bc a0f6 ebbd f904 60bc 5d66 ac3e
00000260: 0e83 d23b 14ce 3b3e c03e 2dbe 653d 8c3e
00000270: bd22 5d3e dc8f 303d f0c7 dc3d 79fb d33e
00000280: 9e5e b53a 43d0 a13e 5a0a c33d 054f f03e
00000290: 9183 d53e 2721 8f3e 0b47 6cbe fa14 e03e
000002a0: 4f55 2f3c 1c5d 7abd 0217 a93d aae3 cdbd
000002b0: 8f06 82bd e6ea 5dbd 4d5a f33c 0e9e 1ebd
000002c0: 8b49 83bd 7318 55be aa38 abb8 8d8a 2dbd
000002d0: ab5f 86bd a86f 003e 8be4 4dbd d27d c43c
000002e0: 71e6 d7ba 8068 2ebe 7b2f ef3d ed1b e43d
000002f0: 33e9 e03c 8963 ad3d e930 cfbc 5872 063d
00000300: 5ff8 07be a86e 583d 1454 a6b9 1b89 8d3d
00000310: 705c 533d 7d40 26bd 1a8c bfbc 5f82 d53d
00000320: 8f01 1ebd f53d 0a3e e2a4 223d 6102 103e
00000330: 54f9 0f3e a19a 2bbe d4c3 9cbd 1388 d1bd
00000340: 8cd3 cabc b015 3bbb 7967 cc3c 8a80 1cbd
00000350: 969f 133c 292d 11bd 9a89 55be 627a e33c
00000360: 7dc1 c63c 0d22 113c c012 6fbe 5626 933c
00000370: 868c b6bc d850 64be 35d3 853c 9bef 74be
00000380: 8668 8d3e 0333 a43d 5ba7 f93d a81a 71bd
00000390: d6f3 f53c 3aa1 06bf 20c6 9d3d 6e71 22be
000003a0: 88f4 513e 7d7e 783d 17b9 63bd 4fc5 01bd
000003b0: 193d 0d3d fecb ccbe cc7b ee3c 1eff c4bd
000003c0: 0e8e 5f3e ad1f aebd ddf3 94bd 5122 b1bd
000003d0: 57de b83d 5971 01bf 7902 853d c1cf b0bc
000003e0: 4220 08bf 5309 2e3e ef92 2abe b408 f9bd
000003f0: ea61 c63e eadb 9a3e ef37 893c 8fc3 0f3d
0.06645304 0.5542704 0.0865988 0.15920354 0.44969445 0.16861553 0.14166431 0.24535982
0.14222388 0.6285369 0.092863664 -0.12833275 0.091543585 0.08564239 0.05311436 -0.10593656
0.23922104 0.79844296 0.008607831 0.007720239 -0.16077149 -0.14900206 0.07202218 -0.13610345
0.70168686 0.85276484 0.30599603 0.24676815 0.28114274 0.102661505 -0.21882929 0.40718752
0.09549834 0.014564229 -0.1732852 0.3548907 0.23069522 0.102622576 -0.13195628 -0.14563027
0.060665082 -0.19676521 -0.06920636 -0.1270769 0.15745911 0.28006718 -0.070816495 0.14839998
0.10008897 -0.15297475 -0.10545147 0.27172542 -0.7885272 -0.22450711 -0.32283637 -0.49511734
0.12281492 -0.090591595 0.08913556 0.101238824 -0.00025461134 0.14497025 0.14714743 0.09391003
-0.008596481 -0.1177447 0.012771819 -0.08178871 -0.101954184 -0.05593682 0.04669509 -0.12196848
0.12538876 -0.13731694 0.011461968 0.18564823 -0.07751758 -0.07470589 -0.07433137 0.19131967
0.18824145 -0.13718393 0.26649848 0.008207831 0.16547143 -0.15008177 0.07026709 -0.23199756
0.045348797 -0.044940077 -0.02111087 -0.20415096 0.20076402 -0.089494616 0.046988353 0.0066386256
-0.05739833 -0.0010625123 0.12439074 0.001727406 0.010747211 -0.13158457 -0.120393045 0.22406542
-0.110144064 -0.14909412 -0.114679694 0.17547426 0.3991821 -0.052488696 -0.12845378 -0.3130307
0.043650884 -0.4754732 -0.060768336 -0.22494908 -0.055213984 0.28357008 -0.0078353835 -0.21120812
0.12212666 -0.31318566 -0.09922197 0.036480512 -0.011092583 0.2712402 -0.075955234 0.01391481
0.03389043 -0.34120676 0.014182314 -0.014775776 0.09134512 0.3231207 0.059033386 0.086345546
0.30913252 -0.40928805 0.18128914 -0.3043896 0.06838805 -0.16554728 -0.13228056 -0.017812513
0.112393014 0.1625481 -0.10584794 -0.0753796 -0.024385663 -0.11521649 -0.013673061 0.33671847
0.0064243143 0.18340331 -0.16918468 0.2739059 0.21595283 0.043105945 0.107803226 0.41402796
0.0013837402 0.31604204 0.09523459 0.46935287 0.4170194 0.2795498 -0.23073976 0.43766004
0.0107014915 -0.061123952 0.082563415 -0.10053189 -0.06348907 -0.054179095 0.029706145 -0.03872495
-0.064105116 -0.20810108 -8.16447e-05 -0.04236846 -0.06561216 0.12542593 -0.050266784 0.023985777
-0.0016471875 -0.17032051 0.11678978 0.11138139 0.027454948 0.084662504 -0.025291877 0.03282389
-0.1327834 0.052839905 -0.0003172463 0.069109164 0.051601827 -0.040588845 -0.023382235 0.10425257
-0.038575705 0.13500197 0.039708026 0.14063407 0.14059955 -0.16758205 -0.07654539 -0.10231032
-0.024759077 -0.0028546862 0.024951683 -0.038208522 0.009010216 -0.03544346 -0.20853272 0.027768318
0.024262184 0.008858216 -0.23346996 0.017962616 -0.022283804 -0.22296464 0.016336063 -0.23919527
0.27618808 0.08017542 0.12190124 -0.058863312 0.030023497 -0.5258976 0.07703805 -0.15863582
0.20503438 0.060667504 -0.055596437 -0.03168231 0.034482095 -0.39999384 0.029111765 -0.09618972
0.21831533 -0.085021354 -0.07273076 -0.086491235 0.09026783 -0.5056358 0.06494612 -0.02158344
-0.5317422 0.16995744 -0.16657613 -0.12159863 0.38746578 0.30245906 0.016750304 0.03509861

fcs1.bias f4 [128]
00000000: ad11 cabe 903e 58bd 231f cebd e76b 89bd
00000010: 9098 183e a6b4 edbd bc06 f6bb 1925 693d
00000020: 42d3 8cbe 1c50 a6be ec2a d1bd 9dd4 b5bd
00000030: 0aac 29be 0c83 ee3d 3d88 75be d7b6 46bc
00000040: ab0a 26be 6af7 f2be 1501 d6be 73a4 b9be
00000050: aeaf 3cbd 51cd d3bd 3158 a3be 0ce1 a13b
00000060: 0329 7bbe 4548 c1be cd9f 57bc 59f7 20be
00000070: 07b4 1c3e 6c39 b9be e08b 47be c4fb 5fbe
00000080: 7d9d 67be 4352 a9be 7996 44bc ce69 693d
00000090: a849 f8ba f233 2abe dd41 2fbc 1421 293e
000000a0: 5988 a4be 94be d73d 77ad 22be 20ba 8f3e
000000b0: d580 95bd cd2f df3d e0cb 52be 4440 9ebe
000000c0: 830e 8fbd dc57 a6be cc3d 3dbe 2c2d 38be
000000d0: ab91 a0be f282 283e cc63 35bd 4f4c efbc
000000e0: dfb8 99be a035 a3bd 6a33 733e cbfe c8be
000000f0: a849 6d3e 0f5c b2be 5b3f 33bd d163 e3bc
00000100: 903c 4bbe 7b03 1ebc 5397 bdbd 1d9b 443c
00000110: c366 e2be a3ca 9dbc 0abc a5bd c7f6 cebd
00000120: bc1d 1fbe b81f 04bc 63db 203e 75d6 783e
00000130: ada9 c2bd d450 1d3e e2c6 43be 9ca0 0dbe
00000140: e02d 8dbd 7961 4f3c b6db cabe 90fa 553c
00000150: ac61 23be bed8 9bbe 7258 9dbe 112f 263e
00000160: 6b3d 64bd dec6 87be 914d cbbe 9228 9d3b
00000170: 4bd6 d9bd 56af 13bf 0988 f7be 7aa7 853e
00000180: 3f66 d9bd c490 0bbe 7b4b 633d cf1f 40be
00000190: 65da a1be 461d 8fbc a800 b2bd d97c 8c3d
000001a0: c15c 2abe 33b9 6fbe ae21 b6bc 1dd4 2dbb
000001b0: c901 9fbd ed03 c13d 6645 2b3e 1939 4c3e
000001c0: 6771 713e c925 b0be 93a0 6cbe 270d bc3d
000001d0: 1c35 4e3e c1e5 25bf d329 70be eaa1 8dbd
000001e0: 1696 35be 0f86 4ebe 3147 c1bd 02a0 08be
000001f0: 0c02 1d3e 7059 8dbe 53b9 033e f885 30be
-0.3946661 -0.05279404 -0.100645326 -0.06710034 0.14901948 -0.116067216 -0.007508127 0.056920145
-0.27504927 -0.32482994 -0.10213265 -0.088784434 -0.16569534 0.11646089 -0.23977752 -0.012128553
-0.16215007 -0.47454387 -0.417977 -0.36258277 -0.04606598 -0.10341895 -0.31903222 0.0049401578
-0.24527363 -0.3775045 -0.013160658 -0.15719356 0.1530305 -0.36176622 -0.19486952 -0.21873385
-0.22618671 -0.33070573 -0.011998766 0.05698567 -0.001894285 -0.16621378 -0.010696855 0.16516525
-0.32135275 0.10534397 -0.15886484 0.2807169 -0.072999634 0.10897789 -0.20585585 -0.30908406
-0.0698519 -0.32488906 -0.18480605 -0.17985982 -0.31361136 0.16456202 -0.044284627 -0.029211191
-0.30023858 -0.079692125 0.23750082 -0.39256892 0.23172629 -0.3483586 -0.043761592 -0.027757557
-0.19847322 -0.0096443845 -0.092573784 0.0119998725 -0.44219026 -0.019261664 -0.08092506 -0.10105663
-0.15538687 -0.008064203 0.1570869 0.24300559 -0.09505019 0.15362865 -0.19118837 -0.13830799
-0.068935156 0.012657517 -0.3962075 0.013060227 -0.15955228 -0.304388 -0.3073154 0.16228892
-0.055722635 -0.2651891 -0.39707616 0.004796096 -0.10636576 -0.57689416 -0.48345974 0.26104337
-0.10615205 -0.13629442 0.055491906 -0.18762134 -0.31611934 -0.017470013 -0.086915314 0.0685975
-0.16636945 -0.23410492 -0.022232857 -0.0026524134 -0.07764012 0.09424577 0.16725692 0.19943656
0.23578416 -0.34403828 -0.23108129 0.09182196 0.20137447 -0.648037 -0.23453455 -0.06915648
-0.17733034 -0.20168327 -0.09437407 -0.13342288 0.15332812 -0.27607298 0.12863664 -0.17238605

fc2.weight f4 [128, 128]
00000000: ca6d 3fbd 80bf b1be 1ec7 14be aaa1 343d
00000010: 4ac3 8fbc 9ea4 fdbb e383 063e 562e a939
00000020: 23bf ff3c 486a 27bb c79b 0dbc 1731 45bd
00000030: b6ff c2bd e28d cb3d 1661 723d f284 d0bd
00000040: 6902 293d 1837 7cbe 0d94 8eb9 7616 263d
00000050: aac1 503d 1353 d73c 0d47 acbd 77a2 8a3d
00000060: d47d 3dba 9896 c9bd 24ad 7d3d dc8f 703d
00000070: 5bdc 0bbd dfd0 f6bd 44ac e9bc 9289 8e3c
00000080: 63f0 593d 04a6 babd fc52 2bbd 56a5 eabc
00000090: 054a 27bc 888d cdbd 782e 333d 0aa0 79bb
000000a0: db40 2dbb 016c 013d 3aed 053e f8c3 543d
000000b0: 12ca 97bd 578b 703c 45aa d1bd 1b80 1c3d
000000c0: ecb2 ce3c 1c6d 133d 8fcb 7d3d 49b4 89bd
000000d0: e75c 72bd 65b8 853d 3d59 fcbc c0d6 c8bd
000000e0: e522 90bd dcae 4b3d 46d7 1e3d dc4b 68bc
000000f0: d339 67bd 3a05 68bc aa96 463d c671 09be
00000100: dacb ec3c 7653 a5bc 9394 b8bb da22 483c
00000110: ae2c 52bd b45c 063d cbaf 203d 0c2d 15be
00000120: 356f febd bf78 653c 7644 0bbe 9899 f1bd
00000130: a344 47bd a9bc 1abd 9b95 3a3d 9875 cabc
00000140: d19b 62bc 0a8a 15b9 01fd 0c3b 76b9 393d
00000150: 1770 293d 46bb fbbd e012 b8bd ff92 ca3d
00000160: b89e bfbc 8343 913d 1026 c9bd 1b4b 65bd
00000170: e0b0 fd3c 0466 433d 6176 b0bd 524d acba
00000180: ffc0 81bd 04b8 80bd acd4 3dbd 804f 11be
00000190: 54a1 b4bd 8c86 83bc afdc 9abc bd63 623d
000001a0: 7418 a23d a2b6 253d dadf 6c3d 98ad debd
000001b0: 7998 4f3e cfa3 1c3d 4b34 c0bd 0483 e4bc
000001c0: 0b66 e3bd 19ef 63bd 3b52 0abd faae 2e3d
000001d0: cc9c b5bc 7f00 dfbd 2a2c b2bb 33de 303d
000001e0: 2d3b 0c3d a0ff c0bc 4dd3 353d 824a 043a
000001f0: 483a 7139 326f 05bd 831b 52bd 65f4 30bd
00000200: 5194 22bc 4179 28be 96b9 6ebd 1a4a 27bd
00000210: 0d9a 593c 7138 5e3d 9882 c9bd 2e35 02be
00000220: e129 b6bc 11b8 d7bd d1a5 4dbd f68e 5bbd
00000230: b41b f33c e690 adbd e784 103e ba8d 14be
00000240: 6ed2 213d 6fcb 55be 5fe1 20bd 65d2 8a3d
00000250: 1bf5 c5bd 15c7 493c c9b3 4d3d 0c54 603d
00000260: ecf9 ca3c eb7f d43c dc4f 8d3d 782e 4ebc
00000270: b477 823d b1ad 853d 1c83 abbb e5e4 9d3d
00000280: 3e3e 0fbd 866a 363c 6461 36bd 7b07 2e3d
00000290: 76cd 14bd 82c0 c0bc ed78 32bd b3f3 12bd
000002a0: 26c7 95bd 29f7 953d 3184 f1bc 2356 e33a
000002b0: 17a1 013d e7a4 0dbb 97ac 59bd 441c 84bc
000002c0: 7258 9ebd 797a ccbd 41b6 923b 75db 62bc
000002d0: 8b0f 09be 003f 90bd 799c fdbc 76b8 e13c
000002e0: efc0 28bd cd2f da3b 4c7b 68bd 4e07 f9bc
000002f0: f8db ca3a 4bce 83bd c20c 02be 383c d7bd
00000300: 5f4e 873d 9557 e03d 8750 31bd f487 813b
00000310: 2598 853c 3aca 173d 7338 b73c fa1e 84bd
00000320: 2b84 ffbd 00e6 85bd 72f6 79bd 842d aabd
00000330: 2d8c e53d 368b 80ba 0bb0 9dbc a8e7 843d
00000340: ad13 a33d 5d71 e73b de74 ce3b 3149 babc
00000350: 25aa c0bc 4e66 343c 075b 08bd 1faa c5bd
00000360: 69ea 73bc 038d aa3d dc8a ce3b 3ff0 d63c
00000370: da4d 163d b3bf 3a3c 8a87 a5bd 1caa 6bbd
00000380: 8966 b0bd d43b 87bc 5924 44bd 423e 5ebe
00000390: d8f9 3cbc b41d 873d 1e0c 023c a56a 81bc
000003a0: 9cf1 1d3d c0b9 e5bd d25c 383d 26ef 42be
000003b0: 7927 82bc a235 cfbd b5a1 70bd 2c57 01bd
000003c0: 8d7d 693c 330e 8f3c d482 f5bc 7359 523c
000003d0: 8e0b 163d 0cdd 26bd ef3a b3bc b753 b03b
000003e0: 772d 693d b84c 8cbd e21e 14bd 2a4b 26bd
000003f0: 3549 40bd 0f48 9e3c 94ef cfbc cbb9 54bd
-0.046735562 -0.34716415 -0.14529082 0.044099487 -0.017549176 -0.007740571 0.13136248 0.00032268715
0.03121907 -0.0025545526 -0.008643097 -0.04814252 -0.09521429 0.099391714 0.05917462 -0.10181607
0.041262064 -0.24630392 -0.00027194657 0.040548764 0.050965942 0.02628473 -0.08411989 0.06769269
-0.00072285277 -0.098431766 0.061932698 0.058730945 -0.034145694 -0.12051558 -0.028524525 0.017399583
0.053207766 -0.09113696 -0.041827187 -0.028643291 -0.010210519 -0.100367606 0.043745488 -0.0038089775
-0.0026436362 0.03159714 0.13078776 0.051944703 -0.07411589 0.014681659 -0.102375545 0.03820811
0.025231801 0.035992727 0.061961707 -0.0672384 -0.05917063 0.06529311 -0.03080427 -0.09806585
-0.070379056 0.049727306 0.03877952 -0.014178243 -0.05645163 -0.014161402 0.04848353 -0.13422307
0.028905798 -0.020181399 -0.005632946 0.0122153405 -0.05131214 0.032803252 0.03923015 -0.14567965
-0.12423555 0.014005839 -0.13600335 -0.11796874 -0.04864944 -0.037777577 0.04555283 -0.024714276
-0.013831095 -0.00014261171 0.0021513107 0.045342885 0.041366663 -0.12291579 -0.08987975 0.098913185
-0.023391113 0.07092955 -0.09821713 -0.05597983 0.03096813 0.04770471 -0.08616329 -0.0013145602
-0.06335639 -0.06285098 -0.046345398 -0.14190483 -0.088198334 -0.016055368 -0.018904058 0.0552709
0.0791482 0.040457375 0.05783067 -0.10872954 0.20273007 0.038242158 -0.09384974 -0.027894504
-0.111034475 -0.055647943 -0.033769827 0.04264734 -0.022169493 -0.108887665 -0.0054373937 0.043180656
0.034236122 -0.023559391 0.044390965 0.0005046503 0.00023005262 -0.032576747 -0.05129577 -0.043201823
-0.009923057 -0.16452505 -0.058282457 -0.040842153 0.0132813575 0.054253045 -0.09839362 -0.12715599
-0.022236766 -0.10533155 -0.050206963 -0.053603135 0.029676296 -0.08474903 0.14113198 -0.1450719
0.039507322 -0.20878385 -0.03927743 0.06778411 -0.09665891 0.012315531 0.050220285 0.054767653
0.024777375 0.025939902 0.068999976 -0.012584321 0.06370488 0.0652727 -0.0052341353 0.07709674
-0.03497147 0.011133796 -0.044526473 0.042487603 -0.036328755 -0.023529295 -0.043572355 -0.03587694
-0.07313375 0.07322533 -0.02948198 0.0017344396 0.031647768 -0.0021613182 -0.05314311 -0.01612676
-0.07731713 -0.09984297 0.0044772928 -0.013846268 -0.13384835 -0.07043266 -0.030958401 0.027553778
-0.04119962 0.0066585303 -0.05675821 -0.030398991 0.0015476933 -0.06435832 -0.12700179 -0.10509533
0.06606745 0.10954205 -0.043289687 0.0039529745 0.0163079 0.037058093 0.022365784 -0.06451221
-0.12476381 -0.0653801 -0.061026044 -0.08309463 0.11208377 -0.0009807113 -0.019248983 0.064894974
0.07962737 0.0070630745 0.0063005527 -0.022739979 -0.023518631 0.011010719 -0.033289935 -0.09651589
-0.014887431 0.08327677 0.0063031744 0.026237605 0.03669534 0.011398244 -0.08082493 -0.057535276
-0.08613307 -0.01650802 -0.047886226 -0.21703437 -0.011534177 0.06597462 0.007937459 -0.015797922
0.038560495 -0.112170696 0.045010395 -0.1903654 -0.015887963 -0.101176515 -0.058747966 -0.031577274
0.014251125 0.017462825 -0.02996961 0.012838709 0.036632113 -0.04073815 -0.021878688 0.0053810733
0.056928124 -0.068505704 -0.036162265 -0.040599026 -0.046944816 0.01932147 -0.025382794 -0.051935

fc2.bias f4 [128]
00000000: afca 26bc e2f2 96bd 4ad1 90bd dd46 6fbd
00000010: 1f2b f13b dd7a 0bbe f874 9a3b 641b ebbd
00000020: 78cc 5cbd af45 3ebd 0f7f f7bc 8758 34be
00000030: 094a 08be ff9b 2ebe e8f1 9cbc fc3b e3bd
00000040: 8f98 65be 7618 a1bd fdc0 fabd dd3f 8dbd
00000050: 051e 43be 9455 f63b 0de4 7ebe 8521 25be
00000060: c89b 20be a197 7abd 3b82 a4bd 5123 05be
00000070: d576 a2bd 7e52 d4bc 1827 b9bd 7635 e1bb
00000080: 18c7 5cbd d378 98bd 1eca 94bd 1520 c3bd
00000090: e4f4 05be 2d0a e8bc 15a9 62be 45b8 34be
000000a0: 4188 4fbd a382 e5bd 9916 99bc 75df c7bd
000000b0: 286c cabd 4c5e 3b3a f20a 15b9 d476 1cbe
000000c0: d3a3 5dbd 7c1c 10be 4484 1e3d 1cbe 29be
000000d0: 39b8 27be 054e 09be acf7 dabd 4899 64bd
000000e0: 5069 c9bc 3cc2 52be da8e 9dbd f6e4 45bd
000000f0: 61cd bbbd 7ef7 d6bd 5e0c 04be be01 2dbe
00000100: bfc9 5bbe f161 43be 7dc7 31bd b60d 45bd
00000110: ff7f c9bd ef76 46bd cc96 95be 7e03 27be
00000120: 520e fdbd fc11 19be 72c3 85bd 4ea7 a1bd
00000130: 817f e33c 9dee 5abd 97f9 4cbd 9b6d 9bbd
00000140: 5eaa 92bd 00d5 79bc e8d2 adbd 0f75 2dbb
00000150: 2074 c5bd 1be2 0fbe 0d42 77be 6734 8fbd
00000160: fcb0 cbbd e053 c4bc d2d7 25be 9fb4 6dbe
00000170: 8184 a13b 5aec eebd f708 5abe e389 f0bc
00000180: 523d 3bbd c67d 4bbe f780 14be 84ac 1abc
00000190: 4edf 08be a1ad 0c3c 1274 34be b9f2 80bd
000001a0: 5e7c 41be f88d d6bd fbb1 81bd 11e7 d3bd
000001b0: a5d4 33be 6083 7ebd b285 7dbc 7267 afbd
000001c0: 2f55 bebc 7d0b 0b3d 1939 0bbe 3506 14be
000001d0: ce13 b8be 241c de3c 1733 51bd c3bd 9dbd
000001e0: b2ff 8cbd 3a95 34bd a989 aebd 3512 1dbe
000001f0: c78b eabd bb1d 0fbd 6ed2 1ebe 2c87 86be
-0.0101801595 -0.07370545 -0.07071169 -0.05841719 0.0073598768 -0.13621087 0.004713651 -0.11479834
-0.053905934 -0.046453174 -0.030211953 -0.17611896 -0.13309492 -0.17051695 -0.019158319 -0.110954255
-0.22421478 -0.07865994 -0.12243841 -0.068969466 -0.1905442 0.007517526 -0.24891682 -0.16126068
-0.15684426 -0.06117976 -0.08032652 -0.13001753 -0.07932822 -0.025918242 -0.0904066 -0.006872828
-0.053900808 -0.074449204 -0.07265113 -0.095276035 -0.130817 -0.028325165 -0.22134812 -0.17648418
-0.05066705 -0.112065576 -0.018687533 -0.09759418 -0.098839104 0.0007147535 -0.00014213825 -0.15279704
-0.054111313 -0.14073366 0.038700357 -0.16576427 -0.16378869 -0.13408668 -0.10691771 -0.055810243
-0.02458635 -0.20581907 -0.076932624 -0.048314057 -0.09170032 -0.10496424 -0.12895343 -0.16895196
-0.21463679 -0.1908033 -0.043403137 -0.04810878 -0.098388664 -0.048453268 -0.2921661 -0.16309926
-0.12356247 -0.14948267 -0.06531419 -0.07893239 0.02777076 -0.053450216 -0.050042715 -0.07589265
-0.07161401 -0.015248537 -0.08487493 -0.0026467477 -0.0964129 -0.14051096 -0.2414629 -0.06992417
-0.099458665 -0.023965776 -0.1619561 -0.23213433 0.004929126 -0.11666174 -0.21292482 -0.029362625
-0.045712776 -0.19872198 -0.14502321 -0.009440545 -0.13366434 0.008586318 -0.17622402 -0.06296296
-0.18895099 -0.10476297 -0.06332775 -0.10346807 -0.17561586 -0.062137008 -0.01547377 -0.085646525
-0.023233978 0.033946503 -0.13596 -0.14455493 -0.3595261 0.027113028 -0.051074114 -0.0770221
-0.068847075 -0.044087626 -0.0852235 -0.15338977 -0.11452442 -0.034940463 -0.1550996 -0.26275003

fc3.weight f4 [1, 128]
00000000: 601e a33b f383 e33a 19ad 4eba 78fe b7ba
00000010: 480e 003c 1be9 b8b9 c1be 70bc b4e3 40b9
00000020: c667 9b3c 0b43 403c 834c 3d3b 099c c83c
00000030: a474 9c3a 6551 ad3b 1699 373c 08a4 e33c
00000040: 5d50 383b 81f2 ecbb 858b bcbc 6223 81ba
00000050: f62c 5e3b dc46 a13b 60f4 4dbc a254 3b3b
00000060: fcf5 c03c 0e56 c43b b486 b538 ba7c 963a
00000070: a43f e53b 5840 803b 657e 643a a216 493c
00000080: 5ac3 593b 942e 453c fee0 10bb 0fe1 02bc
00000090: 62c8 c43b f08a 17bb 9daf a23b 41a8 14bc
000000a0: 84d1 28bb 3b61 5bbb 8abc 2a3b 1c73 633a
000000b0: 8163 0f3c d532 9bbc 80c6 b7bb 8a2e b4bb
000000c0: 85a7 febb e39a 923c 1435 30b9 4962 d83b
000000d0: 6273 353c 064a edbc a0d4 ae38 a2fd e739
000000e0: 976c 063c 1f94 073b 6b57 e2b9 59e1 8dbc
000000f0: 4d03 e8bc cca5 a2bb cf38 23bc bec2 193c
00000100: 5c76 733c 7f22 ad3c 904d 3d3b cac4 523b
00000110: 32c7 e13b 0a66 463b 349b 1b3d eecb 8abb
00000120: 72d0 d2bc 5f1a 853c 8091 52bc f882 553b
00000130: cc48 843b 22fd 73bc 9d7d c13a 0865 d63b
00000140: c070 773c 8e3a 9a3b a5b1 f53c 48a2 4fbc
00000150: 48c2 5d3b 6cd5 88bb 12c0 1d3d 29b1 a5bc
00000160: 22b0 58bb 172f d839 54b1 ca3b 2c14 403d
00000170: 3d31 e7bc 5de8 be3b 5933 203d a2dc 42bb
00000180: 8ea6 41bc 5dcb ac3c 3643 84bb 79d3 9f3b
00000190: fd4f 843c cc0d 2cbc 5aa0 b93a 01f2 3c3c
000001a0: cf6e c63c 6d5f 653c 2ff7 553c 0d5b 0ebb
000001b0: 6405 353c 3f9b 9db9 be32 ad3a 6e5d 373b
000001c0: acfa 96bb 4361 c4bb 57b4 f43c 7cb8 533c
000001d0: 70a4 26bd e559 9439 1ea5 ae3a b6c0 a9bc
000001e0: 5062 dbb9 cd22 113c cf32 043b a882 793b
000001f0: 3120 23ba 5b80 6b3c 1749 93bb 6ace 823c
0.004977986 0.001735805 -0.000788407 -0.001403763 0.007815905 -0.00035268892 -0.014693917 -0.00018395373
0.018970381 0.011734734 0.0028884716 0.024488466 0.0011936617 0.005289244 0.011205932 0.027788177
0.0028124072 -0.007231057 -0.023015747 -0.0009852464 0.003390131 0.004921777 -0.012570471 0.002858438
0.023554794 0.005991704 8.655843e-05 0.0011481263 0.006996112 0.0039139204 0.0008716344 0.0122734625
0.003322801 0.012035031 -0.0022106762 -0.007988228 0.006005333 -0.0023123585 0.0049647824 -0.009073318
-0.0025759647 -0.0033474702 0.002605232 0.00086765154 0.008751751 -0.018945137 -0.00560838 -0.005498712
-0.0077714347 0.017896121 -0.00016804441 0.0066035134 0.011074873 -0.028965961 8.336571e-05 0.00044248725
0.008204601 0.0020687652 -0.0004317121 -0.017319368 -0.028321886 -0.004963612 -0.009962275 0.009384809
0.014859762 0.021134613 0.0028885342 0.0032160752 0.006890201 0.0030273222 0.03798981 -0.004235736
-0.02573416 0.016247926 -0.012852073 0.0032579284 0.0040369984 -0.0148918945 0.0014762167 0.0065428056
0.015102565 0.0047066873 0.029991934 -0.012672968 0.0033837724 -0.0041758325 0.03851325 -0.020226078
-0.0033063968 0.00041233815 0.00618569 0.046894237 -0.02822172 0.0058260397 0.03911147 -0.0029733558
-0.011819495 0.021093065 -0.0040363325 0.0048775044 0.016151423 -0.010501336 0.0014162168 0.011532308
0.02422276 0.013999802 0.013059421 -0.002172175 0.0110486485 -0.0003006104 0.0013213975 0.0027979272
-0.004607519 -0.00599304 0.029871149 0.0129224025 -0.040684164 0.00028295736 0.0013324355 -0.020721775
-0.00041844184 0.008858395 0.0020171886 0.0038072262 -0.00062227534 0.014373864 -0.004494797 0.015967567

bn1.weight f4 [128]
00000000: d770 123f 87d9 1a3e 8033 6b3d b366 913e
00000010: e365 323f 1f51 533e 044e a13a 8b89 483d
00000020: fb72 eb3d 0cdf 993e 257b 323f 31d4 bd3d
00000030: 491f 393f 3c99 8a3d 353c 0c3e 4a85 2bbd
00000040: 93c5 2c3f d3e5 d7bd 2541 ae3e 5001 c93e
00000050: b0c5 b03e 1a91 cb3e 1a6b 373f 430f 6c3e
00000060: cab4 703f dfb7 bd3e 6de4 b83e 8054 983d
00000070: adbb d33d e7ec c23e f480 323f ae45 e13e
00000080: b8af 2e3f d161 143f a8f7 9c3e 3e40 103f
00000090: 26c5 313f 7779 413f ff1d 4c3e e3f2 ee3e
000000a0: 2b28 323e fe78 093f b007 fc3d 8812 443f
000000b0: 50cb 313f 2a52 ed3e c468 883e 4d41 fb3d
000000c0: 1754 f63e 4140 473f 1580 c83e 4d7a b73e
000000d0: 86e6 0b3e df82 033f 2657 3f3f f2e9 343f
000000e0: ece9 f23e e4b1 4b3e c683 ee3e 0375 273f
000000f0: 7558 813d 0f10 943e d39a f73d f08f bf3e
00000100: b0db 253f 831c 0d3f b1dc 493f 6483 f73b
00000110: d9f4 113f 1135 a139 f2bb 493f d9f8 9c3e
00000120: 047f 173e abaa a53d 6ad5 7cbd 146f 1e3f
00000130: ef08 bc3d 497a 173f 9c9e 0b3e d84c 5e3d
00000140: 1f3c b03e 8539 4b3e 6920 273f e6d2 013e
00000150: 5e0b 493e 4145 b83e 6802 3c3e b227 bc3d
00000160: 2fcb 273f d739 703e 4496 af3d d51f b03e
00000170: b0e1 223f 6881 463f 115a 723e 065a 623f
00000180: c799 923e 9671 1a3f 9e85 373f d711 ad3d
00000190: 21ae ec3e 9b32 363e 06e4 143f 036a 3b3e
000001a0: 2f20 493d 09f3 153f 8abe 143e 56ad ea3d
000001b0: 42d6 98bc 728a c53e adf2 0c3e 622e b23e
000001c0: 2dd0 2f3e dc99 553e 6070 023f 3426 2d3f
000001d0: 6824 d53e fc16 4e3f 0319 5f3f a108 353f
000001e0: bfe7 303f e47e a83e 1bee 003f 6626 2b3f
000001f0: 7367 483f 5484 b43e e42d fb3d 975a f63e
0.5720343 0.15122043 0.05742216 0.28398666 0.69686717 0.20636414 0.0012306576 0.048959296
0.1149654 0.30052984 0.69719154 0.09268988 0.7231336 0.067675084 0.13694842 -0.04187516
0.67488974 -0.10541882 0.34034076 0.39258814 0.34525824 0.3975914 0.716478 0.23052697
0.9402586 0.37054345 0.36111775 0.07437992 0.10338531 0.38071367 0.69728017 0.43998474
0.68236876 0.57961756 0.30657697 0.56348026 0.6944145 0.75575966 0.19933318 0.46669683
0.17398135 0.53700244 0.12306154 0.76590776 0.69450855 0.4635175 0.2664243 0.122683145
0.4811103 0.7783242 0.3916022 0.35835496 0.13662156 0.5137157 0.7474235 0.7066947
0.47444093 0.19892079 0.4658491 0.6541292 0.063157 0.28918502 0.12090077 0.37414503
0.6478834 0.5512163 0.78852373 0.007553505 0.5701423 0.0003074785 0.78802407 0.30658606
0.14794546 0.08089193 -0.061726965 0.6188824 0.091813914 0.5917097 0.13634723 0.054272503
0.3442087 0.1984616 0.6528383 0.12678108 0.19633242 0.35990337 0.18360293 0.09187259
0.6554441 0.23459564 0.08573583 0.34399286 0.6362562 0.7754121 0.2366717 0.88418615
0.28632948 0.6032957 0.7168826 0.08450668 0.462266 0.17792742 0.58160436 0.18302159
0.04910296 0.5857397 0.1452581 0.114588425 -0.018656854 0.38582188 0.13764448 0.34801012
0.17169257 0.20859474 0.5095272 0.6763642 0.41629338 0.8050382 0.8714754 0.7071629
0.69103616 0.3290931 0.5036332 0.66855466 0.7828285 0.35257208 0.12264612 0.4811599

bn1.bias f4 [128]
00000000: 2a0a 6b3e d5ad dc3e a8b1 2e3e 6adf 113e
00000010: 9acb 2a3c 4592 2c3e 18b7 17bd 214a 073e
00000020: fb2b 833d 1cbd c5bc 5453 ab3d 0bd9 913d
00000030: 8903 b3bd d098 e8bd b736 edbd c29a c13e
00000040: 1bb4 76bd 97ed ea3e 7ec7 3dbe 429a 0abb
00000050: a708 81bd be32 253e ebf3 8c3d 8909 9e3d
00000060: ae2c 063e bad7 56bd 3d98 b2bd 635d ee3b
00000070: 3c93 1bbe 86c3 01be 2032 233e 2556 493d
00000080: 49e6 f33c 156f 483c 7457 95bd 2c41 0f3e
00000090: daf7 afbc 5831 103e 8345 e9bd e9a5 193e
000000a0: 6934 2b3e 9e4c 80bc d70d 84be f3b8 223e
000000b0: 63e2 503e fc3b b53c 4a1a 2f3e 2107 47be
000000c0: 7070 b8bc 614c 513e a4b7 88be 24b5 a4ba
000000d0: 9eda 053e d266 423c a462 59bd ab9f 7b3d
000000e0: 47f8 2d3e 8044 f13d d5c0 8a3c 1c0e 6c3e
000000f0: 7916 833d 1c2b 303e cc09 e43d e14e 873e
00000100: 1738 45bc ad60 673e 23f1 df3d 240a babd
00000110: da03 673d 4e2e 89bd 1cac e0bd 14d9 163e
00000120: b9af 853e ad68 823c b696 a63e 58d3 f83d
00000130: d84d f8bd b7d7 70bd 6cca 83bb 0cb0 a7bb
00000140: 21fb 1fbe 5830 133e 09f5 373e 4efd d13d
00000150: a4cd bbbd 2904 a93e f49e 043d f3b9 2c3c
00000160: 575d dcbc 6531 17bd d7ff 71bd 75c5 0d3e
00000170: c85a 8ebd dd44 b5bd e426 123d 32a9 35bd
00000180: a778 603e d9ec 07bd af69 f83d 7164 803e
00000190: c8be e13d d331 5abd b986 1c3e a83c 8ebd
000001a0: 54ce c23b 196f bd3b 1002 72be fa56 8b3e
000001b0: 0e78 57be c51a 05be 655f dcbc 855f 8ebd
000001c0: 035f 853d 02fd b13d 65ac 543d ef0d c1bd
000001d0: c1bd 0d3e 5393 3f3e 0411 cb3e 00ad e9bc
000001e0: 431e 2c3e 8656 053e fc82 263e 3793 f53d
000001f0: 5576 adbc e0f1 25bd c4bc cbbd e418 003e
0.22953096 0.43101373 0.17059958 0.14245382 0.010424519 0.16852672 -0.037039846 0.13211872
0.06404873 -0.024138026 0.08365503 0.07121476 -0.08740909 -0.11357272 -0.11582702 0.37813383
-0.060230356 0.45884392 -0.18533131 -0.0021149074 -0.063004784 0.16132638 0.06882461 0.077166624
0.13102981 -0.052451827 -0.087204434 0.007274316 -0.15192884 -0.12672243 0.1593709 0.04915442
0.029772894 0.012233515 -0.07292071 0.13989705 -0.02148049 0.14081323 -0.113902114 0.15004696
0.16719212 -0.015661534 -0.2579181 0.15890865 0.2039886 0.02212333 0.17099872 -0.19436313
-0.022514552 0.20439292 -0.26702607 -0.0012566191 0.13071677 0.011865335 -0.053072587 0.061431568
0.16989242 0.117806435 0.016937653 0.23052257 0.06400771 0.17203945 0.11134681 0.26427367
-0.012037299 0.22595473 0.10934665 -0.090839654 0.056400158 -0.06698285 -0.10970327 0.14731246
0.26110628 0.015919054 0.32536858 0.121496856 -0.121242225 -0.05879947 -0.0040219333 -0.005117422
-0.15623142 0.1437391 0.17964567 0.10253392 -0.09170082 0.33010986 0.032378152 0.010542381
-0.026899977 -0.03691234 -0.05908188 0.13844855 -0.06950909 -0.08851025 0.03568162 -0.04435081
0.21921025 -0.03318486 0.121295325 0.2507663 0.11022717 -0.053270172 0.15285768 -0.06945163
0.0059450064 0.005781066 -0.236336 0.27214795 -0.21041891 -0.12998493 -0.026900956 -0.06951813
0.06512263 0.086908355 0.05192222 -0.09426486 0.13841917 0.18708543 0.3966142 -0.028524876
0.16808419 0.13021287 0.16260904 0.1199097 -0.02117459 -0.040513873 -0.099481136 0.12509495

bn1.running_mean f4 [128]
00000000: 84f2 da3f a1c4 873f b002 dd3f adbb c83f
00000010: f618 2540 dc47 6140 a9b0 f73f ece8 3140
00000020: 27f2 613e 021e 203e 525d 7c3f f9de 0840
00000030: 5dfb b23f c16b 2140 377c 693e 5a20 6a40
00000040: e1fd 0b40 2167 0c40 0264 f33e a72f 383f
00000050: 5ad3 3d40 6660 9940 d5c1 1f3f f923 d23f
00000060: b65b a640 10c0 5d3d 213f c93f dcdb db3f
00000070: f0b5 1640 2511 853e e18f b23f 6548 b33e
00000080: 0d12 903e 0ab9 e33f 5c29 913f 1e35 0140
00000090: 6f1a 0240 8c66 6140 7899 7740 cc0c 4740
000000a0: 2fe4 db3f 0dce 553f 41c7 043e a807 8940
000000b0: 1f9f 9340 0e83 7b40 1c01 943e 07a9 e73d
000000c0: d4fc b53e edd8 3240 5fb6 1c3f 7138 5e40
000000d0: 0c80 cb3f f573 2d40 9bb8 7040 f4c4 1d40
000000e0: 517c 353f 6364 0c40 ef51 aa40 38dc 2340
000000f0: d85a 7e40 5a93 3b3e 7623 6e3f df8e 5240
00000100: 2349 d03f bc4a 573f e477 563f 0084 7340
00000110: 61b5 eb3f 4aaf 2540 4ab4 4a40 5375 673f
00000120: 8cd4 1d40 85cf a33f ee6e 6e40 78e6 0b41
00000130: d7ee 3940 dbf4 4b40 5fd2 2040 a013 533f
00000140: e005 d83f 9cf7 7d40 2c5f 723f de91 5d40
00000150: c7d9 6440 aa37 953f 7aa2 593f f167 0440
00000160: 4cd4 3e3f 89a8 0b3e 9cf4 cb3d 8da9 2240
00000170: ad71 c93f 24ff 8d3f c880 0c3f 20a7 1240
00000180: 379a 4f40 deb4 5c3e 260a 5540 e113 6b40
00000190: 3b71 fc3f 0ca2 0940 1754 b23f a0a2 7040
000001a0: 2b20 6d3e 223b fb3f 2ecd 3740 74b3 ae40
000001b0: 43d6 8e40 c3e3 bd3f 8f90 ae40 acaa 4540
000001c0: 84ee 2d40 b118 113f c5d7 fb3f b373 633f
000001d0: 183d 8340 c4a2 8440 5fef 383f b704 913f
000001e0: 915e 0f40 0b0a 7b3f b2dd 1740 ce3c eb3f
000001f0: e21f f03f dce0 443f 9470 5c40 d933 133f
1.710526 1.0606881 1.7266445 1.5682274 2.5796485 3.520011 1.9350787 2.7798414
0.2206503 0.15636447 0.98579895 2.1386092 1.398296 2.5222018 0.2280129 3.6582246
2.1873705 2.1937945 0.47537237 0.7194771 2.9660249 4.7930174 0.6240514 1.6417228
5.198695 0.054138243 1.572239 1.7176471 2.3548546 0.25989643 1.3950158 0.3501617
0.28138772 1.7790844 1.1340747 2.018867 2.0328634 3.521884 3.868742 3.110156
1.7179011 0.83517534 0.12966634 4.2821846 4.613174 3.929874 0.28907096 0.11311536
0.35544455 2.79449 0.61215776 3.472195 1.5898452 2.7102025 3.7612674 2.465146
0.70892817 2.193627 5.3225017 2.560316 3.9742947 0.18317929 0.9302286 3.2899702
1.627232 0.8409841 0.8377669 3.8049316 1.8414727 2.5888238 3.167254 0.904134
2.4660978 1.2797705 3.7255206 8.743767 2.9052026 3.1868198 2.51284 0.8245182
1.6876793 3.9682379 0.9467647 3.462028 3.575792 1.1657612 0.85013545 2.068844
0.7454269 0.1363851 0.09958765 2.5415986 1.5737816 1.1093488 0.54884005 2.2914505
3.2437875 0.2155337 3.3287444 3.6730883 1.9722055 2.1505156 1.3931912 3.7599258
0.23156802 1.9627421 2.8718982 5.459406 4.463655 1.4835132 5.4551463 3.088542
2.7176828 0.566783 1.9675223 0.8884842 4.1012077 4.144869 0.7224025 1.1329564
2.2401469 0.980622 2.3729062 1.8377931 1.875973 0.7690561 3.4443712 0.5750099

bn1.running_var f4 [128]
00000000: 53a8 2041 fd15 f740 11e4 f940 f55c 1741
00000010: b6f0 1841 11fd cb41 e266 a440 c46b a241
00000020: 0e25 733f 1432 3a3f da43 cb40 2272 0b41
00000030: f5ad f340 8b3f 5841 5e6f 753f cdac aa41
00000040: 77bb 1641 84aa c041 646c 3c40 ced2 7240
00000050: f5e8 5d41 997e 0742 0653 5840 6b7f be40
00000060: a7b9 f641 3ec5 183e c86e be40 1ce9 0e41
00000070: d9cb 2941 c55e 813f fea9 0a41 e0c7 af3f
00000080: 7faf 993f 7410 3341 33e4 cc40 e98a 1d41
00000090: d247 0941 dd08 1b41 225b 7b41 bf85 8141
000000a0: d83e 0641 3207 a640 c6ca 023f 849f 8341
000000b0: d78c b841 7856 3041 90d6 853f 9d37 6a3e
000000c0: b412 c73f c0b1 5441 4ba2 4340 a5f3 5941
000000d0: 3ce0 0241 a616 3241 dee3 b141 4c00 3e41
000000e0: f64d 8f40 ba51 3941 f658 7741 3ad5 5e41
000000f0: cc94 8741 ed25 0d3f 38b9 8b40 51ff c441
00000100: 610b fb40 0e7c 9840 665d 8040 142d 6541
00000110: ee23 d240 6aeb 2341 584f 8141 708f a340
00000120: a356 7241 1e76 8d40 a72b b641 c48a ac42
00000130: 8f73 4f41 153f 4841 4274 4a41 aa01 7740
00000140: dae0 ef40 7c3d 9241 81d7 7140 022f 6141
00000150: 2de8 7041 37a1 db40 9f9d 8140 638c d640
00000160: 02a2 2e40 9a26 053f 1d02 8f3e 4a17 4241
00000170: 27f1 b840 d9b1 cc40 3df5 4840 7ae8 4541
00000180: 403d a141 026b 343f 7c6e 1941 0294 9d41
00000190: e0d7 5341 a9aa 1d41 2798 ec40 36a9 8a41
000001a0: 309f 913f 48e0 4541 ab65 7641 700b 4142
000001b0: 743e a541 3f8f ef40 aec3 9741 39f0 2d41
000001c0: 330f 5241 2fac 0b40 c934 2f41 c9da 6040
000001d0: a8f6 3941 ecea d541 fdff 5840 695b 3340
000001e0: 8495 3f41 3c0f 7d40 0e27 2c41 764b 1d41
000001f0: 3a0c 3f41 1aef 3e40 b542 6341 2974 1c40
10.041095 7.721434 7.80909 9.460195 9.558767 25.498568 5.137559 20.30262
0.94978416 0.72732663 6.3520327 8.715364 7.614985 13.515513 0.9587306 21.334375
9.420768 24.08326 2.9441156 3.7941165 13.869374 33.87363 3.3800673 5.953054
30.84065 0.14918992 5.951023 8.931911 10.6122675 1.0107046 8.666502 1.3732872
1.2006682 11.191517 6.4028563 9.846414 8.580034 9.689664 15.709749 16.190306
8.390343 5.1883783 0.5109066 16.452888 23.06877 11.021111 1.0456104 0.22872777
1.5552583 13.293396 3.0567806 13.621984 8.179745 11.130529 22.236263 11.8750725
4.4782667 11.582453 15.459219 13.927057 16.947655 0.55135995 4.3663597 24.624666
7.845139 4.7651434 4.011401 14.323505 6.566886 10.244974 16.163742 5.1112595
15.146152 4.4206686 22.771315 86.27103 12.965713 12.515401 12.653383 3.8594766
7.4961977 18.280022 3.7787783 14.0739765 15.056684 6.8634295 4.050491 6.704637
2.7286382 0.52012026 0.279313 12.130686 5.7794375 6.39671 3.1399682 12.369257
20.154907 0.7047578 9.589474 19.69727 13.240204 9.854165 7.3935733 17.332623
1.1376705 12.367256 15.399821 48.26117 20.655495 7.486236 18.970547 10.871148
13.128711 2.1823843 10.950387 3.5133536 11.622719 26.739708 3.3906243 2.8024542
11.974003 3.9540548 10.759535 9.830923 11.940485 2.9833436 14.203786 2.4445899
