Weights/checkpoint_Critic.pth (torch_old, 84902 bytes, 9 tensors)

fcs1.weight f4 [128, 28]
0.953269 0.46429336 -0.16884568 0.06034978 2.2732515 2.6995358 -0.11377978 0.14650513
1.6867241 2.0247188 -0.070337005 0.7947751 1.6677519 -1.0281215 -0.11008559 0.8171711
0.7570877 3.387386 -0.12323902 1.8582156 -0.82055914 -1.2571403 -0.05982481 1.7143915
-6.0502243 2.4732537 0.4755449 2.9471908 1.104502 2.9036229 -0.076067194 -0.7867157
0.525069 -1.2709072 -0.030523902 -0.8390131 0.3409414 0.9115525 -0.11726282 -1.7563492
0.81078964 -0.72537404 -0.054513223 -1.7377957 -0.21911284 0.13960345 -0.5658958 -1.5647044
0.57632345 -0.8522326 -0.60053205 -1.44138 -0.3570037 -4.538792 -2.678932 -3.602992
2.1636772 0.43600547 -0.5223313 -0.13756041 0.22450764 -2.5022125 -0.46431908 -0.14488919
1.4492843 -0.38043994 -0.41276962 -0.38073778 -0.25876546 -2.2110336 -0.3788458 -0.42091542
1.52466 -0.6416434 -0.15335119 -0.20665155 -0.42749438 -1.6376743 -0.23914304 -0.20098089
0.461403 0.20047355 0.18513213 0.21465173 1.6916928 -0.53433174 -0.3319704 -0.6861876
0.73070604 -0.8148152 -0.4233495 -0.6583419 1.3037894 -0.7972186 -0.3144412 -0.2843574
0.5825218 -0.3359056 -0.23703825 -0.28926897 1.2286291 -0.67733634 -0.28545097 0.91892123
0.36719933 -0.56343615 -0.2797381 0.8703306 0.7785259 -0.344782 -0.2293053 -0.883024
-0.5059575 -1.2340735 0.0072690467 0.09207926 0.29822272 -1.0142418 0.060201615 0.10582009
0.011673294 -1.2618859 -0.86839837 -0.654965 0.12997466 -1.195761 -0.8451317 -0.67753106
0.85780245 -1.0240493 0.78255606 1.8518944 0.09997988 -1.799457 0.8274077 1.953015
-0.78679043 -1.4830668 -0.11812058 -2.768084 0.75107396 0.49584097 -0.030685572 -0.00019346992
0.7202359 1.1729931 -0.004253147 -0.05776015 0.5272401 -0.4900237 0.12562759 0.2481014
0.5783066 1.3128319 -0.029884864 0.18528807 -0.12589812 -0.94595486 -0.031384036 0.58780384
-0.058289997 7.9200125 -0.043952744 0.6431297 -6.5275297 -0.38076913 -0.69001395 0.8835224
0.13866782 0.12534527 -0.14192908 0.29048547 0.5355998 -0.97969675 -0.19478647 0.3522936
0.2727963 0.07330786 -0.9004193 -0.3229027 0.49646854 -1.1091869 -0.9506057 -0.25654766
0.9666649 0.12704277 0.68046415 -0.15607041 0.46539918 -1.3334109 0.5383853 -0.23462829
-0.5104327 -0.3629043 -0.21148196 0.1894482 1.9933698 1.0507426 -0.35701108 0.4730092
0.35971537 -1.9219459 -0.29392055 0.5093912 1.3005252 0.6599859 -0.56372803 -0.10598858
0.058723677 -1.7805225 -0.46223134 -0.04188795 1.2822623 0.7073514 -0.1478433 -0.35707018
-0.20497774 -1.6161095 -0.1727807 -0.36687505 0.09775626 -0.030347094 -0.3852093 0.16766036
0.46412462 -0.92980766 -0.58509064 -0.121857785 0.062065735 -1.2054818 -0.62995225 -0.2216298
0.71572113 -0.651626 -0.07643957 0.6464922 0.034201518 -1.7155809 0.008266761 0.58198506
1.3400341 -0.5626176 -0.598518 0.7676021 0.094251946 -2.7409549 -0.46084097 0.8325095
-0.4237838 0.485712 -0.64548904 0.05672947 1.9868892 0.4188313 -0.17754604 -0.71698666
00000000: 7009 743f dcb7 ed3e e2e5 2cbe 5531 773d
00000010: f47c 1140 32c5 2c40 6005 e9bd 7105 163e
00000020: 93e6 d73f fe94 0140 d90c 90bd 6276 4b3f
00000030: e578 d53f 7c99 83bf 8e74 e1bd 2032 513f
00000040: 80d0 413f efca 5840 bd64 fcbd 02da ed3f
00000050: 2a10 52bf f9e9 a0bf dc0a 75bd 2e71 db3f
00000060: 709b c1c0 ca49 1e40 9f7a f33e c69e 3c40
00000070: 5260 8d3f f5d4 3940 1ec9 9bbd 3366 49bf
00000080: ec6a 063f 16ad a2bf 430d fabc 90c9 56bf
00000090: df8f ae3e 815b 693f 7d27 f0bd 0dd0 e0bf
000000a0: e98f 4f3f 1db2 39bf 4249 5fbd 1770 debf
000000b0: 1e5f 60be 35f4 0e3e 8cde 10bf 3c48 c8bf
000000c0: ef89 133f ea2b 5abf 78bc 19bf 247f b8bf
000000d0: 30c9 b6be c93d 91c0 9f73 2bc0 6c97 66c0
000000e0: b079 0a40 1c3c df3e 81b7 05bf a3dc 0cbe
000000f0: 55e5 653e 4024 20c0 3bbb edbe d55d 14be
00000100: 2682 b93f 06c9 c2be 8a56 d3be 10f0 c2be
00000110: e87c 84be 9381 0dc0 14f8 c1be 3a82 d7be
00000120: 0f28 c33f be42 24bf 1808 1dbe 779c 53be
00000130: 8be0 dabe 509f d1bf eae1 74be efcd 4dbe
00000140: 043d ec3e f048 4d3e 4793 3d3e aacd 5b3e
00000150: 6489 d83f f7c9 08bf 06f8 a9be fea9 2fbf
00000160: 8d0f 3b3f bb97 50bf 44c1 d8be 1889 28bf
00000170: 92e2 a63f 8516 4cbf 70fe a0be 4b97 91be
00000180: 2620 153f d2fb abbe 28ba 72be 101b 94be
00000190: b843 9d3f ea65 2dbf a126 92be 6c3e 6b3f
000001a0: 8d01 bc3e 5a3d 10bf d539 8fbe fccd 5e3f
000001b0: 794d 473f 4487 b0be 02cf 6abe dc0d 62bf
000001c0: 6e86 01bf 1ff6 9dbf 2f31 ee3b 0d94 bc3d
000001d0: a6b0 983e add2 81bf f895 763d 34b8 d83d
000001e0: 5841 3f3c 7a85 a1bf 5b4f 5ebf c9ab 27bf
000001f0: 1418 053e b20e 99bf 8d5a 58bf ad72 2dbf
00000200: f198 5b3f 0c14 83bf 9855 483f e00a ed3f
00000210: 40c2 cc3d 9b54 e6bf fed0 533f 65fc f93f
00000220: 196b 49bf 22d5 bdbf 34e9 f1bd 4a28 31c0
00000230: 6246 403f dede fd3e 4f60 fbbc 30de 4ab9
00000240: 6161 383f a324 963f fc5d 8bbb e895 6cbd
00000250: 35f9 063f 63e4 fabe 85a4 003e 4b0e 7e3e
00000260: e70b 143f e00a a83f 1ad1 f4bc 28bc 3d3e
00000270: 70eb 00be 192a 72bf 8c8c 00bd 507a 163f
00000280: 7ec1 6ebd be70 fd40 cb07 34bd 26a4 243f
00000290: 86e1 d0c0 2cf4 c2be c1a4 30bf 862e 623f
000002a0: f0fe 0d3e 835a 003e db55 11be 83ba 943e
000002b0: 121d 093f 68cd 7abf 1b76 47be d45f b43e
000002c0: f5ab 8b3e 6e22 963d e181 66bf 8153 a5be
000002d0: 2031 fe3e d6f9 8dbf e55a 73bf 375a 83be
000002e0: 5a77 773f 8017 023e e632 2e3f ecd0 1fbe
000002f0: cd48 ee3e 35ad aabf 9ed3 093f 6642 70be
00000300: b8ab 02bf 98ce b9be ba8e 58be b5fe 413e
00000310: be26 ff3f bc7e 863f 28ca b6be 432e f23e
00000320: 9d2c b83e 5302 f6bf c17c 96be 7667 023f
00000330: 9c77 a63f d6f4 283f 7b50 10bf 8a10 d9bd
00000340: 3d88 703d 29e8 e3bf 96a9 ecbe b392 2bbd
00000350: 2c21 a43f fb14 353f 3c64 17be e7d1 b6be
00000360: afe5 51be addc cebf 6ced 30be 0cd7 bbbe
00000370: 6f34 c83d 789a f8bc 273a c5be 28af 2b3e
00000380: bea1 ed3e e007 6ebf 80c8 15bf 9390 f9bd
00000390: a438 7e3d 3a4d 9abf 8d44 21bf ecf2 62be
000003a0: 8039 373f f6d0 26bf 598c 9cbd 8380 253f
000003b0: e416 0c3d 2898 dbbf 4f71 073c f9fc 143f
000003c0: 3d86 ab3f b507 10bf 7a38 19bf 9281 443f
000003d0: 2a07 c13d ce6b 2fc0 59f3 ebbe 581f 553f
000003e0: 31fa d8be 3eaf f83e c53e 25bf 295d 683d
000003f0: 6352 fe3f 0e71 d63e a1ce 35be 708c 37bf

fcs1.bias f4 [128]
-0.65022475 -1.2694517 -1.7027332 -0.8717049 -3.9819078 -2.1055994 -0.89062613 -0.9067651
-0.46730992 -0.60942864 -1.9639817 -0.8935101 -1.710885 -0.8369145 -1.0999207 -4.6868944
-3.7733204 -1.898159 -0.8922665 -2.1368742 -0.6740879 -1.442254 -2.0917602 -2.153786
-3.327599 -1.2046114 -2.1862528 -1.2673053 -0.78475773 2.6391783 -2.2923143 -1.0261832
-0.53936744 -2.0430694 -0.59799653 -0.9389485 -1.3656427 -1.499077 -1.3675109 -0.6987093
-1.3107013 -0.7846703 -1.2858771 -2.9186985 -1.0668204 -2.6504343 -2.9766867 -0.7384898
2.4582891 -1.3536391 -0.6138539 -6.632882 -1.1193306 -1.1582558 -2.6041534 -1.5607475
-2.0278978 -1.4359325 -1.2847269 -2.260766 -1.2655338 -0.7654782 -1.238084 -1.9823295
-1.4221131 -1.6637123 -1.5317364 -1.4320138 -3.4157114 -1.0373113 -1.575308 -1.3656055
-1.0929673 -0.9793404 0.5932887 -2.9283836 0.021287428 0.051776588 -1.8729885 -1.0820488
1.4004864 -0.74809116 -1.922473 0.15942682 -1.577364 -1.5570868 -0.82713765 -0.84137774
0.35617912 -1.1940337 -1.0017616 -1.1450181 2.7555447 -1.6721367 -2.9704974 -1.0159045
-1.4357793 -1.5666955 -1.533481 -1.6876556 -4.043316 -3.3821774 -3.9064493 -1.06064
2.0419502 -1.5735002 -1.4960462 -0.9883047 -1.0308825 0.649359 -0.7631839 -5.385769
-0.4892164 -1.0248449 0.48366365 -0.577432 -5.7436194 -0.24729215 -1.0396816 -1.4725724
-2.0493555 -3.859271 -0.82246464 -1.2104641 -0.89392984 -1.1673548 -1.5119075 -1.7990006
00000000: 2175 26bf 657d a2bf 29f3 d9bf 0d28 5fbf
00000010: 94d7 7ec0 24c2 06c0 1300 64bf c221 68bf
00000020: 3f43 efbe 8403 1cbf c163 fbbf 14bd 64bf
00000030: 48fe dabf 0740 56bf 34ca 8cbf 0afb 95c0
00000040: 157e 71c0 e0f6 f2bf 946b 64bf 8cc2 08c0
00000050: 0691 2cbf c79b b8bf 66df 05c0 a1d7 09c0
00000060: 62f7 54c0 b530 9abf 91eb 0bc0 0f37 a2bf
00000070: e2e5 48bf 4ce8 2840 47b5 12c0 f959 83bf
00000080: fc13 0abf a6c1 02c0 4d16 19bf ee5e 70bf
00000090: 61cd aebf c1e1 bfbf 990a afbf 9dde 32bf
000000a0: 0fc5 a7bf 27e0 48bf 9f97 a4bf f5cb 3ac0
000000b0: 928d 88bf b7a0 29c0 0982 3ec0 ab0d 3dbf
000000c0: 9c54 1d40 0c44 adbf 8725 1dbf 9240 d4c0
000000d0: 3a46 8fbf ba41 94bf 73aa 26c0 93c6 c7bf
000000e0: 14c9 01c0 a3cc b7bf ee71 a4bf 64b0 10c0
000000f0: 03fd a1bf 61f6 43bf 8979 9ebf f9bc fdbf
00000100: cd07 b6bf 86f4 d4bf f00f c4bf 3a4c b7bf
00000110: 049b 5ac0 9ec6 84bf b1a3 c9bf 29cc aebf
00000120: 5ae6 8bbf 0db6 7abf c5e1 173f a36a 3bc0
00000130: f962 ae3c b013 543d 16be efbf 9380 8abf
00000140: 2343 b33f e782 3fbf 9813 f6bf c940 233e
00000150: 10e7 c9bf 9f4e c7bf 4bbf 53bf 8864 57bf
00000160: 1c5d b63e 19d6 98bf b939 80bf f48f 92bf
00000170: d85a 3040 9308 d6bf a11c 3ec0 2909 82bf
00000180: 9ec7 b7bf 7a89 c8bf 1b49 c4bf 1905 d8bf
00000190: d862 81c0 9875 58c0 4403 7ac0 0dc3 87bf
000001a0: 50af 0240 7468 c9bf 717e bfbf 8901 7dbf
000001b0: f5f3 83bf 643c 263f 0560 43bf 3858 acc0
000001c0: 927a fabe 1e2e 83bf c3a2 f73e 95d2 13bf
000001d0: bbcb b7c0 273a 7dbe 4914 85bf 417d bcbf
000001e0: a428 03c0 4cfe 76c0 0b8d 52bf 7df0 9abf
000001f0: 96d8 64bf e26b 95bf 2f86 c1bf a745 e6bf

fc2.weight f4 [128, 128]
-0.28124142 -0.93931544 -0.404769 0.03328514 -0.028111292 -0.07753699 0.32258373 0.052572776
0.14864427 0.20031646 0.039457105 0.030973187 0.1763612 0.2547143 0.017771393 -0.46797642
0.2624248 -0.81523097 0.3290643 0.14047101 0.13375309 0.21360523 -0.24664642 0.27159092
-0.17377767 -0.15413392 -0.1336519 0.116287224 0.243769 -0.6517759 0.123555064 -0.03207989
-0.09426337 -0.16490316 0.03943236 0.12586372 -0.029029824 -0.019018313 0.1708462 -0.097266376
-0.15186903 0.046710838 0.23515686 -0.11167384 -0.041047875 0.20900638 -0.13332091 -0.11386121
-0.048194353 -0.15024662 -0.028796006 0.06718021 -0.08281706 0.39696318 0.0484007 -0.35683772
-0.0023284066 0.08660475 -0.27146086 0.15447132 -0.13295254 -0.077118166 0.014028024 0.16263081
0.22721165 0.10267928 -0.013749069 0.021865822 -0.17569508 0.102359384 0.03990311 0.07338315
-0.26483935 -0.17012244 -0.24913324 -0.052101918 -0.20192449 -0.10748461 0.13790411 -0.35849038
-0.2730991 0.012404641 0.14632963 0.31386855 0.09155193 -0.06311008 0.01525755 0.1670615
-0.006757668 0.035640076 0.0052580433 0.09468738 0.09510593 0.0077701663 0.074824356 0.0700758
0.01553024 -0.1875578 -0.0075392323 -0.19429559 -0.14708816 -0.113263845 0.10363324 0.20792666
0.09743092 0.08770762 0.021532806 -0.24734268 0.12707911 -0.023087623 0.04185015 0.076285265
-0.12911631 -0.040522926 -0.027822657 -0.057862174 0.16502708 -0.20908229 -0.1979462 0.027721018
-0.24489252 -0.15078858 0.059570625 -0.052415892 -0.05827836 -0.14461991 0.017560266 0.19734284
-0.6517408 -0.7754689 -0.33421317 -0.31575263 -0.14784993 0.064149484 0.09415704 -0.3009875
-0.13077368 0.2264967 0.14204803 0.27837646 0.10385563 -0.0074982815 0.0015988646 -0.95850265
0.06435809 -0.71501464 -0.035841767 -0.04375403 0.054188576 0.598381 0.11835181 0.07835805
-0.16528518 -0.07966301 0.18800402 -0.009232531 0.2263513 -0.5231777 0.12259811 -0.051927924
0.19965687 0.4215053 -0.16414581 -0.22934757 0.1829419 0.16064648 0.19062376 0.1254175
0.40156943 0.2971218 -0.10681994 -0.015533233 0.08972628 -0.11508575 -0.15323882 0.26888767
-0.006138155 -0.32858956 0.20607978 0.08182777 -0.1429002 0.06937783 0.027414644 -0.034540668
-0.021041095 0.29016083 0.19429113 -0.0020718884 -0.3689246 0.119898416 -0.23767534 -0.033804312
-0.461408 0.26696846 -0.17207895 -0.1444124 0.19393913 -0.11048618 -0.11059749 -0.01607294
0.06418096 -0.15556933 -0.056559008 0.055920098 0.28656372 0.044472616 0.06495694 -0.19465446
-0.14538735 0.12822242 -0.101088755 -0.022538926 -0.025557403 -0.20210554 -0.111980505 0.07087942
-0.063179776 0.49621964 0.26824373 -0.29263774 -0.122627385 0.08929584 0.20267217 -0.048269827
0.030427365 0.0032392512 -0.014374319 -0.07479895 0.21610063 0.08631525 0.26248404 -0.10303741
-0.15743409 0.044512093 -0.06784807 -0.49197245 0.1380432 -0.21565697 -0.21070386 0.1050887
-0.041498676 -0.10159579 0.051298197 -0.026010878 0.18505998 -0.50852245 -0.1695879 -0.1728067
-0.010078567 -0.10747367 0.17859125 0.09498322 -0.10768959 -0.05337408 -0.054455176 -0.10424369
00000000: e0fe 8fbe fa76 70bf e23d cfbe 0056 083d
00000010: a749 e6bc b7cb 9ebd b229 a53e 8d56 573d
00000020: 3436 183e c21f 4d3e c69d 213d 7bbb fd3c
00000030: 0898 343e ea69 823e 5095 913c 9b9a efbe
00000040: 8b5c 863e fab2 50bf 1e7b a83e a2d7 0f3e
00000050: 92f6 083e 54bb 5a3e e190 7cbe f70d 8b3e
00000060: c6f2 31be 48d5 1dbe 0bdc 08be ff27 ee3d
00000070: 959e 793e c9da 26bf 700a fd3d 3466 03bd
00000080: 270d c1bd 60dc 28be d483 213d 6be2 003e
00000090: f4cf edbc 4bcc 9bbc 4ef2 2e3e 9833 c7bd
000000a0: 8e83 1bbe dd53 3f3d f6cc 703e 41b5 e4bd
000000b0: d121 28bd c505 563e 4785 08be 1130 e9bd
000000c0: 7167 45bd 40da 19be 9ae5 ebbc c795 893d
000000d0: fe9b a9bd c23e cb3e d03f 463d 6fb3 b6be
000000e0: 2e98 18bb d55d b13d ebfc 8abe bb2d 1e3e
000000f0: b624 08be 21f0 9dbd ccd5 653c b188 263e
00000100: 2caa 683e 8449 d23d c643 61bc f41f b33c
00000110: 69e9 33be cca1 d13d 7271 233d e849 963d
00000120: 0699 87be 9434 2ebe c91c 7fbe d268 55bd
00000130: 4bc5 4ebe e420 dcbd bc36 0d3e 0d8c b7be
00000140: a5d3 8bbe d63c 4b3c 6fd7 153e 61b3 a03e
00000150: 947f bb3d dc3f 81bd cefa 793c 2b12 2b3e
00000160: 6e6f ddbb 54fb 113d aa4b ac3b 75eb c13d
00000170: e6c6 c23d e19c fe3b 833d 993d e783 8f3d
00000180: 8c72 7e3c 270f 40be aa0b f7bb 6cf5 46be
00000190: 479e 16be e0f6 e7bd aa3d d43d baea 543e
000001a0: dd89 c73d 0da0 b33d 9165 b03c 6647 7dbe
000001b0: 0721 023e 4122 bdbc 106b 2b3d 733b 9c3d
000001c0: 1137 04be 5efb 25bd 57ec e3bc e300 6dbd
000001d0: dcfc 283e ab19 56be 69b2 4abe 3017 e33c
000001e0: 1bc5 7abe 5268 1abe 5400 743d 0cb2 56bd
000001f0: 4ab5 6ebd 3e17 14be 8cda 8f3c 3e14 4a3e
00000200: 7cd8 26bf 2185 46bf fd1d abbe 54aa a1be
00000210: f965 17be ce60 833d 68d5 c03d 091b 9abe
00000220: 89e9 05be c0ee 673e 0a75 113e 5c87 8e3e
00000230: 43b2 d43d 25b4 f5bb fe90 d13a 6e60 75bf
00000240: 2dce 833d 330b 37bf d1ce 12bd 6d37 33bd
00000250: d7f4 5d3d 7f2f 193f 6f62 f23d 2f7a a03d
00000260: 8540 29be 5c26 a3bd 2084 403e 0b44 17bc
00000270: a3c8 673e f9ee 05bf b814 fb3d 60b2 54bd
00000280: da72 4c3e 8bcf d73e d715 28be 17da 6abe
00000290: 1f55 3b3e 8380 243e e032 433e 726d 003e
000002a0: 829a cd3e 5920 983e 6ac4 dabd 1a7f 7ebc
000002b0: 69c2 b73d 14b2 ebbd a3ea 1cbe a5ab 893e
000002c0: 9322 c9bb e43c a8be 9406 533e 5195 a73d
000002d0: 6e54 12be f715 8e3d ad94 e03c 847a 0dbd
000002e0: 605e acbc f68f 943e 41f4 463e 85c8 07bb
000002f0: afe3 bcbe 4d8d f53d 2a61 73be 6476 0abd
00000300: ab3d ecbe 17b0 883e 7735 30be d8e0 13be
00000310: fb97 463e 9446 e2bd f080 e2bd 66ab 83bc
00000320: 4f71 833d 914d 1fbe 6baa 67bd 790c 653d
00000330: 7bb8 923e eb28 363d 2508 853d 8053 47be
00000340: 6ce0 14be bd4c 033e 9f07 cfbd 8ea3 b8bc
00000350: c25d d1bc c1f4 4ebe 0956 e5bd 3b29 913d
00000360: 6664 81bd 8010 fe3e 3e57 893e 9dd4 95be
00000370: 1124 fbbd bde0 b63d 4b89 4f3e 95b6 45bd
00000380: cf42 f93c 9e49 543b 4482 6bbc 3130 99bd
00000390: 7c49 5d3e 0dc6 b03d 4f64 863e 4705 d3bd
000003a0: 6736 21be 5052 363d eef3 8abd d0e3 fbbe
000003b0: 325b 0d3e 2ed5 5cbe c1c2 57be bf38 d73d
000003c0: 84fa 29bd 7411 d0bd 0f1e 523d c414 d5bc
000003d0: 5d80 3d3e 872e 02bf 73a8 2dbe 3df4 30be
000003e0: 9320 25bc 281b dcbd a0e0 363e 9086 c23d
000003f0: 5c8c dcbd c89e 5abd 640c 5fbd b77d d5bd

fc2.bias f4 [128]
-0.6260741 -0.70399284 -0.31298533 -0.6213825 0.17777775 -0.5143935 -0.31778616 -0.69626385
-0.77611893 -1.1959698 -0.5533839 -0.59943926 -0.61876214 -0.51301444 -0.7687319 -0.89972043
-0.84822625 -0.7388805 -0.86582863 -1.2709303 -0.8606513 -0.8786696 -0.8906651 -0.7288497
-0.51155984 -0.6264396 -0.3440972 -0.38125372 -0.547958 -0.8179361 -0.7256693 -0.74828607
-0.85151774 -1.1118431 -0.7091178 -0.5652376 -0.74202186 -0.57912564 -0.8826579 -0.87683374
-0.6560956 -0.7968289 -0.6407184 -0.54796284 -0.7891014 -1.1555709 -0.65589744 -0.276328
-0.4614423 -1.160552 -0.67109454 -0.58337957 -0.610059 -1.0892907 -0.60651326 -0.4852097
-0.34947738 -0.47940275 -0.7425822 -0.6545478 -0.560629 -0.6594766 -0.96171296 -1.1169975
-0.8191324 -0.5967705 -0.6434465 -0.76507276 -0.67641914 -0.613249 -0.57320595 -0.6471132
-0.90030855 -0.7837324 -1.0448096 -0.67326784 -0.8177389 -1.5953202 -0.77240384 -1.1565808
-0.86290425 -1.0273912 -0.90107 -0.6977631 -1.1535488 -0.7726164 -0.74788016 -0.6535723
-0.80732167 -0.85616624 -0.7241876 -1.0493075 0.14738381 -0.9501059 -1.4349242 -0.49468973
-1.0453393 -0.8933649 -0.63164425 -0.8301749 -0.7378653 -0.551048 -1.0941133 -0.5631164
-0.67900735 -0.6233132 -0.99091315 -0.82713205 -0.7676517 -0.76126397 -0.40714404 -0.7645375
-0.92156184 -1.0622169 -0.80347663 -0.85177284 -1.1862003 -0.8485157 -1.0320512 -1.2304411
-1.0667701 -0.83948773 -0.5746029 -0.52020276 -0.61055833 -0.84452194 -0.8534745 -0.8171928
00000000: 6446 20bf e038 34bf 9d3f a0be ec12 1fbf
00000010: 5f0b 363e 4baf 03bf deb4 a2be 593e 32bf
00000020: bbaf 46bf 8a15 99bf 91aa 0dbf da74 19bf
00000030: 3267 1ebf ea54 03bf 9dcb 44bf 1454 66bf
00000040: 5b25 59bf 4627 3dbf f2a6 5dbf d8ad a2bf
00000050: a553 5cbf 7ef0 60bf a102 64bf e595 3abf
00000060: 96f5 02bf 585e 20bf 822d b0be b033 c3be
00000070: fa46 0cbf 4364 51bf 77c5 39bf ad8f 3fbf
00000080: 11fd 59bf e050 8ebf bf88 35bf 69b3 10bf
00000090: 25f5 3dbf 9441 14bf def5 61bf 2d78 60bf
000000a0: e2f5 27bf fbfc 4bbf 1f06 24bf 4b47 0cbf
000000b0: 8d02 4abf bfe9 93bf e5e8 27bf dd7a 8dbe
000000c0: 2a42 ecbe f88c 94bf dacc 2bbf 5d58 15bf
000000d0: d42c 1cbf e16d 8bbf 7444 1bbf 686d f8be
000000e0: b3ee b2be 4774 f5be de19 3ebf 7290 27bf
000000f0: 6285 0fbf 75d3 28bf d232 76bf c6f9 8ebf
00000100: a9b2 51bf f4c5 18bf e9b8 24bf cfdb 43bf
00000110: ce29 2dbf e3fd 1cbf a0bd 12bf 36a9 25bf
00000120: 9f7a 66bf b0a2 48bf 52bc 85bf 485b 2cbf
00000130: 5657 51bf 7433 ccbf 42bc 45bf d70a 94bf
00000140: 4be7 5cbf 8e81 83bf 86ac 66bf 9aa0 32bf
00000150: 7da7 93bf 30ca 45bf 1375 3fbf 8450 27bf
00000160: a2ac 4ebf b62d 5bbf 5c64 39bf b54f 86bf
00000170: c8eb 163e 243a 73bf 99ab b7bf f947 fdbe
00000180: aecd 85bf 90b3 64bf 70b3 21bf 5886 54bf
00000190: bee4 3cbf 7b11 0dbf e80b 8cbf 6528 10bf
000001a0: 6dd3 2dbf 7491 1fbf 7cac 7dbf edbe 53bf
000001b0: d284 44bf 32e2 42bf 2f75 d0be bbb8 43bf
000001c0: 7aeb 6bbf b9f6 87bf a5b0 4dbf c90d 5abf
000001d0: 69d5 97bf 5338 59bf 411a 84bf 187f 9dbf
000001e0: ec8b 88bf abe8 56bf 2d19 13bf 022c 05bf
000001f0: 8d4d 1cbf 9732 58bf 4e7d 5abf 8c33 51bf

fc3.weight f4 [1, 128]
0.033375155 -0.016792504 -0.07554066 -0.06504355 0.057888314 -0.118968576 -0.044548243 0.11211784
0.05018297 -0.07465212 0.14981088 0.034456555 0.06306711 0.18080074 -0.07788829 0.06748254
0.12686609 -0.046558294 0.075224824 0.10268099 0.09685861 -0.0017537235 0.00353699 -0.00088092807
-7.3417476e-05 0.003929991 0.06339911 -0.051253717 -0.08869845 -0.03477493 -0.12803914 0.06576206
0.035332132 -0.051078435 -0.15964824 0.085558906 0.08606497 -0.037872694 -0.054460693 -0.04811722
-0.0013825493 -0.04876027 0.081896916 0.053047705 0.009634484 -0.021413121 -0.013464901 -0.014985139
0.13423412 -0.07945908 0.0052892445 0.030160548 0.067636386 -0.035457958 -0.15114771 -0.06202192
0.09184602 -0.077486224 0.06491223 0.023704818 0.035203744 0.023661647 -0.009178455 0.050889924
-0.09953417 0.032858007 -0.11954956 -0.05098431 0.031686142 0.060251754 0.096950695 -0.017969588
0.0176744 0.09903975 0.075708136 0.036343914 -0.04735932 -0.07115732 0.010110756 -0.08545425
-0.045126356 0.012822287 -0.016281001 -0.05544996 0.089625336 0.0917443 -0.095133804 -0.07960989
0.06499956 0.03143895 0.012551241 0.0063536195 -0.041345857 -0.066505395 -0.098677605 -0.05793986
-0.09830061 0.03546703 -0.028020209 0.13072419 -0.042976253 0.11492447 0.0844167 -0.08949843
0.08735038 0.11901598 0.06862526 0.04979641 0.07086162 0.03677803 -0.046889443 -0.020664778
-0.04010601 0.07603678 0.073931776 0.065359265 -0.045403074 -0.03575149 -0.011331967 -0.023895849
-0.0696746 -0.02398508 0.07554357 -0.02046092 -0.033734802 0.088102475 -0.048869446 -0.03537682
00000000: 63b4 083d 6f90 89bc 10b5 9abd 8e35 85bd
00000010: 4c1c 6d3d cca5 f3bd 3878 36bd 0a9e e53d
00000020: a88c 4d3d 36e3 98bd 0668 193e 5122 0d3d
00000030: 5429 813d d423 393e e583 9fbd 4934 8a3d
00000040: 2fe9 013e e9b3 3ebd 790f 9a3d 694a d23d
00000050: cf5d c63d 32dd e5ba d8cc 673b 15ee 66ba
00000060: b5f7 99b8 27c7 803b 65d7 813d 6bef 51bd
00000070: 88a7 b5bd 2870 0ebd b11c 03be 42ae 863d
00000080: 6db8 103d 9f37 51bd d47a 23be 8239 af3d
00000090: d542 b03d 6620 1bbd 2d12 5fbd 9016 45bd
000000a0: a836 b5ba d9b8 47bd 92b9 a73d 8d48 593d
000000b0: f4d9 1d3c 926a afbc e39b 5cbc 3a84 75bc
000000c0: ab74 093e 71bb a2bd 6651 ad3b 4113 f73c
000000d0: f284 8a3d 5d3c 11bd 77c6 1abe b20a 7ebd
000000e0: c419 bc3d 19b1 9ebd b4f0 843d 9b30 c23c
000000f0: cd31 103d 12d6 c13c 3b61 16bc f471 503d
00000100: 92d8 cbbd 1e96 063d 66d6 f4bd edd4 50bd
00000110: 54c9 013d 8bca 763d 168e c63d f534 93bc
00000120: e7c9 903c 5ad5 ca3d de0c 9b3d 5bdd 143d
00000130: d9fb 41bd eeba 91bd 96a7 253c a302 afbd
00000140: 6ad6 38bd 9214 523c bc5f 85bc 7f1f 63bd
00000150: 7d8d b73d 70e4 bb3d 83d5 c2bd 830a a3bd
00000160: 7d1e 853d 21c6 003d b8a3 4d3c 0632 d03b
00000170: 465a 29bd fb33 88bd 7c17 cabd 5952 6dbd
00000180: d551 c9bd e045 113d a38a e5bc 90dc 053e
00000190: de07 30bd 855d eb3d aae2 ac3d f44a b7bd
000001a0: c2e4 b23d a6be f33d 668b 8c3d 52f7 4b3d
000001b0: e61f 913d 8fa4 163d 250f 40bd 2e49 a9bc
000001c0: 3346 24bd 2cb9 9b3d 8b69 973d 14db 853d
000001d0: 93f8 39bd 2870 12bd b7a9 39bc 3ac1 c3bc
000001e0: 8fb1 8ebd 5c7c c4bc 96b6 9a3d a99d a7bc
000001f0: 812d 0abd 126f b43d 542b 48bd 49e7 10bd

bn1.weight f4 [128]
0.27336174 0.16796339 0.015306771 0.00391776 0.15019281 0.41404903 -0.029909667 -0.0072707823
0.033039156 -0.00044148724 -0.2237709 0.0029025716 0.0047031627 -0.009774676 -0.0004812361 -0.28068334
0.25367928 -0.12764804 0.12273602 0.3053032 -0.03926877 -0.00078672287 0.01687862 0.38709047
0.6303151 -0.0054558152 0.32914683 -0.06580749 -0.013870867 0.3275178 -0.027636288 0.009138609
0.00029551453 0.0053950045 -0.0002153723 0.07662408 -0.01902261 -0.06719557 -0.011843745 0.006958231
0.24454528 -0.008318632 -0.06779626 0.17344414 -0.0021855314 0.20189269 0.36215168 -0.022444807
0.27623314 0.0056191767 -0.009221282 0.20916173 -0.021065095 0.011647222 0.26064453 -0.019866599
-0.006979569 -0.0074128476 0.17447384 -0.086205356 -0.21920076 0.18898633 0.43139815 0.19160749
0.007933261 0.028820632 0.006122728 0.074246466 0.19844888 -0.020037176 0.25523174 0.056521177
-0.15984108 0.012278681 0.0067377966 1.3398113 0.0075241523 1.0781457 0.03058896 -0.12499123
0.28368786 -0.018913466 -0.0019368896 -0.02169476 -0.020484846 0.020805322 0.39602262 -0.043414257
0.3695889 0.013536945 -0.018647663 -0.0052631297 0.23313902 -0.0041178083 0.22747032 0.3637567
-0.0033427244 0.019083085 0.6344227 -0.0062711625 0.3553769 -0.65170723 0.56887454 0.011094519
0.7054093 0.0029184823 0.29284132 0.19223136 -0.01484392 -0.26301488 0.0008756324 0.17262399
0.0037341677 -0.0030245618 0.38856703 0.01031017 0.17683922 0.6553395 0.1812079 -0.038344223
0.33642703 0.3524872 0.010904257 0.06505711 0.0016867687 0.010166335 0.023977792 0.44952595
00000000: 12f6 8b3e 98fe 2b3e 40c9 7a3c 8e60 803b
00000010: 25cc 193e 3cfe d33e 1e05 f5bc be3f eebb
00000020: 1154 073d 6a77 e7b9 3324 65be 1239 3e3b
00000030: fd1c 9a3b f625 20bc 6a4e fcb9 bab5 8fbe
00000040: 40e2 813e 2bb6 02be 065d fb3d b350 9c3e
00000050: 4ad8 20bd 143c 4eba 0845 8a3c b930 c63e
00000060: 555c 213f b2c6 b2bb ef85 a83e 14c6 86bd
00000070: a242 63bc 6ab0 a73e 7f65 e2bc 1bba 153c
00000080: 4aef 9a39 94c8 b03b 90d5 61b9 16ed 9c3d
00000090: 4ed5 9bbc d59d 89bd 440c 42bc df01 e43b
000000a0: 146a 7a3e df4a 08bc c4d8 8abd 579b 313e
000000b0: 223b 0fbb f5bc 4e3e f26b b93e 2cde b7bc
000000c0: 6e6e 8d3e 1221 b83b dc14 17bc 7e2e 563e
000000d0: b590 acbc fdd3 3e3c 3373 853e 47bf a2bc
000000e0: deb4 e4bb 79e7 f2bb 45a9 323e 6f8c b0bd
000000f0: 2a76 60be a285 413e 38e0 dc3e c134 443e
00000100: 82fa 013c 3f19 ec3c 2aa1 c83b 880e 983d
00000110: 2f36 4b3e 0125 a4bc bcad 823e c082 673d
00000120: 61ad 23be 852c 493c bcc8 dc3b f07e ab3f
00000130: 2a8d f63b ae00 8a3f b395 fa3c 67fb ffbd
00000140: 893f 913e 6af0 9abc 3bdf fdba 36b9 b1bc
00000150: d6cf a7bc ec6f aa3c 7ac3 ca3e 26d3 31bd
00000160: c23a bd3e 10ca 5d3c fcc2 98bc 5576 acbb
00000170: ffbb 6e3e aeee 86bb fbed 683e 513e ba3e
00000180: 9c11 5bbb 2154 9c3c 8769 223f 537e cdbb
00000190: f6f3 b53e 49d6 26bf c3a1 113f c9c5 353c
000001a0: b495 343f 0244 3f3b 4cef 953e 4cd8 443e
000001b0: ea33 73bc e3a9 86be b28a 653a 58c4 303e
000001c0: f0b8 743b ba37 46bb 42f2 c63e fdeb 283c
000001d0: 5715 353e 54c4 273f 908e 393e d50e 1dbd
000001e0: 2a40 ac3e 3479 b43e c5a7 323c a93c 853d
000001f0: 9116 dd3a b390 263c 136d c43c 4428 e63e

bn1.bias f4 [128]
0.08165428 0.28633776 0.000679853 0.0033212814 0.027953694 0.28690898 -0.0048799315 -0.002041372
0.004641029 0.0029596689 -0.01356305 -8.864953e-05 -0.0025158771 0.001296446 0.0023364462 0.30878854
-0.039225336 0.35383937 0.0009591275 0.051878624 -0.0050177067 0.00015553765 0.0017182728 0.28718027
0.29567754 -0.004976706 -0.055005006 0.0010868543 -0.0024758352 0.19169708 0.014158958 -0.0037175668
0.0010048545 -0.0013924742 0.0134296585 -0.0018509323 -0.0013058094 -0.0025683295 0.0024249088 0.011512867
0.01799436 -0.0045390516 0.0042471727 0.006585019 -0.00089185784 0.018603802 0.07347613 0.0056390516
0.08853226 0.00054133584 -0.0011146158 0.020066213 -0.00055960566 0.0055094133 -0.0032703087 0.002466086
-0.0018732904 -0.0009344146 -0.009707613 0.011785336 -0.030384617 0.00953248 0.19860046 -0.050870206
-0.0038371938 0.0022381328 -8.589303e-05 0.0027222298 -0.095279895 -0.003678943 -0.0054437867 0.004273241
-0.005513028 0.002252898 -0.0020575682 0.4881521 0.00051433267 0.5055024 -0.006465342 -0.0050830925
-0.03326723 0.0018245095 -0.00071380247 -0.0021900455 -0.0052700853 0.0030353372 0.11595691 -0.002767475
0.013696206 -0.0039773006 -0.004071614 -0.0012700589 -0.08733518 -0.0024579405 0.040789597 0.090705626
-0.0017725576 -0.0022104008 0.1454064 -0.006312559 0.029040698 -0.090813145 -0.060239945 0.0027829178
0.07808336 -0.00093515485 0.03597407 0.055737 -0.00017783412 -0.051751576 0.0013658388 -0.030576024
0.0032592684 -0.00032665307 0.031552285 -0.008659153 -0.0132543845 0.30411938 -0.05609623 -0.0011026894
0.12697455 0.045134496 0.0016752747 -0.0029267177 0.00048814935 -0.00083289965 -0.0031573088 0.018959988
00000000: 5c3a a73d dd9a 923e 2a38 323a dba9 593b
00000010: 25ff e43c bce5 923e d5e7 9fbb 8ac8 05bb
00000020: c613 983b 01f7 413b 8e37 5ebc 5be9 b9b8
00000030: 6ae1 24bb 82ed a93a 101f 193b 8819 9e3e
00000040: bfaa 20bd 6f2a b53e f56d 7b3a ae7e 543d
00000050: 936b a4bb d217 2339 ab37 e13a 4b09 933e
00000060: 0c63 973e a313 a3bb ee4c 61bd c774 8e3a
00000070: 9f41 22bb 3d4c 443e f9fa 673c 6ca2 73bb
00000080: 52b5 833a ae83 b6ba 1208 5c3c fb9a f2ba
00000090: b127 abba 6b51 28bb 38eb 1e3b 77a0 3c3c
000000a0: e868 933c 53bc 94bb de2b 8b3b 25c7 d73b
000000b0: 91cb 69ba 0067 983c a77a 963d cbc7 b83b
000000c0: 6750 b53d 6fe8 0d3a 4d18 92ba e661 a43c
000000d0: 80b2 12ba 4f88 b43b ad52 56bb 0f9e 213b
000000e0: 3289 f5ba 81f3 74ba ae0c 1fbc 4817 413c
000000f0: 29e9 f8bc 1e2e 1c3c eb5d 4b3e 475d 50bd
00000100: 6e79 7bbb a3ad 123b 7821 b4b8 7067 323b
00000110: 1b22 c3bd 6c1a 71bb cb61 b2bb 8b06 8c3b
00000120: a1a6 b4bb 5ba5 133b 44d8 06bb 12ef f93e
00000130: 48d4 063a 9b68 013f 38db d3bb 1290 a6bb
00000140: 3843 08bd 6124 ef3a 791e 3bba de86 0fbb
00000150: aeb0 acbb 82ec 463b d17a ed3d 875e 35bb
00000160: 0d66 603c 0454 82bb 2c6b 85bb 1b78 a6ba
00000170: c9dc b2bd 6615 21bb fe12 273d dfc3 b93d
00000180: 2a55 e8ba 5fdc 10bb 6ae5 143e 95d9 cebb
00000190: c2e6 ed3c 3efc b9bd 29be 76bd 9d61 363b
000001a0: 2bea 9f3d 2e25 75ba 8c59 133d 7b4c 643d
000001b0: fc78 3ab9 76f9 53bd f205 b33a 927a fabc
000001c0: 7399 553b a242 abb9 f83c 013d 1fdf 0dbc
000001d0: eb28 59bc 89b5 9b3e 29c5 65bd 1e88 90ba
000001e0: 9e05 023e f3de 383d e494 db3a 2dce 3fbb
000001f0: 4cee ff39 f356 5aba daea 4ebb fa51 9b3c

bn1.running_mean f4 [128]
4.4175134 3.440354 0.16629364 0.92715573 5.729224 31.26223 4.1753 0.28464398
1.5427676 1.065985 1.0225759 3.309213 0.3218145 0.58023196 0.67562896 21.0348
2.4581037 9.108156 1.8991662 2.3221953 6.0428605 2.9813797 5.961067 9.609132
14.389879 0.9127483 1.9488541 6e-45 4.720478 3.5058613 0.26941222 0.5587215
2.7968733 0.018081252 5.9576263 2.492287 0.7115222 2.9975998 0.90362537 1.4128693
1.6929384 0.6180792 0.0005947545 4.7219276 6.6206017 15.791825 2.4097564 0.26788422
11.525415 2.7265496 2.1379373 0.9883366 2.666813 1.3059295 23.670061 0.001554701
0.2943229 0.20503893 2.5662484 0.20777011 0.9371434 1.6008779 6.4532294 4.3635445
1.2618147 0.00554766 0.29875433 9.912374e-13 26.899504 1.8185275 1.5961868 3.950309
1.3188843 0.18265507 41.583374 37.308075 34.152126 21.85286 0.742929 2.303005
4.6636095 1.3293346 16.364767 32.719707 2.0575316 1.1887413 5.375768 1.1400591
1.4850578 0.004570406 1.5094317 0.28258497 4.2515783 0.24928841 5.939071 0.5369139
0.07401178 0.07206215 2.137384 0.07752479 19.089169 1.6934798 0.83800817 1.7646891
1.5188426 0.005544042 2.8076072 3.9924824 6.0421796 1.8009769 1.7667335 3.784314
3.6778793 3.6415572 6.0441165 2.8722794 22.303377 5.292354 6.026787 0.014736079
1.1090741 3.3199408 0.69306654 0.27504924 2.310825 2.2395663 0.09985474 1.1234508
00000000: 455c 8d40 c32e 5c40 e148 2a3e 145a 6d3f
00000010: ce55 b740 0c19 fa41 0f9c 8540 dbbc 913e
00000020: 6979 c53f 3272 883f c4e3 823f 25ca 5340
00000030: dfc4 a43e 158a 143f 05f6 2c3f 4547 a841
00000040: 9251 1d40 02bb 1141 e117 f33f d99e 1440
00000050: 1d5f c140 edce 3e40 10c1 be40 01bf 1941
00000060: f23c 6641 dfa9 693f 0d74 f93f 0400 0000
00000070: 280e 9740 0860 6040 66f0 893e 5f08 0f3f
00000080: f9ff 3240 221f 943c e0a4 be40 a181 1f40
00000090: 5226 363f add8 3f40 fe53 673f e7d8 b43f
000000a0: 35b2 d83f 703a 1e3f 4de9 1b3a 081a 9740
000000b0: f8db d340 51ab 7c41 7339 1a40 1f28 893e
000000c0: 1a68 3841 ca7f 2e40 f7d3 0840 a103 7d3f
000000d0: 10ad 2a40 b328 a73f 495c bd41 1cc7 cb3a
000000e0: 7eb1 963e baf5 513e 6a3d 2440 b0c1 543e
000000f0: a1e8 6f3f 91e9 cc3f db80 ce40 28a2 8b40
00000100: 2583 a13f 25c9 b53b 54f6 983e 1781 8b2b
00000110: 2f32 d741 82c5 e83f d94f cc3f ddd1 7c40
00000120: 33d1 a83f ee09 3b3e 6055 2642 783b 1542
00000130: c79b 0842 a8d2 ae41 9830 3e3f 6f64 1340
00000140: 4a3c 9540 a327 aa3f 0beb 8241 fbe0 0242
00000150: 99ae 0340 ad28 983f 4b06 ac40 75ed 913f
00000160: 6016 be3f 58c3 953b 0f35 c13f faae 903e
00000170: ee0c 8840 7645 7f3e df0c be40 3073 093f
00000180: 7d93 973d 5295 933d e6ca 0840 51c5 9e3d
00000190: 9eb6 9841 f2c3 d83f b487 563f 55e1 e13f
000001a0: 6f69 c23f ccaa b53b d6af 3340 d584 7f40
000001b0: 8959 c140 6986 e63f 5324 e23f 3332 7240
000001c0: 6062 6b40 460f 6940 6769 c140 6dd3 3740
000001d0: 516d b241 f75a a940 70db c040 986f 713c
000001e0: 24f6 8d3f e979 5440 cf6c 313f 41d3 8c3e
000001f0: 8fe4 1340 0e55 0f40 a480 cc3d 3ccd 8f3f

bn1.running_var f4 [128]
90.73999 124.88332 2.731642 21.216272 228.05632 399.7514 152.14954 4.562964
37.364166 13.804017 24.067492 93.07303 3.1669939 13.207937 16.91309 655.1398
24.42822 246.76756 54.06346 44.691715 261.5673 106.60975 225.15866 150.6136
290.98203 22.421041 31.084023 6e-45 152.83655 19.694363 4.306697 10.939084
63.522324 0.16446981 89.71034 62.85705 15.101708 108.95544 14.457168 28.893003
26.960592 11.627698 0.002986748 100.80275 145.17647 252.30798 73.89587 4.279477
228.25974 87.23058 55.11538 10.790439 85.141495 30.383217 643.33234 0.00618756
4.3735065 1.9759098 39.562122 3.1885328 18.60093 30.469816 148.73618 72.64789
40.912746 0.027146615 4.711751 3.3631839e-12 809.3926 57.447212 31.51455 141.52968
29.011583 2.5901415 529.91986 2158.9524 661.84625 790.47424 18.068064 55.20855
145.84457 39.389835 369.65735 518.9652 55.074482 19.432505 105.10795 27.681839
42.402496 0.04122711 39.14997 6.7288623 124.850204 3.5241475 94.78753 6.1840153
0.9651108 0.84718865 62.14253 0.52500945 317.5637 53.516434 6.3014445 68.32795
42.65862 0.06902976 63.61391 189.72112 270.4124 26.13997 44.88448 43.93587
172.70282 176.02031 118.18347 115.5372 313.92627 48.440002 136.22437 0.07071858
19.101353 34.789658 16.619186 4.72782 37.017063 57.92043 1.9585013 23.051773
00000000: e07a b542 43c4 f942 39d3 2e40 edba a941
00000010: 6b0e 6443 2ee0 c743 4826 1843 cd03 9240
00000020: e874 1542 41dd 5c41 398a c041 6425 ba42
00000030: 07b0 4a40 b653 5341 024e 8741 f2c8 2344
00000040: ff6c c341 7fc4 7643 fc40 5842 51c4 3242
00000050: 9dc8 8243 3138 d542 9e28 6143 159d 1643
00000060: b37d 9143 4b5e b341 14ac f841 0400 0000
00000070: 28d6 1843 0e8e 9d41 76d0 8940 7d06 2f41
00000080: dc16 7e42 c66a 283e b26b b342 9f6d 7b42
00000090: 99a0 7141 2fe9 d942 8f50 6741 df24 e741
000000a0: 4baf d741 0d0b 3a41 51bd 433b 029b c942
000000b0: 2d2d 1143 d84e 7c43 afca 9342 7af1 8840
000000c0: 7e42 6443 0f76 ae42 2676 5c42 a3a5 2c41
000000d0: 7248 aa42 d410 f341 45d5 2044 04c1 ca3b
000000e0: c4f3 8b40 9dea fc3f 9d3f 1e42 ec10 4c40
000000f0: b4ce 9441 2fc2 f341 76bc 1443 b84b 9142
00000100: a7a6 2342 9462 de3c aac6 9640 bca9 6c2c
00000110: 2059 4a44 f2c9 6542 cc1d fc41 9987 0d43
00000120: b917 e841 e1c4 2540 df7a 0444 3def 0645
00000130: 2976 2544 5a9e 4544 658b 9041 8ed5 5c42
00000140: 36d8 1143 318f 1d42 24d4 b843 c6bd 0144
00000150: 454c 5c42 c575 9b41 4537 d242 6874 dd41
00000160: 289c 2942 c2dd 283d 9299 1c42 d752 d740
00000170: 4eb3 f942 a28b 6140 3793 bd42 74e3 c540
00000180: 8011 773f 5be1 583f f391 7842 0567 063f
00000190: 27c8 9e43 d410 5642 6fa5 c940 e9a7 8842
000001a0: 6da2 2a42 7a5f 8d3d a574 7e42 9bb8 3d43
000001b0: ca34 8743 a91e d141 b589 3342 55be 2f42
000001c0: ecb3 2c43 3305 3043 f05d ec42 0c13 e742
000001d0: 90f6 9c43 90c2 4142 7039 0843 e7d4 903d
000001e0: 92cf 9841 9c28 0b42 18f4 8441 4d4a 9740
000001f0: 7911 1442 85ae 6742 2cb0 fa3f 086a b841
