Weights/checkpoint_Actor.pth (torch_old, 83368 bytes, 10 tensors)

fc1.weight f4 [128, 24]
-0.011229789 0.04874626 0.055889387 0.03379607 -0.055364985 -0.15344064 -0.060915835 -0.056869417
0.13006929 0.17316782 0.009516654 -0.07078222 0.024462968 -0.005791138 0.0011090533 -0.07419815
0.058155894 0.09844774 -0.010709667 -0.059588723 0.10931023 -0.040038742 -0.01699097 0.07835474
-0.07143589 0.023364976 0.0040388815 0.028372368 -0.0767413 0.053978994 0.058493864 -0.015945924
0.048460968 0.040925264 0.01451612 0.0423297 0.038154453 -0.06132519 0.07409166 -0.08675155
-0.063537866 0.17999019 -0.013134703 -0.01541397 -0.027934585 -0.16084604 -0.055927783 -0.019293537
-0.07310948 -0.101671375 0.13530074 -0.0030280377 -0.03515042 0.037158813 -0.03612874 -0.06700874
-0.008752021 -0.0005134919 -0.0636831 0.02692445 0.018440384 -0.069862016 -0.07153251 0.065711334
0.028080294 -0.06655783 -0.103789024 -0.037678342 -0.026363289 -0.053851012 0.03174979 0.078646384
-0.00387378 0.01160905 -0.004970128 -0.094661735 0.004106888 0.06593476 0.050534885 -0.10885232
-0.08448729 -0.035558708 0.066803485 -0.09696887 -0.025114942 -0.03651763 0.004902933 -0.021139964
0.019583479 0.01695788 0.08019618 0.021730531 0.03756872 -0.10116456 -0.018244889 0.028205056
-0.02770313 0.03782432 -0.027492005 -0.04153954 -0.07113164 -0.15046069 0.0074710404 0.019552346
0.006343973 -0.020983594 -0.04466675 0.0015815187 -0.033379536 -0.08154907 0.047981765 0.0946482
0.03260261 0.10771524 0.047209755 0.035664976 -0.09835306 -0.040197883 -0.05366014 0.03953124
-0.037065107 0.024118641 -0.060700256 0.11657957 -0.042943515 -0.0023785955 -0.013110457 0.08185048
-0.07870621 0.069811955 0.009673645 -0.06047334 0.1138059 -0.029264838 -0.025659444 0.07604961
-0.00085284014 0.0074480586 -0.025297064 -0.061070643 0.11917565 -0.112943634 -0.059863575 0.010188127
0.019278029 -0.038377635 -0.028904228 0.048107594 0.04820717 0.07437254 0.014651787 0.025844557
0.057814244 -0.10415926 0.010240114 0.008473172 -0.00610427 0.11811102 0.026931832 -0.03291156
0.013571925 -0.064218245 -0.0048726546 0.028746909 -0.18703227 -0.011242682 0.025638895 -0.042038955
0.058825646 -0.16265368 -0.024754763 0.10906585 -0.060498632 -0.072321564 0.033935282 0.010228596
0.10341039 -0.21026155 -0.043626375 0.050632298 -0.044039402 0.038860887 0.027785249 -0.01030505
0.046946075 -0.057500593 0.06409307 -0.023407152 0.10537285 -0.026701724 -0.044259444 0.010872554
-0.060142584 0.019863054 0.0840819 0.05332447 -0.017388973 -0.11632409 0.033763893 -0.066574074
-0.053770617 -0.009381815 0.08485115 0.04487521 0.1048861 0.017708551 0.059813928 0.03174744
-0.04274037 0.03644149 0.005741152 -0.037771333 0.04323415 0.09200403 0.0014134271 0.028465463
-0.04461765 -0.08010903 0.011244266 -0.009684639 0.044416174 0.121249504 -0.019658165 -0.06255748
0.015150786 0.062260844 0.016983956 0.03491609 -0.084664114 0.037808727 -0.016743349 -0.071550995
0.13164863 0.04398673 -0.08001133 -0.023239449 -0.17710075 -0.1433718 0.06384363 0.047725447
-0.01039318 -0.12101249 -0.026337303 0.031724676 -0.038455863 0.04379367 0.022245355 -0.053425614
0.046346903 -0.15103374 -0.016836114 0.018095372 0.030045034 -0.021526104 0.006808987 0.022461822
00000000: 26fd 37bc 29aa 473d 45ec 643d bf6d 0a3d
00000010: 65c6 62bd 8b1f 1dbe e282 79bd e8ef 68bd
00000020: e230 053e e852 313e bdeb 1b3c 45f6 90bd
00000030: 9066 c83c 96c3 bdbb a75d 913a 33f5 97bd
00000040: e034 6e3d f89e c93d 9977 2fbc 4e13 74bd
00000050: 0bde df3d aaff 23bd a630 8bbc 7378 a03d
00000060: fb4c 92bd e867 bf3c 9858 843b 2b6d e83c
00000070: 8b2a 9dbd 1419 5d3d 4397 6f3d 07a1 82bc
00000080: 027f 463d 40a1 273d 05d5 6d3c e861 2d3d
00000090: d847 1c3d 1f30 7bbd 5ebd 973d ccaa b1bd
000000a0: 2420 82bd 594f 383e f032 57bc e08a 7cbc
000000b0: 12d7 e4bc d3b4 24be 8814 65bd 7b0d 9ebc
000000c0: 6cba 95bd 1539 d0bd 478c 0a3e 0b72 46bb
000000d0: e3f9 0fbd d733 183d bbfb 13bd e13b 89bd
000000e0: a364 0fbc dc9b 06ba 496c 82bd aa90 dc3c
000000f0: 4a10 973c d113 8fbd a37f 92bd aa93 863d
00000100: a508 e63c 794f 88bd 578f d4bd 9b54 1abd
00000110: d3f7 d7bc e192 5cbd 110c 023d 5b11 a13d
00000120: 3edf 7dbb e333 3e3c 75dc a2bb 03de c1bd
00000130: 1393 863b ce08 873d abfd 4e3d f7ed debd
00000140: ac07 adbd 02a6 11bd 44d0 883d 9d97 c6bd
00000150: dabd cdbc 8393 15bd c8a8 a03b b82d adbc
00000160: 886d a03c 41eb 8a3c e53d a43d 3a04 b23c
00000170: a8e1 193d 5d2f cfbd 4e76 95bc 4a0e e73c
00000180: adf1 e2bc aded 1a3d ea36 e1bc 5d25 2abd
00000190: 77ad 91bd 5e12 1abe a1cf f43b 3e2c a03c
000001a0: 1ae1 cf3b c9e5 abbc 7bf4 36bd f64a cf3a
000001b0: fbb8 08bd 3303 a7bd 8788 443d ead6 c13d
000001c0: 508a 053d cf99 dc3d 045f 413d 7015 123d
000001d0: 546d c9bd 89a6 24bd bcca 5bbd 82eb 213d
000001e0: 95d1 17bd 7594 c53c d5a0 78bd 45c1 ee3d
000001f0: 8ae5 2fbd 36e2 1bbb 3ecd 56bc 39a1 a73d
00000200: b930 a1bd 92f9 8e3d 357e 1e3c e5b2 77bd
00000210: 1113 e93d d0bc efbc c133 d2bc e6bf 9b3d
00000220: 2291 5fba d80e f43b ca3b cfbc 3625 7abd
00000230: 5d12 f43d fe4e e7bd 8233 75bd 1aec 263c
00000240: f5ec 9d3c de31 1dbd 8fc8 ecbc 780c 453d
00000250: e274 453d a150 983d 0c0e 703c f7b7 d33c
00000260: a1ce 6c3d 7351 d5bd 27c6 273c 0fd3 0a3c
00000270: 5406 c8bb 31e4 f13d 25a0 dc3c 46ce 06bd
00000280: c85c 5e3c db84 83bd caaa 9fbb a37e eb3c
00000290: 6385 3fbe 3a33 38bc a908 d23c 0a31 2cbd
000002a0: 29f3 703d b08e 26be 80ca cabc eb5d df3d
000002b0: 6acd 77bd 541d 94bd b9ff 0a3d d795 273c
000002c0: d4c8 d33d ce4e 57be 92b1 32bd d063 4f3d
000002d0: a962 34bd 982c 1f3d e49d e33c 83d6 28bc
000002e0: 874a 403d be85 6bbd 3a43 833d 5bc0 bfbc
000002f0: b9cd d73d 93bd dabc 6449 35bd cc22 323c
00000300: 1258 76bd d8b7 a23c 2233 ac3d c26a 5a3d
00000310: 5273 8ebc 533b eebd 024c 0a3d fd57 88bd
00000320: 943e 5cbd 2fb6 19bc 71c6 ad3d 11cf 373d
00000330: 86ce d63d 8611 913c 73ff 743d 9b09 023d
00000340: 8710 2fbd ac43 153d 4620 bc3b 1db6 1abd
00000350: 4b16 313d 9c6c bc3d be42 b93a 6730 e93c
00000360: ffc0 36bd 3410 a4bd df39 383c 52ac 1ebc
00000370: bced 353d a951 f83d 290a a1bc 231e 80bd
00000380: 013b 783c 3a05 7f3d f021 8b3c 2d04 0f3d
00000390: 6164 adbd 53dd 1a3d 5929 89bc 5489 92bd
000003a0: e6ce 063e 6e2b 343d fbdc a3bd a860 bebc
000003b0: e659 35be 0fd0 12be 73c0 823d c27b 433d
000003c0: 2848 2abc 65d5 f7bd 54c1 d7bc bcf1 013d
000003d0: e583 1dbd fe60 333d e43b b63c d1d4 5abd
000003e0: 40d6 3d3d 97a8 1abe e4eb 89bc bf3c 943c
000003f0: 0121 f63c 8357 b0bc ec1d df3b db01 b83c

fc1.bias f4 [128]
0.0028347583 -0.1955412 -0.119948566 0.06385671 -0.1230421 0.095718026 0.12414969 -0.0097158775
0.1632433 0.07271978 -0.3603794 -0.022826046 0.10790822 -0.15547341 0.02013392 0.008616292
0.007896795 -0.09921211 -0.17619622 -0.035448093 -0.086100996 0.041796762 0.044420607 -0.06901125
0.15488365 -0.29456508 -0.24360548 0.25576168 -0.09593693 -0.23487201 -0.092161894 0.2077161
-0.116276845 0.08234541 0.042012177 -0.07662777 -0.022683982 -0.024219424 -0.14688386 -0.1773253
0.10990349 -0.048642598 0.038444526 -0.08365593 -0.22973728 -0.15147048 -0.09860869 -0.17211942
-0.16382486 0.012248023 -0.174158 0.046062317 -0.10234548 -0.23784478 -0.19700499 -0.11131174
-0.18462434 0.17511544 -0.06273661 -0.27661234 -0.10144629 0.16736734 0.11123211 0.0024530282
-0.1448956 -0.18396631 0.08468832 -0.12949568 0.03689465 -0.1436363 0.033686526 -0.039094605
-0.11383208 -0.03859605 0.051677298 -0.18485008 -0.027880212 -0.24294157 0.028024245 -0.06636372
-0.03511273 0.017865324 -0.022016944 0.15014489 0.08553705 0.0377716 0.075276926 -0.11073696
-0.1898744 -0.08426101 0.14548613 0.07283496 -0.1876051 -0.19568723 0.18005244 -0.044799615
-0.20163247 -0.19145869 -0.069098644 -0.04258168 -0.13986665 0.00742064 -0.13193704 -0.0330969
-0.1464071 0.035313167 0.0708829 0.17162065 -0.22032873 -0.055287056 -0.1168896 -0.17962448
0.030796278 -0.054795265 0.07171902 0.025698954 -0.1016363 -0.03772817 -0.05526415 0.1848498
-0.046051614 -0.13390577 -0.25307995 0.12885866 -0.2594248 0.046699002 0.16638473 0.07538636
00000000: 5ac7 393b f43b 48be 98a7 f5bd 4fc7 823d
00000010: 7ffd fbbd d007 c43d 3142 fe3d 582f 1fbc
00000020: 4029 273e 1cee 943d a683 b8be b0fd babc
00000030: fcfe dc3d 6c34 1fbe e4ef a43c 592b 0d3c
00000040: 8f61 013c b82f cbbd c86c 34be 0532 11bd
00000050: b855 b0bd 1533 2b3d 62f2 353d c555 8dbd
00000060: d299 1e3e 3cd1 96be b773 79be 32f3 823e
00000070: 957a c4bd 4a82 70be 60bf bcbd 88b3 543e
00000080: 8e22 eebd b6a4 a83d f614 2c3d 05ef 9cbd
00000090: c2d3 b9bc d067 c6bc b968 16be c394 35be
000000a0: 1515 e13d 763d 47bd 0278 1d3d cd53 abbd
000000b0: 4040 6bbe 141b 1bbe 5af3 c9bd 1340 30be
000000c0: b4c1 27be efab 483c 7a56 32be d7ab 3c3d
000000d0: 829a d1bd 958d 73be adbb 49be 69f7 e3bd
000000e0: 2a0e 3dbe 7651 333e 0d7c 80bd 22a0 8dbe
000000f0: 13c3 cfbd 5862 2b3e a9cd e33d fcc2 203b
00000100: 835f 14be aa61 3cbe 1271 ad3d 849a 04be
00000110: d81e 173d 6515 13be e2fa 093d aa21 20bd
00000120: cb20 e9bd e416 1ebd 93ab 533d 5749 3dbe
00000130: 0b65 e4bc adc5 78be 1a93 e53c b4e9 87bd
00000140: 5ed2 0fbd 4d5a 923c e15c b4bc 95bf 193e
00000150: 0d2e af3d 65b6 1a3d ca2a 9a3d 0fca e2bd
00000160: 6f6e 42be 0991 acbd 51fa 143e 7f2a 953d
00000170: 8d1b 40be 3c62 48be ab5f 383e cd7f 37bd
00000180: be78 4ebe bf0d 44be 9783 8dbd 216a 2ebd
00000190: 3439 0fbe d728 f33b 811a 07be 9d90 07bd
000001a0: beeb 15be 8aa4 103d 0e2b 913d 53bd 2f3e
000001b0: db9d 61be ae74 62bd d163 efbd 7bef 37be
000001c0: 7a48 fc3c 0071 60bd 6ce1 923d 9d86 d23c
000001d0: b126 d0bd db88 1abd a95c 62bd 4449 3d3e
000001e0: 9ea0 3cbd 981e 09be b293 81be 86f3 033e
000001f0: 54d3 84be 7447 3f3d c260 2a3e 2a64 9a3d

fc2.weight f4 [128, 128]
0.11753897 0.08702556 -0.051142547 -0.15808831 0.06406705 -0.0023876342 -0.05495248 -0.04368841
0.0163322 -0.0109424535 -0.1293173 0.08671226 -0.09663543 -0.020247357 -0.12525298 -0.085491635
0.13437672 -0.03662494 0.16921869 -0.019889988 -0.1355026 -0.012793051 -0.06845039 -0.1368296
-0.025485206 -0.22966401 0.038487144 0.11923378 -0.15669951 0.132543 -0.025867244 -0.009354397
-0.06743875 0.015143411 0.014512846 -0.20660372 -0.17047538 -0.33993468 0.22253704 -0.19517943
0.060206313 -0.17107293 0.016163565 -0.11261657 -0.14457287 0.1282031 0.066440485 -0.0338195
-0.078372054 -0.009826821 -0.006784264 0.023796318 0.22125363 0.07083832 0.06372804 0.024007859
-0.13051465 0.11052921 -0.053039562 0.060905177 0.11836242 -0.0031760745 -0.13702564 -0.09768463
-0.025278976 0.07690324 0.13936585 0.1816617 0.048891973 0.04843755 -0.007213194 -0.10135477
-0.011933263 0.02893309 0.025355928 0.07811117 0.07652886 -0.036252372 -0.046083312 0.11046784
-0.09300576 -0.1641885 -0.18123643 -0.12006284 -0.113299444 -0.041782223 0.07204119 -0.0318998
-0.13418686 -0.076874256 0.17620748 0.16874483 -0.18069682 -0.15144716 0.01652919 -0.16498943
0.1731285 -0.12203472 -0.08355385 -0.120349504 0.14119452 0.039609686 0.028486028 0.011369358
0.19433805 -0.019186689 -0.062081896 -0.175431 0.1419082 -0.0035546392 0.022478377 0.03269618
-0.1272115 0.0570109 -0.10336051 -0.0017612707 -0.0048144483 -0.05690463 -0.06677446 -0.16731347
-0.10012875 0.10559041 0.24381717 0.14022255 0.025401073 -0.10227973 0.04415041 -0.114718646
0.060948208 -0.06380709 -0.12479218 -0.0695438 -0.095959544 -0.08888076 0.01891803 -0.14081982
-0.14285491 -0.04720251 -0.12376395 -0.09292634 -0.085773766 -0.1312915 0.12966159 0.10518329
-0.03224628 0.0012959522 -0.27267858 -0.004239825 0.032791723 0.020578666 0.107065655 -0.017963417
0.016654495 0.23443374 0.0917498 -0.17544642 0.052179478 -0.118536316 -0.046372283 -0.020151617
0.032713752 0.02703763 -0.12860037 0.088662215 -0.074885935 0.02646119 0.08449806 -0.029567702
0.07912248 -0.061135173 -0.06655383 0.11171776 -0.113230154 -0.0700481 -0.1206606 0.11130444
-0.14730854 -0.0014853416 0.00649956 0.11944321 -0.027941985 0.050304297 -0.19419499 -0.0031008872
0.1983201 -0.21003994 0.1418724 0.23391308 -0.0976403 0.0018321045 0.066612296 0.045569547
-0.24681039 0.031031376 -0.030849999 -0.086841345 -0.12033697 -0.38628736 -0.03622019 -0.02369883
-0.18408349 0.002505224 -0.15959254 -0.11467274 -0.15147427 -0.13701567 0.04905659 0.11545346
0.14774539 -0.03545391 0.029119436 0.08766918 -0.0757932 0.07676752 0.041299075 -0.006098595
0.09762969 0.18201227 -0.010099629 0.1278484 0.054729998 0.040122733 0.087008275 0.093739666
0.017162241 0.08621486 -0.07093978 0.20514873 -0.0067336382 0.07840909 -0.014537468 -0.044605743
-0.16449061 -0.017915953 0.16835967 0.02042969 -0.123485155 -0.018171528 0.0575355 -0.10544324
-0.024765559 -0.01155679 -0.11849675 -0.010431896 0.060864188 -0.08953426 0.023914428 0.09211599
-0.06553038 0.00174916 -0.124450184 -0.22142474 0.04393823 0.10448097 -0.002552872 -0.057393808
00000000: 46b8 f03d 753a b23d d97a 51bd e7e1 21be
00000010: 9635 833d db79 1cbb da15 61bd 9ef2 32bd
00000020: 1bcb 853c fa47 33bc c16b 04be 3396 b13d
00000030: cce8 c5bd c9dd a5bc 5142 00be 3d16 afbd
00000040: 0d9a 093e 0804 16bd aa47 2d3e 54f0 a2bc
00000050: 32c1 0abe f299 51bc b82f 8cbd 0f1d 0cbe
00000060: 5ac6 d0bc 0b2d 6bbe b2a4 1d3d d730 f43d
00000070: d675 20be 5ab9 073e 8be7 d3bc 2f43 19bc
00000080: 541d 8abd 121c 783c 4ac7 6d3c ed8f 53be
00000090: 1991 2ebe eb0b aebe c0e0 633e 1edd 47be
000000a0: e59a 763d be2d 2fbe 7469 843c 84a3 e6bd
000000b0: e90a 14be ac47 033e f311 883d 5186 0abd
000000c0: 8781 a0bd ad00 21bc 884e debb 7ff0 c23c
000000d0: 5090 623e ae13 913d d983 823d 21ac c43c
000000e0: a2a5 05be 235d e23d 0340 59bd b577 793d
000000f0: ff67 f23d b025 50bb 7350 0cbe e10e c8bd
00000100: db15 cfbc 727f 9d3d ecb5 0e3e 8605 3a3e
00000110: f342 483d 7466 463d a85c ecbb 1793 cfbd
00000120: bc83 43bc 1605 ed3c 3cb7 cf3c c0f8 9f3d
00000130: 2abb 9c3d 5e7d 14bd dbc1 3cbd f73c e23d
00000140: ce79 bebd 0821 28be 0b96 39be 82e3 f5bd
00000150: 8a09 e8bd d623 2bbd 558a 933d 5da9 02bd
00000160: 4868 09be 4070 9dbd bc6f 343e 72cb 2c3e
00000170: 9608 39be f714 1bbe 3968 873c fdf2 28be
00000180: 9948 313e 57ed f9bd 481e abbd cd79 f6bd
00000190: 4c95 103e c43d 223d 885b e93c 8b46 3a3c
000001a0: 8e00 473e 672d 9dbc 9649 7ebd 2fa4 33be
000001b0: 6250 113e f3f4 68bb 9324 b83c 6eec 053d
000001c0: bb43 02be 4384 693d adae d3bd 70da e6ba
000001d0: 85c2 9dbb d414 69bd 0cc1 88bd 3954 2bbe
000001e0: 4d10 cdbd c93f d83d 35ab 793e 8096 0f3e
000001f0: e915 d03c 0978 d1bd 0fd7 343d 9cf1 eabd
00000200: d4a4 793d 4bad 82bd 0b93 ffbd fb6c 8ebd
00000210: 7086 c4bd 1e07 b6bd fcf9 9a3c 1233 10be
00000220: 8f48 12be 6b57 41bd f477 fdbd 2a50 bebd
00000230: 28aa afbd 4771 06be 02c6 043e 566a d73d
00000240: ad14 04bd f1dc a93a 879c 8bbe 3bee 8abb
00000250: 9d50 063d 9794 a83c 3d45 db3d 0428 93bc
00000260: 026f 883c 660f 703e 52e7 bb3d 3aa8 33be
00000270: 26ba 553d 2bc3 f2bd ddf0 3dbd 0115 a5bc
00000280: dbfe 053d 057e dd3c d1af 03be 8994 b53d
00000290: cc5d 99bd 23c5 d83c 520d ad3d f737 f2bc
000002a0: f70a a23d e068 7abd 604d 88bd 48cc e43d
000002b0: 36e5 e7bd 6175 8fbd e81c f7bd 95f3 e33d
000002c0: 0dd8 16be cbaf c2ba 43fa d43b a49e f43d
000002d0: 97e6 e4bc e10b 4e3d 0ddb 46be 4138 4bbb
000002e0: 6d14 4b3e b614 57be 0047 113e e986 6f3e
000002f0: a3f7 c7bd 3a23 f03a 076c 883d 22a7 3a3d
00000300: ddbb 7cbe 8335 fe3c 23b9 fcbc e0d9 b1bd
00000310: 3b73 f6bd 75c7 c5be 9f5b 14bd 0c24 c2bc
00000320: 6280 3cbe af2e 243b 3a6c 23be 8bd9 eabd
00000330: 121c 1bbe d64d 0cbe 90ef 483d dd72 ec3d
00000340: 914a 173e 1e38 11bd e28b ee3c e68b b33d
00000350: 7739 9bbd 4a38 9d3d 3829 293d b9d6 c7bb
00000360: 13f2 c73d 6d61 3a3e ea78 25bc b1ea 023e
00000370: 902c 603d bc57 243d 6531 b23d 95fa bf3d
00000380: d497 8c3c 6b91 b03d e048 91bd 8212 523e
00000390: daa5 dcbb f294 a03d 8f2e 6ebc 83b4 36bd
000003a0: 3a70 28be 7ac4 92bc 7a66 2c3e 2a5c a73c
000003b0: c9e5 fcbd 75dc 94bc 58aa 6b3d a0f2 d7bd
000003c0: 24e1 cabc b158 3dbc 6dae f2bd 8bea 2abc
000003d0: ba4c 793d bd5d b7bd 31e8 c33c 4fa7 bc3d
000003e0: cb34 86bd 1244 e53a bddf febd 2bbd 62be
000003f0: 93f8 333d 1efa d53d 164e 27bb c515 6bbd

fc2.bias f4 [128]
0.18287016 -0.031365447 0.024556708 0.052093938 0.018666713 0.021076642 0.13597485 0.16215613
0.17995301 0.24410686 0.17279121 0.18526684 0.08824899 0.03775933 0.10031294 0.09298289
0.18781105 0.061471432 0.15197413 0.15362157 0.1319372 0.1797836 0.16433838 0.16265148
0.07163784 -0.048844196 0.09205593 0.11406099 0.09207502 0.104117 0.09744292 -0.03818336
0.05892596 0.0681208 0.0062058107 0.07164252 0.17362118 0.111054316 0.1525104 0.15823855
-0.002552059 0.21657781 0.09887474 0.09241106 0.077644475 0.11875457 0.08720127 0.21496214
0.016605467 0.062243935 0.13073817 0.15647958 0.061094664 0.07070643 0.14213769 0.13995954
0.11479651 0.07841825 0.15917136 0.05132422 -0.012911984 0.0628869 0.07060734 0.03383628
0.17178416 0.058841832 0.20810908 0.08754926 0.17473252 0.04859829 -0.032396212 0.13101341
0.15230604 0.042641442 0.21760522 0.05579988 0.12197678 0.038795575 0.15887135 0.07888422
0.2516014 0.08047298 0.111514255 0.0652849 0.13933317 0.086786814 0.054463297 0.1493005
0.056795172 0.039119486 0.18295924 0.1134147 0.22790405 0.25985056 0.021960683 0.11803357
0.07995861 0.18938874 0.17380805 0.20280947 0.057245232 0.13048957 0.054940425 0.12855168
0.104296364 0.13528833 0.0274192 0.114481926 0.10179794 0.20978585 0.01940711 0.06638263
0.0780427 0.1058595 0.038231328 0.11888408 0.10103075 0.15271303 -0.018234594 0.15512456
0.10431176 0.16908462 0.100160584 0.15956093 0.18979685 0.10643389 0.17793359 0.13245544
00000000: 5142 3b3e 0e79 00bd 262b c93c 7460 553d
00000010: efea 983c eca8 ac3c fe3c 0b3e 420c 263e
00000020: 9a45 383e 26f7 793e 2ef0 303e 97b6 3d3e
00000030: e3bb b43d 87a9 1a3d df70 cd3d d06d be3d
00000040: 8a51 403e 78c9 7b3d 1b9f 1b3e f94e 1d3e
00000050: 8c1a 073e 3119 383e 5248 283e 1c8e 263e
00000060: dcb6 923d da10 48bd d287 bc3d cf98 e93d
00000070: d491 bc3d 4b3b d53d 2790 c73d 2866 1cbd
00000080: 595c 713d eb82 8b3d 1d5a cb3b 50b9 923d
00000090: c0c9 313e 7270 e33d b02b 1c3e 4909 223e
000000a0: 7240 27bb 93c6 5d3e d77e ca3d 0342 bd3d
000000b0: 1104 9f3d 9935 f33d 9496 b23d 091f 5c3e
000000c0: 3008 883c 7ff3 7e3d 3ae0 053e 2f3c 203e
000000d0: 663e 7a3d 88ce 903d 8b8c 113e 8e51 0f3e
000000e0: 6f1a eb3d bf99 a03d d1fd 223e 5839 523d
000000f0: c98c 53bc d9ca 803d 959a 903d e997 0a3d
00000100: 30e8 2f3e 2204 713d 8c1a 553e 074d b33d
00000110: 15ed 323e 000f 473d e4b1 04bd 6128 063e
00000120: 1df6 1b3e cba8 2e3d e7d3 5e3e 6a8e 643d
00000130: f6ce f93d 1ce8 1e3d 2caf 223e 0d8e a13d
00000140: e6d1 803e 05cf a43d 9661 e43d 17b4 853d
00000150: 5bad 0e3e 49bd b13d e814 5f3d 3be2 183e
00000160: 0ea2 683d c13b 203d ab59 3b3e f745 e83d
00000170: ae5f 693e 220b 853e e4e6 b33c 96bb f13d
00000180: 57c1 a33d 1fef 413e bdfa 313e 49ad 4f3e
00000190: fa79 6a3d 0f9f 053e 3609 613d 0da3 033e
000001a0: 5599 d53d 0689 0a3e 3b9e e03c 8075 ea3d
000001b0: 707b d03d 1ad2 563e a9fb 9e3c 9ef3 873d
000001c0: dad4 9f3d decc d83d 7498 1c3d 7f79 f33d
000001d0: 36e9 ce3d ce60 1c3e b760 95bc f9d8 1e3e
000001e0: 67a1 d53d 8524 2d3e fe20 cd3d f163 233e
000001f0: 1b5a 423e 03fa d93d 3934 363e 66a2 073e

fc3.weight f4 [2, 128]
0.02501143 -0.21404618 -0.2562353 -0.118037 0.17975378 -0.19035544 -0.14741215 -0.05313312
-0.2839529 0.18547808 0.07230931 0.10915818 0.19279106 -0.11902155 -0.20743647 -0.14768293
0.19024605 -0.16035435 -0.24296293 0.25303212 0.17771597 0.055974044 -0.14018258 0.06302544
0.041712634 -0.118700825 0.24705163 0.25466898 -0.20968604 -0.12224143 -0.027256127 -0.15912557
-0.23916204 -0.16279323 -0.1096375 -0.00016336032 -0.21494174 -0.1003364 0.23348145 0.30855757
-0.14489925 -0.237939 -0.2625324 -0.24853581 0.22211252 0.24858072 -0.07638703 0.067289986
-0.27106315 0.14562322 0.24175364 0.22982024 0.29178733 0.27891114 -0.07257155 0.28219667
-0.2047507 0.09697155 -0.29181015 0.0075736754 -0.11670036 0.19032408 0.16255653 -0.08748472
-0.23219974 -0.10950845 0.14934197 -0.09290009 -0.015117022 -0.12139848 -0.17098795 0.22771572
0.24513718 0.3635591 0.20942762 -0.1374566 -0.2529012 -0.12865174 -0.14203669 0.156236
0.07228958 0.27537006 0.24578992 -0.14367047 0.21139473 -0.23078889 0.21510416 -0.06818237
-0.11829881 0.31917173 0.047033105 0.31250122 -0.19430362 0.034210753 -0.25731963 0.30574936
-0.11964203 -0.17995906 -0.20110922 0.09937338 0.32807615 -0.10155297 -0.121524274 -0.2879798
-0.11350678 -0.13167308 0.25453308 -0.13799818 -0.20097879 0.07199578 -0.229449 -0.10556812
-0.27268052 -0.25110537 -0.24587443 0.13005863 0.22082795 0.23292936 -0.20997885 -0.15642102
0.118597195 -0.26274467 0.23394868 0.16849479 0.2314775 -0.22168826 0.2424094 -0.023952745
-0.35759047 0.20984346 -0.11555644 0.12823793 -0.089530155 -0.13284534 -0.24355032 0.35181245
0.008218761 -0.20746295 -0.3519177 0.32067513 -0.18362744 0.3146833 0.05821858 -0.080736294
-0.092739806 0.010482423 -0.10696505 -0.04861589 -0.17346987 -0.3939549 0.20665155 -0.43988124
0.27418032 0.1084828 0.26644188 -0.014421886 -0.13153522 -0.18836287 0.38717318 0.16398399
0.2445689 0.15094073 0.033154473 0.39111462 -0.19900733 -0.24871165 0.027953146 0.049364213
0.19587794 -0.1520628 -0.10319058 -0.089702174 -0.04952529 0.058646034 0.23805033 0.32604375
-0.07736861 0.23197088 -0.16643883 0.11617768 -0.017761976 -0.07237982 0.3272873 -0.014454997
-0.22091998 0.35920602 0.011583553 0.3161673 0.1057578 -0.08219813 0.30213767 0.28765246
0.030491069 0.1929181 -0.25611475 0.13455908 0.44129413 -0.27193943 0.043547988 0.02830682
0.008910593 -0.046966996 -0.11514455 -0.13042833 0.09785689 0.21561328 0.03276027 -0.27318427
0.36826667 0.064817704 -0.03459087 0.001091591 -0.15719444 0.10098179 0.13815816 0.31857163
0.09690019 0.0016389851 0.33738342 0.021209005 -0.21217093 0.38555858 -0.11679674 -0.026433013
-0.21782693 -0.18629596 -0.23815814 0.33198082 0.035059426 0.40457904 0.06539715 -0.12353206
-0.24741136 0.33050385 -0.092929244 -0.2994806 0.20862259 0.40331304 0.1750039 -0.0773925
0.0050382083 -0.10752658 -0.0970601 -0.20508158 0.053783692 -0.10024112 -0.023742639 -0.23112452
-0.2358929 0.038163725 0.21903673 -0.14969583 0.2069706 -0.14109209 -0.15769085 0.39836594
00000000: c5e4 cc3c ec2e 5bbe 4631 83be 62bd f1bd
00000010: 6011 383e 89ec 42be 36f3 16be 1da2 59bd
00000020: 4662 91be f7ed 3d3e e716 943d 538e df3d
00000030: 056b 453e 92c1 f3bd 3a6a 54be 323a 17be
00000040: dccf 423e ee33 24be 46cb 78be 6d8d 813e
00000050: 2dfb 353e 0a45 653d 068c 0fbe 7b13 813d
00000060: deda 2a3d 6b19 f3bd 1afb 7c3e f963 823e
00000070: f0b7 56be b759 fabd 3e48 dfbc d0f1 22be
00000080: e5e6 74be 45b3 26be a089 e0bd b44b 2bb9
00000090: b019 5cbe 2c7d cdbd c315 6f3e 42fb 9d3e
000000a0: 7860 14be 48a6 73be a66a 86be 2c80 7ebe
000000b0: 7771 633e f28b 7e3e ce70 9cbd 55cf 893d
000000c0: cac8 8abe 411e 153e 448e 773e ff55 6b3e
000000d0: 2665 953e 71cd 8e3e 65a0 94bd 157c 903e
000000e0: 2baa 51be 0599 c63d 2468 95be 982c f83b
000000f0: 9900 efbd 51e4 423e 3875 263e 302b b3bd
00000100: c5c5 6dbe f745 e0bd 1aed 183e 6742 bebd
00000110: 63ad 77bc c49f f8bd 7717 2fbe 4f2e 693e
00000120: 3e05 7b3e 6b24 ba3e 3274 563e 6cc1 0cbe
00000130: 447c 81be 48bd 03be 1172 11be 54fc 1f3e
00000140: 8f0c 943d 4efd 8c3e 5ab0 7b3e 5a1e 13be
00000150: dc77 583e ec53 6cbe 4444 5c3e 33a3 8bbd
00000160: a646 f2bd 7a6a a33e c9a5 403d 2900 a03e
00000170: 87f7 46be 9320 0c3d 66bf 83be 2e8b 9c3e
00000180: e106 f5bd 3047 38be 93ef 4dbe 4584 cb3d
00000190: 99f9 a73e 01fb cfbd b8e1 f8bd 1772 93be
000001a0: 3e76 e8bd 4fd5 06be 2952 823e 654f 0dbe
000001b0: 62cd 4dbe 8672 933d aef4 6abe 1934 d8bd
000001c0: c89c 8bbe e290 80be 82c6 7bbe 172e 053e
000001d0: b920 623e 0985 6e3e b204 57be d52c 20be
000001e0: 16e3 f23d 7886 86be 3e90 6f3e e689 2c3e
000001f0: 7008 6d3e 3f02 63be 2b3a 783e 8c38 c4bc
00000200: 1916 b7be 34e1 563e dba8 ecbd ce50 033e
00000210: 965b b7bd 9c08 08be 4165 79be c320 b43e
00000220: fba7 063c 2b71 54be 8f2e b4be 882f a43e
00000230: d508 3cbe 2b1e a13e 9b76 6e3d 1259 a5bd
00000240: 5eee bdbd 78be 2b3c 7e10 dbbd 7521 47bd
00000250: 16a2 31be 75b4 c9be 779c 533e 1d38 e1be
00000260: 5d61 8c3e 3b2c de3d 126b 883e c649 6cbc
00000270: 2bb1 06be 32e2 40be 903b c63e 6beb 273e
00000280: 4570 7a3e 3590 1a3e fccc 073d 2d40 c83e
00000290: 94c8 4bbe 44ae 7ebe fffd e43c 2132 4a3d
000002a0: 3a94 483e 5ab6 1bbe 9555 d3bd c6b5 b7bd
000002b0: 08db 4abd d336 703d 77c3 733e 35ef a63e
000002c0: 6f73 9ebd c689 6d3e f16e 2abe 90ee ed3d
000002d0: 9081 91bc df3b 94bd 3392 a73e a7d4 6cbc
000002e0: d938 62be dae9 b73e f1c8 3d3c aee0 a13e
000002f0: 8c97 d83d 7e57 a8bd cab1 9a3e 2f47 933e
00000300: 68c8 f93c 538c 453e 7921 83be dbc9 093e
00000310: 4ef1 e13e a53b 8bbe 605f 323d b4e3 e73c
00000320: bcfd 113c 7760 40bd e8d0 ebbd 018f 05be
00000330: 3169 c83d bac9 5c3e a22f 063d cfde 8bbe
00000340: 738d bc3e 25bf 843d 28af 0dbd b713 8f3a
00000350: 94f7 20be 8acf ce3d 5579 0d3e d21b a33e
00000360: 9b73 c63d 37d3 d63a 85bd ac3e 82be ad3c
00000370: 5643 59be ef67 c53e 2133 efbd 0c8a d8bc
00000380: 060e 5fbe 5ec4 3ebe badf 73be 64f9 a93e
00000390: 799a 0f3d fc24 cf3e f1ee 853d 60fe fcbd
000003a0: 6759 7dbe cd37 a93e b051 bebd 8555 99be
000003b0: 29a1 553e 0c7f ce3e 3934 333e f67f 9ebd
000003c0: 8e17 a53b e536 dcbd 72c7 c6bd e800 52be
000003d0: 4a4c 5c3d 374b cdbd ec7f c2bc e8ab 6cbe
000003e0: e98d 71be 9151 1c3d 2a4b 603e dd49 19be
000003f0: 1af0 533e 727a 10be b679 21be 9ff6 cb3e

fc3.bias f4 [2]
0.009601601 -0.008907123
00000000: 0950 1d3c 2eef 11bc

bn1.weight f4 [128]
0.20856869 0.8540976 0.7057521 0.70604956 0.435005 0.59566146 1.0351534 0.32185954
0.7379661 0.53386253 0.8122838 1.0376015 0.40441966 0.27027005 0.34600893 0.9824563
0.30957615 0.30411926 0.7125275 0.5484632 0.5972271 0.39934048 1.0164634 0.87400687
0.63256514 0.36998147 0.8480442 0.86437136 0.50262415 0.69895893 0.85637903 0.57971895
0.7859985 0.19028 0.36978185 1.1755542 0.4528001 1.1929278 0.2270224 0.8313133
0.5727458 0.7523511 0.14907399 0.939304 0.46283013 0.6061113 1.125086 0.33493876
1.1584951 0.2875968 0.91967034 0.8745634 1.0161604 0.55194867 1.1089733 0.4240674
0.42501664 0.7768121 1.039993 0.47659084 1.0012443 1.0318453 -0.108171344 1.038456
0.4346617 1.0050106 0.9925732 0.42496818 0.30766904 0.44461516 0.4103702 0.9456085
0.62402314 0.33405998 0.6193145 0.630287 0.9588158 0.64541656 1.1331662 0.9940477
0.43400285 0.723638 0.35801354 0.43234447 0.91823876 0.6898639 0.8006881 0.6992618
0.47894973 0.5201889 0.5869965 0.2635585 0.47702682 1.0974805 0.74969757 0.29514053
0.5388209 0.27307218 0.19071424 1.0363337 0.44775143 0.83912903 0.725374 0.2477798
0.32149792 0.8038455 1.0045431 0.6087121 0.6567011 0.50785756 0.98039794 0.2772233
0.88551056 0.44587713 0.17392796 0.6691433 0.7227412 0.329484 0.28568816 0.3887792
0.5028465 0.6726752 0.41015902 0.7911164 0.9500818 0.96649176 0.45264435 0.18448885
00000000: 0893 553e 24a6 5a3f 2bac 343f aabf 343f
00000010: fab8 de3e 457d 183f e87f 843f c6ca a43e
00000020: 59eb 3c3f 37ab 083f d5f1 4f3f 20d0 843f
00000030: 1810 cf3e d660 8a3e 1528 b13e 4282 7b3f
00000040: c480 9e3e 85b5 9b3e 3468 363f 1668 0c3f
00000050: e0e3 183f 5b76 cc3e 791b 823f eabe 5f3f
00000060: caef 213f 366e bd3e 6d19 593f 7147 5d3f
00000070: faab 003f f9ee 323f a83b 5b3f 7668 143f
00000080: 3337 493f c3d8 423e 0c54 bd3e 8f78 963f
00000090: 6ad5 e73e dcb1 983f 8f78 683e f3d0 543f
000000a0: 789f 123f 159a 403f daa6 183e 3a76 703f
000000b0: 12f8 ec3e 1c2a 1b3f d102 903f 187d ab3e
000000c0: 9149 943f e33f 933e 846f 6b3f 63e3 5f3f
000000d0: 8b11 823f 824c 0d3f d6f2 8d3f 5d1f d93e
000000e0: c89b d93e 28dd 463f 7e1e 853f b703 f43e
000000f0: c628 803f 8213 843f f088 ddbd 20ec 843f
00000100: fa8b de3e 30a4 803f 4719 7e3f 6e95 d93e
00000110: cc86 9d3e 99a4 e33e 0b1c d23e 6613 723f
00000120: fbbf 1f3f e909 ab3e 658b 1e3f 7d5a 213f
00000130: f474 753f 053a 253f 970b 913f e979 7e3f
00000140: 9f35 de3e 5740 393f 8d4d b73e 415c dd3e
00000150: b211 6b3f ec9a 303f e5f9 4c3f d202 333f
00000160: e638 f53e 1a2b 053f 6745 163f 24f1 863e
00000170: dc3c f43e 3e7a 8c3f 2eec 3f3f a91c 973e
00000180: 2bf0 093f 1ed0 8b3e 984a 433e 95a6 843f
00000190: ad3f e53e 29d1 563f 1cb2 393f fdb9 7d3e
000001a0: 609b a43e d2c8 4d3f de94 803f 8ed4 1b3f
000001b0: 901d 283f f402 023f 5cfb 7a3f 36f0 8d3e
000001c0: d2b0 623f 024a e43e 2c1a 323e fa4c 2b3f
000001d0: 9105 393f 20b2 a83e b845 923e 110e c73e
000001e0: 8cba 003f 7134 2c3f 5d00 d23e 9b86 4a3f
000001f0: 9038 733f 016c 773f 00c1 e73e a5ea 3c3e

bn1.bias f4 [128]
0.42833132 -0.059958618 -0.09422486 -0.002766192 -0.3040657 0.051955506 -0.12610184 -0.19380274
-0.06986682 -0.14615996 -0.10761017 -0.010270512 0.030939158 0.019953785 -0.101644725 0.055286787
-0.12776734 0.13127747 -0.013544128 0.039820902 0.009317663 -0.057414096 -0.024429826 -0.06770617
-0.1241952 -0.10387857 0.002642961 0.068545476 0.0707248 0.0077905506 -0.07347407 -0.059735525
-0.0013644372 0.22095272 -0.011664228 0.049278 -0.29633948 0.0562116 0.3648513 -0.1159303
-0.0053055803 0.05461741 0.14504114 -0.036645398 0.17516771 -0.013758772 0.061430693 -0.008503052
-0.0381548 0.0648988 0.04003683 -0.07111257 0.014404915 0.061693106 -0.048795037 -0.20220427
0.048053477 0.043319177 -0.05050679 -0.047216646 -0.066042125 -0.093877606 -0.37273148 -0.092635214
0.026034908 -0.045871157 0.013171178 -0.055391576 -0.08638895 0.08903931 -0.1770258 -0.041490797
-0.094627015 -0.17950657 0.056520853 -0.11802671 0.04377541 -0.013014706 -0.0914601 0.016791888
-0.009351314 -0.053336527 -0.13742243 0.03685779 -0.066561766 -0.15132715 0.094843924 -0.021574974
0.008413436 -0.031286404 0.030761458 0.42035675 0.11747297 -0.10896274 0.058621198 -0.15421882
0.01531964 -0.10125916 -0.3091484 -0.054901242 -0.0016360318 -0.09310439 0.00865363 -0.008082249
0.14417303 0.062452015 -0.09377205 0.023656122 -0.036803667 -0.025860062 0.009337989 0.070204966
-0.052888032 -0.016627157 0.037666455 -0.0063741948 -0.056579426 -0.0065208436 0.17986886 -0.029765744
-0.1400563 -0.074717484 0.08073358 0.036035962 -0.060704917 0.0018701026 -0.09771495 -0.18177107
00000000: 3e4e db3e 2b97 75bd f7f8 c0bd 0049 35bb
00000010: 80ae 9bbe 4ccf 543d d720 01be 3a74 46be
00000020: 5616 8fbd f5aa 15be b962 dcbd a645 28bc
00000030: 1e74 fd3c 1f76 a33c 1c2b d0bd 6674 623d
00000040: 71d5 02be 9a6d 063e 31e8 5dbc 3e1b 233d
00000050: 1ca9 183c 0b2b 6bbd 0f21 c8bc 88a9 8abd
00000060: 0e5a febd 4abe d4bd 8735 2d3b 9261 8c3d
00000070: 2ad8 903d e047 ff3b 9379 96bd 3dad 74bd
00000080: ead6 b2ba 6e41 623e 511b 3fbc bad7 493d
00000090: cfb9 97be 223e 663d cacd ba3e dd6c edbd
000000a0: 6fda adbb 81b6 5f3d aa85 143e 7c19 16bd
000000b0: 2a5f 333e 796c 61bc c09e 7b3d 6350 0bbc
000000c0: 3548 1cbd a9e9 843d a9fd 233d 78a3 91bd
000000d0: 9802 6c3c e9b1 7c3d 4edd 47bd a30e 4fbe
000000e0: b9d3 443d 736f 313d 35e0 4ebd 3e66 41bd
000000f0: 1841 87bd e742 c0bd a9d6 bebe 88b7 bdbd
00000100: 2947 d53c 65e3 3bbd edcb 573c 47e2 62bd
00000110: b1ec b0bd 3e5a b63d 4046 35be 41f2 29bd
00000120: cfcb c1bd 92d0 37be 6982 673d fdb7 f1bd
00000130: d84d 333d a23b 55bc 6f4f bbbd 248f 893c
00000140: 4136 19bc 6777 5abd 77b8 0cbe 32f8 163d
00000150: 8951 88bd 81f5 1abe 883d c23d 00be b0bc
00000160: 82d8 093c 2c26 00bd 74ff fb3c 0039 d73e
00000170: ab95 f03d db27 dfbd c81c 703d 8aeb 1dbe
00000180: 3aff 7a3c f660 cfbd b348 9ebe 20e0 60bd
00000190: 1e70 d6ba 84ad bebd f4c7 0d3c 696b 04bc
000001a0: 18a2 133e afcd 7f3d 900b c0bd 7cca c13c
000001b0: 71bf 16bd 7bd8 d3bc 5dfe 183c 9fc7 8f3d
000001c0: 1fa1 58bd ad35 88bc 2448 1a3d 9fde d0bb
000001d0: d4bf 67bd cdac d5bb 8b2f 383e 4ad7 f3bc
000001e0: eb6a 0fbe 7b05 99bd a657 a53d 729a 133d
000001f0: b8a5 78bd 3b1e f53a c71e c8bd 3222 3abe

bn1.running_mean f4 [128]
0.01612738 1.0473586 0.7850329 2.8368313 0.15253173 0.81098306 1.3431859 0.21636026
4.6240263 0.31767786 0.3842176 0.24016473 0.07017505 0.49140406 0.028555429 1.5501773
0.14700286 1.2708591 0.28923887 0.28042442 0.81436515 0.10244199 0.50314265 0.30920178
0.23274621 0.42410788 0.8091615 1.6876229 0.1880833 0.7187166 0.10399643 1.5739173
0.6068266 2.7904046 0.09134187 0.28746137 0.48547253 0.046567947 1.2177616 0.03990411
1.1228392 0.035657953 3.2608402 0.7700267 0.011310805 0.0049042623 0.24256888 0.59673965
0.047828227 0.13688456 0.55284965 1.7777956 0.0081908535 0.3664326 0.5717483 0.8591097
0.056129213 0.96152693 0.8720153 0.11442548 0.27332014 0.18758467 2.2898326 0.38353762
0.5300255 0.14575537 0.7923879 0.004880673 0.49614304 0.9060764 1.904382 0.20950486
0.052585058 0.2994862 1.1301169 0.4305244 0.0971551 0.5737273 0.50645244 6e-45
0.45357397 0.4822547 0.7031515 0.46769625 4.651942 0.64682096 0.33583468 0.9129721
0.40884793 1.2484555 1.432907 0.44427958 0.8425262 0.8357399 0.15764013 0.07321884
0.13664103 2.8177202 0.6495334 6e-45 1.3793582e-05 0.16907516 0.2869916 0.057446912
1.5319691 0.08342512 0.3900274 0.8746348 0.2874082 1.8600795 0.29729107 0.31523353
0.45640945 1.7915882 3.779171 0.0035003682 1.1290225 0.32973236 0.8382702 0.24718376
0.30850816 0.2603128 0.08628264 0.16824955 0.20519039 1.423344 1.7258179 0.59276617
00000000: 911d 843c d90f 863f ebf7 483f a58e 3540
00000010: 4731 1c3e 969c 4f3f 84ed ab3f 8b8d 5d3e
00000020: 06f8 9340 aca6 a23e 2bb8 c43e beed 753e
00000030: f0b7 8f3d 5099 fb3e 13ed e93c 366c c63f
00000040: eb87 163e 83ab a23f 1e17 943e ca93 8f3e
00000050: 3c7a 503f 1bcd d13d f5cd 003f b24f 9e3e
00000060: 0655 6e3e ab24 d93e 3525 4f3f 0704 d83f
00000070: e998 403e d0fd 373f 15fc d43d 1f76 c93f
00000080: fd58 1b3f fd95 3240 7211 bb3d 232e 933e
00000090: db8f f83e 08be 3e3d 9ddf 9b3f 7e72 233d
000000a0: 32b9 8f3f 130e 123d 9bb1 5040 7820 453f
000000b0: f450 393c efb3 a03b fa63 783e eec3 183f
000000c0: 88e7 433d 772b 0c3e 8e87 0d3f ce8e e33f
000000d0: ee32 063c 0e9d bb3e 195e 123f 9dee 5b3f
000000e0: bfe7 653d a126 763f 653c 5f3f e857 ea3d
000000f0: 9ef0 8b3e 3216 403e 9e8c 1240 0b5f c43e
00000100: c0af 073f e540 153e efd9 4a3f 0dee 9f3b
00000110: 7606 fe3e 9ff4 673f cac2 f33f 7188 563e
00000120: 6e63 573d 4156 993e aca7 903f b26d dc3e
00000130: 41f9 c63d cbdf 123f dea6 013f 0400 0000
00000140: d93a e83e 17ea f63e bd01 343f e275 ef3e
00000150: b5dc 9440 0f96 253f 86f2 ab3e 8ab8 693f
00000160: 8454 d13e 64cd 9f3f 7f69 b73f 9d78 e33e
00000170: ccaf 573f 0df3 553f 6a6c 213e c2f3 953d
00000180: a0eb 0b3e 8755 3440 d247 263f 0400 0000
00000190: fc6a 6737 0a22 2d3e 90f0 923e 744d 6b3d
000001a0: 9017 c43f cada aa3d acb1 c73e 11e8 5f3f
000001b0: 2b27 933e 1617 ee3f 8936 983e 4a66 a13e
000001c0: 80ae e93e c352 e53f f0dd 7140 6f66 653b
000001d0: cf83 903f aed2 a83e e098 563f bd1d 7d3e
000001e0: c8f4 9d3e b847 853e f4b4 b03d 9c49 2c3e
000001f0: 6e1d 523e 2330 b63f 9ae7 dc3f 86bf 173f

bn1.running_var f4 [128]
0.011729661 1.562334 2.8959725 6.2345147 0.15365717 2.304001 1.203519 0.13836436
13.190091 0.23914212 0.32665265 0.3789239 0.08168639 0.99963593 0.017331807 0.71141905
0.05977219 4.0007486 0.22226222 0.59737015 1.728733 0.14513977 0.42820817 0.24808086
0.3346032 1.0024176 2.7098048 1.7533524 0.19546244 0.7868494 0.0813778 3.0998652
1.2931185 4.4349675 0.087940544 0.5718507 0.81635815 0.062299337 1.7144446 0.013257181
1.5407755 0.032886766 7.0785284 1.0776315 0.004327266 0.0027367873 0.10854787 1.5488708
0.03504464 0.32909656 1.1727937 1.3389391 0.005175964 0.74831444 0.9323244 1.018359
0.042068273 1.4173352 0.7453045 0.078739114 0.31633842 0.17786343 3.2708235 0.8266058
0.6727924 0.08147008 0.77942395 0.002010635 1.0909446 0.453046 3.7248447 0.27647093
0.05355558 0.45741233 1.5704412 0.75371844 0.043860417 0.5656332 0.56778586 6e-45
0.5653829 0.47182533 2.1121812 1.0501554 13.943076 0.3993747 0.7826888 1.1589345
0.8306385 2.1707788 2.703275 0.9559301 0.74746203 1.4101228 0.11733856 0.059396535
0.23852527 4.714204 0.8367206 6e-45 1.728437e-06 0.21751411 0.40243962 0.049951907
2.0079715 0.06756875 0.32407612 1.3510989 0.36129797 4.6300654 0.2152187 0.6741245
1.2944874 4.7138104 3.5662148 0.0020262592 1.4746002 0.41060176 1.7004573 0.24163584
0.23786053 0.31781334 0.09443814 0.13798404 0.25332397 2.9080331 1.4590222 1.2449237
00000000: c42d 403c 8ffa c73f 9d57 3940 2581 c740
00000010: 4e58 1d3e c174 1340 e90c 9a3f 63af 0d3e
00000020: 9d0a 5341 ace1 743e 043f a73e 5002 c23e
00000030: 324b a73d 24e8 7f3f 6ffb 8d3c 8f1f 363f
00000040: afd3 743d 2206 8040 b598 633e 40ed 183f
00000050: 1f47 dd3f 859f 143e 1a3e db3e e908 7e3e
00000060: 1c51 ab3e 384f 803f 716d 2d40 da6d e03f
00000070: 4e27 483e f66e 493f 67a9 a63d 3164 4640
00000080: e884 a53f 41eb 8d40 2c1a b43d cf64 123f
00000090: d9fc 503f 972d 7f3d ec72 db3f a634 593c
000000a0: 2238 c53f 46b4 063d 4e83 e240 d4ef 893f
000000b0: bdcb 8d3b ac5b 333b 584e de3d 6641 c63f
000000c0: f88a 0f3d 587f a83e 1b1e 963f 5b62 ab3f
000000d0: 229b a93b 8991 3f3f d0ac 6e3f 9659 823f
000000e0: c84f 2c3d 3d6b b53f 47cc 3e3f f941 a13d
000000f0: 1cf7 a13e d521 363e 2c55 5140 709c 533f
00000100: 1f3c 2c3f c9d9 a63d 5488 473f dcc4 033b
00000110: 13a4 8b3f a5f5 e73e db63 6e40 998d 8d3e
00000120: 195d 5b3d f331 ea3e 3804 c93f b1f3 403f
00000130: fba6 333d 56cd 103f 6a5a 113f 0400 0000
00000140: efbc 103f 1793 f13e fa2d 0740 7e6b 863f
00000150: d716 5f41 d77a cc3e 4b5e 483f f757 943f
00000160: baa4 543f 0aee 0a40 7502 2d40 d6b7 743f
00000170: ac59 3f3f e77e b43f 334f f03d c849 733d
00000180: f83f 743e c2da 9640 5233 563f 0400 0000
00000190: a5fc e735 05bc 5e3e 910c ce3e 5f9a 4c3d
000001a0: 9b82 0040 7c61 8a3d 4eed a53e cff0 ac3f
000001b0: 0cfc b83e 7f29 9440 4a62 5c3e 6c93 2c3f
000001c0: c3b1 a53f 89d7 9640 dd3c 6440 fdca 043b
000001d0: b3bf bc3f 653a d23e 96a8 d93f 636f 773e
000001e0: b691 733e 6eb8 a23e c968 c13d b04b 0d3e
000001f0: aeb3 813e 371d 3a40 3dc1 ba3f a959 9f3f
