Weights/checkpoint_Actor.pth (torch_old, 83368 bytes, 10 tensors)

fc1.weight f4 [128, 24]
0	0xbd4c5739	-0.04988787
1	0xbd31fd7d	-0.043454636
2	0x3d9948ec	0.07484612
3	0x3cc70a7d	0.024296993
4	0xbd5cf739	-0.053946707
5	0xbd99f61e	-0.07517646
6	0xbd2bdd67	-0.041959193
7	0xbd87ec66	-0.06636886
8	0x3d92d55a	0.071696
9	0x3da9d030	0.08291662
10	0xbd6f2954	-0.058389023
11	0xbd9258ec	-0.07145867
12	0x3c4c292e	0.01246099
13	0x3cbec462	0.023287002
14	0xbd88cc98	-0.06679648
15	0xbd9957d7	-0.07487457
16	0xbc0577a9	-0.008146205
17	0xbc12d790	-0.008962527
18	0x3d650a9f	0.055918332
19	0xbdc0f3cf	-0.09421503
20	0x3db21512	0.08695425
21	0xbd1eedee	-0.038801126
22	0x3d4b5038	0.04963705
23	0x3d331c6d	0.04372828
24	0xbddc2f5b	-0.1075122
25	0xbdc3c902	-0.095598236
26	0xbc4cce08	-0.012500294
27	0xbca47869	-0.020076947
28	0xbc73a15a	-0.014870012
29	0x3d2f2a1c	0.042764768
30	0x3d2bd8a4	0.04195465
31	0xbd83e18a	-0.064395025
32	0x3a93b31f	0.0011268592
33	0xbdb18717	-0.086683445
34	0xbc5a57e6	-0.013326621
35	0x3d83660c	0.06415948
36	0x3dd1841e	0.102302775
37	0x3ba42fa3	0.0050105616
38	0x3d3d6f9c	0.046249017
39	0xbd84f5a2	-0.06492163
40	0xbdf37b3c	-0.118887395
41	0x3d57db90	0.052699625
42	0xbccdc7ce	-0.025119688
43	0x3caa3258	0.020775959
44	0x3cf27ad6	0.029599588
45	0x3b912501	0.00442946
46	0xbd8b15e9	-0.067912884
47	0x3c8a6a64	0.016896434
48	0xbd1818ce	-0.03713303
49	0xbd87f778	-0.06638998
50	0x3df306d2	0.11866535
51	0x3c43f444	0.011960093
52	0xbd5947e1	-0.053047065
53	0xbc4acaca	-0.01237745
54	0xbd581f7b	-0.052764397
55	0xbd5513a0	-0.05202067
56	0x3d249f6c	0.0401911
57	0x3d06a343	0.032870542
58	0xbd6b4713	-0.05744083
59	0x3d1bcb22	0.03803552
60	0x3b435b3e	0.0029809023
61	0xbdb83102	-0.089937225
62	0xbd85b6b4	-0.065289885
63	0x3d9d54fe	0.076822266
64	0x3da3a269	0.07989962
65	0xbd15b1d2	-0.036546536
66	0xbdca1b28	-0.09868461
67	0xbd26835f	-0.04065263
68	0xbd271ff1	-0.040801946
69	0xbcbd37a0	-0.023097813
70	0x3d16f485	0.036854286
71	0x3d9afa37	0.07567256
72	0x3d14ffa7	0.03637662
73	0x3d2f2c0c	0.042766616
74	0x3bf38305	0.00743139
75	0xbdb60efb	-0.08889576
76	0x3d2a2a81	0.04154444
77	0xbd7fdc56	-0.062465988
78	0x3d80e49e	0.06293605
79	0xbdd31ee7	-0.103086285
80	0xbd74ad9e	-0.059735887
81	0xbc8f0a9c	-0.017461114
82	0x3d90b190	0.07065117
83	0xbd92a71e	-0.07160781
84	0xbccc14dc	-0.02491229
85	0xbd01b3fd	-0.03166579
86	0x3c0f5e0a	0.008750448
87	0x3b8a5268	0.0042212494
88	0x3ce6ede1	0.028189601
89	0x3d02f503	0.031971943
90	0x3d59fa76	0.053217374
91	0x3ccc2000	0.024917603
92	0x3c0ac97a	0.008470887
93	0x3d024bf2	0.03181071
94	0xbd393ce4	-0.045224085
95	0x3d009531	0.03139228
96	0x3d2a7bd5	0.041622
97	0x3d8cea66	0.068806455
98	0xbd35e55a	-0.04440818
99	0x3c0bde81	0.008536936
100	0xbd418cc2	-0.047253378
101	0xbd901f7d	-0.07037256
102	0xbc1abfca	-0.00944514
103	0x3d8e999a	0.06962891
104	0x3d1396bf	0.036032435
105	0xbc859067	-0.016304208
106	0xbd33d1cc	-0.04390125
107	0xbbe509a8	-0.0069896765
108	0xbbe5bb33	-0.0070108413
109	0xb9f6c716	-0.00047069107
110	0x3d47ab36	0.048747264
111	0x3db0494d	0.08607731
112	0x3cf3d095	0.029762546
113	0x3db6d4b7	0.08927291
114	0x3d016acc	0.03159599
115	0xbc6ab1fe	-0.014324663
116	0xbd56f2b5	-0.052477557
117	0xbca572e2	-0.020196382
118	0xbd8ddf7c	-0.06927392
119	0xbc2b59ba	-0.010458404
120	0x3c2c8878	0.010530584
121	0xbbeae8f0	-0.0071688816
122	0xbc14eba0	-0.0090893805
123	0x3d0b62bf	0.03402972
124	0x3ce28d04	0.027655132
125	0xbdc39705	-0.09550289
126	0x3d1db29c	0.038500413
127	0xba374bda	-0.0006992199
128	0xbc283434	-0.010266352
129	0x3c1f3e7f	0.00971949
130	0x3d60e1c5	0.05490281
131	0xbdee7314	-0.11643043
132	0x3e106571	0.14101197
133	0xbd52b029	-0.05143753
134	0x3ca0506c	0.019569598
135	0x3ca499a1	0.020092787
136	0x3d532e33	0.05155773
137	0xbd8eed55	-0.06978861
138	0xbc3dc7f3	-0.011583316
139	0xbd87ab23	-0.066244386
140	0x3dd832a1	0.10556532
141	0xbd29d7ee	-0.041465692
142	0xbd3d0764	-0.046149626
143	0x3ba44c58	0.0050139837
144	0x3d89dcf2	0.06731595
145	0xbc1d4680	-0.009599328
146	0xbd7d6f17	-0.06187352
147	0x3d28f4e1	0.04124916
148	0xbd4389ef	-0.047738966
149	0xbdb744c7	-0.08948665
150	0xbc960e58	-0.018317387
151	0x3c9b8929	0.018986301
152	0x3dac44c3	0.08411553
153	0xbdb638ed	-0.088975765
154	0x3a3d4fb9	0.00072216574
155	0x3cd8429f	0.026398955
156	0xbcaeb801	-0.021327974
157	0x3d447559	0.047963474
158	0x3c8ea7b8	0.017413959
159	0xbc7585ca	-0.014985511
160	0x3d786673	0.06064458
161	0xbd284a00	-0.041086197
162	0xbcea3394	-0.028589047
163	0x3ca7d1c5	0.020485768
164	0xbda986b7	-0.08277648
165	0xbbdea4a7	-0.0067945304
166	0x3afbfb5b	0.001922469
167	0xbd4e07b0	-0.0503003
168	0x3d3f0641	0.046636824
169	0xbce80daa	-0.028326828
170	0xbd3103d5	-0.043216545
171	0x3dc2ffcd	0.095214464
172	0x3d05caf0	0.03266424
173	0xbd6b527b	-0.057451706
174	0x3c7d84e5	0.015473579
175	0xbb6d66a8	-0.0036224518
176	0x3d994d37	0.07485431
177	0xbdb1e23d	-0.0868573
178	0xbda5593a	-0.08073659
179	0x3c13b18f	0.009014501
180	0xbd0de5b3	-0.034642886
181	0x3bea951e	0.0071588894
182	0xbc18c779	-0.009324902
183	0xbd54ad19	-0.05192289
184	0xbcc188d4	-0.023624815
185	0x3d61256b	0.054967325
186	0x3d51cf21	0.051222924
187	0xbd00eaf2	-0.03147406
188	0x3ce9669a	0.028491307
189	0xbdce2394	-0.1006538
190	0xbd6a00db	-0.057129722
191	0x3b37ddb3	0.0028055727
192	0xbcfc86a7	-0.030825926
193	0x3c83dd6f	0.016096799
194	0x3d0a4e9c	0.033766374
195	0x3bfcb400	0.0077118874
196	0xbd059b3d	-0.03261875
197	0xbd8c879e	-0.068618044
198	0xbc87979d	-0.016551787
199	0xbde5c1fd	-0.11218641
200	0xbc57eab0	-0.013178512
201	0xbbcb317f	-0.0062009688
202	0x3dce6045	0.10076956
203	0x3ca95c9d	0.020674044
204	0x3da99030	0.08279455
205	0x3c24b401	0.010052682
206	0x3d9b199f	0.07573246
207	0x3bf7486e	0.007546476
208	0xbc47eab1	-0.012201951
209	0x3d388c51	0.04505569
210	0xbd653a8f	-0.05596405
211	0xbd689e34	-0.0567915
212	0x3bbcd9e0	0.0057632774
213	0x3c1cbc73	0.009566414
214	0xbd76f469	-0.06029168
215	0x3c1abf33	0.0094449995
216	0xbdee11b4	-0.1162447
217	0xbdcfe6d0	-0.10151446
218	0x3cbda221	0.023148598
219	0xbbdff00f	-0.006834037
220	0xbd70b1fa	-0.05876348
221	0x3db535cc	0.088481516
222	0xbbfe150d	-0.0077539743
223	0xbd748e7c	-0.059706196
224	0xbdb90c72	-0.09035577
225	0x3cbf32ef	0.023339717
226	0xbc29a56d	-0.010354382
227	0x3db1aa1b	0.08675023
228	0xbd709929	-0.058739815
229	0x3dbc9bd1	0.09209407
230	0xbd348ef4	-0.044081643
231	0xbca1852c	-0.019716822
232	0x3c712167	0.014717436
233	0x3c8ba33a	0.017045606
234	0xbddb12c6	-0.1069694
235	0x3d018003	0.031616222
236	0x3c74a0b7	0.0149308955
237	0xbcd33d1b	-0.025785973
238	0x3d171571	0.036885682
239	0x3dd21618	0.1025812
240	0xbd1a3082	-0.037643917
241	0xbd7c71b0	-0.06163186
242	0xbd6a3974	-0.057183698
243	0x3ddd3da1	0.108027704
244	0xbcaa5cab	-0.02079614
245	0x3dd0a99b	0.101886
246	0xbc0ceb87	-0.008601076
247	0x3cbb697d	0.02287745
248	0xbbfcaa5d	-0.0077107386
249	0xbd86ad87	-0.065760665
250	0xbd409511	-0.04701716
251	0x3d9375da	0.07200213
252	0xbd6c2511	-0.057652537
253	0xbd81640a	-0.06317909
254	0xbcbf769d	-0.023371989
255	0x3d9c6720	0.07636857

fc1.bias f4 [128]
0	0x3e1356a5	0.14388521
1	0xbe3b47fb	-0.18289177
2	0xbe179024	-0.14801079
3	0x3d24a362	0.040194876
4	0xbc54c200	-0.012985706
5	0x3dbd8516	0.092539
6	0x3d1e0070	0.038574636
7	0x3c4e0088	0.012573369
8	0x3d907592	0.07053675
9	0x3e11a3f4	0.142227
10	0xbe292b87	-0.1652051
11	0xbd810484	-0.062996894
12	0x3e21b3a6	0.15791187
13	0xbe3a79b3	-0.18210487
14	0x3dbaa72f	0.09113919
15	0x3df663d0	0.120307565
16	0x3cc03fec	0.02346798
17	0xbe1954dd	-0.14973779
18	0xbe12360e	-0.14278433
19	0x3ca37461	0.019952955
20	0xbde8f440	-0.11374712
21	0x3d82189a	0.063523486
22	0x3d21b063	0.039474856
23	0x3bcf3ca7	0.006324369
24	0x3e526405	0.20545967
25	0xbe74e49d	-0.23915334
26	0xbe4665d9	-0.1937479
27	0x3e28f0c4	0.16498095
28	0xbd72236f	-0.059115823
29	0xbe573992	-0.21018055
30	0xbdb9c0ec	-0.0907
31	0x3e37c07d	0.17944522
32	0xbd972698	-0.07380408
33	0x3dd78abb	0.105245076
34	0x3e10aaf0	0.14127707
35	0xbd73de0c	-0.059537932
36	0x3dd9b3b3	0.10629978
37	0x3da6dc35	0.0814747
38	0xbe0973db	-0.13423102
39	0xbda36a8c	-0.079793066
40	0x3e0e4099	0.1389183
41	0x3dacf3a5	0.08444909
42	0x3c57976d	0.013158661
43	0xbcc8f6bd	-0.024531716
44	0xbe187325	-0.14887674
45	0xbde3b227	-0.11117964
46	0x3e01db96	0.12681422
47	0xbca16a77	-0.019704087
48	0xbe09c0bd	-0.1345243
49	0x3cfdc463	0.030977434
50	0xbe0aecb6	-0.1356686
51	0x3c277443	0.01022059
52	0x3b3d9c7e	0.0028932388
53	0xbe28e25a	-0.16492596
54	0xbdb96409	-0.09052283
55	0xbe1756da	-0.14779225
56	0xbe0b9bc0	-0.13633633
57	0x3e03b718	0.12862813
58	0x3d3e078c	0.046393916
59	0xbe2e1309	-0.16999449
60	0xbd94fd55	-0.07274882
61	0x3e417c51	0.18895079
62	0x3e2a02bc	0.16602606
63	0xbb9c27f1	-0.0047655036
64	0x3a912eba	0.0011076548
65	0xbe158910	-0.14603066
66	0x3e056af4	0.1302908
67	0xbd876260	-0.066105604
68	0x3ba6b3c9	0.00508735
69	0xbc9205aa	-0.017824966
70	0x3c381185	0.011234646
71	0x3d15408d	0.036438514
72	0xbd2e7479	-0.042591546
73	0xbd40b5d3	-0.0470484
74	0x3d4f8312	0.050662108
75	0xbe24e056	-0.16101202
76	0x3d07a9fe	0.0331211
77	0xbe2d9194	-0.16950065
78	0x3dfe2d3e	0.12410973
79	0x3db6166c	0.088909954
80	0xbd2edcf1	-0.042691175
81	0x3e111eb0	0.14171863
82	0x39833972	0.00025029067
83	0x3e748497	0.23878704
84	0x3d3e9039	0.04652426
85	0x3de4b458	0.1116721
86	0x3d44b7f0	0.04802698
87	0xbdb25230	-0.08707082
88	0xbe4b06ab	-0.19826762
89	0xbdb31864	-0.087448865
90	0x3e3840eb	0.17993514
91	0x3e0526fd	0.13003154
92	0xbdf14bed	-0.1178206
93	0xbdf78bd9	-0.12087221
94	0x3e4e67f8	0.20156848
95	0x3ca8396a	0.02053519
96	0xbe3ce754	-0.1844762
97	0xbd949b07	-0.072561316
98	0x39d5c3a5	0.00040772292
99	0x3a6fa8b5	0.0009142266
100	0xbdb3f74c	-0.087874025
101	0x3d6ef624	0.058340207
102	0xbdc33d9d	-0.09533236
103	0x3d404d1d	0.04694854
104	0xbe06e473	-0.13173084
105	0x3e4cf8ff	0.2001686
106	0x3e39e28f	0.18152831
107	0x3e521475	0.20515616
108	0xbe3ec0aa	-0.18628183
109	0xbda0161e	-0.078167185
110	0xbd47bae8	-0.048762232
111	0xbe4cc6ee	-0.1999776
112	0x3d7f017b	0.06225727
113	0xbdc53ba1	-0.09630514
114	0x3cbcca8d	0.023045802
115	0x3da1d3ef	0.07901751
116	0xbdfb5582	-0.12272169
117	0x3ccc2919	0.02492194
118	0xbda6c246	-0.081425235
119	0x3e25dca7	0.16197453
120	0x3e413f04	0.18871695
121	0xbdaca85f	-0.08430552
122	0xbe1cb4f2	-0.153034
123	0x3e1d58d1	0.15365912
124	0xbdece9e7	-0.11568051
125	0x3e21e018	0.15808141
126	0x3e3861ca	0.18006054
127	0x3da3fc06	0.08007054

fc2.weight f4 [128, 128]
0	0x3d89448d	0.06702528
1	0x3ddae3d9	0.1068799
2	0xbd815b5e	-0.06316255
3	0xbd9b1f7f	-0.07574367
4	0xbda388cb	-0.079850756
5	0xbd3c66b1	-0.04599637
6	0xbd7a1b2f	-0.06106108
7	0xbcf11dd8	-0.029433176
8	0x3d33c64f	0.043890294
9	0x3ccd8193	0.0250862
10	0x3b498791	0.003075097
11	0xbce71bd4	-0.028211512
12	0xbd902768	-0.07038766
13	0xbd02ac9c	-0.031902894
14	0x3d1332c8	0.0359371
15	0xbb10c496	-0.002208983
16	0x3ccef0a3	0.025261229
17	0xbd6cc3e6	-0.05780401
18	0xbb033df0	-0.0020025931
19	0xbb40577b	-0.0029349017
20	0xbcc6b817	-0.024257703
21	0xbd82abd7	-0.06380432
22	0xbc280409	-0.010254868
23	0xbd41088d	-0.047127295
24	0xbd3492de	-0.044085376
25	0xbdefa9c0	-0.11702299
26	0x3d0780ca	0.033081807
27	0x3d73fd5d	0.059567798
28	0xbbc4e7cc	-0.0060090777
29	0xbc816a51	-0.015797766
30	0xbda0d796	-0.0785362
31	0x3cd54d63	0.026037877
32	0xbd94f736	-0.07273714
33	0xbd0b7a41	-0.034052137
34	0x3d0321fb	0.03201483
35	0xbde7e941	-0.113237865
36	0xbd94f6b7	-0.072736196
37	0xbd6559ba	-0.055993773
38	0x3da6700a	0.081268385
39	0xbdbb0e25	-0.09133557
40	0x3d2a4739	0.04157183
41	0x3c976858	0.018482372
42	0xbcb8c41d	-0.022554452
43	0xbd9e3a02	-0.07725908
44	0x3d5eefe7	0.054428007
45	0xbd3fbd5b	-0.046811443
46	0xbcb342fa	-0.021882523
47	0x3d45a43c	0.04825233
48	0xbd20795c	-0.039178237
49	0xbdbd9c3f	-0.09258317
50	0x3bc8623d	0.0061152265
51	0x3c833628	0.016017035
52	0xbe07b5c9	-0.1325294
53	0x3d26e3b5	0.040744502
54	0xbb211fca	-0.0024585598
55	0x3d393262	0.045214064
56	0xbc84d16d	-0.016213143
57	0x3d3d059d	0.04614793
58	0xbdd90a40	-0.10597658
59	0x3c287577	0.010281912
60	0x3da1de29	0.07903702
61	0x3ca1492f	0.019688217
62	0xbd983918	-0.07432765
63	0xbcefa588	-0.029253736
64	0xbcbf591e	-0.023357924
65	0xbca8572f	-0.020549385
66	0x3dc909ce	0.09816323
67	0x3c7d0627	0.015443361
68	0x3d0206f0	0.031744897
69	0xbcf7d83f	-0.030254481
70	0xbcf7a7fa	-0.030231465
71	0xbc91e08d	-0.01780727
72	0xbd2585e4	-0.04041089
73	0xbd355190	-0.044267237
74	0xbd5c8879	-0.053841088
75	0x3dc92af9	0.098226495
76	0xbccd4c22	-0.025060717
77	0x3a838535	0.0010034206
78	0xbcfb3646	-0.030665528
79	0x3d669922	0.056298383
80	0x3d8794b2	0.06620158
81	0xbc988167	-0.018616391
82	0xbd8b378b	-0.06797703
83	0xbd99a7ab	-0.07502683
84	0xbe02bb55	-0.12766774
85	0xbd9e730a	-0.07736786
86	0x3c784ca1	0.0151549885
87	0xbc070750	-0.0082414895
88	0xbd929ce7	-0.07158833
89	0x3ca86f99	0.020561026
90	0x3da4a70e	0.08039676
91	0x3df1f451	0.11814178
92	0x3c7ac0ca	0.015304754
93	0xbdbae7b0	-0.09126222
94	0x3ce648eb	0.028110942
95	0xbd576f8a	-0.052596606
96	0xbc0c2f18	-0.00855615
97	0xbcea6fee	-0.028617825
98	0xbd0a3484	-0.03374149
99	0xbdd34678	-0.10316175
100	0xbcbdcde3	-0.023169464
101	0xbdb83f0a	-0.08996399
102	0xbd6c4462	-0.057682402
103	0xbca654f3	-0.020304179
104	0x3d15dbca	0.03658656
105	0xbd7cb62e	-0.061697178
106	0xbd1e35eb	-0.03862564
107	0xbd4e7ebf	-0.050413843
108	0x3de90171	0.11377228
109	0x3d1e0851	0.03858215
110	0xbad9a8f0	-0.0016606133
111	0x3caa7af6	0.020810585
112	0xbdd253a1	-0.10269857
113	0xbd125963	-0.035729777
114	0xbd87f5c9	-0.06638677
115	0x3d06d260	0.032915473
116	0x3ce8d3b7	0.028421266
117	0xbdbe2c42	-0.09285785
118	0xbd3fb3bf	-0.04680228
119	0xbdb918b5	-0.090379156
120	0xbd4027f3	-0.0469131
121	0xbd9dda3f	-0.07707643
122	0x3b8bd17d	0.0042669163
123	0x3d6bbdad	0.057553936
124	0x3d637045	0.05552699
125	0xbd8c432f	-0.06848752
126	0x3da3fdca	0.08007391
127	0xbd6f7ea6	-0.05847039
128	0x3daf2ce1	0.08553482
129	0xbdc8593a	-0.097826436
130	0xbd8f747b	-0.07004639
131	0xbd781cfb	-0.060574513
132	0xbb1f0e14	-0.0024269866
133	0xbdc56bc0	-0.09639692
134	0xbd080b5d	-0.033213962
135	0xbd9e0193	-0.07715144
136	0xbdafcf78	-0.085844934
137	0xbdfdba67	-0.12389069
138	0xbd9ca5a9	-0.07648785
139	0xbd603fb4	-0.054748252
140	0xbd29a09f	-0.041412946
141	0xbde11f07	-0.10992246
142	0x3d406d6c	0.046979353
143	0x3c4652f5	0.012104739
144	0xbc95c14e	-0.018280651
145	0x3d94dfeb	0.072692715
146	0xbddecb02	-0.108785644
147	0x3d029eaf	0.031889614
148	0x3c6f294a	0.014597246
149	0x3d36d80b	0.04463963
150	0x3d97b096	0.07406728
151	0xbd40f0ad	-0.047104526
152	0x3d495c18	0.049160093
153	0x3dd4db3a	0.10393377
154	0x3dd5c3aa	0.104377106
155	0xbdb9a1ce	-0.09064065
156	0x3d8b7d9d	0.06811068
157	0xbd5c3713	-0.05376346
158	0xbd8706d5	-0.065931
159	0xbd7c6611	-0.061620776
160	0x3c765943	0.01503593
161	0x3da2595a	0.07927199
162	0xbd3594a3	-0.044331204
163	0x3d941738	0.07230991
164	0xbdec63d9	-0.11542482
165	0x3d4ce3c7	0.050021913
166	0x3d4af9ae	0.04955452
167	0x3d0db364	0.03459491
168	0x3ca3aa8c	0.019978784
169	0xbc0d3bc8	-0.00862021
170	0xbc26aa96	-0.010172507
171	0x3df3af92	0.11898722
172	0xbd2db05d	-0.04240452
173	0xbd7c36ac	-0.061575577
174	0xbde75aa9	-0.11296589
175	0x3c5cf74e	0.013486696
176	0xbd6258fc	-0.055260643
177	0x3c88c5b0	0.016695827
178	0xbd31f7f5	-0.04344936
179	0x3da6b5f4	0.081401736
180	0x3d930c91	0.07180131
181	0x3ce6c39c	0.028169446
182	0xbdf4b782	-0.11949064
183	0x3d293d7e	0.04131841
184	0x3dbeca90	0.093159795
185	0xbdb55b76	-0.088553354
186	0x3da0783e	0.078354344
187	0x3dc71b19	0.09721965
188	0xbd44c8ca	-0.04804305
189	0xbd560b18	-0.052256674
190	0x3d25d0ec	0.040482447
191	0xbc07b387	-0.008282549
192	0xbdc7404f	-0.09729063
193	0xbb4b8bad	-0.0031058595
194	0x3c425b76	0.011862626
195	0xbd0466ea	-0.03232471
196	0xbdd3f89e	-0.10350154
197	0xbdb3e8c9	-0.087846346
198	0xbd004e7c	-0.03132485
199	0xbd6adeae	-0.05734127
200	0x3c41f66b	0.011838536
201	0xbcee2630	-0.029070944
202	0xbc338529	-0.010957041
203	0xbc24f009	-0.0100669945
204	0x3c9a52e4	0.018838353
205	0x3c85288e	0.01625469
206	0xbb500d95	-0.0031746377
207	0x3dcfba9c	0.10143015
208	0x3cc69b42	0.024243955
209	0xbd94480d	-0.07240305
210	0x3ca64e3b	0.020300975
211	0x3dbf0217	0.093265705
212	0xbd132986	-0.03592827
213	0x3cd62f5f	0.026145635
214	0x3d028311	0.031863276
215	0xbd2e0b46	-0.04249122
216	0x3d592ade	0.053019397
217	0x3dba8d2d	0.091089584
218	0x3d7cb646	0.061697267
219	0x3e01a9ab	0.1266238
220	0xbd2911d9	-0.041276786
221	0xbd80babc	-0.06285617
222	0x3d895cbb	0.0670714
223	0x3d5cdf69	0.053923998
224	0x3cd79c19	0.02631955
225	0x3d35198a	0.04421381
226	0xbd9ff5c9	-0.07810552
227	0x3e054cf3	0.13017635
228	0x3cfd0c48	0.030889645
229	0x3df15ef5	0.1178569
230	0x3d50942c	0.050922558
231	0xbd574377	-0.052554574
232	0x3d6a1833	0.057151984
233	0x3d5e799c	0.054315194
234	0x3dc56e74	0.09640208
235	0xbd81dc20	-0.06340814
236	0xbd986b79	-0.07442374
237	0xbd73e073	-0.059540223
238	0x3cb3c25a	0.02194326
239	0xbd028cea	-0.031872667
240	0x3cdeeaff	0.027211664
241	0x3c960c06	0.01831628
242	0xbd969328	-0.073522866
243	0xbd202bdc	-0.039104328
244	0x3d082020	0.03323376
245	0xbd918fb6	-0.07107489
246	0xbadd6872	-0.0016892089
247	0xbd92080b	-0.0713044
248	0x3d9243ae	0.07141815
249	0x3d8da465	0.069161214
250	0x3da7fe44	0.08202794
251	0xbd6337f0	-0.055473268
252	0x3d6bfff9	0.05761716
253	0x3d85f1b3	0.06540241
254	0x3d39d7c1	0.045371775
255	0xbdaddbf0	-0.084892154

fc2.bias f4 [128]
0	0x3df3d037	0.11904948
1	0xbca02ad9	-0.019551681
2	0xbc55857b	-0.0130323125
3	0x3db76826	0.089554116
4	0xbd06a476	-0.032871686
5	0xbcbbac70	-0.022909373
6	0x3e1a975b	0.150968
7	0x3dc2f38c	0.09519109
8	0x3df89ac3	0.121388935
9	0x3e1b779b	0.15182345
10	0x3de198eb	0.11015495
11	0x3e15f34d	0.14643593
12	0x3cd0c2ff	0.025483606
13	0x3d37e4fa	0.044896103
14	0x3d6516aa	0.055929817
15	0x3d6061a7	0.05478063
16	0x3e0935ee	0.13399479
17	0x3db71fa1	0.089415796
18	0x3db9aecf	0.09066545
19	0x3df9f205	0.12204365
20	0x3d2e7c37	0.04259893
21	0x3e260a4a	0.16214862
22	0x3dbf769d	0.093487956
23	0x3ddadddb	0.10686847
24	0x3d43306b	0.047653597
25	0xbd3c6f97	-0.046004858
26	0x3c9aa0aa	0.018875439
27	0x3db07423	0.08615901
28	0x3cfa63f5	0.030565241
29	0x3d72e3f6	0.05929943
30	0x3d306e81	0.043074135
31	0xbce130b4	-0.027489044
32	0xbc2b9578	-0.010472648
33	0x3db6fda7	0.08935099
34	0x3bd6c5cc	0.006554341
35	0xbbe1151d	-0.006868972
36	0x3dead5dc	0.11466572
37	0x3d66f052	0.05638153
38	0x3dd400ed	0.10351739
39	0x3e038986	0.1284543
40	0xbd0e30e0	-0.03471458
41	0x3e146bee	0.14494297
42	0x3cd09e94	0.025466241
43	0x3ce43065	0.027855108
44	0x3d6e4151	0.05816776
45	0x3db5cae7	0.08876591
46	0x3d8934a6	0.06699495
47	0x3e12c881	0.14334299
48	0xbd898f81	-0.06716824
49	0x3cf0275d	0.029315645
50	0x3da9db12	0.082937375
51	0x3e0b0a58	0.13578165
52	0x3c44afe7	0.012004829
53	0x3d2dc09f	0.042420026
54	0x3df683d8	0.12036866
55	0x3ddea6ca	0.10871656
56	0x3d482aa9	0.04886881
57	0x3c469749	0.01212103
58	0x3ded3fff	0.11584472
59	0x3c9499db	0.01813977
60	0x3d128e84	0.035780445
61	0xbc1c6e97	-0.009547851
62	0xbc382c04	-0.011240963
63	0x3c72658e	0.01479472
64	0x3e0259f6	0.1272963
65	0xbc058458	-0.008149229
66	0x3e15fb56	0.14646658
67	0x3dcf728a	0.101292685
68	0x3db9aea9	0.09066517
69	0x39e7f700	0.00044243783
70	0x3c9da611	0.019244226
71	0x3dc3d9d8	0.09563035
72	0x3dff7f11	0.12475408
73	0x3b27de98	0.0025614854
74	0x3e0eaf4a	0.13934055
75	0xbcb1f806	-0.021724712
76	0x3dbf0c8c	0.09328565
77	0xbd208fda	-0.039199688
78	0x3deec9c4	0.116595775
79	0x3d186333	0.03720398
80	0x3e2e8031	0.17041089
81	0x3d111768	0.035422713
82	0x3d67c986	0.056588672
83	0x3d49b463	0.049244296
84	0x3d7ef240	0.062242746
85	0x3c77d8d5	0.01512738
86	0x3caa8fba	0.020820487
87	0x3d939651	0.07206405
88	0x3da3b1dd	0.07992909
89	0x3b904120	0.0044022948
90	0x3e15cbb9	0.14628495
91	0x3d971f15	0.07378975
92	0x3e1cc506	0.15309533
93	0x3e3848e2	0.17996553
94	0xbbc63eb7	-0.0060499567
95	0x3dad8bc8	0.08473927
96	0x3d4701e8	0.048585802
97	0x3dcd5673	0.100262545
98	0x3ddf7b52	0.10912193
99	0x3dfaee5a	0.12252493
100	0x3b358db0	0.002770286
101	0x3dc1aaff	0.09456443
102	0x3da21f8f	0.079161756
103	0x3d6a4c9f	0.057201978
104	0x3dc527d1	0.09626735
105	0x3d3a9622	0.045553334
106	0x3c896709	0.016772764
107	0x3d8091bb	0.06277796
108	0x3da2a0b4	0.07940808
109	0x3e099168	0.13434374
110	0xbd07c724	-0.0331489
111	0x3ddcce7d	0.10781572
112	0x3d260b1b	0.040537935
113	0x3d150256	0.03637918
114	0xbb055354	-0.0020343857
115	0x3c959e12	0.01826385
116	0x3d57d6d9	0.05269513
117	0x3dd4a3cb	0.103828035
118	0xbd3430a7	-0.04399171
119	0x3dc83d3a	0.09777303
120	0x3d43073b	0.047614317
121	0x3e0b27cc	0.135894
122	0x3d7bdad4	0.061487988
123	0x3da1fd0c	0.07909593
124	0x3e10a2e3	0.14124636
125	0x3d030c35	0.031994063
126	0x3df3fcf5	0.11913482
127	0x3da07a44	0.0783582

fc3.weight f4 [2, 128]
0	0x3bf3d252	0.0074408436
1	0xbd4f1fda	-0.050567485
2	0xbd626ed6	-0.055281483
3	0xbd538c81	-0.051647667
4	0x3d2676df	0.040640708
5	0xbd4c8626	-0.04993262
6	0xbd7ee5c5	-0.062230844
7	0xbcd6718b	-0.026177188
8	0xbd416efc	-0.047224984
9	0x3d53b311	0.051684443
10	0x3d3748b8	0.044747084
11	0x3d34d2d2	0.044146366
12	0x3d654127	0.055970337
13	0xbd7108dd	-0.058846343
14	0xbd0c7d81	-0.034299377
15	0xbd5fb41d	-0.05461513
16	0x3d50cda8	0.05097738
17	0xbd60c8c6	-0.054878972
18	0xbd4655cd	-0.04842167
19	0x3d76dae5	0.060267348
20	0x3d60ab79	0.05485103
21	0x3cbb7a5a	0.02288549
22	0xbccc4171	-0.024933549
23	0x3d470667	0.04859009
24	0x3d21c604	0.039495483
25	0xbd3870f1	-0.045029584
26	0x3d5c8c28	0.0538446
27	0x3d706d8e	0.05869823
28	0xbd59d5f4	-0.053182557
29	0xbd5bf331	-0.053698722
30	0xbd4f7fdd	-0.05065905
31	0xbd8126ca	-0.063062266
32	0xbd4f9fcb	-0.0506895
33	0xbd300161	-0.042970065
34	0xbd382dc3	-0.044965517
35	0xbcd43e18	-0.025908515
36	0xbd875700	-0.06608391
37	0xbcce8a9e	-0.025212582
38	0x3d563bbb	0.052303057
39	0x3d83338c	0.06406316
40	0xbd145a5c	-0.036218986
41	0xbd586b43	-0.052836668
42	0xbd37a55f	-0.044835445
43	0xbd46e197	-0.048554983
44	0x3d844824	0.06459072
45	0x3d6c4fca	0.05769328
46	0xbd1d7c14	-0.03844841
47	0x3d2ad59e	0.041707627
48	0xbd40f26f	-0.047106203
49	0x3d2dd37a	0.042438008
50	0x3d5836bc	0.052786574
51	0x3d63fae0	0.055659175
52	0x3d6a535e	0.05720841
53	0x3d8098a6	0.062791154
54	0xbd298208	-0.041383773
55	0x3d6c3a78	0.057672948
56	0xbd7c4aff	-0.06159496
57	0x3cbee928	0.023304537
58	0xbd54e868	-0.051979452
59	0x3cb72fee	0.022361722
60	0xbd33108c	-0.043716952
61	0x3d66e500	0.056370735
62	0x3d4c48e3	0.049874198
63	0xbd4004d3	-0.0468796
64	0xbd55bf9f	-0.052184697
65	0xba14570c	-0.0005658723
66	0x3d5bc152	0.05365116
67	0xbd3cd7e1	-0.046104316
68	0xbc3487aa	-0.011018673
69	0xbd69fae2	-0.057124026
70	0xbd83351c	-0.06406614
71	0x3d602305	0.054720897
72	0x3d6f2041	0.05838037
73	0x3d809d50	0.06280005
74	0x3d460ff1	0.048355047
75	0xbd302698	-0.043005556
76	0xbd50b49d	-0.050953496
77	0xba64a5ac	-0.0008722197
78	0xbd3edb11	-0.046595637
79	0x3d77d8a3	0.060509335
80	0x3c8ef486	0.017450582
81	0x3d8be631	0.06831015
82	0x3d5d2272	0.053987928
83	0xbd620c70	-0.055187643
84	0x3d501f39	0.050811026
85	0xbd5f4898	-0.05451259
86	0x3d4afcdb	0.049557548
87	0xbcc3442c	-0.023836218
88	0xbd64525f	-0.055742618
89	0x3d664b50	0.056224167
90	0x3d13f463	0.036121737
91	0x3d694c5c	0.056957588
92	0xbd59303a	-0.053024508
93	0xb985d8ad	-0.00025529173
94	0xbd5ee679	-0.054419015
95	0x3d7d193f	0.061791655
96	0xbd870866	-0.06593399
97	0xbd802f5f	-0.06259035
98	0xbd884020	-0.06652856
99	0x3c90072e	0.017581549
100	0x3d89bdff	0.06725692
101	0xbd03a141	-0.032136206
102	0xbd2a09be	-0.041513197
103	0xbd2c15e5	-0.042013068
104	0xbd8b7329	-0.068090744
105	0xbca7a914	-0.020466365
106	0x3d74db94	0.05977972
107	0xbd77d4c7	-0.060505655
108	0xbd26f35f	-0.04075944
109	0x3c771035	0.015079548
110	0xbd63f1cc	-0.055650517
111	0xbd4a2d30	-0.0493595
112	0xbd583ac2	-0.05279041
113	0xbd5acd0d	-0.053418208
114	0xbd6aa76f	-0.057288583
115	0x3d24226e	0.040071897
116	0x3d5d6f53	0.054061245
117	0x3d79b7ee	0.060966425
118	0xbd369bdc	-0.044582233
119	0xbd609a1c	-0.05483447
120	0x3d5355bf	0.051595446
121	0xbd2f4e27	-0.04279914
122	0x3d79d6d8	0.060995907
123	0x3d4bb67d	0.04973458
124	0x3d7842ac	0.06061046
125	0xbd5253e4	-0.051349536
126	0x3d6d0721	0.057868127
127	0xbc631d1d	-0.013861922
128	0xbd40e69d	-0.04709493
129	0x3d02ccfe	0.031933777
130	0x3b782c9d	0.0037868388
131	0x3c80c1cf	0.015717415
132	0xbca4dfe6	-0.020126294
133	0x3c8776ab	0.016536077
134	0xbdbb0544	-0.09131864
135	0x3d8b65aa	0.068065
136	0x3c6a405e	0.014297573
137	0xbd81e2f5	-0.06342117
138	0xbd8e2fcf	-0.069427125
139	0x3daaf62a	0.08347733
140	0xbd54f269	-0.051988993
141	0x3d546539	0.051854346
142	0x3cbec255	0.023286024
143	0xbc8e1374	-0.01734326
144	0xbd2120a8	-0.039337784
145	0x3c2e3003	0.010631564
146	0xba376d97	-0.0006997226
147	0xbcbe334b	-0.023217818
148	0xbd35c4f0	-0.044377267
149	0xbdb1afb7	-0.08676093
150	0x3d9a82ca	0.07544477
151	0xbdc8a3c7	-0.09796863
152	0x3d6c9c7b	0.05776642
153	0x3cf927ac	0.030414425
154	0x3d107fa9	0.035277996
155	0xbd2355c2	-0.039876707
156	0xbcde15f2	-0.027110074
157	0xbd4d9db8	-0.05019924
158	0x3d7aa0a3	0.06118835
159	0x3d23412c	0.039857075
160	0x3d2a7b10	0.041621268
161	0x3cc2f4b9	0.023798333
162	0x3cc79801	0.024364473
163	0x3daa8204	0.0832558
164	0xbd6071fa	-0.054796197
165	0xbdaba52b	-0.08381113
166	0xbd049a2e	-0.0323736
167	0xbc265b5d	-0.010153619
168	0x3d7cec4b	0.061748784
169	0xbc339aaa	-0.010962168
170	0xbbb98196	-0.0056612
171	0xbaa4d714	-0.0012576305
172	0xbd058217	-0.032594766
173	0xbc25d34a	-0.010121176
174	0x3d20e4a1	0.039280538
175	0x3d83616c	0.06415066
176	0x3c6f7241	0.014614643
177	0x3d24ea3a	0.04026244
178	0xbd7f9bfb	-0.062404614
179	0xbccb5ade	-0.024823602
180	0xbd469a44	-0.048486963
181	0xbd28826b	-0.04114
182	0x3d6870f4	0.056748345
183	0xbcdd5f4e	-0.027022984
184	0xbd7e7fc5	-0.06213357
185	0x3d6e09b9	0.05811474
186	0x3d02748a	0.03184942
187	0x3d9fc69e	0.07801555
188	0x3c37f996	0.0112289395
189	0xbd329c7e	-0.043606274
190	0x3d512d48	0.051068574
191	0x3d707313	0.058703493
192	0x3d36aa21	0.04459584
193	0x3d99b2d3	0.07504811
194	0xbd5ca268	-0.05386582
195	0x3ce8cfe8	0.02841945
196	0x3d6b50b8	0.057450026
197	0xbdab9bbb	-0.083793126
198	0x3c9cc15a	0.019135166
199	0xbd1f8238	-0.038942546
200	0xbd022ad8	-0.03177914
201	0xbd0ee98a	-0.03489069
202	0xbd7ccf95	-0.061721403
203	0xbc9ffe1a	-0.019530345
204	0x3c70f37b	0.014706488
205	0x3cb4fc5f	0.022092996
206	0x3ca69635	0.020335296
207	0xbd9e185a	-0.077194884
208	0x3d9128e7	0.0708788
209	0xbb919abd	-0.004443495
210	0xbd4beb78	-0.049785107
211	0xbb9ef5c7	-0.0048510763
212	0xbd447f88	-0.047973186
213	0x3d51eff5	0.05125423
214	0x3c54fa3a	0.012999112
215	0x3d86a369	0.06574137
216	0x3cb7744b	0.02239432
217	0xbc2539d1	-0.010084585
218	0x3dc7093e	0.0971856
219	0xbd12a897	-0.03580531
220	0xbd718d1b	-0.05897246
221	0x3d96731d	0.07346175
222	0x3bf0371c	0.0073307883
223	0xbcad12cf	-0.021127133
224	0xbd82a481	-0.06379033
225	0xbd4b229f	-0.049593564
226	0xbda32c1d	-0.07967398
227	0x3d3b9fc8	0.045806676
228	0xbd2f6a6b	-0.042826097
229	0x3d4a75bd	0.04942869
230	0x3cc8123e	0.024422761
231	0xbc1cb333	-0.009564209
232	0xbda0e938	-0.07856983
233	0x3d6865ef	0.056737836
234	0xbd2c1dc7	-0.042020585
235	0xbd78c71c	-0.06073676
236	0x3d160448	0.036625177
237	0x3d63e732	0.055640407
238	0x3d67068a	0.05640272
239	0x3b29f5a7	0.0025933774
240	0x3c78c03d	0.015182552
241	0xbd1d5775	-0.038413484
242	0xbc94a77a	-0.018146265
243	0xbd51239b	-0.051059347
244	0x3ac60f7d	0.0015110817
245	0xbd81a6d0	-0.06330645
246	0x3cf7dd0c	0.03025677
247	0xbc86bbce	-0.016446974
248	0xbd60fc93	-0.054928374
249	0x3d178f2e	0.03700178
250	0x3d15e7ae	0.0365979
251	0xbd79cd8b	-0.060987037
252	0x3ca3f3db	0.02001374
253	0xbb2d9e4d	-0.002649206
254	0xbd6fe3ec	-0.058566973
255	0x3d52abbc	0.05143331

fc3.bias f4 [2]
0	0xba5919f3	-0.000828176
1	0xbc2d349a	-0.010571623

bn1.weight f4 [128]
0	0x3c288777	0.010286204
1	0x3f582af2	0.8444053
2	0x3f417cc1	0.75580984
3	0x3f2c8b15	0.6739972
4	0x3d875648	0.06608254
5	0x3f041ea6	0.51609266
6	0x3f8021ab	1.0010275
7	0x3e14beca	0.14525905
8	0x3f390ad8	0.7228217
9	0x3ee7b7a6	0.452573
10	0x3f1834d5	0.59455615
11	0x3f8165a5	1.0109144
12	0x3ea5f639	0.32414415
13	0x3e670b8d	0.22563
14	0x3e3d2d5b	0.18474333
15	0x3f5f5493	0.87238425
16	0x3e2c3bc1	0.1681967
17	0x3e9dbb16	0.30806798
18	0x3f08a87c	0.53382087
19	0x3f06bd49	0.52632576
20	0x3ef7ad10	0.48374224
21	0x3ecf3a80	0.4047432
22	0x3f7a3a66	0.9774536
23	0x3f4b55a5	0.7942756
24	0x3f1c936a	0.61162436
25	0x3e6f210e	0.23352453
26	0x3f5db9f9	0.86611897
27	0x3f47d3a0	0.7805729
28	0x3eadbc5b	0.33932766
29	0x3f0e3717	0.5555281
30	0x3f493625	0.78598243
31	0x3f0ddfc6	0.55419576
32	0x3f483e3e	0.78219974
33	0x3de93b71	0.11388291
34	0x3e8aa537	0.27079174
35	0x3f8f4ccd	1.1195313
36	0x3e667634	0.22506028
37	0x3f65f5de	0.8982829
38	0x3db633d5	0.08896605
39	0x3f349dc1	0.70553213
40	0x3f047dec	0.5175464
41	0x3eee0b02	0.46492773
42	0x3e087181	0.13324548
43	0x3f6acf52	0.91722596
44	0x3e3539db	0.17697851
45	0x3f05f681	0.5232926
46	0x3f76bcd8	0.963819
47	0x3e877e41	0.26463512
48	0x3f7aad14	0.97920346
49	0x3e9b5e62	0.30345446
50	0x3f724c4d	0.94647676
51	0x3f62d508	0.8860631
52	0x3f6efcfe	0.93354785
53	0x3f0c899c	0.54897475
54	0x3f831b63	1.0242733
55	0x3e9ef234	0.3104416
56	0x3e867279	0.2625921
57	0x3f33a18d	0.7016838
58	0x3f69043f	0.91022104
59	0x3e74ae79	0.23894681
60	0x3f752de0	0.95773125
61	0x3f684618	0.90731955
62	0x3d7eeb3f	0.062236067
63	0x3f80df3a	1.0068123
64	0x3e8cda34	0.27510226
65	0x3f5f0698	0.87119436
66	0x3f71fdb7	0.94527763
67	0x3e788212	0.24268368
68	0x3e3f1680	0.18660927
69	0x3e24db0e	0.16099188
70	0x3ec469ca	0.3836196
71	0x3f55cf86	0.8351978
72	0x3eb26be8	0.3484795
73	0x3e4bd501	0.19905473
74	0x3eea4914	0.4575888
75	0x3efa0fba	0.48840123
76	0x3f5398af	0.8265485
77	0x3f02cb56	0.51091516
78	0x3f877b10	1.0584431
79	0x3f6c3bbc	0.9227865
80	0x3e943918	0.2894981
81	0x3f258b6a	0.64665854
82	0x3e8e0903	0.2774125
83	0x3eb8d789	0.3610194
84	0x3f7c7ca2	0.98627675
85	0x3f1678d5	0.58778125
86	0x3f32ebe0	0.69891167
87	0x3f28f8d8	0.66004705
88	0x3ec99cf0	0.39377546
89	0x3ec76b9c	0.38949287
90	0x3f073f23	0.52830714
91	0x3cf296e5	0.029612968
92	0x3e44f36d	0.19233485
93	0x3f84d715	1.0378138
94	0x3f3be27e	0.73392475
95	0x3e274314	0.16334182
96	0x3edac1a7	0.4272587
97	0x3e2d1832	0.16903761
98	0x3d8e8bff	0.06960296
99	0x3f827f45	1.019509
100	0x3ec8995c	0.39179504
101	0x3f5a66a8	0.8531289
102	0x3f18b4a8	0.5965066
103	0x3e1b57ac	0.15170163
104	0x3e1177ed	0.14205904
105	0x3f296220	0.6616535
106	0x3f5863b9	0.84527165
107	0x3f138b71	0.57634646
108	0x3f0f189e	0.5589694
109	0x3eea213d	0.45728484
110	0x3f630ba7	0.88689655
111	0x3e5fb143	0.21844964
112	0x3f6dd4b4	0.92902684
113	0x3eec0ad7	0.4610202
114	0x3e01f9ad	0.126929
115	0x3f222f90	0.63353825
116	0x3f31525b	0.6926629
117	0x3e5a8820	0.2134099
118	0x3e3effed	0.18652315
119	0x3e62481e	0.22097823
120	0x3e847f54	0.25878394
121	0x3f0739b0	0.528224
122	0x3dba9d3d	0.09112022
123	0x3f1f0ff1	0.621337
124	0x3f6d6793	0.92736167
125	0x3f6348b8	0.88782835
126	0x3ec94081	0.39307025
127	0x3df8ac9b	0.12142297

bn1.bias f4 [128]
0	0x3deee58e	0.11664878
1	0xbd27315a	-0.04081855
2	0xbd539df3	-0.051664304
3	0x3b277bf7	0.0025556067
4	0xbdc8cd09	-0.09804732
5	0x3c921a0e	0.01783469
6	0xbd9d0ccd	-0.07668457
7	0xbdac3a71	-0.08409584
8	0xbd39bbd0	-0.045345128
9	0xbd9606e7	-0.07325535
10	0xbda96623	-0.08271434
11	0xbc10f250	-0.008846834
12	0x3c8f7f62	0.017516796
13	0x3bf67e12	0.007522353
14	0xbd62c568	-0.055364043
15	0x3d519629	0.051168595
16	0xbd2a629e	-0.041597955
17	0x3d65b039	0.056076262
18	0xbbc141c4	-0.0058977325
19	0x3cf1ef75	0.029533127
20	0xbbc1d0f5	-0.005914802
21	0xbd26504e	-0.04060393
22	0x3c764e5a	0.015033329
23	0xbbe04401	-0.006844044
24	0xbdb03b1d	-0.08605025
25	0xbd93fad2	-0.072255746
26	0x3c98c1c9	0.018647091
27	0x3d74b063	0.059738528
28	0x3d549c0e	0.051906638
29	0x3c45f4aa	0.012082258
30	0xbd47e990	-0.048806727
31	0xbd145d39	-0.036221717
32	0x3cf1ce76	0.029517394
33	0x3d9b3a4c	0.075794786
34	0xbc1befc9	-0.009517618
35	0x3d2ce908	0.042214423
36	0xbddf4d2d	-0.10903392
37	0x3cf2258a	0.029558916
38	0x3db364cd	0.087594606
39	0xbda51c53	-0.08062043
40	0xbbde4536	-0.006783153
41	0x3d1cf013	0.03831489
42	0x3d62197d	0.05520009
43	0xbcb8cca7	-0.022558523
44	0x3d3e6071	0.046478692
45	0xba3c0638	-0.00071725575
46	0x3d73ec96	0.059551798
47	0x3c1fc5af	0.009751721
48	0xbcf28160	-0.029602706
49	0x3cd85766	0.026408862
50	0x3b872255	0.0041239657
51	0xbd3207be	-0.043464415
52	0x3bba5c94	0.0056873057
53	0x3cc79f7b	0.024368038
54	0xbd0860ce	-0.033295445
55	0xbd9382c8	-0.07202679
56	0x3cdc478f	0.02688959
57	0x3ca0a276	0.019608717
58	0xbb070f70	-0.0020608567
59	0xbc821a9a	-0.015881825
60	0xbd31ab9d	-0.043376554
61	0xbd814197	-0.063113384
62	0xbdd44fb7	-0.10366767
63	0xbd578b9b	-0.052623373
64	0x3d1fb8f4	0.038994744
65	0xbc701833	-0.014654207
66	0x3cd75772	0.026286814
67	0xbd1632e5	-0.03666963
68	0xbd8302b1	-0.06396998
69	0x3d3afbfa	0.04565046
70	0xbd8deb1c	-0.06929609
71	0xbd30e33f	-0.04318547
72	0xbd93fece	-0.072263345
73	0xbd5de827	-0.054176476
74	0x3d0c3892	0.034233637
75	0xbd33fe5b	-0.043943744
76	0x3d1089b5	0.035287578
77	0xbb856c08	-0.004071716
78	0xbd810a19	-0.06300754
79	0x3cbba8c8	0.02290763
80	0xbccb5cf3	-0.024824595
81	0xbcd957a9	-0.026531057
82	0xbda3c580	-0.079966545
83	0x3d08307d	0.033249367
84	0xbd130048	-0.03588894
85	0xbdb3f515	-0.0878698
86	0x3d3f40ec	0.046692774
87	0x3bbaa78e	0.0056962436
88	0xbc33a774	-0.010965217
89	0xbd3685b6	-0.04456111
90	0x3cac62a9	0.021043139
91	0x3ddf3d1e	0.10900329
92	0x3d7f285a	0.06229434
93	0xbd80ab66	-0.06282692
94	0x3d19a6e9	0.037512694
95	0xbdbdb6bb	-0.09263369
96	0x3cb88ab9	0.022527086
97	0xbd5066f4	-0.050879434
98	0xbdd97e36	-0.10619776
99	0xbcfcdf76	-0.030868273
100	0xba84aeb0	-0.0010122862
101	0xbd49bc95	-0.04925211
102	0x3b05c9b5	0.0020414416
103	0xbc2a9c46	-0.010413235
104	0x3d933fb3	0.07189884
105	0x3d565e3a	0.052335955
106	0xbd510d3a	-0.051038004
107	0x3d0c5ff1	0.034271184
108	0xbcfdcecd	-0.0309824
109	0xbc9845bd	-0.018587941
110	0x3ca095f4	0.019602753
111	0x3d006b48	0.03135231
112	0xbcd13d7f	-0.025542019
113	0xbca48436	-0.020082574
114	0xbaada863	-0.0013249036
115	0x3b2652c5	0.0025378924
116	0xbd61bf56	-0.055114113
117	0x3c96c98f	0.018406658
118	0x3da39482	0.0798731
119	0xbcff44c8	-0.031160727
120	0xbda96aa5	-0.08272294
121	0xbd272996	-0.040811144
122	0x3d4369c8	0.047708303
123	0x3ce54d0e	0.027990844
124	0xbd0ab56f	-0.033864435
125	0x3ca274c2	0.019831065
126	0xbd0559fe	-0.032556526
127	0xbd6f9e8a	-0.058500804

bn1.running_mean f4 [128]
0	0x3f8f6bf4	1.120482
1	0x3fddd7d7	1.7331494
2	0x3f1a8fb0	0.603755
3	0x3f45c731	0.77257067
4	0x3e395f3a	0.18102732
5	0x3f4462c0	0.7671318
6	0x3e5ea541	0.21742727
7	0x3e695681	0.22786905
8	0x3febe2f2	1.8428633
9	0x3fe6a849	1.8020107
10	0x3f438415	0.76373416
11	0x3f2488f5	0.6427148
12	0x3fc55cda	1.5418961
13	0x3ecb1771	0.39666322
14	0x3ea28cdf	0.317481
15	0x3faf5acb	1.3699583
16	0x3eeb4b63	0.45955953
17	0x3ed9e254	0.42555487
18	0x3f610665	0.8790038
19	0x3f333942	0.70009243
20	0x3f68ff8c	0.91014934
21	0x3e8215c4	0.2540723
22	0x3f024518	0.5088668
23	0x3f59aebb	0.8503224
24	0x3f688116	0.9082197
25	0x3d860d55	0.06545512
26	0x3f78b9df	0.97158617
27	0x3f893aca	1.0721066
28	0x3f5856f0	0.84507656
29	0x3ee7875d	0.4522046
30	0x3e88b3ac	0.2669958
31	0x3fac811c	1.3476901
32	0x3f95dc00	1.1707764
33	0x3fdca98c	1.7239242
34	0x3ff78c44	1.9339681
35	0x3e0a7d54	0.13524371
36	0x3f9221d5	1.1416575
37	0x3ec9e321	0.39431098
38	0x3f0c32c5	0.5476497
39	0x3e251c05	0.1612397
40	0x3e9e8c6c	0.30966508
41	0x3f4530e6	0.7702774
42	0x3f97c0c4	1.1855702
43	0x3e44913e	0.1919603
44	0x3f7070ec	0.93922305
45	0x3f0adf7d	0.54247266
46	0x3f38f8ea	0.7225481
47	0x3f848754	1.0353799
48	0x3ec66f37	0.38756725
49	0x3f46d487	0.7766804
50	0x400e9e17	2.228399
51	0x3f8882f7	1.0664967
52	0x3dfbb824	0.122909814
53	0x3f88d19e	1.068897
54	0x3f9d8642	1.2306597
55	0x3f05ca4b	0.522618
56	0x3dc6bbe8	0.09703809
57	0x3f4ed00c	0.80786204
58	0x3f06dc04	0.5267947
59	0x3ef64f97	0.48107597
60	0x3f95dc30	1.1707821
61	0x40023355	2.034383
62	0x3fab98b7	1.340598
63	0x3efbd351	0.4918466
64	0x3f787f87	0.9706959
65	0x3fb4deef	1.4130534
66	0x3fe159d4	1.7605538
67	0x3e437af8	0.19089878
68	0x3f15d154	0.58522534
69	0x3f1fa359	0.62358624
70	0x3f8af2e9	1.085538
71	0x3f412e05	0.75460845
72	0x3f05f29e	0.5232333
73	0x3f518d4e	0.8185624
74	0x3fce6c57	1.6126813
75	0x3f836cd8	1.0267591
76	0x3f2debed	0.6793812
77	0x3f01b14e	0.5066117
78	0x3f5dd90c	0.8665931
79	0x3f2c0d84	0.67208123
80	0x3f017498	0.5056853
81	0x40110948	2.2661915
82	0x3f0b20e9	0.5434709
83	0x3f46d4fc	0.7766874
84	0x3fd9e24d	1.7022187
85	0x3f8f15cf	1.117853
86	0x3fa0faca	1.2576535
87	0x3fb60ea3	1.4223217
88	0x3e63af20	0.22234774
89	0x3ec079a7	0.37592813
90	0x4026d413	2.606694
91	0x3f51b2a3	0.81913203
92	0x3e1f6c9c	0.15568775
93	0x3f1ee926	0.62074506
94	0x3f1db7c8	0.6160855
95	0x3ecb95a6	0.3976261
96	0x3da93543	0.08262112
97	0x3fbe19c4	1.4851613
98	0x3f439689	0.76401573
99	0x3d80b2ed	0.062841274
100	0x3d9b2bd6	0.075767204
101	0x3f2982fd	0.662155
102	0x3f6f02b5	0.93363506
103	0x3de02c5a	0.109459594
104	0x3f2d056e	0.6758641
105	0x3ebe923f	0.37220952
106	0x3f0d2623	0.55136317
107	0x40184f7e	2.3798518
108	0x3f2969fc	0.66177344
109	0x3f5ce00e	0.8627938
110	0x3ef67dd8	0.48142886
111	0x3f8963b7	1.0733556
112	0x3f77cee1	0.9680005
113	0x3fb8583a	1.4401925
114	0x3fc40ba6	1.5316055
115	0x3ecf34d0	0.4046998
116	0x3eced50f	0.40396926
117	0x3e531483	0.20613293
118	0x3f3ed0a3	0.74537104
119	0x3f5bf85b	0.85925835
120	0x3ee68bd6	0.4502856
121	0x3e8ea9f7	0.27864048
122	0x3ec9932d	0.393701
123	0x3f44351b	0.7664353
124	0x3ed01d36	0.40647286
125	0x3f3222bd	0.69584256
126	0x3fcd58b6	1.6042697
127	0x3f89feaf	1.0780848

bn1.running_var f4 [128]
0	0x403f511a	2.989325
1	0x4053f173	3.311612
2	0x3fd560f3	1.6670212
3	0x3fb7ebb5	1.4368807
4	0x3e77cee9	0.24200024
5	0x3fe3f66c	1.7809577
6	0x3eb06227	0.34449884
7	0x3ea13acf	0.3149018
8	0x40e3f116	7.1231794
9	0x40309e82	2.7596745
10	0x3fc7bdc8	1.5604792
11	0x3f6d0ed3	0.92600745
12	0x3f5196c4	0.81870675
13	0x3f43c306	0.7646946
14	0x3f091183	0.53542346
15	0x4009b0c2	2.1514134
16	0x3f4b9095	0.7951749
17	0x3f800f37	1.0004643
18	0x3f9450a0	1.1587105
19	0x4008431a	2.1290956
20	0x40074899	2.113806
21	0x3eecd56d	0.4625658
22	0x3f797339	0.9744144
23	0x3fe8d475	1.8189837
24	0x40019c5b	2.0251682
25	0x3d6f0637	0.058355536
26	0x40341eac	2.814372
27	0x402362f5	2.5529149
28	0x4003247b	2.0491016
29	0x3edce909	0.43146542
30	0x3edfd6db	0.4371861
31	0x40477879	3.116728
32	0x40394361	2.8947375
33	0x407efed4	3.9843035
34	0x3f45ada0	0.77218056
35	0x3df18d05	0.117944755
36	0x4004c6c6	2.0746322
37	0x3f24960c	0.64291453
38	0x3f88218e	1.063524
39	0x3e2cee32	0.1688774
40	0x3ed95a05	0.42451492
41	0x3ed96b76	0.424648
42	0x4044b6c8	3.073656
43	0x3e297822	0.16549733
44	0x3fc83adc	1.5642962
45	0x3fa505e9	1.2892429
46	0x3ecb9dfd	0.39768973
47	0x3fa3a9d3	1.2786201
48	0x3e9a0ce8	0.30087972
49	0x4037efbb	2.874007
50	0x408e73ab	4.4516196
51	0x401b1d02	2.4236455
52	0x3df40e22	0.11916758
53	0x401ffa40	2.499649
54	0x3ebfc25d	0.37452975
55	0x3f8aca62	1.0843012
56	0x3db37c0f	0.08763897
57	0x3fb431b6	1.407767
58	0x3f4a214c	0.78957057
59	0x3f3a1d2a	0.7270075
60	0x40036ef9	2.0536482
61	0x40858aba	4.1731844
62	0x40245c23	2.5681236
63	0x3f8317f9	1.0241691
64	0x3fd49c59	1.6610214
65	0x3ffd4b9a	1.9788697
66	0x3f40e57e	0.7535018
67	0x3e46acb7	0.19401823
68	0x3f0252bb	0.50907487
69	0x3f5b010e	0.85548484
70	0x402aded3	2.66985
71	0x3fc6dc40	1.5535965
72	0x3f252cc5	0.6452144
73	0x400ea3ce	2.2287478
74	0x40575e33	3.3651245
75	0x40348d9e	2.8211436
76	0x3ea8c3f5	0.32962003
77	0x3f828bdc	1.0198932
78	0x3fe44ba8	1.7835588
79	0x3fb52ae3	1.4153713
80	0x3f23f082	0.6403886
81	0x3f99de0b	1.2020887
82	0x3f7550f1	0.9582663
83	0x3f93e266	1.1553466
84	0x40a6bb66	5.210376
85	0x3fc7f3da	1.5621293
86	0x408b0c3e	4.3452444
87	0x3f99546f	1.1978892
88	0x3e6ae96d	0.22940607
89	0x3f2117cc	0.62926936
90	0x403f5e84	2.9901438
91	0x3ff0846a	1.879041
92	0x3e05c8c7	0.13064872
93	0x3f51c74d	0.81944734
94	0x3fd872b3	1.6910003
95	0x3f134b62	0.575369
96	0x3db3924b	0.087681375
97	0x3fd37cae	1.6522424
98	0x3fa14978	1.2600546
99	0x3ccbb4c5	0.024866471
100	0x3d8d224b	0.068913065
101	0x3fb9ce81	1.4516145
102	0x4009d03d	2.1533349
103	0x3d83d8c9	0.06437833
104	0x3f15c335	0.5850099
105	0x3eae743a	0.3407305
106	0x3f83a5f6	1.0285022
107	0x3f58ec3f	0.8473548
108	0x3fe1dd84	1.7645726
109	0x3fb20789	1.390855
110	0x3f352268	0.70755625
111	0x4016f4dd	2.3586953
112	0x403e21d1	2.970814
113	0x40ae327c	5.4436626
114	0x409527b7	4.661098
115	0x3f4a10b3	0.7893173
116	0x3f1209df	0.5704631
117	0x3e74f2cb	0.23920743
118	0x3feab084	1.8335118
119	0x3f8116ee	1.0085123
120	0x3f1b17ba	0.6058308
121	0x3f1365e3	0.5757734
122	0x3f26c252	0.6514026
123	0x3ecf63ae	0.40505737
124	0x3f01fcaf	0.5077619
125	0x3f1ecf48	0.62035036
126	0x3ff6a99a	1.9270508
127	0x405abc27	3.417734
